results/ppo/MoveToBall.onnx (onnx, 72799 bytes, 6 tensors)

network_body._body_endoder.seq_layers.0.weight f4 [128, 6]
00000000: dfb1 923e bcdb cabe 5f23 c03e 388f 6a3e
00000010: b693 dcbe a45e 0fbf 3dfa b4be e782 463e
00000020: 9860 cc3e 573b 19be e692 3fbf 7cb0 e03e
00000030: e73b 1d3e 15f5 883e ad44 9c3e eb81 193f
00000040: 5868 893e 7685 a9bd 93fa 5abe 68a7 50be
00000050: 4556 2abf f92b be3e 937d 23be 41b3 ffbd
00000060: 8923 a43f d285 913e 929a 2c3e 5a5a a5be
00000070: f964 9dbe e5cd fd3e 26fe acbc a4e6 123e
00000080: 450b 643e d2eb c03e 84df b53d 6986 aebe
00000090: 3ce5 cfbe c3d8 03be 4cc2 bf3c 59e6 23bc
000000a0: b560 8cbd c776 543d e234 a3bf 039f f1bc
000000b0: c0c2 913e 553c 673e 63a0 0d3f 186d 0d3f
000000c0: bd2c 71b9 4631 fbbe dc85 ab3e 7fed 1abf
000000d0: 28ae 843e b5e1 5abe f451 09be 6dd8 22bf
000000e0: 54a1 303e 6476 1e3f 98d0 053f a222 2a3e
000000f0: 35bb 8a3e 0b46 8abf fd82 8d3f b332 35bf
00000100: 3a73 f6be d1b7 a3bd 9a7b 963e a6a1 a73e
00000110: 92df dcbe 2879 fe3d c477 14be 658d 893e
00000120: afd2 36bf d80c 143e e030 093f 6b76 8d3e
00000130: a7ae 86be 3e9f 153e 80f8 d2be 4538 863e
00000140: 46d3 cbbe 8a43 063f 9004 1f3c 11e8 033d
00000150: c564 493f f232 44be 1442 fd3d 1ca3 ff3e
00000160: 9290 52be fcfa b7bd f267 71bd 4654 443e
00000170: 20bd 003e 2bbf 6ebf 0c15 50be ed00 093c
00000180: 95ba b03d 2c1d c53d 3964 8dbc cd80 23bf
00000190: 0ddc 8a3e 2e61 3f3f ce26 843e 7395 053f
000001a0: 2b8e ab3e 703e 4d3e 6058 fe3d 2780 a7bd
000001b0: afab edbe 6f63 cdbd 3452 833e 9c3b 123f
000001c0: 79c7 76be f15e dc3e e958 803e f62e 863e
000001d0: 80d3 97be 18f7 75be c058 9dbd e0ab 3abf
000001e0: 664a 3cbd 2703 823f 8f69 003f 9c86 b3bc
000001f0: e23d a43d 8d13 38be d2d1 0bbf c748 c83e
00000200: 3173 24bc 892e 6c3f 9bd4 b63d 1f2c 39bd
00000210: 97d5 cfbe ea89 5f3e 7317 35be dc0e b4bb
00000220: 820f f83d cca1 f6bd 5b8c 88be b046 ddbe
00000230: f979 363e 9564 19be 60be 233f 02f1 b4bd
00000240: a5cb 833e 340f 2b3f c26e eb3d a500 fbbd
00000250: 5380 a5be f4d1 b93e 242f 433f 12cc d63b
00000260: 9159 303e 35f7 173f 8d06 5fbc 5198 6c3d
00000270: 1c21 4c3d fd7a 9bbe a65e 243d cead 143e
00000280: b955 243e 942a 2cbf 8da6 8d3e 28ba 0abf
00000290: 2921 9b3d f03e 79be 9069 043f f0ff c43e
000002a0: 56f2 c2be 24c7 883d b3a6 73be df3f b3be
000002b0: 4db1 9cbd 88cc 633e 8476 763f 1b96 c0be
000002c0: 61fb 0bbe 7308 dc3d 3a1b 10be 42e0 283b
000002d0: d261 38bc ed05 b0bd 24a6 903f 9b0a b7be
000002e0: cc3b 96be a4ab 843e 48cf 79bf a20f 183d
000002f0: 1533 89be 5162 cabe 18fe 9bbd ec8f cabc
00000300: 3229 07bf ddf9 5fbe 50a4 6d3e 57a2 313f
00000310: a46a 6ebe 73bc 2fbf 4b60 8a3e 3ef8 c2be
00000320: 0a17 ff3e c898 613e 47b3 193e 86ef 18bf
00000330: 3b9b 0dbf b68a d23e 9b50 ad3e e1df 643e
00000340: 5897 7fbd 66ae dfbd 43ba f83e 309e 3cbe
00000350: 2663 09bf a458 96be 7e0f 293f d553 54bd
00000360: 6835 903e a22b 8a3e 76a9 b63e b12d b9bd
00000370: 0dd8 acbe 4e1f 7f3c aaba 583e a1a5 26bf
00000380: 812a 343e f543 1e3e d013 ef3e d0ea 313e
00000390: 5050 163c e0c4 003e 09e9 253e 4fd7 943d
000003a0: 529c 173f ab80 443f 7714 4fbe 96dc 8f3d
000003b0: 4a78 a43e 29dd 413f e310 f1bd 0fa5 15be
000003c0: 7fcc 213e 1d29 eebc 8f7f 6f3d 5342 6d3f
000003d0: ea63 8e3e f4b2 7bbe a441 c0be 9c04 73be
000003e0: 1c0a f43e 9e84 a63e 3028 d53d 31f4 07be
000003f0: 0d10 2abf 3aa2 e83e 8173 d7bd ec5b ec3e
0.2865133 -0.3962077 0.37526986 0.22906196 -0.43081445 -0.56003785 -0.35347167 0.19385873
0.39917445 -0.14964043 -0.74833524 0.43884647 0.15354882 0.26749483 0.30521145 0.59963864
0.2683742 -0.08277409 -0.21384649 -0.2037636 -0.66537887 0.37142923 -0.15965872 -0.12485362
1.2823344 0.2842241 0.16855839 -0.32295495 -0.307411 0.49571148 -0.021117281 0.14345795
0.22269924 0.37679917 0.08880523 -0.34086922 -0.4060458 -0.12875657 0.023408078 -0.01000365
-0.06854383 0.051871087 -1.2750514 -0.029494768 0.28468895 0.22581609 0.55322856 0.5524459
-0.00023000217 -0.4906103 0.33500564 -0.6051864 0.2591412 -0.21375163 -0.13410169 -0.6361149
0.17249042 0.618994 0.52271414 0.16614774 0.27095953 -1.0802625 1.10556 -0.70780486
-0.48134786 -0.079940446 0.29391176 0.32740515 -0.4313932 0.124254525 -0.14498812 0.26865688
-0.7141523 0.14458025 0.535902 0.27629408 -0.26305124 0.14611527 -0.41205215 0.26214805
-0.39809626 0.52446806 0.009705678 0.032203738 0.7866939 -0.19160059 0.12366119 0.4992913
-0.20562962 -0.08983418 -0.05893702 0.19172773 0.12572145 -0.9326045 -0.20320529 0.008362037
0.08629338 0.09624705 -0.017259704 -0.6386841 0.2712101 0.7475766 0.25810856 0.52181166
0.33506903 0.2004335 0.124192 -0.0817874 -0.46420047 -0.10028731 0.25648654 0.57122207
-0.2409953 0.43041185 0.25067833 0.26207703 -0.2965355 -0.2402004 -0.07682943 -0.7291851
-0.04596939 1.0157212 0.5016107 -0.021914773 0.08019616 -0.17976208 -0.54617035 0.39118025
-0.010037229 0.92258507 0.0892727 -0.045208093 -0.40592644 0.21829954 -0.17684726 -0.0054949354
0.12112333 -0.12042579 -0.26669583 -0.43217993 0.17819966 -0.14979775 0.63962364 -0.08835031
0.25741306 0.66820073 0.11495735 -0.12255982 -0.32324466 0.36292994 0.76243806 0.006555089
0.17221667 0.59361583 -0.013612402 0.057762448 0.049836263 -0.3036727 0.040129326 0.14519426
0.16048326 -0.6725247 0.2766613 -0.541903 0.07574684 -0.24340415 0.51723576 0.38476515
-0.38075513 0.06678608 -0.2379406 -0.35009667 -0.07651005 0.22245991 0.9627459 -0.3761452
-0.13670112 0.10743799 -0.14072886 0.0025768434 -0.011253791 -0.0859488 1.1300702 -0.3575028
-0.29342496 0.259122 -0.9758191 0.037124284 -0.26796785 -0.39528134 -0.07616824 -0.02472683
-0.52797234 -0.21872659 0.23207211 0.69388336 -0.23282868 -0.68646926 0.2702659 -0.3808002
0.49822265 0.22030938 0.15009795 -0.59740484 -0.5531499 0.41121453 0.3385056 0.22351028
-0.062400192 -0.10921936 0.48579606 -0.18419719 -0.53666914 -0.29364502 0.66039264 -0.05183776
0.28165746 0.26986414 0.35676163 -0.09041918 -0.33758584 0.015571428 0.21164957 -0.6509648
0.17594339 0.15455611 0.46694803 0.1737473 0.009174421 0.12575102 0.16202177 0.07267629
0.592229 0.7675883 -0.2022265 0.07024495 0.32123023 0.7572809 -0.11770799 -0.14613746
0.15800665 -0.029072339 0.05847126 0.9267933 0.27810603 -0.24579984 -0.3755008 -0.23732227
0.47663963 0.32523054 0.10408056 -0.13276745 -0.6643074 0.4543627 -0.105200775 0.4616388

network_body._body_endoder.seq_layers.0.bias f4 [128]
00000000: cbcb dfbc 3823 263c 6b2c f1ba 96e9 0c3c
00000010: ad1e b13c a818 593c eded f8bc 4036 1a3d
00000020: 1435 173d 978c fd3c 05ad 193c a2ef b53b
00000030: e4c4 f93c 1762 2c3a cbfa 9f3c 1738 a83c
00000040: 546a a73c c527 a5bb 0437 aabc 0851 12bc
00000050: 5e7f a4bc cb00 2d3d 8973 5b3c 78c5 4c3d
00000060: 669f d83a cb0d dc3c 5c38 e43b 98db 4c3d
00000070: d983 a9bc ad75 5a3c 8ec3 83bc df55 a33b
00000080: 109a 353d a75c 093c 4757 e43c d18a b23c
00000090: ef15 dc3b 80a6 d13d a34e e43b 667b 94bc
000000a0: 0538 a23c 646d c93c 0c29 5b3c 314e 9abc
000000b0: 9f3e 58bc b840 a53c a411 343c e07e 773c
000000c0: 13cd 6dbc 26fb 84bd b793 e73c 0747 a8bc
000000d0: 7fba 10bd 5004 ac3c b5bb 923b aa83 e53c
000000e0: 6fca b93c b868 9cbc cae1 613d 2b92 e1bb
000000f0: 6d5c 1b3d 07d0 6c3d 7d88 eebc 9b3d 8d3d
00000100: 50ed 5d3d 2700 543d 3994 7f3c 1a29 333c
00000110: 877c b1ba cfe8 f43c 46f2 d23c 49ec c03c
00000120: ce47 3fbc f3d5 76ba 3da3 e83c 4a2e 31bc
00000130: 6362 0bbd 06e6 98bc d13e 393d 21ef 9e3d
00000140: a635 723c 2bcc 67bd d1a9 4a3c 1f4f 513d
00000150: ffb3 79bd aca5 773d e00c 7cbd 1c9f a53d
00000160: 21e1 803d 2fe9 8cbb 3f4b 15bd 54bb c6bc
00000170: 9771 08bc 1450 96bb b9a0 163c df7b 86bd
00000180: a3fb 853c de6e b1bc 1bb8 3c3d b28b 20bb
00000190: b5f4 b8bb 85a4 463d aa75 e5bc 58fc fc3c
000001a0: 1799 9f3c 4664 933c 9c01 013d 0059 4c3d
000001b0: 624a bf3c feb6 da3c a998 423d c112 d73c
000001c0: d5d5 48bb 18e0 a53c fd8c 20bc 860e 0e3c
000001d0: 6920 23bd 1d0a 89bd 0700 a73b 7e1d 9f3b
000001e0: be35 a23c 69d1 c1bc 86cf 933d a62e 183d
000001f0: df2f 013d 9fe5 313c fa54 383d 2f13 8ebc
-0.027318856 0.010140233 -0.0018400078 0.008600613 0.021621073 0.013250507 -0.03038689 0.037649393
0.036915854 0.030950828 0.00937963 0.005552248 0.030489393 0.0006575896 0.019528767 0.020534558
0.020436443 -0.0050401413 -0.020778187 -0.008930452 -0.020080265 0.042237084 0.013394245 0.04999301
0.0016526997 0.026862046 0.0069647264 0.05001411 -0.020692753 0.01333372 -0.016084459 0.004984602
0.04433638 0.008383906 0.027873648 0.021794708 0.006716482 0.102368355 0.006967382 -0.018125247
0.019802103 0.024588294 0.013376486 -0.018836113 -0.013198524 0.020172462 0.010990534 0.015105933
-0.014514226 -0.06493215 0.028268678 -0.020541681 -0.035334107 0.02099815 0.004477943 0.028016884
0.022679536 -0.019092903 0.05514697 -0.0068838797 0.03792994 0.057815578 -0.029117817 0.06896516
0.054181397 0.051757958 0.015599304 0.010935092 -0.001354114 0.029896168 0.02575029 0.02355017
-0.011674834 -0.0009416036 0.02839815 -0.010814259 -0.034029376 -0.018664371 0.045225922 0.07760454
0.014783299 -0.056591194 0.012369589 0.051100846 -0.060962673 0.06046073 -0.061535716 0.08086988
0.0629294 -0.0043002586 -0.036448713 -0.024259247 -0.008327863 -0.004587183 0.009193593 -0.06566595
0.016355341 -0.02165931 0.046074014 -0.0024497327 -0.0056444057 0.04849674 -0.028010208 0.030882046
0.019482179 0.01799215 0.031495675 0.049889565 0.023350898 0.026698586 0.04750887 0.02625406
-0.0030645032 0.020248458 -0.009799239 0.008670455 -0.03982583 -0.06691382 0.005096439 0.0048558107
0.019801017 -0.023659425 0.07217316 0.037153862 0.031539794 0.010857969 0.045002915 -0.017343132

network_body._body_endoder.seq_layers.2.weight f4 [128, 128]
00000000: de4f 4dbb c884 03be d5e2 b6bd 819f adbd
00000010: ae77 363d 3e5c e83d a3b1 fabd 71d3 513e
00000020: 6461 24be 4dcf d9bd fa7e 64bd 82a7 44bd
00000030: dd47 0bbe f1cd cfbd 6e35 59bd d423 c93d
00000040: e7fd 823e 84ec 063e 04d3 0dbe d28c 173d
00000050: 052f 20be 22c9 5a3e 7e1d 68bb 6746 213e
00000060: c430 aabd c336 24bd e212 69bc 8409 af3d
00000070: ce71 083d 117a 99bd be78 83bd cdf0 fcbc
00000080: 1545 acbd f8c2 943d b2aa 04be 13fc a73a
00000090: 8187 22be 3ea6 433d 1bca babd 6ffa bcbd
000000a0: 17a5 f3bc 7da5 2a3c 8953 82bc 3483 b3bd
000000b0: 5d46 1dba b9fe a13d de8b 8cbd be8c 98ba
000000c0: 1f79 33be 928e a63c 2348 a4bd 05b5 8ebc
000000d0: cc02 e13d 8897 11be e389 3fbd f89a f0bd
000000e0: 4add 553d aa8e 513c 49c4 00bc 5b3b 79bd
000000f0: ee6e 3b3c 80d9 be3d 4f5d 143c cb2c b7bd
00000100: eb56 04be d107 10bc be61 f4bc 5dbf 4dbd
00000110: bd84 0f3e 8c26 833c b0db ef3d 1fb3 9b3d
00000120: 57fa 5fbd d980 2fbd f880 0cbd 0981 89bd
00000130: 2ef3 7dbd fe1f ddbd 8a23 af3d 5be0 153e
00000140: 399b 373c 937a 9bbd d8e5 2d3e 7a9c 8c3d
00000150: 0af5 d9bc 2f8b 803d b2a4 f6bb 4f0a 573b
00000160: 9095 a0bd 5552 0cbe 13f1 08bc bb6c c13c
00000170: 1a6e cdbd 036f 16bd 1bc9 6a3d 6231 7f3d
00000180: 6771 10be 9b27 093e 17e9 1ebd 6c23 9cbc
00000190: ff97 77bd ed8b 763c de36 44be 11b1 7ebd
000001a0: 5749 303e 9ff9 53bc 5e8b 2cbd f69b 2bbc
000001b0: 6537 0c3e 13c2 f23d 8551 f23a c19b 293e
000001c0: 326c 1a3d 316e 223d 084f 07bd ef6e d53b
000001d0: 58ee 7ebc 3fbc b9bc 978e a63c a044 183c
000001e0: 8f61 d43d 3728 3bbe cdc2 61bd 1ad0 eebc
000001f0: e10a a63d 39d0 91bd c0e6 fa3d 9a63 5dbd
00000200: 9a49 feb9 aed4 b43d 5bf2 a7bb 89a8 c93b
00000210: 388d 96ba 16d2 3dbd 0373 da3c bfc4 96bd
00000220: bea1 0bbd ceae 733c 952e 673c f775 073d
00000230: 3126 c8bd 2361 fbbc 2c51 d7bc f29a 833d
00000240: 5f02 0d3c df91 5b3e 29d0 ffbd 310b de3b
00000250: 7c19 66be c1de 58be b0e3 a6bc 375c 4dbc
00000260: bb95 19bd 73cf c0bd 82a9 863d fcde 1ebe
00000270: 4041 49bd e576 aa3c 38e8 44bd 82fa 233e
00000280: cb0e 84bc 70e8 90bd b3c8 d63d ddf8 03be
00000290: c91c 553d 7cbf 08bc ca83 65be 5d44 87bb
000002a0: 1ff9 f5bd 7556 0c3d 1dcc b53d ec49 0fbd
000002b0: 929b 5bbe 6f4d ee3d 9d41 aebd 97f2 c53d
000002c0: 6bc4 073e 01d1 d33d 8e3c ccbd 2490 fc3d
000002d0: bec4 d63d e7df a0bd abf2 803d 3fec be3c
000002e0: ae2e 33be 5cfa a9bd 4acd 67bc 2e6e a1bd
000002f0: 7759 85bb 48d7 f53c 392d 76bd 231a 933d
00000300: cfb5 e63c e178 11be 1d5b 453d 3ac1 e03d
00000310: cd58 7f3d 241f 8abd a6c2 cb3d 994a 2dbe
00000320: 639c dc3d b2f4 c93d 3fb6 1cbe d6fc e4bc
00000330: b9a1 a73d 8f06 813d c285 993b de3d 04bd
00000340: 5c0d a6bc b9ef 2ebe fa71 313d 7478 a3bd
00000350: b7fe c0bd fdc9 0d3c 352c 983c 4483 0ebe
00000360: d63e 603d fff4 ce3d c2b7 5cbd 08d2 2d3c
00000370: 679d 333e 1742 0c3b 445b 0bbe e835 11be
00000380: a123 d73d 946a 2a3b d756 f73d d4ae 02bd
00000390: e56c 413d dcf3 1bbc 6186 d7bd 0145 b1bd
000003a0: d3ad cfbd e225 51bc 37f8 79bd cbc1 d2bd
000003b0: 3059 893d ca79 a1bd f5eb d93d fb35 c0bd
000003c0: 284e 153e d940 853d bfa1 5ebc 3640 0d3e
000003d0: b1e2 2f3c 161f d83d c957 2a3d dcff 853d
000003e0: 4a07 1abe 8d79 12bc c82d 05be 4398 eabc
000003f0: 9d4a 193d 9a77 453d c4ee 8c3d eae9 81bd
-0.0031328122 -0.12843621 -0.089299835 -0.084776886 0.04454773 0.11345719 -0.12240913 0.20490815
-0.16052777 -0.106352426 -0.055785157 -0.04801131 -0.13601632 -0.10146702 -0.05302947 0.09821287
0.25584337 0.13176161 -0.13850027 0.03699953 -0.15642937 0.21365789 -0.003541797 0.15749513
-0.083100826 -0.040091287 -0.014225693 0.08546737 0.033311658 -0.074939854 -0.06419514 -0.030876542
-0.08411614 0.0726375 -0.1295574 0.0012816213 -0.15872003 0.047765963 -0.0912058 -0.09227454
-0.029741807 0.010415432 -0.015908973 -0.087652594 -0.00059995597 0.079099126 -0.06862615 -0.0011638624
-0.17526673 0.020331655 -0.080215715 -0.017420301 0.109868616 -0.14217961 -0.04676236 -0.11748308
0.05221299 0.012790361 -0.007859298 -0.06084762 0.011440022 0.093188286 0.00905545 -0.089440905
-0.12923782 -0.008790926 -0.029831763 -0.050231326 0.1401548 0.016009592 0.11711824 0.07602524
-0.054682102 -0.042847488 -0.03430268 -0.06714065 -0.061999492 -0.10797118 0.085517004 0.14636366
0.011206442 -0.075917386 0.1698221 0.06865783 -0.026606102 0.06276547 -0.0075269574 0.003281254
-0.07841027 -0.13703282 -0.008358258 0.023611417 -0.10030766 -0.036726963 0.057320695 0.062302954
-0.1410576 0.13394015 -0.03879651 -0.01905986 -0.06044769 0.015048009 -0.19161555 -0.062180582
0.17215477 -0.012937932 -0.0421251 -0.010474196 0.13693006 0.11853423 0.001848743 0.16563322
0.03770084 0.039655868 -0.033034354 0.0065134685 -0.015559755 -0.02267277 0.020331664 0.009293705
0.1037017 -0.1827706 -0.055117417 -0.029151965 0.08107544 -0.071197934 0.12251043 -0.054050066
-0.00048501493 0.08829628 -0.0051253266 0.006154124 -0.0011486178 -0.04634293 0.02666617 -0.07361745
-0.034089796 0.01487322 0.014110227 0.033071484 -0.097729094 -0.030685967 -0.026283823 0.06426038
0.008606522 0.21442364 -0.12490875 0.0067762365 -0.22470659 -0.21178724 -0.020372242 -0.012534193
-0.03749631 -0.09414568 0.065753 -0.1551475 -0.049134493 0.020808646 -0.048073024 0.1601353
-0.016120335 -0.07075584 0.10487499 -0.12887903 0.052029405 -0.008346435 -0.22413555 -0.0041280226
-0.12010407 0.03426214 0.08876822 -0.034982607 -0.21446064 0.11635863 -0.085086085 0.09665411
0.13258521 0.10342599 -0.099724874 0.1233218 0.10486744 -0.07855206 0.06296285 0.02330601
-0.17498276 -0.082997054 -0.014148066 -0.07882343 -0.004069503 0.03000988 -0.06010172 0.071827196
0.028162865 -0.14206268 0.048182596 0.10974355 0.062340546 -0.06744221 0.099492356 -0.16922988
0.10772016 0.09861125 -0.15303896 -0.027952593 0.08185143 0.06300079 0.0046851346 -0.032285564
-0.020270042 -0.17083634 0.043321587 -0.07981959 -0.09423583 0.008654115 0.018575767 -0.13917261
0.054747425 0.10105323 -0.053886183 0.010609157 0.17540513 0.0021401697 -0.13609034 -0.1418072
0.105048425 0.0026003467 0.1207711 -0.03190501 0.04722299 -0.00951859 -0.105236776 -0.086557396
-0.10140576 -0.01276538 -0.06102773 -0.10290869 0.06706464 -0.078845575 0.10640708 -0.09385296
0.14580595 0.06506509 -0.013588368 0.13794026 0.0107352 0.10552804 0.041587625 0.06542942
-0.15041843 -0.008940113 -0.13005745 -0.028637057 0.037424672 0.048209764 0.068814784 -0.06343444

network_body._body_endoder.seq_layers.2.bias f4 [128]
00000000: 2f71 1f3d 55ec c83b a5f6 a63c a96a f53a
00000010: b4a1 213d baa1 9a3b 6845 923b f01a 7c3c
00000020: b4bc 553b 86e1 593c da93 e9bb 364c 013b
00000030: 46de 0d3c 3cb2 a33c ac8a 6c3b cbe7 e63a
00000040: b294 c73b 5828 a9bc bcc7 f13c cef9 35bb
00000050: f250 fb3c e216 7d3c cd48 333c 9475 ad3b
00000060: 056a 923b b775 f13b 0a6d 143c ca37 bebb
00000070: 1afb a8bb 0050 fd3c c081 fc3c d85a 4c3c
00000080: e253 42bb c34d 833c 4400 0e3c 2cec 213c
00000090: 2005 6a3b 8a86 ac3c d998 163d 407e 903c
000000a0: f018 ecba 7761 9d3c c44c 1c3d 03eb 893c
000000b0: cf45 d93b ecdd e33c 70a7 893c 35db 3b3c
000000c0: 9992 d2ba 42db 923c 31bf 813c 1acb 8cbb
000000d0: 4220 7dbb 94dc c93c ec73 da3c c2bc 103d
000000e0: c73d ca3c f872 b93c 2072 4b3c 0a57 7cbb
000000f0: b767 2e3b 6d2a a73c c7a8 303c e964 9c3c
00000100: 1179 b73c 482d 97bb bfdf 143d 501b a7bc
00000110: f52c 19bb dc2b be3c 592e c03c 57dd 0a3c
00000120: 508d 793b 3f28 1f3d 2c73 913c 0058 cebb
00000130: fc29 9f3c 8e14 c1bb 8427 a63b 6af7 c63c
00000140: c0fb 7d3c 117c 35bb d756 f939 c044 11bb
00000150: 2801 ce3a dbb3 9bbb 223c 3fbc 8f7d 13bc
00000160: 0476 f93b ed71 1c3d 96ed 293d 431c d83b
00000170: ff7b c0bc da24 a0bc ffcc c33c 9823 8b3c
00000180: 3299 0fbb 951b 89ba aea8 103d e21f 01bc
00000190: bbdc 41b9 7d14 813a eb1e 4ebb d244 ff3b
000001a0: d110 943c 57b5 6d3a a967 4b3c 447f 243c
000001b0: 33d4 1039 8ef0 673b 9eec fc3c 0f23 a1bb
000001c0: 865d d43a 11a8 b2bb 5833 093d 645d cd3c
000001d0: af69 1c3d 6561 1a3c 542f 3d3c 5ef4 b63c
000001e0: 3e36 e93c d995 773d 2690 933c 1307 983c
000001f0: e656 ffbb 8b94 633c 4126 b33c 8837 843c
0.0389263 0.0061316886 0.020381281 0.0018723804 0.039460853 0.0047189863 0.0044638403 0.015387282
0.0032613697 0.013298398 -0.007128221 0.0019729263 0.008658951 0.01998245 0.0036093397 0.0017616687
0.006090724 -0.02064912 0.029514186 -0.0027767303 0.030678246 0.01544735 0.01094265 0.0052935574
0.004468205 0.007368769 0.0090592 -0.0058049904 -0.0051568868 0.030921936 0.030823588 0.012472831
-0.0029652049 0.01602829 0.0086670555 0.009882968 0.003570862 0.021060247 0.03676686 0.017638326
-0.0018012803 0.019211514 0.038159147 0.016835695 0.0066306363 0.027815782 0.016803473 0.011465837
-0.0016065418 0.017926816 0.015838237 -0.0042966725 -0.0038623963 0.024641313 0.026666604 0.035336263
0.02468766 0.02263783 0.012417346 -0.0038504028 0.0026612112 0.020405972 0.010782427 0.019091086
0.022396596 -0.0046135522 0.036346193 -0.020398766 -0.0023372744 0.023214273 0.0234596 0.008475623
0.0038078614 0.03885674 0.017755114 -0.0062971115 0.0194292 -0.005892343 0.0050706286 0.024287898
0.015501916 -0.0027692358 0.00047557682 -0.0022166222 0.0015716897 -0.004751665 -0.011672052 -0.0090021035
0.0076129455 0.038194586 0.041486345 0.006595166 -0.023496626 -0.019548822 0.02390146 0.016984746
-0.002191138 -0.0010460491 0.035317115 -0.007881137 -0.00018488143 0.0009848025 -0.0031451534 0.0077901864
0.018074425 0.0009067854 0.012414851 0.010040108 0.0001381196 0.0035391185 0.030874547 -0.0049175094
0.0016202189 -0.005452164 0.03349623 0.025068946 0.038186725 0.009422635 0.011546928 0.02233332
0.028468248 0.06044564 0.018013071 0.01855806 -0.0077923415 0.013890396 0.021868827 0.01613976

action_model._discrete_distribution.branches.0.weight f4 [2, 128]
00000000: dd60 4bbd 4aba 5fbc 56b0 5abd ee87 563b
00000010: 4df8 dcbc d61b 0d3d fd22 963a 56a7 8e3d
00000020: 77f0 383d 3950 3cbc 818b f739 0d5a 123d
00000030: 0084 3abc 62aa 29bd fa7e d93c 9624 35bc
00000040: 56b4 f73c c8a1 e83c 9ee8 11bd efbd 253d
00000050: 2287 2b3d eac4 3fbc ee60 823d 893e 6e3d
00000060: 772c 3b3d b339 fc3b 5f0a 98bc 2fb2 933c
00000070: f407 19ba 34f4 95bd f364 15bd ab7e 79bc
00000080: 24e0 8a3c 324c 443d 0efd 303d f8d7 dcbc
00000090: 368a e6bb 51f6 8c3d 4241 65bd 9573 6cbc
000000a0: adf2 5a3c 83f0 52bd 9352 8e3d 9ced 8cbc
000000b0: 5875 8fbc 892a b7bc 77cf 9fbc 86cc 5c3d
000000c0: baf6 173d 3e51 1ebd d0ba cb3b 3b0c eb3c
000000d0: 80bf 6c3c 3925 33bd 2735 4abd efad 3fbd
000000e0: a602 16bd 564c 92bc 1679 23bd 2158 b03c
000000f0: da84 ef3c b53d 9abc 49bd f3bb 1717 ffbc
00000100: 64eb 8f3d fcf4 a4ba cd6f e2bc 2a46 043c
00000110: e2cd 283c 671f 6e3d 9352 1dbd 3ed1 8e3d
00000120: 03f6 fb3a 57ca 12bd 09ca 5a3d 2787 433d
00000130: c592 12bd f81d 9b3a 47a9 3a3d 4fb3 1cbd
00000140: ca31 0dbc 0f11 713b f2ff d33c 6531 b83c
00000150: 978e 13bb cd10 f4bb 16e1 caba 6649 863c
00000160: c4ea cd3c 1f4c 47bd d251 30bd 60a6 b0bc
00000170: f779 d83c 08e3 ea3b 0407 61bd 3549 253d
00000180: cd0b b93c 68db d33c 09e1 fcbc eb15 153c
00000190: 9afb b43c af75 903c 5738 b13c 0b8d 2ebc
000001a0: a0fa c8bc e0c8 b0ba 96d3 a6bc c7db 95bc
000001b0: 3d24 043d 58f7 233d 2427 c3bc 9800 f03b
000001c0: 7bcd 1a3d d66b f73b 2d82 80bc ec28 c4bc
000001d0: 8edb 18bd 4e86 03ba e9f9 43bc 6e05 3c3d
000001e0: 7b13 32bd 09f9 42bd 31b5 4fbc ccab 8cbc
000001f0: 8a65 353c b148 e4bc f88e 04bc 4db5 5c3d
00000200: aa0e 543d ac13 223c 929a 8c3c 220d bfbc
00000210: 5fa3 023d 4335 2abd dcaa c53b 5d6e 9bbd
00000220: 0a9d 16bd 15e7 00bc 3027 9cbb edbd 27bd
00000230: 41ef de3c 00b0 103d 80af a6bc 07f6 ab3c
00000240: 0aa3 07bd 8261 0abc 6f3a 5e3d 5808 15bd
00000250: 9875 49bd 78fe fb3b 3316 86bd 877d 1fbd
00000260: 7db0 64bd c871 a63c ff50 a63c af04 98bc
00000270: 67f4 03bc 7271 883d f83c 5a3d 06a6 b83c
00000280: d7b8 27bd 9eb7 34bd 4918 88bd 9cfd b93c
00000290: 77c3 4a3c f43e 6ebd 1228 663d 6713 e23b
000002a0: e160 87bc aaa3 253d 80aa 62bd 4143 9e3c
000002b0: a998 f03b a2b4 193d 8bf0 ec3c 22f5 73bd
000002c0: 2133 eabc c396 063d 730c 083c 2a98 83bc
000002d0: f684 6abc 6a33 253d 6887 303d 2e94 533d
000002e0: 3b88 df3c 7067 373b 9f80 f13c 07e4 99bc
000002f0: 4330 edbc c933 bd3c 4a17 813c ba4c 053d
00000300: ad1a 8abd 072b 2b3c 8c31 0b3d 043a 0abc
00000310: feeb 093b 3f25 a6bd abb2 0b3d 7143 0abd
00000320: eaba 883c 572a 5e3d d873 7ebd 6286 d0bc
00000330: 8d21 0d3d 1258 f7bb fcdc 44bd 483c 8f3d
00000340: 519e dd3a 9a18 85bb 9878 fabc 1088 2ebd
00000350: 52de e93b 4e8e c4bc 59b3 9abb e286 bcbb
00000360: 5528 24bd 99e5 4c3d 00ac 343d c35c 343c
00000370: 381b 21bc 037d eebb 42b9 3d3d c5da 72bc
00000380: 22ef cabc 2ae0 0bbd 1751 843d d478 913b
00000390: 344b e3bc 020d 92bc 94d0 90bc 9fe4 d23c
000003a0: 49cc 983c 0ed7 933c 3348 613c 12af 0e3c
000003b0: 3ab4 2dbd 6c67 2cbd 3a40 dd3c 0022 65bb
000003c0: 730f 17bd db78 00bc 9005 b83c eb2b 983c
000003d0: ae33 3d3d 5454 ac3c f64b 1d3d 1b52 3cbd
000003e0: c0a6 083d 34e4 3c3d 7e9b bb3c 697b ae3c
000003f0: 0b63 b9bc 6307 cb3c df7b a23c 4788 53bd
-0.049652923 -0.013655255 -0.053390823 0.003273483 -0.026973868 0.034450375 0.0011454519 0.069655105
0.0451512 -0.011493736 0.0004721545 0.03573041 -0.01138401 -0.041422255 0.026549805 -0.011056086
0.030237358 0.028397456 -0.03562223 0.040464338 0.04187692 -0.011704663 0.06366144 0.058165107
0.0456967 0.007697308 -0.018559633 0.0180293 -0.0005837672 -0.07321969 -0.036473226 -0.015227954
0.016952582 0.047924228 0.04321008 -0.02695845 -0.007035519 0.068829186 -0.055970438 -0.014431854
0.0133635225 -0.0514989 0.069493435 -0.017203145 -0.017512009 -0.02235915 -0.019508107 0.053905986
0.03710053 -0.038651697 0.006217338 0.028692355 0.014449954 -0.04373667 -0.049367096 -0.046796735
-0.03662362 -0.017858665 -0.0399104 0.021526398 0.029238153 -0.018828252 -0.007438336 -0.03113894
0.07027319 -0.0012585218 -0.027641201 0.008073369 0.010302993 0.058135416 -0.038408827 0.069735035
0.0019223097 -0.035837498 0.053415332 0.047736313 -0.0357845 0.0011834493 0.04557159 -0.03825694
-0.008617828 0.003678385 0.02587888 0.02248449 -0.002251541 -0.007448292 -0.0015478458 0.016392421
0.025136359 -0.04865658 -0.04304678 -0.021563709 0.026425345 0.0071681775 -0.05493833 0.04035302
0.022588635 0.025861457 -0.030869024 0.009099464 0.02209263 0.01763424 0.02163331 -0.010653744
-0.02453357 -0.00134876 -0.020364564 -0.018293275 0.032261122 0.040030807 -0.023822375 0.0073242895
0.037793618 0.007550697 -0.015687073 -0.023945294 -0.03731876 -0.00050172664 -0.011961439 0.045903616
-0.04347561 -0.04760078 -0.012677477 -0.017171763 0.011071572 -0.027866693 -0.008090727 0.05388384
0.051771797 0.009892385 0.017163549 -0.023321692 0.031894084 -0.0415547 0.006032331 -0.075894095
-0.036770858 -0.007867594 -0.0047654137 -0.04095261 0.027213695 0.035324097 -0.020347357 0.020991338
-0.03311447 -0.008446099 0.054254945 -0.03638491 -0.04918441 0.007690247 -0.06547203 -0.03893807
-0.055832375 0.020317927 0.020302294 -0.01855692 -0.0080538755 0.06662263 0.0532808 0.022540104
-0.04094776 -0.044120423 -0.06645257 0.022703938 0.012375704 -0.058165506 0.056190558 0.0068992856
-0.016525688 0.040439285 -0.055338383 0.019319179 0.0073424173 0.03752578 0.028923294 -0.05955995
-0.028588833 0.03285862 0.008303749 -0.016063768 -0.014313927 0.040332235 0.043097883 0.051654987
0.02728664 0.0027985238 0.029480277 -0.01878549 -0.028953677 0.023095982 0.015758175 0.032543875
-0.06743369 0.01044727 0.0339828 -0.008436684 0.0021045203 -0.08112573 0.034105938 -0.033755723
0.01669069 0.054239597 -0.062122196 -0.025454704 0.034455825 -0.0075483406 -0.04806231 0.069939196
0.0016908144 -0.0040617706 -0.030575082 -0.042610228 0.0071370983 -0.023993637 -0.004721087 -0.005753384
-0.040077526 0.05002365 0.044109344 0.011008444 -0.00983315 -0.007278086 0.046319254 -0.0148226665
-0.02477223 -0.034149326 0.06460779 0.0044394527 -0.02774582 -0.017828468 -0.017677583 0.02574378
0.018652098 0.018046882 0.013750124 0.008708732 -0.042408206 -0.04209082 0.027008165 -0.0034962893
-0.036879968 -0.007841314 0.02246359 0.01857563 0.046191864 0.021036305 0.03840252 -0.04597674
0.03336215 0.04611607 0.022901293 0.02129908 -0.022630235 0.024783796 0.019834457 -0.051643636

action_model._discrete_distribution.branches.0.bias f4 [2]
00000000: 47dd 0cbc 47dd 0c3c
-0.0085976785 0.0085976785
