results/EngTalkRun/MoveToBall/MoveToBall-316653.onnx (onnx, 73315 bytes, 6 tensors)

network_body._body_endoder.seq_layers.0.weight f4 [128, 6]
000000 e4 9e 2a bf 47 7d 04 3f 75 9d 21 bd c7 64 4e 3e
       -0.666487 0.5175366 -0.039456803 0.20155631
000010 d2 37 01 bd 4b 70 2f 3e d0 62 16 bf d9 db 1c be
       -0.031547375 0.1713268 -0.58744526 -0.1531824
000020 07 02 95 3c fe e4 5f 3e 26 0e e7 be f0 a0 85 be
       0.018189443 0.21864697 -0.45127982 -0.26099348
000030 cb 7f 47 3e bf 90 f2 3e 9b 78 11 bd 2c d9 f7 bb
       0.19482343 0.47376058 -0.03551541 -0.0075637307
000040 59 c3 0d 3f 64 73 c2 3c 4d 67 e2 3c f7 7d 9c be
       0.553762 0.023736663 0.027637148 -0.30564854
000050 82 3b b9 be 56 0d 0a bf 89 f3 55 be 34 45 5a 3f
       -0.36178213 -0.539266 -0.20893683 0.85261846
000060 30 fb 27 be 7d 61 fa 3e e0 bb 39 3f 54 20 b2 3d
       -0.16404414 0.48902503 0.725523 0.08697572
000070 4c 73 c1 3e 61 e9 9a be a8 34 a0 bd 71 2a 22 be
       0.37783277 -0.3025618 -0.078225434 -0.15836503
000080 f2 2d 1f be f7 4f a3 be 0c 84 0d 3f 7e cb b9 bd
       -0.1554487 -0.31896946 0.5527961 -0.09072016
000090 bb 79 95 be 06 64 1f be b5 d4 bd be 3c 35 e0 3e
       -0.29194435 -0.155655 -0.37076345 0.43790615
0000a0 47 0a 10 3f 02 e5 a8 bd 05 7e 20 bd 25 4d a6 3f
       0.5626568 -0.08246805 -0.03918268 1.2992293
0000b0 98 f0 15 bd 8a ba 19 be 96 d0 d9 3e 73 dd 24 3f
       -0.0366064 -0.15012565 0.4254195 0.64400405
0000c0 d7 b8 32 bf 81 c5 41 bf 8c 60 f9 be 96 22 fb 3e
       -0.69813293 -0.7569199 -0.48706472 0.49049824
0000d0 c3 b7 b8 3e b2 f0 c9 be fb 93 a1 be 2a 40 04 bf
       0.360777 -0.39441448 -0.31558213 -0.51660407
0000e0 fb b7 50 be 7a 3b 08 3e 16 ce 21 3f e3 71 12 be
       -0.20382683 0.13303939 0.6320509 -0.14301257
0000f0 0c 57 10 3f 45 39 8a 3e 37 2c 66 be 7f 8e f0 be
       0.56382823 0.26996818 -0.22477804 -0.46983716
000100 fd 10 f3 3d b2 8d 62 bf a2 72 5b bf d3 7c a6 3d
       0.11868475 -0.8849746 -0.8572179 0.08129277
000110 02 ca 19 bf 50 2d ed 3e d0 d1 19 bc 7e a1 34 3e
       -0.60073864 0.46323633 -0.009388402 0.1763973
000120 9d 38 d6 3e 6a 8f d7 bd b2 1e b4 be 6d a9 da 3e
       0.41840068 -0.10525401 -0.3517967 0.42707387
000130 83 68 ac 3e 73 01 a8 be 68 8a ce 3e 3c 59 fd bc
       0.33673486 -0.32813606 0.4033997 -0.03092634
000140 2f fa 17 bf 62 1a ad be 07 6b 0f 3e ba 9d cf be
       -0.59366125 -0.3380919 0.14005671 -0.40550023
000150 aa d2 ad be 5a fe 22 3e 39 db b9 be 6e 9a 91 3e
       -0.33949786 0.1591734 -0.36300066 0.28438133
000160 69 18 84 3f f5 1a e0 be 4c 80 ce 3d a1 ea 1a 3f
       1.0319949 -0.43770567 0.100830644 0.60514265
000170 3f 01 af be 9f a9 42 bf ca 9e e8 3e 46 b8 df 3d
       -0.34180638 -0.7604007 0.45433646 0.10923819
000180 49 b6 10 be 02 2a 82 3e 83 1e c7 be ea cd bb be
       -0.14132036 0.25422674 -0.38890466 -0.36680537
000190 cb c9 3f 3e 3d e1 27 bc cf c3 9a bd f5 7b 9a 3e
       0.18729322 -0.010246572 -0.07556879 0.30172697
0001a0 1f 3f 89 3d 95 b7 b4 3e 6c 7e 2c be 28 84 60 3d
       0.067014925 0.35296312 -0.16845101 0.054813534
0001b0 68 d5 cc be 25 aa 25 bf 0d 46 56 3f c3 31 0f 3f
       -0.40006566 -0.64712745 0.8370064 0.55935305
0001c0 1e 78 bd be db 49 70 3f 1b c5 c2 be c3 0c aa 3e
       -0.37005705 0.93862695 -0.38041005 0.3321286
0001d0 b6 69 26 be 83 9d 91 3d 11 77 6b bd 9b 95 98 be
       -0.16251263 0.07110121 -0.057486597 -0.2980164
0001e0 d5 20 a3 3e d3 95 e1 be 1c 3c 1f be 7d 67 c8 be
       0.31860986 -0.4405962 -0.15550274 -0.39141455
0001f0 bf f7 6b be f2 c3 97 be 2c 14 2a bb 32 91 8d bd
       -0.23043726 -0.29641682 -0.0025951965 -0.069124594
000200 c4 c6 8a be fd 54 62 3f 13 98 81 be 5c 28 4f 3f
       -0.2710477 0.8841093 -0.25311336 0.8092096
000210 fd 15 60 3f 05 8a ba 3e b3 c7 4c bc 38 ff 0f bf
       0.8753355 0.36433426 -0.012498784 -0.5624881
000220 0b c9 a6 bb 83 a3 68 be be 06 0b bf f9 6d 20 bf
       -0.005089884 -0.22718625 -0.5430716 -0.62667805
000230 c2 97 12 3f d0 ad 28 3f f9 9d 22 bf 15 5e 1d be
       0.57262814 0.65890217 -0.635223 -0.1536792
000240 f7 38 07 bf 77 d2 19 bd 21 c2 fc 3d b3 6d 2b be
       -0.52821296 -0.03755423 0.12341715 -0.16741066
000250 b3 1f de 3e 2c 52 bd be 81 a6 fb 3d 64 06 ae be
       0.4338356 -0.36976755 0.122876175 -0.3398925
000260 ae b5 50 be 71 4d 85 3e ab 20 82 3c aa 7b 7c 3d
       -0.20381805 0.26035646 0.015884718 0.061641373
000270 36 a9 65 3f 5d fd cc be 67 97 c9 3d 4f a0 00 3f
       0.8971132 -0.4003705 0.09843331 0.5024461
000280 c2 8b 02 be af 93 60 3e 80 35 a7 be f2 af de bd
       -0.12748626 0.21931337 -0.32658005 -0.10873403
000290 9f d0 d6 3d 83 2e d0 3d cc 4e 60 be ae d3 d7 3e
       0.1048901 0.101651214 -0.21905059 0.42153686
0002a0 1d 4c b0 be 63 5f c3 3c b0 8f 5d bf 42 7a b7 be
       -0.3443307 0.023849195 -0.86547375 -0.35835463
0002b0 28 e5 90 bd 2c 91 9e 3d ce c8 80 3f 58 0c 72 3f
       -0.07074958 0.07742533 1.0061281 0.94550085
0002c0 cb 83 8a bf 1a 0c 11 3f 70 78 98 3e d4 61 a3 bf
       -1.082147 0.5665909 0.29779387 -1.276423
0002d0 5e 62 6a 3f 78 09 81 bd ab 4e c6 be ba 03 09 3e
       0.91556346 -0.06300634 -0.38731894 0.13380328
0002e0 88 49 0a 3f 97 56 f1 be ba c6 2e 3e b0 ec a2 bd
       0.5401845 -0.47136375 0.17067996 -0.07955301
0002f0 06 00 c3 be d5 1e 6e be ee d1 8c 3e 54 1d 3b 3e
       -0.38085955 -0.23253949 0.27503914 0.18272907
000300 d7 84 13 bf 9e 4f cb be d6 de 7e be ae 44 e1 bd
       -0.5762457 -0.3970918 -0.24889693 -0.10999428
000310 a6 1d 96 be 26 b6 96 be 0f 66 1e 3f 4f 97 69 bd
       -0.29319495 -0.29435843 0.6187448 -0.057029065
000320 e1 83 e2 bd 54 8e a3 be 28 a4 f5 be 77 2e 19 3f
       -0.1106031 -0.31944525 -0.47976804 0.59836525
000330 8f de 40 3d 0d 10 9f be 04 6a 4f 3e a1 74 5f bd
       0.04708725 -0.31066933 0.20255286 -0.054554585
000340 0f 10 ef be 79 7a 8d 3d 90 c7 b2 3f f8 51 53 3e
       -0.4669194 0.069081254 1.3967152 0.20636737
000350 c3 81 83 be 34 80 d4 bd 98 71 d4 be ec 56 95 3e
       -0.25684938 -0.10376015 -0.41492915 0.2916788
000360 d9 8e 81 be 2f 23 b1 3e 82 7c 35 bd fc 1c 9a 3e
       -0.25304297 0.34597155 -0.044308193 0.30100238
000370 9c 77 09 3e 48 1e 86 bd fe c9 53 3d 75 fd 94 3e
       0.13424534 -0.065487444 0.051706307 0.29099622
000380 ef f8 dc 3d 40 b5 71 bd e7 f3 1c 3f 85 71 7a 3e
       0.10789668 -0.059010744 0.61309665 0.24457367
000390 22 a5 af bc 61 f5 1f bf 2d d7 a4 3e 44 b4 04 bf
       -0.021441046 -0.62483793 0.32195416 -0.51837564
0003a0 71 54 88 be fa f3 31 bd b0 4c ce 3e 7c 2b 38 3e
       -0.26626924 -0.043445565 0.40292883 0.17985338
0003b0 fc 5d 09 3e 8a 15 35 bb 70 e7 fe 3e 9d 08 06 bf
       0.13414758 -0.0027631246 0.49785948 -0.5235689
0003c0 2c 4d 4b 3f 4d 77 3c bf 89 d4 11 bf 5f f8 3e be
       0.7941463 -0.7361954 -0.5696493 -0.18649434
0003d0 0d a8 49 bd 4d 3b 01 3e a1 d2 d5 3e d6 2b c3 be
       -0.04923253 0.12620278 0.4176226 -0.38119382
0003e0 f4 07 1c be 43 f6 0e bf 59 59 45 3e 4c 40 d2 bd
       -0.15237409 -0.55844516 0.19272365 -0.1026617
0003f0 eb a3 4c 3d 86 22 ba 3e af 6e 7b 3e ae 52 0b 3f
       0.04996101 0.36354464 0.24553941 0.54423034

network_body._body_endoder.seq_layers.0.bias f4 [128]
000000 77 25 08 3d 5f ca de 3c d3 f9 d2 3b 00 ea 20 3c
       0.033238854 0.027196107 0.006438473 0.009821415
000010 b8 76 16 3c 6d 04 b6 3b 82 74 da 3c b2 19 00 bc
       0.009183578 0.005554727 0.026666883 -0.007818626
000020 db bc fb bc c8 ad a3 3d 90 e2 7b bb 50 37 e7 3c
       -0.030729702 0.079921305 -0.0038434602 0.028224617
000030 1f 20 a5 3c 73 9d 98 3b b4 b0 42 3c 20 6d fa 3c
       0.020156918 0.0046574413 0.01188295 0.030569613
000040 1b d6 24 bc f3 f7 43 3c db 85 53 3d 3d 4d 34 3c
       -0.010060812 0.011960971 0.051641326 0.011004743
000050 66 49 60 3d 21 59 81 bc 3f 32 92 bc 34 1f 94 3c
       0.0547575 -0.01578957 -0.017846225 0.018081285
000060 b2 4f dd 3b bf 2d 5e bd f7 73 37 3d 91 f4 be bc
       0.006753885 -0.054242846 0.044788327 -0.023309978
000070 3d 87 e1 3b 09 39 17 3b 2d 94 36 3c 51 f2 81 3c
       0.0068825767 0.0023074767 0.011143726 0.015862616
000080 e4 97 f2 3c f9 ba 6d 3d 80 71 bf bc 26 cc 78 3c
       0.029613443 0.05803964 -0.02336955 0.0151853915
000090 12 bb 43 3c 31 51 08 bc 60 bc 3d 3d 2c 36 3e bc
       0.0119464565 -0.008320139 0.046322227 -0.011609595
0000a0 ce ea f8 3d 26 50 85 3d 54 3b 89 3b fc f4 e7 3c
       0.121541604 0.06509428 0.0041879807 0.02831506
0000b0 b4 56 2a 3c ec 32 db bb 96 63 00 3d 25 7c 85 3c
       0.010396648 -0.00668942 0.031344973 0.016294548
0000c0 94 26 25 bd 70 95 34 bc 63 78 e7 3c 62 dd 81 3c
       -0.040319994 -0.011021957 0.028255647 0.015852634
0000d0 c0 20 17 3c 96 c4 87 3c 6a c4 42 3c 01 0d 0c 3d
       0.009224117 0.016573232 0.011887649 0.03419209
0000e0 42 8a d9 3c 68 42 9e 3c 98 81 95 3c 01 4d 8e 3c
       0.026555184 0.019318774 0.018250272 0.017370703
0000f0 3e ec fd 3c 47 2c 83 ba d6 c9 fb 3a 75 3a 81 3c
       0.030996438 -0.0010007703 0.0019209932 0.015774945
000100 95 ef 0d 3c 21 0f 0b 3d 79 a1 13 3b fc a3 d6 bc
       0.008663078 0.033949975 0.0022526665 -0.02620124
000110 ed f0 87 3d 91 31 07 3c 65 bc 39 3d ff 0c 45 bc
       0.0663775 0.008251564 0.045345683 -0.012027024
000120 28 a6 a2 bb 10 26 d3 3c 30 fc 81 bd 37 3d a5 bb
       -0.004963655 0.025774986 -0.06346929 -0.005042698
000130 9e 1d 90 bc 48 9c 88 bc 7a 9c d1 3b 13 39 15 3d
       -0.017592248 -0.016676083 0.0063968273 0.036431383
000140 09 77 3e bc f0 e4 e7 3c 5c 40 f8 3c a1 61 96 3c
       -0.01162506 0.028307408 0.030304126 0.0183571
000150 3a fd 97 bc 39 3a 19 bc d7 5a 06 bb 54 19 e1 38
       -0.018553365 -0.00935226 -0.0020500922 0.00010733554
000160 b6 18 1a 3c 15 6b 8c 3d 81 83 69 3d 5d 0d 0e 3d
       0.009405306 0.06856362 0.057010178 0.034680713
000170 c1 85 d2 3c c4 39 6f 3c 9a 72 86 3c a4 31 b7 3c
       0.025698544 0.014601175 0.016412068 0.022362538
000180 5e 70 a0 3c 04 0d 14 bc 8e cd e4 3c 8b 0f 6f 3c
       0.01958483 -0.009036306 0.027930047 0.014591108
000190 ef af 48 3d 18 89 9e 3c ab 0f 7e 3b a3 af 5a 3c
       0.04899591 0.01935248 0.0038766663 0.013347539
0001a0 85 fd 99 3c 03 b8 ce b9 c5 30 f5 3c 1a d3 e0 3c
       0.018797645 -0.0003942848 0.029930482 0.027444411
0001b0 aa 19 3f bb 3a 14 39 3c 5b 96 48 bd 47 b0 28 bc
       -0.0029159584 0.011296326 -0.048971515 -0.010295934
0001c0 9a 13 60 3d bd 9d ee 3c 36 50 5d 3d 0c d9 b8 3c
       0.054706194 0.02912795 0.054031573 0.022564434
0001d0 2c 06 06 3d 74 7d eb 3d f6 fc 7e 3c 5a de 79 bb
       0.03272073 0.11498538 0.01556324 -0.0038126917
0001e0 91 93 9b 3c d8 9e a2 b8 5e 20 b6 ba fb 18 d3 3c
       0.018991264 -7.754349e-05 -0.0013895144 0.025768748
0001f0 f0 fd 00 3d 38 45 34 bc de 62 81 bc d7 c1 20 3d
       0.031492174 -0.011002831 -0.015794214 0.03924736

network_body._body_endoder.seq_layers.2.weight f4 [128, 128]
000000 55 68 32 3d bf 4a 5a 3c 88 be 30 be 87 26 cc bd
       0.04355653 0.013323485 -0.17260182 -0.09968286
000010 96 e8 7b 3d b0 0f 18 be d8 00 24 3d 4b 6b e9 bc
       0.061501108 -0.14849734 0.040039867 -0.028493544
000020 c9 76 02 3d 50 9e 0f 3e f2 f2 6a 3d 58 42 68 bd
       0.031851564 0.14025235 0.057360597 -0.056703895
000030 0a 59 b6 bc 6c 0c a9 bd ba 2a d3 bd cf 68 c8 3c
       -0.022259254 -0.082543224 -0.10310884 0.02446404
000040 9e 87 64 bd 40 f6 72 be bc 00 f0 3d b4 65 f1 3b
       -0.055793397 -0.2372675 0.1171889 0.0073668603
000050 72 14 94 3c f3 b8 e6 bd e3 43 48 be 68 a9 de 3d
       0.018076155 -0.11265745 -0.19557147 0.108721554
000060 e2 3e 4c 3c dc 64 a1 3d 6d 0d 21 be a7 a1 e6 bd
       0.012466164 0.078805655 -0.15727778 -0.112613015
000070 4e d6 8f 3b 79 e6 ab bd c3 b9 a1 bc e1 a0 64 3d
       0.004389561 -0.083935685 -0.019741898 0.05581749
000080 72 41 99 bd bb c2 26 bd db 2f 43 3c 01 cc cd 3c
       -0.07483186 -0.040713053 0.011913265 0.02512169
000090 6b 9c f7 bd f4 d7 aa bc 42 51 2c 3d 9b dc a0 3d
       -0.12090381 -0.020854928 0.04206968 0.07854577
0000a0 16 85 dd 3d 0f cd 30 3e cd 7d 3d be 98 ed 7b bd
       0.108164 0.17265724 -0.1850502 -0.061505884
0000b0 03 35 6a bc 2f 8a 7a be bd 3b 6d 3e 6d da 9f bc
       -0.014294866 -0.24466775 0.2316732 -0.019513333
0000c0 04 3d 1f 3d 5c 72 1b bd b7 f2 9a 3b 0b 9d 80 bd
       0.03887655 -0.03795086 0.004728641 -0.062799536
0000d0 9d 40 c4 3a fc d8 94 bd 87 5e 4f be 5d af 80 bc
       0.001497287 -0.07267949 -0.20250903 -0.01570862
0000e0 74 00 b4 bc 47 49 b8 3d 18 87 35 be c9 67 55 3b
       -0.021972872 0.089983515 -0.17727315 0.0032563081
0000f0 7e 24 90 bd f6 18 c2 bb 48 a7 4c 3d 91 d1 89 bd
       -0.0703821 -0.0059233857 0.04996422 -0.06729425
000100 f4 5e 12 be d8 26 34 be 28 e8 64 3c d2 c8 6b 3e
       -0.14294034 -0.17592943 0.013971366 0.23025826
000110 d3 b7 24 3d 42 66 a7 3d 05 28 a4 3d 28 81 b6 bd
       0.04021437 0.08173801 0.080154456 -0.08911353
000120 7d 1e a4 bb ec 10 6c 3c ac 70 fc 3c ec 00 93 3c
       -0.0050085173 0.014408331 0.030815445 0.017944776
000130 e4 2b 97 3d 9f b9 cc bd e0 5e 98 bc fc aa ca bd
       0.07381418 -0.09996342 -0.018599927 -0.09895894
000140 41 89 9e bd 23 17 d0 bd 7e 93 11 3d 81 8f ae bc
       -0.07741023 -0.10160663 0.03554105 -0.021308662
000150 d8 bd 11 be ab 9a 28 be b6 8d 3e bc df 5a e4 bd
       -0.14232576 -0.16465251 -0.011630466 -0.11150145
000160 d2 01 dd bd 56 61 73 3d 10 a3 36 3b bd 70 59 be
       -0.10791363 0.059419 0.002786819 -0.21234412
000170 f3 aa 3a bd 6d 05 95 bc 18 d0 84 3b d3 d7 91 ba
       -0.045573186 -0.018191064 0.004053127 -0.0011126943
000180 a2 9f 62 bb ed 0e 25 3d e5 73 c1 3d 3b ad 97 3d
       -0.0034580012 0.040297437 0.09445933 0.07406088
000190 0f e1 c9 3d 71 da 85 3d 74 0a 79 bd bf 74 a3 3d
       0.0985738 0.06535805 -0.060800985 0.07981252
0001a0 b8 19 02 3e bb 40 00 3e b5 fd 5d bd 89 18 aa bd
       0.12705123 0.12524693 -0.054197032 -0.08305461
0001b0 ec ee c8 3c 67 ce bb 3d 27 ab c5 3d 60 4c 87 3b
       0.02452799 0.091702275 0.09651785 0.0041289777
0001c0 01 8a ae bc 33 e3 b2 bd 76 d3 15 be d2 6d 8f bd
       -0.02130604 -0.08734741 -0.14631447 -0.070033684
0001d0 65 be c6 3d b5 26 b1 ba 22 84 60 bd 5d 4c 28 be
       0.097042836 -0.0013515564 -0.05481351 -0.1643538
0001e0 e1 59 04 3d da 17 85 bd ae 43 11 3e ff c7 9f 3d
       0.032312278 -0.0649869 0.14185974 0.07801818
0001f0 4d a0 58 3e 0a 12 b2 bc ed 99 55 3d 32 ef cc bc
       0.211549 -0.021737117 0.05214875 -0.025016401
000200 a2 8d 79 3d 99 7b 15 3e 9a 2f 87 bc 3c 05 14 3d
       0.060926087 0.1459793 -0.01650219 0.036137804
000210 3b 86 5d 3e 6a b9 e4 3c 67 cd c9 3d a7 45 d7 3c
       0.21633236 0.027920444 0.098536305 0.02627833
000220 25 70 a4 3d fc 70 9a 3d e2 88 2e bd 71 c2 b4 39
       0.08029202 0.07541081 -0.04261101 0.00034477146
000230 d1 9b b0 3d 71 fd 92 bd a9 68 3e 3d 35 2a d8 bd
       0.086234696 -0.07177246 0.04648653 -0.10554925
000240 65 b9 2d 3e 2f 40 d0 3d 2d c9 01 3d 33 30 57 bd
       0.16965254 0.10168492 0.031685997 -0.0525362
000250 8f 45 d9 3d 5e 79 04 3e c2 d8 26 bd 8f 92 66 bc
       0.106089704 0.12936923 -0.04073406 -0.014073028
000260 12 da 97 bd 4d 09 1e 3e 14 ce 7a bd a7 d7 fe 3d
       -0.074146405 0.15433235 -0.061231688 0.12443476
000270 3c bf a6 3a 28 24 b5 3d 17 87 26 3e 96 b8 d6 bc
       0.0012721787 0.08844787 0.1626247 -0.026211064
000280 a8 f8 b9 bc 5a 3c 0f be 65 f9 02 bd b8 1f 3a be
       -0.022701576 -0.13987866 -0.031976122 -0.18176162
000290 94 a3 ec bc 9b 86 92 3d 92 d8 16 3d bc 1b 49 be
       -0.028886594 0.0715458 0.03682763 -0.19639486
0002a0 cd 79 87 3d c8 34 e8 3d 30 29 2f 3e d8 80 ae 3d
       0.066150285 0.11338192 0.17105556 0.08520669
0002b0 9e 9a 39 3b c1 a8 99 3d a9 f9 d0 3d d7 d1 a5 bd
       0.0028320919 0.075028904 0.10203869 -0.080966644
0002c0 33 f2 db 3d 19 d2 22 be 57 bc 23 bd 0e 50 96 bd
       0.10739555 -0.15900458 -0.039974537 -0.07339488
0002d0 e7 35 bd 3c 52 35 39 be 8a 25 02 bc 99 8e 9b bd
       0.023096992 -0.18086746 -0.00794352 -0.07595558
0002e0 dd d9 fc 3c 5c 6b a3 bd d6 1f c7 3c f3 90 4b 3e
       0.030865604 -0.079794616 0.024307173 0.19879512
0002f0 8b 88 86 bc d2 de ee ba 8b 12 09 3c bf 46 ce 3d
       -0.01642253 -0.0018224365 0.008366237 0.100720875
000300 83 d2 fe bd a7 d2 81 bd 67 5e 73 3d 60 90 53 bd
       -0.12442496 -0.06339007 0.0594162 -0.05165136
000310 db 00 13 bd e0 1d f5 3d a5 6b 26 3e bc 5c 19 3e
       -0.035889488 0.11968589 0.16252 0.14976782
000320 20 da 2b 3e 88 70 81 bc 46 59 0b bb 44 be 66 3b
       0.16782427 -0.01580073 -0.0021262928 0.0035208622
000330 de ab 46 be 2b d5 8a 3c 44 ac e8 3d b0 5a 2b be
       -0.194015 0.01694735 0.11360982 -0.16733813
000340 06 fe 98 bc a0 63 3d bd 5b a4 4f bd 91 25 d8 3c
       -0.018675815 -0.046237588 -0.05069385 0.0263851
000350 4e 47 d8 3d fa fc a7 3d 08 c6 cf bd be 20 35 be
       0.10560475 0.08202548 -0.10145193 -0.17688271
000360 2f cb e0 3d a9 05 6c 3d 1f 7b ed 39 e1 df 6f bd
       0.10976254 0.057622585 0.00045295895 -0.058563117
000370 8b 3f 30 bc c0 e4 de bc 45 42 c3 bd 1b 0a 5f 3a
       -0.010757337 -0.027208686 -0.09534124 0.0008508281
000380 84 fa 7e 3c 04 e0 37 3d 53 68 6c 3d a5 86 e6 bd
       0.015562657 0.044891372 0.05771668 -0.1125615
000390 ff 95 94 bc 70 23 b3 bc 3e a8 9b bd a9 b5 03 bb
       -0.01813793 -0.021867484 -0.07600449 -0.0020097292
0003a0 72 e7 08 bc fb 59 67 bd 25 20 34 be c3 09 a8 bb
       -0.008355962 -0.056482296 -0.17590387 -0.005128117
0003b0 c3 2b a6 bd f2 0c 0c be 3b 5e 3f bd 2a 3e 1d 3c
       -0.08113816 -0.13676813 -0.046720725 0.009597341
0003c0 25 88 f1 3c 2a d3 b5 3d e5 38 2f be ee 10 31 bd
       0.029483864 0.08878167 -0.17111547 -0.043229036
0003d0 dd b6 d2 3c e2 7f f3 bd 85 ce b9 3d b0 ba 25 3d
       0.025721962 -0.11889626 0.090725936 0.040461242
0003e0 2a ad 0f 3e 0e cd a4 bd 1a 25 f2 ba 05 29 5a 3d
       0.140309 -0.080469236 -0.0018474192 0.053261776
0003f0 16 81 e8 3d 9f f9 eb 3c 1b 9d 89 3c 1f f8 50 bd
       0.11352746 0.028805552 0.016798547 -0.051017877

network_body._body_endoder.seq_layers.2.bias f4 [128]
000000 8c 41 fd 3b 05 38 83 3b f8 71 40 3c f8 d3 64 bb
       0.007728761 0.004004481 0.011745922 -0.0034916382
000010 f7 19 ba bb bc ca 71 3d f7 5b 2d bc e7 40 c1 3b
       -0.005679365 0.059031233 -0.010581008 0.0058976295
000020 53 0d ce 3b dc 1b 13 3d 69 32 f1 bc 5e 83 40 3d
       0.0062882095 0.03591524 -0.029442983 0.04700028
000030 0a c5 ba 39 9f 19 c5 3c 11 ae e3 bb 76 29 56 3c
       0.0003562349 0.024060069 -0.0069482406 0.0130714085
000040 61 12 31 3c f9 7e 9a 3c 4a 5c 84 bb da 56 74 bb
       0.0108076045 0.018859373 -0.004039322 -0.0037283213
000050 bf 47 51 3b 6c a7 67 bb a8 c7 9d 3c 21 e7 91 bb
       0.0031933633 -0.0035347594 0.019260243 -0.0044526015
000060 c8 40 87 3c 03 f9 8a 3c 10 6b 3d 3c f5 cd 4c 3a
       0.016510382 0.016964441 0.01156117 0.00078126724
000070 03 52 b1 3c 93 2d 91 3c 38 51 e6 3b a2 a9 4a 3b
       0.021645552 0.017721927 0.007028725 0.0030923863
000080 5c 91 59 3c 87 c0 b4 3c fa f7 33 3c 48 75 16 3c
       0.013279285 0.02206446 0.010984415 0.0091832355
000090 93 1c fd 3c 8a b9 43 3d 0e cd 71 3c 1d 97 85 bc
       0.030897414 0.047784366 0.0147583615 -0.016307408
0000a0 f8 0b d9 ba 0b ca f7 3c 59 82 78 bc 44 a0 a4 3c
       -0.0016559353 0.030247709 -0.015167796 0.020095952
0000b0 cd 4a db 3c a0 a1 00 3d 2c cd 1d 3c d2 2a 67 3c
       0.026769066 0.031404138 0.009631436 0.01410933
0000c0 f9 6c d2 3b de 29 34 bb 1c d8 b4 bc 19 c5 92 3c
       0.006421682 -0.0027490775 -0.022075705 0.01791625
0000d0 22 41 2d bc 75 99 75 3c e9 ae 42 bb 64 07 8f 3c
       -0.010574611 0.0149902 -0.0029706305 0.017459579
0000e0 f8 82 5b 3c 6c 7d 03 3b 05 df 8d ba 49 08 ab bb
       0.013397925 0.002006377 -0.0010823911 -0.0052194935
0000f0 a6 ff 28 bc 6c 46 51 bc 4e 32 a6 bb 67 08 6d 3b
       -0.010314858 -0.012773138 -0.0050719148 0.0036168338
000100 93 88 85 3c 93 ed e5 3b d6 a3 58 3c 4f fc eb 3a
       0.016300475 0.0070168464 0.013222655 0.0018004271
000110 4b 5a d8 3c f9 bb e8 3b b1 7a b8 3c 88 33 b4 3c
       0.026410243 0.007102486 0.022519441 0.021997228
000120 40 79 73 3c 27 ad 3b 3b 5b 87 86 3c 2b 46 45 3c
       0.014860451 0.0028637142 0.016421964 0.012040655
000130 39 11 b6 3c b2 b6 5c 3c 68 a0 3a ba 58 b7 82 bc
       0.02222501 0.013471292 -0.00071192393 -0.015956566
000140 98 98 01 3b d2 e1 81 3c f5 2c 8f 3a 39 6d a3 3c
       0.001977479 0.01585475 0.0010923432 0.019949542
000150 3f e8 15 bc 10 72 61 bc 88 ca 0e 3d 0d 1f c1 bc
       -0.00914961 -0.013760105 0.034861118 -0.023574376
000160 e5 d4 04 bb 27 d8 84 bb 8a ec 53 3c 9b 84 82 bc
       -0.0020268497 -0.0040540877 0.012934813 -0.015932372
000170 88 30 43 3c 77 7c 99 ba 9a 7f eb 3b 63 cf 50 3b
       0.011913426 -0.0011710067 0.007186842 0.0031861893
000180 14 29 4e bc b0 4c 76 bc 5e df 5b 3c 70 c3 22 3d
       -0.012583036 -0.015032932 0.013419954 0.039737165
000190 71 f5 bd 3c d7 2a fd 3c fb 00 b8 3b c1 74 d9 3c
       0.023188325 0.030904217 0.0056153513 0.02654493
0001a0 e8 8c 0d 3d 85 e7 88 3c cf 9a f8 bb 77 e5 b0 3c
       0.034558207 0.01671196 -0.007586814 0.021593792
0001b0 87 3b 41 3c a5 d9 f3 3c 17 4c 4c 3c 76 a8 b9 3c
       0.011793978 0.029766867 0.012469313 0.022663336
0001c0 7e a2 b1 ba 61 90 a3 3b c9 d1 5b 3c 55 c9 94 bc
       -0.0013552455 0.0049915765 0.013416716 -0.018162409
0001d0 7f aa 16 bc fc 9a 05 3d 44 22 58 3d 4e 17 d8 b8
       -0.009195923 0.032618508 0.052767053 -0.000103040235
0001e0 4d de ec 3c a3 ef e7 bb 82 f4 83 3b dc 49 95 bb
       0.028914595 -0.0070781275 0.0040269503 -0.004555924
0001f0 09 d6 49 3d 20 c9 34 3c 25 98 d3 3c 5c 95 4b 3b
       0.049276385 0.01103428 0.025829384 0.0031064367

action_model._discrete_distribution.branches.0.weight f4 [3, 128]
000000 e0 d9 22 3c 4d b3 16 bb d4 66 39 3b 4d e6 bc 3b
       0.009939641 -0.0022995055 0.002829005 0.0057647587
000010 cc 05 89 bc 70 a6 f9 bb b8 75 97 3c ab df 2c 3d
       -0.016726397 -0.007618718 0.01848875 0.042205494
000020 e9 fd f8 3c d1 a3 e9 ba 93 d8 f6 3b 80 78 78 bb
       0.030394511 -0.001782531 0.007533142 -0.003791362
000030 40 15 bc 3a 40 59 da bc 78 1a a2 3c a4 41 c8 ba
       0.0014349595 -0.026653886 0.019788012 -0.0015278351
000040 01 f5 f6 bb fb 44 a6 bb 03 11 b8 3c f9 22 8d bb
       -0.007536531 -0.005074141 0.02246905 -0.0043071476
000050 73 cc 0b bc d5 8a b7 3b 79 e1 a4 3b b6 63 ab 3c
       -0.008532631 0.005601267 0.0050317612 0.02092157
000060 ba fb 6b bc 26 61 8a bb 8c b4 11 bc 80 28 c7 3c
       -0.014403278 -0.004223007 -0.008893143 0.024311304
000070 6c b5 dc b9 62 46 1e 3c 8e a7 43 bb cd b6 c1 3c
       -0.0004209684 0.009660335 -0.002985451 0.023646737
000080 ab 9b 9a bc b9 1e 85 3b bf 55 ef bb 0a 2e 1b bc
       -0.018873056 0.0040625003 -0.007303923 -0.009471426
000090 59 5c cb bc a1 5a 5b bb 07 29 88 bc f1 f0 d4 3b
       -0.024824308 -0.0033470767 -0.016621126 0.006498449
0000a0 02 5a 7d bc d3 e4 c1 3b bc 49 6d 3c 2d e8 df bc
       -0.015463354 0.0059171706 0.014482912 -0.02733239
0000b0 69 a2 97 3a ee 4b bf bc 0b 2b f9 bb dd 87 b9 bc
       0.0011568788 -0.023351636 -0.007604008 -0.022647792
0000c0 4f 5b 40 bc f5 e2 22 3a 9e 87 7f 3c 3d 8f 74 ba
       -0.01174052 0.0006213629 0.0155962985 -0.00093292055
0000d0 5c 99 d7 3c 88 e4 d6 3a 51 68 01 3d 58 a2 2f bc
       0.026318245 0.0016395012 0.031593625 -0.010719858
0000e0 7c f0 59 3c 8b 2d 41 3b 8a 9e c6 3b d9 1a 82 3c
       0.013301965 0.0029476609 0.00606138 0.015881943
0000f0 75 bc 1a 3c be 7c 97 bb 4a aa d1 3a 04 c3 b1 bc
       0.009444346 -0.0046230247 0.0015996185 -0.021699436
000100 b3 0f 8c bc d2 52 43 3c 95 1f 14 bc de 22 04 bb
       -0.01709733 0.011921601 -0.009040733 -0.0020162384
000110 84 8c f1 bb 4e ea 32 3c 99 dc f8 bc e5 12 78 3c
       -0.007371487 0.01092012 -0.030378627 0.015141224
000120 6a ea 01 3b 27 a0 ad bc db 2a 38 bc f6 e6 a5 bb
       0.001982356 -0.02119453 -0.011240686 -0.005062933
000130 71 72 4b bc d8 91 6b 3b 57 6b a2 bb 0a cc d0 3b
       -0.012417422 0.0035945084 -0.0049566436 0.0063719796
000140 a1 07 38 bc b0 04 26 bb 73 9f 53 bc 9f 64 4f bc
       -0.011232288 -0.0025332384 -0.012916434 -0.012658267
000150 37 a2 49 3c bd 4a 4e 3c 0c 0b 86 bb db bd 1a 3c
       0.012306741 0.012591061 -0.0040906724 0.009444679
000160 ac 17 1b 3a 08 67 77 bc d5 1d 8c bb 01 0c 02 3d
       0.0005916308 -0.015100248 -0.004276017 0.03174973
000170 2c a6 ae bc 26 51 ef 3b 3a 50 67 bc 36 f3 ec 3b
       -0.021319471 0.007303375 -0.014118249 0.0072311414
000180 d9 42 91 3c 01 7c 99 bb 92 ad 85 bc f0 39 52 ba
       0.01773207 -0.004683972 -0.016318116 -0.00080194976
000190 76 d3 74 bc 12 2f 31 3c c6 b2 73 bc b6 ec 4e bc
       -0.014942994 0.010814445 -0.014874166 -0.0126296785
0001a0 7f 35 92 bc f8 72 2b bc 5b c2 09 3d 0d 24 3f bc
       -0.017847775 -0.010464422 0.033632617 -0.01166631
0001b0 52 ae d2 bc c5 fe 4c 3c 8c 53 63 3b df c2 86 bb
       -0.025717888 0.012511914 0.003468725 -0.004112586
0001c0 b5 a1 41 3c 8d 02 56 bb ac 2e e5 bb 57 a4 d1 3c
       0.011818339 -0.003265533 -0.006994089 0.025591059
0001d0 45 68 26 3c 5c 42 a9 ba b7 90 96 bb 60 85 ba 3b
       0.010156696 -0.0012913453 -0.004594888 0.005692169
0001e0 74 75 a5 bb af 9a 6a 3c e2 b2 8a bc 63 a0 f0 3b
       -0.005049402 0.014319106 -0.016931001 0.0073433383
0001f0 22 20 9d 3b c6 b4 c0 bc 60 94 8c bc c9 91 4d bb
       0.0047950903 -0.0235237 -0.017160594 -0.0031367412
000200 7b b7 48 bd 6d 57 05 3d 64 2a 3b bd a9 d8 45 bc
       -0.049003106 0.03255408 -0.045694724 -0.012075582
000210 b5 44 4d bd f7 a8 f1 3c 53 2c ea bb e8 0e 62 bc
       -0.050114352 0.029499514 -0.007146397 -0.013797499
000220 bb 08 0b bd 5a b5 f7 3b b0 25 af bb be 43 f4 3c
       -0.033943873 0.0075594606 -0.005345069 0.029817458
000230 cc 24 53 bd 68 f1 14 3d 72 a2 16 bd 4e a3 11 3d
       -0.051548764 0.036363035 -0.036776014 0.03555613
000240 41 c4 1e 3d 26 7f 12 3d 7b 5c ef bc 94 01 a8 bc
       0.03876138 0.03576579 -0.029218903 -0.020508565
000250 82 f5 5e bc 15 98 37 bd c4 45 7b 3c 72 e6 71 bc
       -0.013608338 -0.04482277 0.015336458 -0.014764415
000260 76 d3 88 bd ac bb 97 bd 60 8b 6d bd 91 1f 06 bd
       -0.06680958 -0.074088424 -0.057994246 -0.032744948
000270 a9 4e 2d 3d 27 01 4d bb f1 fa 31 3c b5 da 12 bb
       0.042311344 -0.0031281204 0.010863052 -0.0022408192
000280 37 25 92 3c c9 88 9c 3c 66 a5 20 3d bb 59 5d bd
       0.017840011 0.019108193 0.039220236 -0.05404065
000290 3e d4 74 3d 5f 2f 57 3d 20 7d 3e 3c 02 b3 9d bc
       0.059772722 0.05253541 0.011626512 -0.019250397
0002a0 ff d5 a7 bc e2 af a1 3c 4f e9 d8 bb da 6c 0a 3d
       -0.020487783 0.019737188 -0.0066196094 0.033795215
0002b0 b6 30 ec bc 45 9c 72 3d 03 ab 14 3d 9f 01 5c 3d
       -0.028831821 0.05923106 0.036295902 0.053712483
0002c0 1d f2 b1 3b 04 8d 06 bd 9f b1 24 bc 73 58 74 3b
       0.0054304735 -0.032849327 -0.010052114 0.0037284165
0002d0 bb 92 ee bc d1 9a e7 3c 33 c0 39 bd 0d ea 3c 3c
       -0.0291227 0.028272064 -0.04534931 0.011530411
0002e0 f7 df be 3c 28 ca 94 3a dc a3 49 bc f0 01 e7 bc
       0.023300154 0.0011351751 -0.0123071335 -0.028199166
0002f0 be b6 d8 bb b9 15 34 bc 26 e1 78 ba 24 69 2e bc
       -0.0066135814 -0.010991507 -0.0009493999 -0.010645185
000300 79 09 57 bd 2e ec b0 3b 7d 13 26 3d 51 93 c7 bb
       -0.05249927 0.0053992486 0.04054593 -0.0060905595
000310 45 0b 5d 3d 42 dd 57 3c 77 74 1d 3d 24 44 6c 3c
       0.053965826 0.013175311 0.038441148 0.014420543
000320 9e a8 a1 bd 55 c0 bb bc f0 37 0d 39 16 ea 50 3c
       -0.07893489 -0.02291886 0.00013467646 0.012751123
000330 43 c2 3b 3d 50 1a 03 3b 25 46 5c bd 9e 80 91 bc
       0.04583956 0.0020004697 -0.053777833 -0.017761525
000340 9e 94 51 bd 9c 81 5f bd 13 6c 05 bc 33 32 95 bd
       -0.051167123 -0.054566965 -0.008143443 -0.07284965
000350 c4 0e 11 bd 4b 8b 07 bd db 36 bd 3c c0 4b 2e bc
       -0.035414472 -0.033091825 0.023097446 -0.010638177
000360 2c 94 16 bc 62 ad 4e bc 9a b4 30 3c 60 fe 00 bd
       -0.0091906 -0.01261458 0.010785246 -0.03149259
000370 e1 71 e8 3b 4c ae 13 bd 77 87 26 bb 85 cb 13 bd
       0.0070936535 -0.036054894 -0.0025410333 -0.036082763
000380 eb c9 14 bd 14 a1 5b bc ba 6e 80 bd da be 17 3d
       -0.036325376 -0.013405103 -0.062711194 0.037047245
000390 b3 cc 34 bd 45 36 b9 3c 47 6b 43 bd 94 e9 73 3d
       -0.04414053 0.022608886 -0.04770973 0.05954893
0003a0 95 fa 83 3c 98 a8 49 bd 71 eb 09 bd de 39 23 3d
       0.016110698 -0.04923305 -0.0336718 0.03985011
0003b0 69 54 77 3c 28 01 ce 3c 87 6d a9 3c 17 af 93 3c
       0.015095809 0.025147036 0.02068211 0.018027825
0003c0 98 4f ea bc bf 6d 34 bd 0d 48 f8 3b fd 88 5e bc
       -0.028602406 -0.044049975 0.0075769485 -0.013582465
0003d0 9d 52 0c bd 6d eb 3c 3d 9f 2b 74 3d ea a6 f4 bc
       -0.034258474 0.046122957 0.059611913 -0.029864747
0003e0 71 a5 54 3d 1a 40 04 bc 47 be 70 bd 8b 41 b5 3b
       0.05191559 -0.008071924 -0.058775213 0.005531495
0003f0 48 dc 14 3d ae c7 c3 3b 57 d7 5a bd 37 54 b5 bc
       0.03634289 0.0059747314 -0.05342802 -0.022134883

action_model._discrete_distribution.branches.0.bias f4 [3]
000000 83 c5 28 bc a6 7f 71 3c f5 f2 ba bb
       -0.010300997 0.014739906 -0.0057052323
