results/EngTalkRun/MoveToBall/MoveToBall-3687.onnx (onnx, 73315 bytes, 6 tensors)

network_body._body_endoder.seq_layers.0.weight f4 [128, 6]
00000000: 65cb 363d ad13 573f c6c5 413e 3e35 313e
00000010: 336b 1bbe 4b77 7fbd 46b5 cfbe 9f0c 3b3e
00000020: 161f 16bf 1bb6 45bf 78e9 3fbe 63dc b3be
00000030: d8f6 0a3f 5e69 c73e 77e7 d9bd 746a ccbd
00000040: c6d9 c8bd 1245 02bf 62ff 4dbe 1de6 a8be
00000050: dc25 f83e 10e2 763e 6023 c93c b457 a3be
00000060: 1d7e 33bf f95d 86be bc11 df3e 4bd5 95be
00000070: 4cce d33d 4b45 a13e 1cd8 543f 83cb 1f3f
00000080: 4432 df3e 10c8 00bf 77c5 7d3e 5ea8 31bf
00000090: f5ab 163f 0e4e e53e 97bf c03e c1d7 8ebf
000000a0: e12f 6b3f f6ec bb3c 84bd 11be a9c3 52be
000000b0: 5ad6 943d 80ff 3d3f 956b 763f 4fd1 cabe
000000c0: 209c 58be 2209 1c3f 6f88 c5be 0a4b 5a3e
000000d0: 5dd7 38bf 3b5f d43e 5684 cb3e 75f1 de3d
000000e0: 4acc dd3e ed76 043f 467d 1bbf c0af 9f3c
000000f0: d1dd 0fbf e490 373e de8e 293e 8da1 19bd
00000100: 11a6 7cbe 7022 cebe f994 dd3e 0ec3 c3be
00000110: 4cc1 833b 1687 823e cb53 693f e834 4fbe
00000120: ccb8 01be 35cb 823f 6407 a03d 764d 26bf
00000130: 8188 8ebe 3624 f33e f820 033f 98c3 4a3f
00000140: cdcf 8d3e 3f02 1d3f 5f4f d0bc 0843 463f
00000150: f14e 433f c9f0 0bbf ae76 83be 77ae f1bd
00000160: fe86 14bf 67af a33d 31cc f5be 941a 4b3e
00000170: b35d cbbf 1d27 fcbd 932d 383f dbe2 ee3e
00000180: 52d7 a53e 86e8 3fbe c035 423e fa0d eb3e
00000190: 0635 8abe e596 f83e 41a8 883d 3a22 b63e
000001a0: 2227 2b3f 929c 563f 8df4 223f 7ae5 4a3e
000001b0: 96f7 babd 9a7b 55be 6a8e 9e3a a5a2 b23d
000001c0: 9b4c e13e aa2c 45bf 2bef 42bc d98d 8a3d
000001d0: 3637 273d 2239 d5be b5c9 9dbd 8072 15bf
000001e0: e810 02be 3e91 a33e 8d96 82bc 3b38 d83e
000001f0: a65b 1ebf eab8 7a3d 1775 db3e 914b fcbd
00000200: 4606 06bf 0638 603e fc9c 163f e7a8 05bf
00000210: 5dec a6bc 008b 88be 13c0 d7be 4e87 6d3e
00000220: 50c4 e8be 0ed8 f3be a904 e7bd 2fc7 f73e
00000230: 9605 e9bd f729 0a3f 1b6c dfbe 1468 26bf
00000240: b3f4 c03c e650 9cbe b203 64be b785 4f3f
00000250: 47f8 43be c7fa b43e a99c 14bb 9563 45bf
00000260: 3985 b7be 195c d2be 4b8a ac3e aaa8 17bf
00000270: d0ad e1bd b10c f0be d196 0ebf ecc5 a93e
00000280: f184 70bf 0211 cf3e 90b2 633e c9e6 8a3e
00000290: 9c2c 173e a4b1 953e dce1 dc3e 8acd 2abe
000002a0: ec04 b0be bc05 ddbe 32bf c93e 4bc2 2dbf
000002b0: 90fd d8be 180b 1b3e f2e5 cc3e b744 b3bc
000002c0: ae3e e2bd f3fb ae3c 525d 9abb 9c89 513f
000002d0: 6928 7dbe 28db b7be 727c 723c 91b4 33bc
000002e0: fe62 b63d 4b82 e2be f57a 943e 7316 f3be
000002f0: bc95 26be 7968 9c3d d915 29be eced debe
00000300: 4eac 233d 78d6 2cbe 6870 4fbe 72e1 043f
00000310: 37a5 19bf 8fc5 f23d 6fc5 993f d4b8 0e3e
00000320: d7e2 3bbf bd16 493e c87c e93e 0472 0a3f
00000330: e01a 52be 3adf cd3e 10a0 36bd fb43 093f
00000340: 5e81 58bd 921f 9b3e 6dd6 f93d 5546 4a3e
00000350: 2979 21bf 7736 0dbe 0f05 723e e7e3 19bf
00000360: ab8f e53e d24c d63e 9afd 1c3f 4561 a3be
00000370: caaa 723e 13f0 f23c ae09 943e b158 5ebf
00000380: 267a 9cbe a63a 893e e614 e83d a16c 9cbd
00000390: c14e 20be 8dff 83bb a777 653e d2a8 80bf
000003a0: 22c8 633f 3c04 8b3e c9f9 293e 4856 033e
000003b0: 0d1c c4bd 4f90 9cbe 840c 4dbe 6a36 e8bb
000003c0: 90d4 94be bc7e 9dbd 9cc4 883d 5c8f 2ebf
000003d0: b6bf 68be 69c9 8cbe 88e8 85bd 0241 0ebd
000003e0: c8ec 87be de26 7abe e43f 16be 87af 42bd
000003f0: f98b 093e fe1d f73e 45eb 963e 5a3d 893d
0.044627566 0.840144 0.18923101 0.17305467 -0.15177612 -0.062369626 -0.40567988 0.18266533
-0.58641183 -0.77230996 -0.18741405 -0.3512908 0.54282904 0.38947576 -0.106398515 -0.09981242
-0.09807162 -0.5088664 -0.20116952 -0.32988063 0.48466384 0.24109674 0.024553 -0.3190285
-0.7011431 -0.2624357 0.43568218 -0.29264292 0.103420824 0.3149818 0.83142257 0.6241991
0.43593037 -0.5030527 0.24782358 -0.6939753 0.58856136 0.44786114 0.3764617 -1.1159593
0.9186993 0.02294014 -0.1423245 -0.20582451 0.07267447 0.7421799 0.9625791 -0.39612815
-0.21153307 0.60951436 -0.38580653 0.21317688 -0.7220362 0.41478905 0.39749402 0.10885898
0.43319923 0.51743966 -0.6073803 0.019492984 -0.5619784 0.17926365 0.16558406 -0.037507582
-0.24672724 -0.4026065 0.4327772 -0.38234752 0.0040208455 0.25493687 0.9114348 -0.20235026
-0.1266815 1.0218264 0.0781391 -0.64961946 -0.2783852 0.47488564 0.5122218 0.792047
0.27697602 0.6133155 -0.025428472 0.7744603 0.7629233 -0.54664284 -0.25676483 -0.11800855
-0.5801848 0.0799244 -0.48007348 0.19834358 -1.588797 -0.12312148 0.7194454 0.46657452
0.3239084 -0.18741044 0.18965816 0.459091 -0.2699358 0.48552623 0.06672717 0.35572988
0.66856587 0.8383266 0.63654405 0.19814101 -0.091292545 -0.20847932 0.0012096886 0.08722428
0.44003758 -0.77021277 -0.011897842 0.067653365 0.040824138 -0.4164515 -0.07704488 -0.5837784
-0.12701762 0.31946748 -0.015940929 0.422304 -0.61858594 0.061211504 0.4286277 -0.12319101
-0.5235332 0.21896371 0.5883329 -0.5221085 -0.020376379 -0.2666855 -0.42138728 0.23196146
-0.45462275 -0.47625774 -0.11280186 0.48394153 -0.113780186 0.53970283 -0.43637165 -0.6500256
0.023554182 -0.3053047 -0.22267035 0.8106341 -0.19137679 0.35347578 -0.0022676385 -0.77105075
-0.35843828 -0.4108589 0.3369926 -0.59241736 -0.1101948 -0.46884683 -0.5569888 0.33158815
-0.9395285 0.40442663 0.22236085 0.271292 0.14763111 0.29237092 0.43141067 -0.1667997
-0.34378755 -0.43168437 0.39403683 -0.6787459 -0.42380953 0.1514095 0.40019184 -0.021883352
-0.110471115 0.021360373 -0.0047108317 0.818506 -0.24722447 -0.3590939 0.014800178 -0.010968343
0.089056 -0.4424003 0.2900006 -0.47478065 -0.16268057 0.07637114 -0.1651224 -0.43540895
0.039959244 -0.16878688 -0.20257723 0.519065 -0.6001772 0.118540876 1.2013377 0.13937694
-0.73393005 0.1963758 0.45603013 0.54080224 -0.20518064 0.4020937 -0.04458624 0.53619355
-0.05285775 0.30297524 0.121991016 0.19753392 -0.630755 -0.13790308 0.23634742 -0.60113376
0.44836172 0.41855484 0.61324465 -0.31910148 0.23697963 0.029655492 0.28913635 -0.8685408
-0.30561942 0.26802558 0.11332111 -0.07637907 -0.15655042 -0.0040282668 0.22408925 -1.005152
0.88977253 0.27151668 0.16599192 0.12825882 -0.09575663 -0.3057885 -0.20024306 -0.007086565
-0.29068422 -0.07690188 0.06678125 -0.681875 -0.22729382 -0.27497414 -0.065384924 -0.034729965
-0.26547837 -0.24428889 -0.1467281 -0.047530677 0.13432302 0.4826507 0.2947637 0.06701155

network_body._body_endoder.seq_layers.0.bias f4 [128]
00000000: 0000 0000 0000 0000 0000 0000 0000 0000
00000010: 0000 0000 0000 0000 0000 0000 0000 0000
00000020: 0000 0000 0000 0000 0000 0000 0000 0000
00000030: 0000 0000 0000 0000 0000 0000 0000 0000
00000040: 0000 0000 0000 0000 0000 0000 0000 0000
00000050: 0000 0000 0000 0000 0000 0000 0000 0000
00000060: 0000 0000 0000 0000 0000 0000 0000 0000
00000070: 0000 0000 0000 0000 0000 0000 0000 0000
00000080: 0000 0000 0000 0000 0000 0000 0000 0000
00000090: 0000 0000 0000 0000 0000 0000 0000 0000
000000a0: 0000 0000 0000 0000 0000 0000 0000 0000
000000b0: 0000 0000 0000 0000 0000 0000 0000 0000
000000c0: 0000 0000 0000 0000 0000 0000 0000 0000
000000d0: 0000 0000 0000 0000 0000 0000 0000 0000
000000e0: 0000 0000 0000 0000 0000 0000 0000 0000
000000f0: 0000 0000 0000 0000 0000 0000 0000 0000
00000100: 0000 0000 0000 0000 0000 0000 0000 0000
00000110: 0000 0000 0000 0000 0000 0000 0000 0000
00000120: 0000 0000 0000 0000 0000 0000 0000 0000
00000130: 0000 0000 0000 0000 0000 0000 0000 0000
00000140: 0000 0000 0000 0000 0000 0000 0000 0000
00000150: 0000 0000 0000 0000 0000 0000 0000 0000
00000160: 0000 0000 0000 0000 0000 0000 0000 0000
00000170: 0000 0000 0000 0000 0000 0000 0000 0000
00000180: 0000 0000 0000 0000 0000 0000 0000 0000
00000190: 0000 0000 0000 0000 0000 0000 0000 0000
000001a0: 0000 0000 0000 0000 0000 0000 0000 0000
000001b0: 0000 0000 0000 0000 0000 0000 0000 0000
000001c0: 0000 0000 0000 0000 0000 0000 0000 0000
000001d0: 0000 0000 0000 0000 0000 0000 0000 0000
000001e0: 0000 0000 0000 0000 0000 0000 0000 0000
000001f0: 0000 0000 0000 0000 0000 0000 0000 0000
0.0 0.0 0.0 0.0 0.0 0.0 0.0 0.0
0.0 0.0 0.0 0.0 0.0 0.0 0.0 0.0
0.0 0.0 0.0 0.0 0.0 0.0 0.0 0.0
0.0 0.0 0.0 0.0 0.0 0.0 0.0 0.0
0.0 0.0 0.0 0.0 0.0 0.0 0.0 0.0
0.0 0.0 0.0 0.0 0.0 0.0 0.0 0.0
0.0 0.0 0.0 0.0 0.0 0.0 0.0 0.0
0.0 0.0 0.0 0.0 0.0 0.0 0.0 0.0
0.0 0.0 0.0 0.0 0.0 0.0 0.0 0.0
0.0 0.0 0.0 0.0 0.0 0.0 0.0 0.0
0.0 0.0 0.0 0.0 0.0 0.0 0.0 0.0
0.0 0.0 0.0 0.0 0.0 0.0 0.0 0.0
0.0 0.0 0.0 0.0 0.0 0.0 0.0 0.0
0.0 0.0 0.0 0.0 0.0 0.0 0.0 0.0
0.0 0.0 0.0 0.0 0.0 0.0 0.0 0.0
0.0 0.0 0.0 0.0 0.0 0.0 0.0 0.0

network_body._body_endoder.seq_layers.2.weight f4 [128, 128]
00000000: 23cf c83d ab86 1b3b cb12 20bd 14a3 d33d
00000010: 2f02 0dbc 0bee 083e 497d 9c3c 17af 95bd
00000020: 0d78 2b3e 98e0 37be fd11 e43d a1f7 54bd
00000030: 52ff 5e3c 2285 7f3d 94b9 103e ec29 d53d
00000040: c323 0cbe 9c40 833d 45e7 07be 7d6d 16be
00000050: 0913 1abe f30c 07bd 1111 f4bd ce1f bb3d
00000060: 1d5e 3b3d 953d fe3d 3626 5e3d fb7d 873d
00000070: 50b3 873c c429 56bc 8907 a4bd 4fbe d9ba
00000080: f187 d2bd bd33 c9bd e419 ad3c 8e46 ee3d
00000090: 80e3 f2bd abc7 e03a 738b 3dbd c4ed 3abe
000000a0: e718 9b3c 4be4 6ebb db9d ffbc b072 a03d
000000b0: 210d ab3d e5ab 413e da6d eabc 584b 823d
000000c0: 67db 8e3a 88ca 213e 83bc be3d b743 4c3d
000000d0: 02a6 c8bd 3847 3bbd 9533 533d 4269 0b3d
000000e0: 79c2 003d add2 aa3d d92f a3bc 3623 3b3c
000000f0: 2f9c 61be 9585 f13d 4cd0 fd3d 6d19 1d3d
00000100: c017 b83c a318 31be ce65 903c 2575 e2bc
00000110: 4fb9 653d 2775 0bbe 70ac a1bd c067 693c
00000120: f89f 913e e881 813d dcf2 e3bd 2f02 ebbd
00000130: a2f7 4e3e 9f1a 0b3e 2287 1fbd b251 2fbc
00000140: 260a 3bbd 44fa 353e ce24 a1bd c75a 0cbe
00000150: efe5 7d3d a30e a43d d081 9dbd e5d7 df3d
00000160: d2ef cebd 5d95 67bd 1238 4ebd c5fa 803c
00000170: 93b0 793d f23f d5bb 60a9 f9bd ea78 98bd
00000180: 47e5 f13c a951 163e 4280 0e3e b05a 49bc
00000190: 443e aebd d440 15bd 569c 2f3d 8b55 503c
000001a0: fda9 41be 3b9f ccbd ee5d ce3b 3992 3b3e
000001b0: 3f3f 163d bdda 063d 9833 a83d 3f40 7e3d
000001c0: 083e b5bd a577 f23b 05c5 083d 4cd7 23be
000001d0: 8b20 aabd f087 0f3d 57e7 28be 5d5f 68bd
000001e0: 7c2f 563e a5ce 7b3c 5fb1 0cbd 0d4b d2bb
000001f0: 9c7e b13b bf85 ec3d d357 1bbe 6c4b d73d
00000200: 8a91 c13b 7f72 ed3d 9015 d43d 5bb8 bc3d
00000210: dcd8 07bd 9ab2 b7bc fcf0 493c fb9c a73c
00000220: 330b 643d 5f52 89b9 8b78 c93c 0dd2 2bbe
00000230: 6854 75be 2a20 1a3e a8e9 56bb 3703 4d3d
00000240: 7ab4 d6bd ba39 583c 43cd 333b 3583 00bd
00000250: 2ef1 e93d 4f7b f3bb dfbc 773e 092a 17bd
00000260: 56ca 0b3e 23ec bf3d f17e 6ebd 20cf 343d
00000270: 3210 1bbd 0ba9 f93c 0b12 9dbc 8d39 6a3e
00000280: ff98 6a3c 54e7 833d 550f 0d3d c69e 313e
00000290: 5d6e 0c3e 6d4e 313d e846 4fbd 2aff 853d
000002a0: 1f02 623d a5c1 1b3d bb87 c93d b139 543e
000002b0: bf3d 85bd 01cc 34be cdad 003d d9a0 3b3c
000002c0: c4d7 97bd f13a 643d e45a 07bd 1099 e33d
000002d0: 35ed 803d 03c5 273e 5594 edbc e21c 523d
000002e0: 43d9 79bc eab6 a93c 3bc5 693c 1fd9 dc39
000002f0: f78a fabc ef31 073d ec69 063e adf5 c9bc
00000300: ca3d a23d 6cd5 0abd 6f91 f43d e147 c6bd
00000310: a9a3 42bc ae30 45bb dd85 15bd 80de d83c
00000320: 4fe7 303d e28c e4bd 40b3 803d 3bfb e83d
00000330: ae87 a13c add6 c7bd 5d3e d13d de9c cd3b
00000340: bc68 17bc c19d 17be 5b2c 9ebd 5d92 0bbe
00000350: 1b48 b1bc 47d7 503c 4e61 ab3d 09d6 473d
00000360: 6d97 4cbd 2947 903d 1072 80bc d120 76bd
00000370: 426e 2d3d 251f c03d 4f79 c9bc 05b4 813c
00000380: feee 68bd 133f e93c 7c03 f0bd 4d99 6f3c
00000390: 460e a4bd e3a4 013e a7ab bb3d a673 1e3e
000003a0: 5ec1 343d 5dd5 b33d 0e28 15bd bd23 28bd
000003b0: 69a4 40bc 448e 72bc 9ce1 41bd dfb7 fabd
000003c0: 13d1 c5bd 3278 02bc ff46 a83d 663f d13d
000003d0: df05 223c 84b9 f0bd e5cd 8c3d bc9f 30ba
000003e0: c11a 263e e4d5 1c3d bde2 0fbe f768 173d
000003f0: 4972 07be 97cc 533d 2afa 96bd cdfe 60bd
0.09805133 0.0023731391 -0.039080422 0.10333839 -0.008606478 0.13372056 0.01910271 -0.07308786
0.16745014 -0.1795677 0.111362435 -0.05199397 0.013610678 0.062382825 0.14133292 0.104083866
-0.13685517 0.06408808 -0.13271816 -0.14690204 -0.15046324 -0.032971334 -0.11917318 0.09136926
0.04574405 0.124140896 0.05423566 0.06615826 0.016564995 -0.013071481 -0.0800925 -0.0016612503
-0.10279835 -0.098243214 0.02113051 0.11634551 -0.118597984 0.001714935 -0.046275567 -0.18254763
0.018932773 -0.0036451991 -0.031203201 0.07834375 0.083521135 0.18913229 -0.028616834 0.06362027
0.0010899127 0.15799916 0.093132995 0.049869265 -0.097972885 -0.045722216 0.051562864 0.03403593
0.031435464 0.083409645 -0.019920276 0.011421969 -0.22032236 0.11793057 0.12393245 0.038354326
0.022472262 -0.17294554 0.01762667 -0.02764375 0.056084927 -0.13618909 -0.07894218 0.014245927
0.2844236 0.06323606 -0.11130306 -0.11475026 0.20211652 0.13584374 -0.038947232 -0.01070063
-0.045663975 0.1777125 -0.07868348 -0.13706504 0.06198686 0.08010604 -0.076907754 0.109298505
-0.10104336 -0.05653893 -0.05034644 0.015744576 0.06095941 -0.006507867 -0.12190509 -0.074449375
0.029528273 0.14679588 0.13916114 -0.012289688 -0.0850797 -0.036438778 0.042873703 0.0127157075
-0.18912502 -0.09991308 0.0062978184 0.18317498 0.03668141 0.03292345 0.08212966 0.06207299
-0.08849722 0.0073995166 0.033391017 -0.16000098 -0.08306988 0.03504175 -0.16494499 -0.05673157
0.20916551 0.015369092 -0.03434884 -0.006417638 0.0054167043 0.115489475 -0.15170221 0.105124325
0.005907242 0.11594104 0.10355675 0.092148505 -0.033165798 -0.022424031 0.012325522 0.020460596
0.055674743 -0.00026192048 0.024593612 -0.16779347 -0.2395798 0.15051332 -0.0032793079 0.050051894
-0.10483642 0.013197357 0.0027435578 -0.03137513 0.114229545 -0.007430471 0.24193142 -0.036905322
0.13651404 0.093712114 -0.05822653 0.044142842 -0.037857242 0.030476114 -0.019173643 0.22873516
0.014318704 0.06440607 0.03443845 0.17345724 0.13713975 0.043287683 -0.05060473 0.06542809
0.055177804 0.03802647 0.09840342 0.20725133 -0.06505918 -0.17655946 0.03141575 0.011451923
-0.07414201 0.055720273 -0.033045664 0.11113179 0.06295244 0.16383748 -0.029001394 0.051297076
-0.015249553 0.020717103 0.014268215 0.00042123438 -0.030583842 0.033006605 0.13126343 -0.02465328
0.079219416 -0.03389494 0.11941802 -0.096816786 -0.01187984 -0.003008883 -0.036504615 0.026473284
0.043189343 -0.11159684 0.06284189 0.113760434 0.019718017 -0.09757743 0.10216973 0.0062748035
-0.009241279 -0.14806272 -0.07723304 -0.13630052 -0.021640828 0.012746639 0.08368169 0.048788104
-0.0499491 0.07044823 -0.01567939 -0.06008989 0.04234148 0.0938094 -0.024593977 0.01583291
-0.056868546 0.028472459 -0.117194146 0.014623952 -0.08010535 0.12660556 0.091635995 0.15473804
0.04412972 0.0878093 -0.036415152 -0.041049708 -0.011757948 -0.014804427 -0.0473343 -0.12242102
-0.09659018 -0.007963227 0.082166664 0.102171704 0.009889095 -0.11754134 0.06875209 -0.00067376695
0.16221143 0.03828992 -0.14051338 0.036965337 -0.1322719 0.051708784 -0.07371934 -0.054930497

network_body._body_endoder.seq_layers.2.bias f4 [128]
00000000: 0000 0000 0000 0000 0000 0000 0000 0000
00000010: 0000 0000 0000 0000 0000 0000 0000 0000
00000020: 0000 0000 0000 0000 0000 0000 0000 0000
00000030: 0000 0000 0000 0000 0000 0000 0000 0000
00000040: 0000 0000 0000 0000 0000 0000 0000 0000
00000050: 0000 0000 0000 0000 0000 0000 0000 0000
00000060: 0000 0000 0000 0000 0000 0000 0000 0000
00000070: 0000 0000 0000 0000 0000 0000 0000 0000
00000080: 0000 0000 0000 0000 0000 0000 0000 0000
00000090: 0000 0000 0000 0000 0000 0000 0000 0000
000000a0: 0000 0000 0000 0000 0000 0000 0000 0000
000000b0: 0000 0000 0000 0000 0000 0000 0000 0000
000000c0: 0000 0000 0000 0000 0000 0000 0000 0000
000000d0: 0000 0000 0000 0000 0000 0000 0000 0000
000000e0: 0000 0000 0000 0000 0000 0000 0000 0000
000000f0: 0000 0000 0000 0000 0000 0000 0000 0000
00000100: 0000 0000 0000 0000 0000 0000 0000 0000
00000110: 0000 0000 0000 0000 0000 0000 0000 0000
00000120: 0000 0000 0000 0000 0000 0000 0000 0000
00000130: 0000 0000 0000 0000 0000 0000 0000 0000
00000140: 0000 0000 0000 0000 0000 0000 0000 0000
00000150: 0000 0000 0000 0000 0000 0000 0000 0000
00000160: 0000 0000 0000 0000 0000 0000 0000 0000
00000170: 0000 0000 0000 0000 0000 0000 0000 0000
00000180: 0000 0000 0000 0000 0000 0000 0000 0000
00000190: 0000 0000 0000 0000 0000 0000 0000 0000
000001a0: 0000 0000 0000 0000 0000 0000 0000 0000
000001b0: 0000 0000 0000 0000 0000 0000 0000 0000
000001c0: 0000 0000 0000 0000 0000 0000 0000 0000
000001d0: 0000 0000 0000 0000 0000 0000 0000 0000
000001e0: 0000 0000 0000 0000 0000 0000 0000 0000
000001f0: 0000 0000 0000 0000 0000 0000 0000 0000
0.0 0.0 0.0 0.0 0.0 0.0 0.0 0.0
0.0 0.0 0.0 0.0 0.0 0.0 0.0 0.0
0.0 0.0 0.0 0.0 0.0 0.0 0.0 0.0
0.0 0.0 0.0 0.0 0.0 0.0 0.0 0.0
0.0 0.0 0.0 0.0 0.0 0.0 0.0 0.0
0.0 0.0 0.0 0.0 0.0 0.0 0.0 0.0
0.0 0.0 0.0 0.0 0.0 0.0 0.0 0.0
0.0 0.0 0.0 0.0 0.0 0.0 0.0 0.0
0.0 0.0 0.0 0.0 0.0 0.0 0.0 0.0
0.0 0.0 0.0 0.0 0.0 0.0 0.0 0.0
0.0 0.0 0.0 0.0 0.0 0.0 0.0 0.0
0.0 0.0 0.0 0.0 0.0 0.0 0.0 0.0
0.0 0.0 0.0 0.0 0.0 0.0 0.0 0.0
0.0 0.0 0.0 0.0 0.0 0.0 0.0 0.0
0.0 0.0 0.0 0.0 0.0 0.0 0.0 0.0
0.0 0.0 0.0 0.0 0.0 0.0 0.0 0.0

action_model._discrete_distribution.branches.0.weight f4 [3, 128]
00000000: 149a b4bb 0b81 843c 0788 f8ba 0cad 80bc
00000010: 6ad6 6a3b 7f8b b53b d3b1 0d3c 6a7a 4d3a
00000020: abb4 d0bb 37ca 123c 8de8 e1bb 8d80 9c3c
00000030: 1d41 763a cc72 963b 85fd 543a fe21 8d3b
00000040: b304 4b3b bb70 1bbc 33d1 0639 1ac5 e3bb
00000050: cb8c 9fbc b590 12bc edae 093b 1300 823b
00000060: e4b2 9ebb 3596 123b 3c6e 8abc b7ce fe3a
00000070: 8ce1 a83b 2d04 55bb 2852 213c d9d8 abbc
00000080: e08d dcbb 83c8 f9b7 2b64 b63b 61ae 223c
00000090: f357 8b3b 2518 563b 06d6 803c ad20 46bc
000000a0: 47f9 b239 4f12 25bc e508 d6bb b244 153a
000000b0: 100d 103c c0cf 13bb 4f3a bf39 1be6 3dbb
000000c0: cc41 a43c 3be8 19bc 52bc 8cbc fafc 9c3b
000000d0: 0920 933b 204c 98bc 1507 9cbc c753 b5bb
000000e0: c2d6 733b 75a6 5d3c cf95 1ebc 0ca2 9e3b
000000f0: 53af 5e3c 986e d03b 77bf 313c ab39 033a
00000100: 170e af3b dea3 b1bb b5d8 363c c795 8a3b
00000110: 0709 a6bc 8f48 a13b afe6 f5bb f759 5bbc
00000120: 9018 1cbc f6aa a1bb 64e8 c33b 9af9 ed3b
00000130: 8a35 6f3c 6b45 c1bc f369 473c 0845 353c
00000140: 17da 563c 0fab 213c 3fde fb3a bfef 1ebc
00000150: a3fd 813b a180 223b 882a e83b d0b8 f63b
00000160: 06d7 86bc d7e5 093c 476a b3bb 6c1c babb
00000170: f1cd 29bb af9e 23bb 0c63 84b8 ac0a 9f3c
00000180: 542c 223c a016 29bb ebe9 41bb 02f9 9fb9
00000190: a2bd 073b efa2 a23b 97f2 fd3b 9568 cd3b
000001a0: 905d d6bb 3d7d 163c 0cd8 a63c cf3d 24bc
000001b0: 6756 d03b 90ed 70bb 7e30 8fbc 7ca6 03bc
000001c0: 3be4 153b b69d a23c 7f66 013c eabd b4bb
000001d0: 7a89 003c d11d 0d39 255a 56bc fe1f 11bc
000001e0: be66 083c a2df 1ab9 ae69 223b 756a debb
000001f0: 4ae5 47bc 3369 d6bb d34b 92bb 4890 98bb
00000200: ecce 15bc 9b95 35bb 8225 323b bf54 afba
00000210: e3a8 51bc 18fc a43b b174 8ebb 78ad c63b
00000220: 56c8 ccbb 5416 183c 80e5 2bbb 4033 a6bb
00000230: 83ac e3bb beea 303c 4d53 5c3c 435f a93b
00000240: c3d3 8fbc 56e5 99ba dde1 f0bb 7edd a6bb
00000250: 6261 c53a 0bbf 243b 3a30 30bc 0fe2 9eb9
00000260: 17e6 1bbb aaa7 f93b dfd7 b83b 2219 e3bb
00000270: 5f17 063b 73ee 0ebc 8f66 49bc 527a a23b
00000280: b951 063b af4b 12bc 48c9 4e3a 7b9f d5bb
00000290: 4396 9c3c 5f7c 98bb 23f0 17bc 9f90 733c
000002a0: c6be 1f3c ed67 23bc 7b91 013a 0a0f 12bc
000002b0: b69b 0d3c 9890 653b f7a2 d6bb 93c8 f13b
000002c0: fff2 153c 575f 32bc 375e eb3b 35b1 943c
000002d0: 59e2 12bc 3b30 ab3a 10b1 963b 61a3 8f3c
000002e0: f71b f53b 63ee 59bc 2a57 42bc 2535 6d3c
000002f0: 5702 573c 67eb 013b 2f95 cb3a 6879 18bc
00000300: 1390 d33a d810 0cbc 6344 b73a 07bc a83b
00000310: f7d5 c03c b05e 3d3c 11bb 1abc 77ad 6c3c
00000320: 3dee 56bb a52d 763b 7841 e83b 1f6d 1b3c
00000330: 0786 88ba ccbd babb babe 18bb e7c2 4dba
00000340: a500 f43b 4e33 41bc 8377 313c 56df b0bb
00000350: a05d 1b3c 1f15 e0bb d1de 323a 819b 873b
00000360: 6b48 043c b71a 3e3c 4777 44bc 276b b63b
00000370: 13a3 753c 2355 cf3a 329f 683a 3188 093c
00000380: 6bd5 39bc 230b a7bb 2b5d 16bc 7bf6 7bbb
00000390: 9d91 ffb8 abb5 8cba 7f8d babb 0f83 32bc
000003a0: 9001 d939 8245 4fbb 5340 10bb 55d5 133c
000003b0: 0e21 0a3c fd97 fcbb c81c df3b 6814 103c
000003c0: 763b 103a 9226 8fb9 0ca9 21bb d203 723c
000003d0: 2040 3b3c 7da4 e9bb 7822 4dbc a74f 103c
000003e0: 9acc d43b d373 92ba 13ae 5dbc b3ac 90bb
000003f0: 1b61 b4ba b583 f33b 257b 6c3a 2764 43bb
-0.0055115316 0.016174814 -0.0018961438 -0.015707515 0.0035833367 0.005540311 0.008648354 0.00078383705
-0.0063691936 0.008959345 -0.0068941773 0.019104267 0.0009393858 0.0045913216 0.00081249356 0.0043070307
0.0030978143 -0.009487326 0.00012857169 -0.0069509866 -0.019476315 -0.008945634 0.0021008805 0.003967294
-0.004843103 0.0022367362 -0.016898267 0.0019440268 0.0051538404 -0.003250371 0.009846248 -0.020977424
-0.00673078 -2.9776484e-05 0.00556614 0.0099292705 0.0042524277 0.00326682 0.015727054 -0.012092751
0.00034136532 -0.010075166 -0.006531822 0.00056941353 0.008792177 -0.0022554249 0.00036473802 -0.0028976265
0.020050906 -0.009393747 -0.017179642 0.0047908993 0.004489903 -0.018590987 -0.019046346 -0.0055336687
0.0037206863 0.013528456 -0.009679272 0.004841095 0.013591605 0.00636084 0.010848871 0.00050058466
0.005342256 -0.005421146 0.011160065 0.0042292806 -0.020267976 0.0049219797 -0.0075043063 -0.0133881485
-0.0095273405 -0.00493371 0.005978631 0.007262421 0.014600167 -0.023592671 0.012171256 0.011063822
0.01311352 0.009867444 0.0019216015 -0.009700715 0.0039670034 0.0024795907 0.0070851482 0.0075293556
-0.016459953 0.0084166145 -0.0054753157 -0.0056796577 -0.0025910104 -0.002496641 -6.3126994e-05 0.019414268
0.009898264 -0.002580084 -0.002958889 -0.00030512369 0.0020712395 0.004963271 0.007749866 0.0062685707
-0.0065419152 0.009185133 0.020366691 -0.010024502 0.006357956 -0.0036762692 -0.017479178 -0.008035298
0.0022871632 0.019850593 0.007897972 -0.0055158036 0.007845277 0.00013457915 -0.013083016 -0.008857725
0.008325277 -0.00014769894 0.0024782228 -0.006787593 -0.012200663 -0.0065433024 -0.0044646054 -0.0046558715
-0.009143572 -0.002770758 0.0027183 -0.0013376697 -0.012796613 0.0050349347 -0.004347407 0.0060631596
-0.006249468 0.009282667 -0.0026229322 -0.0050720274 -0.0069480552 0.010798154 0.013447595 0.005168827
-0.01755703 -0.0011741321 -0.0073511438 -0.005092322 0.001505893 0.0025138285 -0.010753686 -0.00030304535
-0.0023788267 0.007618864 0.005640968 -0.0069304863 0.0020460708 -0.008723843 -0.012292518 0.0049584294
0.0020495488 -0.008929177 0.00078882696 -0.0065192557 0.01911462 -0.004653498 -0.009273562 0.014866023
0.009750074 -0.009973508 0.0004942638 -0.008914718 0.008643081 0.0035028812 -0.0065501886 0.0073786466
0.009152173 -0.010886989 0.007182862 0.018150905 -0.008965098 0.0013060638 0.004598744 0.01753396
0.0074801403 -0.013301465 -0.011861602 0.014478003 0.013123116 0.0019824149 0.0015532131 -0.009306289
0.001614096 -0.008548938 0.0013982173 0.0051493677 0.023539526 0.01155822 -0.009444014 0.014445654
-0.003279581 0.0037563827 0.0070878826 0.009486466 -0.001041592 -0.005698895 -0.0023307041 -0.0007849172
0.007446366 -0.011792017 0.0108317165 -0.0053977175 0.009482771 -0.0068384553 0.00068233634 0.0041384106
0.008073906 0.011603049 -0.011991329 0.005566973 0.014992493 0.0015818219 0.00088738196 0.008394287
-0.011342387 -0.005097763 -0.009177486 -0.0038446474 -0.0001218647 -0.0010735294 -0.005693137 -0.010895505
0.0004139063 -0.0031627123 -0.0022010996 0.00902303 0.008430732 -0.007708548 0.006808851 0.008793928
0.00055020244 -0.00027303823 -0.002466741 0.014771419 0.011428863 -0.0071302042 -0.012520425 0.008808053
0.006494117 -0.0011173434 -0.013530272 -0.0044151186 -0.001376185 0.007431472 0.00090210355 -0.0029814334

action_model._discrete_distribution.branches.0.bias f4 [3]
00000000: 0000 0000 0000 0000 0000 0000
0.0 0.0 0.0
