results/EngTalkRun/MoveToBall/MoveToBall-3687.pt (torch, 149613 bytes, 11 tensors)

network_body._body_endoder.seq_layers.0.weight f4 [128, 6]
00000000: 65cb 363d ad13 573f c6c5 413e 3e35 313e
00000010: 336b 1bbe 4b77 7fbd 46b5 cfbe 9f0c 3b3e
00000020: 161f 16bf 1bb6 45bf 78e9 3fbe 63dc b3be
00000030: d8f6 0a3f 5e69 c73e 77e7 d9bd 746a ccbd
00000040: c6d9 c8bd 1245 02bf 62ff 4dbe 1de6 a8be
00000050: dc25 f83e 10e2 763e 6023 c93c b457 a3be
00000060: 1d7e 33bf f95d 86be bc11 df3e 4bd5 95be
00000070: 4cce d33d 4b45 a13e 1cd8 543f 83cb 1f3f
00000080: 4432 df3e 10c8 00bf 77c5 7d3e 5ea8 31bf
00000090: f5ab 163f 0e4e e53e 97bf c03e c1d7 8ebf
000000a0: e12f 6b3f f6ec bb3c 84bd 11be a9c3 52be
000000b0: 5ad6 943d 80ff 3d3f 956b 763f 4fd1 cabe
000000c0: 209c 58be 2209 1c3f 6f88 c5be 0a4b 5a3e
000000d0: 5dd7 38bf 3b5f d43e 5684 cb3e 75f1 de3d
000000e0: 4acc dd3e ed76 043f 467d 1bbf c0af 9f3c
000000f0: d1dd 0fbf e490 373e de8e 293e 8da1 19bd
00000100: 11a6 7cbe 7022 cebe f994 dd3e 0ec3 c3be
00000110: 4cc1 833b 1687 823e cb53 693f e834 4fbe
00000120: ccb8 01be 35cb 823f 6407 a03d 764d 26bf
00000130: 8188 8ebe 3624 f33e f820 033f 98c3 4a3f
00000140: cdcf 8d3e 3f02 1d3f 5f4f d0bc 0843 463f
00000150: f14e 433f c9f0 0bbf ae76 83be 77ae f1bd
00000160: fe86 14bf 67af a33d 31cc f5be 941a 4b3e
00000170: b35d cbbf 1d27 fcbd 932d 383f dbe2 ee3e
00000180: 52d7 a53e 86e8 3fbe c035 423e fa0d eb3e
00000190: 0635 8abe e596 f83e 41a8 883d 3a22 b63e
000001a0: 2227 2b3f 929c 563f 8df4 223f 7ae5 4a3e
000001b0: 96f7 babd 9a7b 55be 6a8e 9e3a a5a2 b23d
000001c0: 9b4c e13e aa2c 45bf 2bef 42bc d98d 8a3d
000001d0: 3637 273d 2239 d5be b5c9 9dbd 8072 15bf
000001e0: e810 02be 3e91 a33e 8d96 82bc 3b38 d83e
000001f0: a65b 1ebf eab8 7a3d 1775 db3e 914b fcbd
00000200: 4606 06bf 0638 603e fc9c 163f e7a8 05bf
00000210: 5dec a6bc 008b 88be 13c0 d7be 4e87 6d3e
00000220: 50c4 e8be 0ed8 f3be a904 e7bd 2fc7 f73e
00000230: 9605 e9bd f729 0a3f 1b6c dfbe 1468 26bf
00000240: b3f4 c03c e650 9cbe b203 64be b785 4f3f
00000250: 47f8 43be c7fa b43e a99c 14bb 9563 45bf
00000260: 3985 b7be 195c d2be 4b8a ac3e aaa8 17bf
00000270: d0ad e1bd b10c f0be d196 0ebf ecc5 a93e
00000280: f184 70bf 0211 cf3e 90b2 633e c9e6 8a3e
00000290: 9c2c 173e a4b1 953e dce1 dc3e 8acd 2abe
000002a0: ec04 b0be bc05 ddbe 32bf c93e 4bc2 2dbf
000002b0: 90fd d8be 180b 1b3e f2e5 cc3e b744 b3bc
000002c0: ae3e e2bd f3fb ae3c 525d 9abb 9c89 513f
000002d0: 6928 7dbe 28db b7be 727c 723c 91b4 33bc
000002e0: fe62 b63d 4b82 e2be f57a 943e 7316 f3be
000002f0: bc95 26be 7968 9c3d d915 29be eced debe
00000300: 4eac 233d 78d6 2cbe 6870 4fbe 72e1 043f
00000310: 37a5 19bf 8fc5 f23d 6fc5 993f d4b8 0e3e
00000320: d7e2 3bbf bd16 493e c87c e93e 0472 0a3f
00000330: e01a 52be 3adf cd3e 10a0 36bd fb43 093f
00000340: 5e81 58bd 921f 9b3e 6dd6 f93d 5546 4a3e
00000350: 2979 21bf 7736 0dbe 0f05 723e e7e3 19bf
00000360: ab8f e53e d24c d63e 9afd 1c3f 4561 a3be
00000370: caaa 723e 13f0 f23c ae09 943e b158 5ebf
00000380: 267a 9cbe a63a 893e e614 e83d a16c 9cbd
00000390: c14e 20be 8dff 83bb a777 653e d2a8 80bf
000003a0: 22c8 633f 3c04 8b3e c9f9 293e 4856 033e
000003b0: 0d1c c4bd 4f90 9cbe 840c 4dbe 6a36 e8bb
000003c0: 90d4 94be bc7e 9dbd 9cc4 883d 5c8f 2ebf
000003d0: b6bf 68be 69c9 8cbe 88e8 85bd 0241 0ebd
000003e0: c8ec 87be de26 7abe e43f 16be 87af 42bd
000003f0: f98b 093e fe1d f73e 45eb 963e 5a3d 893d
0.044627566 0.840144 0.18923101 0.17305467 -0.15177612 -0.062369626 -0.40567988 0.18266533
-0.58641183 -0.77230996 -0.18741405 -0.3512908 0.54282904 0.38947576 -0.106398515 -0.09981242
-0.09807162 -0.5088664 -0.20116952 -0.32988063 0.48466384 0.24109674 0.024553 -0.3190285
-0.7011431 -0.2624357 0.43568218 -0.29264292 0.103420824 0.3149818 0.83142257 0.6241991
0.43593037 -0.5030527 0.24782358 -0.6939753 0.58856136 0.44786114 0.3764617 -1.1159593
0.9186993 0.02294014 -0.1423245 -0.20582451 0.07267447 0.7421799 0.9625791 -0.39612815
-0.21153307 0.60951436 -0.38580653 0.21317688 -0.7220362 0.41478905 0.39749402 0.10885898
0.43319923 0.51743966 -0.6073803 0.019492984 -0.5619784 0.17926365 0.16558406 -0.037507582
-0.24672724 -0.4026065 0.4327772 -0.38234752 0.0040208455 0.25493687 0.9114348 -0.20235026
-0.1266815 1.0218264 0.0781391 -0.64961946 -0.2783852 0.47488564 0.5122218 0.792047
0.27697602 0.6133155 -0.025428472 0.7744603 0.7629233 -0.54664284 -0.25676483 -0.11800855
-0.5801848 0.0799244 -0.48007348 0.19834358 -1.588797 -0.12312148 0.7194454 0.46657452
0.3239084 -0.18741044 0.18965816 0.459091 -0.2699358 0.48552623 0.06672717 0.35572988
0.66856587 0.8383266 0.63654405 0.19814101 -0.091292545 -0.20847932 0.0012096886 0.08722428
0.44003758 -0.77021277 -0.011897842 0.067653365 0.040824138 -0.4164515 -0.07704488 -0.5837784
-0.12701762 0.31946748 -0.015940929 0.422304 -0.61858594 0.061211504 0.4286277 -0.12319101
-0.5235332 0.21896371 0.5883329 -0.5221085 -0.020376379 -0.2666855 -0.42138728 0.23196146
-0.45462275 -0.47625774 -0.11280186 0.48394153 -0.113780186 0.53970283 -0.43637165 -0.6500256
0.023554182 -0.3053047 -0.22267035 0.8106341 -0.19137679 0.35347578 -0.0022676385 -0.77105075
-0.35843828 -0.4108589 0.3369926 -0.59241736 -0.1101948 -0.46884683 -0.5569888 0.33158815
-0.9395285 0.40442663 0.22236085 0.271292 0.14763111 0.29237092 0.43141067 -0.1667997
-0.34378755 -0.43168437 0.39403683 -0.6787459 -0.42380953 0.1514095 0.40019184 -0.021883352
-0.110471115 0.021360373 -0.0047108317 0.818506 -0.24722447 -0.3590939 0.014800178 -0.010968343
0.089056 -0.4424003 0.2900006 -0.47478065 -0.16268057 0.07637114 -0.1651224 -0.43540895
0.039959244 -0.16878688 -0.20257723 0.519065 -0.6001772 0.118540876 1.2013377 0.13937694
-0.73393005 0.1963758 0.45603013 0.54080224 -0.20518064 0.4020937 -0.04458624 0.53619355
-0.05285775 0.30297524 0.121991016 0.19753392 -0.630755 -0.13790308 0.23634742 -0.60113376
0.44836172 0.41855484 0.61324465 -0.31910148 0.23697963 0.029655492 0.28913635 -0.8685408
-0.30561942 0.26802558 0.11332111 -0.07637907 -0.15655042 -0.0040282668 0.22408925 -1.005152
0.88977253 0.27151668 0.16599192 0.12825882 -0.09575663 -0.3057885 -0.20024306 -0.007086565
-0.29068422 -0.07690188 0.06678125 -0.681875 -0.22729382 -0.27497414 -0.065384924 -0.034729965
-0.26547837 -0.24428889 -0.1467281 -0.047530677 0.13432302 0.4826507 0.2947637 0.06701155

network_body._body_endoder.seq_layers.0.bias f4 [128]
00000000: 0000 0000 0000 0000 0000 0000 0000 0000
00000010: 0000 0000 0000 0000 0000 0000 0000 0000
00000020: 0000 0000 0000 0000 0000 0000 0000 0000
00000030: 0000 0000 0000 0000 0000 0000 0000 0000
00000040: 0000 0000 0000 0000 0000 0000 0000 0000
00000050: 0000 0000 0000 0000 0000 0000 0000 0000
00000060: 0000 0000 0000 0000 0000 0000 0000 0000
00000070: 0000 0000 0000 0000 0000 0000 0000 0000
00000080: 0000 0000 0000 0000 0000 0000 0000 0000
00000090: 0000 0000 0000 0000 0000 0000 0000 0000
000000a0: 0000 0000 0000 0000 0000 0000 0000 0000
000000b0: 0000 0000 0000 0000 0000 0000 0000 0000
000000c0: 0000 0000 0000 0000 0000 0000 0000 0000
000000d0: 0000 0000 0000 0000 0000 0000 0000 0000
000000e0: 0000 0000 0000 0000 0000 0000 0000 0000
000000f0: 0000 0000 0000 0000 0000 0000 0000 0000
00000100: 0000 0000 0000 0000 0000 0000 0000 0000
00000110: 0000 0000 0000 0000 0000 0000 0000 0000
00000120: 0000 0000 0000 0000 0000 0000 0000 0000
00000130: 0000 0000 0000 0000 0000 0000 0000 0000
00000140: 0000 0000 0000 0000 0000 0000 0000 0000
00000150: 0000 0000 0000 0000 0000 0000 0000 0000
00000160: 0000 0000 0000 0000 0000 0000 0000 0000
00000170: 0000 0000 0000 0000 0000 0000 0000 0000
00000180: 0000 0000 0000 0000 0000 0000 0000 0000
00000190: 0000 0000 0000 0000 0000 0000 0000 0000
000001a0: 0000 0000 0000 0000 0000 0000 0000 0000
000001b0: 0000 0000 0000 0000 0000 0000 0000 0000
000001c0: 0000 0000 0000 0000 0000 0000 0000 0000
000001d0: 0000 0000 0000 0000 0000 0000 0000 0000
000001e0: 0000 0000 0000 0000 0000 0000 0000 0000
000001f0: 0000 0000 0000 0000 0000 0000 0000 0000
0.0 0.0 0.0 0.0 0.0 0.0 0.0 0.0
0.0 0.0 0.0 0.0 0.0 0.0 0.0 0.0
0.0 0.0 0.0 0.0 0.0 0.0 0.0 0.0
0.0 0.0 0.0 0.0 0.0 0.0 0.0 0.0
0.0 0.0 0.0 0.0 0.0 0.0 0.0 0.0
0.0 0.0 0.0 0.0 0.0 0.0 0.0 0.0
0.0 0.0 0.0 0.0 0.0 0.0 0.0 0.0
0.0 0.0 0.0 0.0 0.0 0.0 0.0 0.0
0.0 0.0 0.0 0.0 0.0 0.0 0.0 0.0
0.0 0.0 0.0 0.0 0.0 0.0 0.0 0.0
0.0 0.0 0.0 0.0 0.0 0.0 0.0 0.0
0.0 0.0 0.0 0.0 0.0 0.0 0.0 0.0
0.0 0.0 0.0 0.0 0.0 0.0 0.0 0.0
0.0 0.0 0.0 0.0 0.0 0.0 0.0 0.0
0.0 0.0 0.0 0.0 0.0 0.0 0.0 0.0
0.0 0.0 0.0 0.0 0.0 0.0 0.0 0.0

network_body._body_endoder.seq_layers.2.weight f4 [128, 128]
00000000: 23cf c83d ab86 1b3b cb12 20bd 14a3 d33d
00000010: 2f02 0dbc 0bee 083e 497d 9c3c 17af 95bd
00000020: 0d78 2b3e 98e0 37be fd11 e43d a1f7 54bd
00000030: 52ff 5e3c 2285 7f3d 94b9 103e ec29 d53d
00000040: c323 0cbe 9c40 833d 45e7 07be 7d6d 16be
00000050: 0913 1abe f30c 07bd 1111 f4bd ce1f bb3d
00000060: 1d5e 3b3d 953d fe3d 3626 5e3d fb7d 873d
00000070: 50b3 873c c429 56bc 8907 a4bd 4fbe d9ba
00000080: f187 d2bd bd33 c9bd e419 ad3c 8e46 ee3d
00000090: 80e3 f2bd abc7 e03a 738b 3dbd c4ed 3abe
000000a0: e718 9b3c 4be4 6ebb db9d ffbc b072 a03d
000000b0: 210d ab3d e5ab 413e da6d eabc 584b 823d
000000c0: 67db 8e3a 88ca 213e 83bc be3d b743 4c3d
000000d0: 02a6 c8bd 3847 3bbd 9533 533d 4269 0b3d
000000e0: 79c2 003d add2 aa3d d92f a3bc 3623 3b3c
000000f0: 2f9c 61be 9585 f13d 4cd0 fd3d 6d19 1d3d
00000100: c017 b83c a318 31be ce65 903c 2575 e2bc
00000110: 4fb9 653d 2775 0bbe 70ac a1bd c067 693c
00000120: f89f 913e e881 813d dcf2 e3bd 2f02 ebbd
00000130: a2f7 4e3e 9f1a 0b3e 2287 1fbd b251 2fbc
00000140: 260a 3bbd 44fa 353e ce24 a1bd c75a 0cbe
00000150: efe5 7d3d a30e a43d d081 9dbd e5d7 df3d
00000160: d2ef cebd 5d95 67bd 1238 4ebd c5fa 803c
00000170: 93b0 793d f23f d5bb 60a9 f9bd ea78 98bd
00000180: 47e5 f13c a951 163e 4280 0e3e b05a 49bc
00000190: 443e aebd d440 15bd 569c 2f3d 8b55 503c
000001a0: fda9 41be 3b9f ccbd ee5d ce3b 3992 3b3e
000001b0: 3f3f 163d bdda 063d 9833 a83d 3f40 7e3d
000001c0: 083e b5bd a577 f23b 05c5 083d 4cd7 23be
000001d0: 8b20 aabd f087 0f3d 57e7 28be 5d5f 68bd
000001e0: 7c2f 563e a5ce 7b3c 5fb1 0cbd 0d4b d2bb
000001f0: 9c7e b13b bf85 ec3d d357 1bbe 6c4b d73d
00000200: 8a91 c13b 7f72 ed3d 9015 d43d 5bb8 bc3d
00000210: dcd8 07bd 9ab2 b7bc fcf0 493c fb9c a73c
00000220: 330b 643d 5f52 89b9 8b78 c93c 0dd2 2bbe
00000230: 6854 75be 2a20 1a3e a8e9 56bb 3703 4d3d
00000240: 7ab4 d6bd ba39 583c 43cd 333b 3583 00bd
00000250: 2ef1 e93d 4f7b f3bb dfbc 773e 092a 17bd
00000260: 56ca 0b3e 23ec bf3d f17e 6ebd 20cf 343d
00000270: 3210 1bbd 0ba9 f93c 0b12 9dbc 8d39 6a3e
00000280: ff98 6a3c 54e7 833d 550f 0d3d c69e 313e
00000290: 5d6e 0c3e 6d4e 313d e846 4fbd 2aff 853d
000002a0: 1f02 623d a5c1 1b3d bb87 c93d b139 543e
000002b0: bf3d 85bd 01cc 34be cdad 003d d9a0 3b3c
000002c0: c4d7 97bd f13a 643d e45a 07bd 1099 e33d
000002d0: 35ed 803d 03c5 273e 5594 edbc e21c 523d
000002e0: 43d9 79bc eab6 a93c 3bc5 693c 1fd9 dc39
000002f0: f78a fabc ef31 073d ec69 063e adf5 c9bc
00000300: ca3d a23d 6cd5 0abd 6f91 f43d e147 c6bd
00000310: a9a3 42bc ae30 45bb dd85 15bd 80de d83c
00000320: 4fe7 303d e28c e4bd 40b3 803d 3bfb e83d
00000330: ae87 a13c add6 c7bd 5d3e d13d de9c cd3b
00000340: bc68 17bc c19d 17be 5b2c 9ebd 5d92 0bbe
00000350: 1b48 b1bc 47d7 503c 4e61 ab3d 09d6 473d
00000360: 6d97 4cbd 2947 903d 1072 80bc d120 76bd
00000370: 426e 2d3d 251f c03d 4f79 c9bc 05b4 813c
00000380: feee 68bd 133f e93c 7c03 f0bd 4d99 6f3c
00000390: 460e a4bd e3a4 013e a7ab bb3d a673 1e3e
000003a0: 5ec1 343d 5dd5 b33d 0e28 15bd bd23 28bd
000003b0: 69a4 40bc 448e 72bc 9ce1 41bd dfb7 fabd
000003c0: 13d1 c5bd 3278 02bc ff46 a83d 663f d13d
000003d0: df05 223c 84b9 f0bd e5cd 8c3d bc9f 30ba
000003e0: c11a 263e e4d5 1c3d bde2 0fbe f768 173d
000003f0: 4972 07be 97cc 533d 2afa 96bd cdfe 60bd
0.09805133 0.0023731391 -0.039080422 0.10333839 -0.008606478 0.13372056 0.01910271 -0.07308786
0.16745014 -0.1795677 0.111362435 -0.05199397 0.013610678 0.062382825 0.14133292 0.104083866
-0.13685517 0.06408808 -0.13271816 -0.14690204 -0.15046324 -0.032971334 -0.11917318 0.09136926
0.04574405 0.124140896 0.05423566 0.06615826 0.016564995 -0.013071481 -0.0800925 -0.0016612503
-0.10279835 -0.098243214 0.02113051 0.11634551 -0.118597984 0.001714935 -0.046275567 -0.18254763
0.018932773 -0.0036451991 -0.031203201 0.07834375 0.083521135 0.18913229 -0.028616834 0.06362027
0.0010899127 0.15799916 0.093132995 0.049869265 -0.097972885 -0.045722216 0.051562864 0.03403593
0.031435464 0.083409645 -0.019920276 0.011421969 -0.22032236 0.11793057 0.12393245 0.038354326
0.022472262 -0.17294554 0.01762667 -0.02764375 0.056084927 -0.13618909 -0.07894218 0.014245927
0.2844236 0.06323606 -0.11130306 -0.11475026 0.20211652 0.13584374 -0.038947232 -0.01070063
-0.045663975 0.1777125 -0.07868348 -0.13706504 0.06198686 0.08010604 -0.076907754 0.109298505
-0.10104336 -0.05653893 -0.05034644 0.015744576 0.06095941 -0.006507867 -0.12190509 -0.074449375
0.029528273 0.14679588 0.13916114 -0.012289688 -0.0850797 -0.036438778 0.042873703 0.0127157075
-0.18912502 -0.09991308 0.0062978184 0.18317498 0.03668141 0.03292345 0.08212966 0.06207299
-0.08849722 0.0073995166 0.033391017 -0.16000098 -0.08306988 0.03504175 -0.16494499 -0.05673157
0.20916551 0.015369092 -0.03434884 -0.006417638 0.0054167043 0.115489475 -0.15170221 0.105124325
0.005907242 0.11594104 0.10355675 0.092148505 -0.033165798 -0.022424031 0.012325522 0.020460596
0.055674743 -0.00026192048 0.024593612 -0.16779347 -0.2395798 0.15051332 -0.0032793079 0.050051894
-0.10483642 0.013197357 0.0027435578 -0.03137513 0.114229545 -0.007430471 0.24193142 -0.036905322
0.13651404 0.093712114 -0.05822653 0.044142842 -0.037857242 0.030476114 -0.019173643 0.22873516
0.014318704 0.06440607 0.03443845 0.17345724 0.13713975 0.043287683 -0.05060473 0.06542809
0.055177804 0.03802647 0.09840342 0.20725133 -0.06505918 -0.17655946 0.03141575 0.011451923
-0.07414201 0.055720273 -0.033045664 0.11113179 0.06295244 0.16383748 -0.029001394 0.051297076
-0.015249553 0.020717103 0.014268215 0.00042123438 -0.030583842 0.033006605 0.13126343 -0.02465328
0.079219416 -0.03389494 0.11941802 -0.096816786 -0.01187984 -0.003008883 -0.036504615 0.026473284
0.043189343 -0.11159684 0.06284189 0.113760434 0.019718017 -0.09757743 0.10216973 0.0062748035
-0.009241279 -0.14806272 -0.07723304 -0.13630052 -0.021640828 0.012746639 0.08368169 0.048788104
-0.0499491 0.07044823 -0.01567939 -0.06008989 0.04234148 0.0938094 -0.024593977 0.01583291
-0.056868546 0.028472459 -0.117194146 0.014623952 -0.08010535 0.12660556 0.091635995 0.15473804
0.04412972 0.0878093 -0.036415152 -0.041049708 -0.011757948 -0.014804427 -0.0473343 -0.12242102
-0.09659018 -0.007963227 0.082166664 0.102171704 0.009889095 -0.11754134 0.06875209 -0.00067376695
0.16221143 0.03828992 -0.14051338 0.036965337 -0.1322719 0.051708784 -0.07371934 -0.054930497

network_body._body_endoder.seq_layers.2.bias f4 [128]
00000000: 0000 0000 0000 0000 0000 0000 0000 0000
00000010: 0000 0000 0000 0000 0000 0000 0000 0000
00000020: 0000 0000 0000 0000 0000 0000 0000 0000
00000030: 0000 0000 0000 0000 0000 0000 0000 0000
00000040: 0000 0000 0000 0000 0000 0000 0000 0000
00000050: 0000 0000 0000 0000 0000 0000 0000 0000
00000060: 0000 0000 0000 0000 0000 0000 0000 0000
00000070: 0000 0000 0000 0000 0000 0000 0000 0000
00000080: 0000 0000 0000 0000 0000 0000 0000 0000
00000090: 0000 0000 0000 0000 0000 0000 0000 0000
000000a0: 0000 0000 0000 0000 0000 0000 0000 0000
000000b0: 0000 0000 0000 0000 0000 0000 0000 0000
000000c0: 0000 0000 0000 0000 0000 0000 0000 0000
000000d0: 0000 0000 0000 0000 0000 0000 0000 0000
000000e0: 0000 0000 0000 0000 0000 0000 0000 0000
000000f0: 0000 0000 0000 0000 0000 0000 0000 0000
00000100: 0000 0000 0000 0000 0000 0000 0000 0000
00000110: 0000 0000 0000 0000 0000 0000 0000 0000
00000120: 0000 0000 0000 0000 0000 0000 0000 0000
00000130: 0000 0000 0000 0000 0000 0000 0000 0000
00000140: 0000 0000 0000 0000 0000 0000 0000 0000
00000150: 0000 0000 0000 0000 0000 0000 0000 0000
00000160: 0000 0000 0000 0000 0000 0000 0000 0000
00000170: 0000 0000 0000 0000 0000 0000 0000 0000
00000180: 0000 0000 0000 0000 0000 0000 0000 0000
00000190: 0000 0000 0000 0000 0000 0000 0000 0000
000001a0: 0000 0000 0000 0000 0000 0000 0000 0000
000001b0: 0000 0000 0000 0000 0000 0000 0000 0000
000001c0: 0000 0000 0000 0000 0000 0000 0000 0000
000001d0: 0000 0000 0000 0000 0000 0000 0000 0000
000001e0: 0000 0000 0000 0000 0000 0000 0000 0000
000001f0: 0000 0000 0000 0000 0000 0000 0000 0000
0.0 0.0 0.0 0.0 0.0 0.0 0.0 0.0
0.0 0.0 0.0 0.0 0.0 0.0 0.0 0.0
0.0 0.0 0.0 0.0 0.0 0.0 0.0 0.0
0.0 0.0 0.0 0.0 0.0 0.0 0.0 0.0
0.0 0.0 0.0 0.0 0.0 0.0 0.0 0.0
0.0 0.0 0.0 0.0 0.0 0.0 0.0 0.0
0.0 0.0 0.0 0.0 0.0 0.0 0.0 0.0
0.0 0.0 0.0 0.0 0.0 0.0 0.0 0.0
0.0 0.0 0.0 0.0 0.0 0.0 0.0 0.0
0.0 0.0 0.0 0.0 0.0 0.0 0.0 0.0
0.0 0.0 0.0 0.0 0.0 0.0 0.0 0.0
0.0 0.0 0.0 0.0 0.0 0.0 0.0 0.0
0.0 0.0 0.0 0.0 0.0 0.0 0.0 0.0
0.0 0.0 0.0 0.0 0.0 0.0 0.0 0.0
0.0 0.0 0.0 0.0 0.0 0.0 0.0 0.0
0.0 0.0 0.0 0.0 0.0 0.0 0.0 0.0

action_model._discrete_distribution.branches.0.weight f4 [3, 128]
00000000: 149a b4bb 0b81 843c 0788 f8ba 0cad 80bc
00000010: 6ad6 6a3b 7f8b b53b d3b1 0d3c 6a7a 4d3a
00000020: abb4 d0bb 37ca 123c 8de8 e1bb 8d80 9c3c
00000030: 1d41 763a cc72 963b 85fd 543a fe21 8d3b
00000040: b304 4b3b bb70 1bbc 33d1 0639 1ac5 e3bb
00000050: cb8c 9fbc b590 12bc edae 093b 1300 823b
00000060: e4b2 9ebb 3596 123b 3c6e 8abc b7ce fe3a
00000070: 8ce1 a83b 2d04 55bb 2852 213c d9d8 abbc
00000080: e08d dcbb 83c8 f9b7 2b64 b63b 61ae 223c
00000090: f357 8b3b 2518 563b 06d6 803c ad20 46bc
000000a0: 47f9 b239 4f12 25bc e508 d6bb b244 153a
000000b0: 100d 103c c0cf 13bb 4f3a bf39 1be6 3dbb
000000c0: cc41 a43c 3be8 19bc 52bc 8cbc fafc 9c3b
000000d0: 0920 933b 204c 98bc 1507 9cbc c753 b5bb
000000e0: c2d6 733b 75a6 5d3c cf95 1ebc 0ca2 9e3b
000000f0: 53af 5e3c 986e d03b 77bf 313c ab39 033a
00000100: 170e af3b dea3 b1bb b5d8 363c c795 8a3b
00000110: 0709 a6bc 8f48 a13b afe6 f5bb f759 5bbc
00000120: 9018 1cbc f6aa a1bb 64e8 c33b 9af9 ed3b
00000130: 8a35 6f3c 6b45 c1bc f369 473c 0845 353c
00000140: 17da 563c 0fab 213c 3fde fb3a bfef 1ebc
00000150: a3fd 813b a180 223b 882a e83b d0b8 f63b
00000160: 06d7 86bc d7e5 093c 476a b3bb 6c1c babb
00000170: f1cd 29bb af9e 23bb 0c63 84b8 ac0a 9f3c
00000180: 542c 223c a016 29bb ebe9 41bb 02f9 9fb9
00000190: a2bd 073b efa2 a23b 97f2 fd3b 9568 cd3b
000001a0: 905d d6bb 3d7d 163c 0cd8 a63c cf3d 24bc
000001b0: 6756 d03b 90ed 70bb 7e30 8fbc 7ca6 03bc
000001c0: 3be4 153b b69d a23c 7f66 013c eabd b4bb
000001d0: 7a89 003c d11d 0d39 255a 56bc fe1f 11bc
000001e0: be66 083c a2df 1ab9 ae69 223b 756a debb
000001f0: 4ae5 47bc 3369 d6bb d34b 92bb 4890 98bb
00000200: ecce 15bc 9b95 35bb 8225 323b bf54 afba
00000210: e3a8 51bc 18fc a43b b174 8ebb 78ad c63b
00000220: 56c8 ccbb 5416 183c 80e5 2bbb 4033 a6bb
00000230: 83ac e3bb beea 303c 4d53 5c3c 435f a93b
00000240: c3d3 8fbc 56e5 99ba dde1 f0bb 7edd a6bb
00000250: 6261 c53a 0bbf 243b 3a30 30bc 0fe2 9eb9
00000260: 17e6 1bbb aaa7 f93b dfd7 b83b 2219 e3bb
00000270: 5f17 063b 73ee 0ebc 8f66 49bc 527a a23b
00000280: b951 063b af4b 12bc 48c9 4e3a 7b9f d5bb
00000290: 4396 9c3c 5f7c 98bb 23f0 17bc 9f90 733c
000002a0: c6be 1f3c ed67 23bc 7b91 013a 0a0f 12bc
000002b0: b69b 0d3c 9890 653b f7a2 d6bb 93c8 f13b
000002c0: fff2 153c 575f 32bc 375e eb3b 35b1 943c
000002d0: 59e2 12bc 3b30 ab3a 10b1 963b 61a3 8f3c
000002e0: f71b f53b 63ee 59bc 2a57 42bc 2535 6d3c
000002f0: 5702 573c 67eb 013b 2f95 cb3a 6879 18bc
00000300: 1390 d33a d810 0cbc 6344 b73a 07bc a83b
00000310: f7d5 c03c b05e 3d3c 11bb 1abc 77ad 6c3c
00000320: 3dee 56bb a52d 763b 7841 e83b 1f6d 1b3c
00000330: 0786 88ba ccbd babb babe 18bb e7c2 4dba
00000340: a500 f43b 4e33 41bc 8377 313c 56df b0bb
00000350: a05d 1b3c 1f15 e0bb d1de 323a 819b 873b
00000360: 6b48 043c b71a 3e3c 4777 44bc 276b b63b
00000370: 13a3 753c 2355 cf3a 329f 683a 3188 093c
00000380: 6bd5 39bc 230b a7bb 2b5d 16bc 7bf6 7bbb
00000390: 9d91 ffb8 abb5 8cba 7f8d babb 0f83 32bc
000003a0: 9001 d939 8245 4fbb 5340 10bb 55d5 133c
000003b0: 0e21 0a3c fd97 fcbb c81c df3b 6814 103c
000003c0: 763b 103a 9226 8fb9 0ca9 21bb d203 723c
000003d0: 2040 3b3c 7da4 e9bb 7822 4dbc a74f 103c
000003e0: 9acc d43b d373 92ba 13ae 5dbc b3ac 90bb
000003f0: 1b61 b4ba b583 f33b 257b 6c3a 2764 43bb
-0.0055115316 0.016174814 -0.0018961438 -0.015707515 0.0035833367 0.005540311 0.008648354 0.00078383705
-0.0063691936 0.008959345 -0.0068941773 0.019104267 0.0009393858 0.0045913216 0.00081249356 0.0043070307
0.0030978143 -0.009487326 0.00012857169 -0.0069509866 -0.019476315 -0.008945634 0.0021008805 0.003967294
-0.004843103 0.0022367362 -0.016898267 0.0019440268 0.0051538404 -0.003250371 0.009846248 -0.020977424
-0.00673078 -2.9776484e-05 0.00556614 0.0099292705 0.0042524277 0.00326682 0.015727054 -0.012092751
0.00034136532 -0.010075166 -0.006531822 0.00056941353 0.008792177 -0.0022554249 0.00036473802 -0.0028976265
0.020050906 -0.009393747 -0.017179642 0.0047908993 0.004489903 -0.018590987 -0.019046346 -0.0055336687
0.0037206863 0.013528456 -0.009679272 0.004841095 0.013591605 0.00636084 0.010848871 0.00050058466
0.005342256 -0.005421146 0.011160065 0.0042292806 -0.020267976 0.0049219797 -0.0075043063 -0.0133881485
-0.0095273405 -0.00493371 0.005978631 0.007262421 0.014600167 -0.023592671 0.012171256 0.011063822
0.01311352 0.009867444 0.0019216015 -0.009700715 0.0039670034 0.0024795907 0.0070851482 0.0075293556
-0.016459953 0.0084166145 -0.0054753157 -0.0056796577 -0.0025910104 -0.002496641 -6.3126994e-05 0.019414268
0.009898264 -0.002580084 -0.002958889 -0.00030512369 0.0020712395 0.004963271 0.007749866 0.0062685707
-0.0065419152 0.009185133 0.020366691 -0.010024502 0.006357956 -0.0036762692 -0.017479178 -0.008035298
0.0022871632 0.019850593 0.007897972 -0.0055158036 0.007845277 0.00013457915 -0.013083016 -0.008857725
0.008325277 -0.00014769894 0.0024782228 -0.006787593 -0.012200663 -0.0065433024 -0.0044646054 -0.0046558715
-0.009143572 -0.002770758 0.0027183 -0.0013376697 -0.012796613 0.0050349347 -0.004347407 0.0060631596
-0.006249468 0.009282667 -0.0026229322 -0.0050720274 -0.0069480552 0.010798154 0.013447595 0.005168827
-0.01755703 -0.0011741321 -0.0073511438 -0.005092322 0.001505893 0.0025138285 -0.010753686 -0.00030304535
-0.0023788267 0.007618864 0.005640968 -0.0069304863 0.0020460708 -0.008723843 -0.012292518 0.0049584294
0.0020495488 -0.008929177 0.00078882696 -0.0065192557 0.01911462 -0.004653498 -0.009273562 0.014866023
0.009750074 -0.009973508 0.0004942638 -0.008914718 0.008643081 0.0035028812 -0.0065501886 0.0073786466
0.009152173 -0.010886989 0.007182862 0.018150905 -0.008965098 0.0013060638 0.004598744 0.01753396
0.0074801403 -0.013301465 -0.011861602 0.014478003 0.013123116 0.0019824149 0.0015532131 -0.009306289
0.001614096 -0.008548938 0.0013982173 0.0051493677 0.023539526 0.01155822 -0.009444014 0.014445654
-0.003279581 0.0037563827 0.0070878826 0.009486466 -0.001041592 -0.005698895 -0.0023307041 -0.0007849172
0.007446366 -0.011792017 0.0108317165 -0.0053977175 0.009482771 -0.0068384553 0.00068233634 0.0041384106
0.008073906 0.011603049 -0.011991329 0.005566973 0.014992493 0.0015818219 0.00088738196 0.008394287
-0.011342387 -0.005097763 -0.009177486 -0.0038446474 -0.0001218647 -0.0010735294 -0.005693137 -0.010895505
0.0004139063 -0.0031627123 -0.0022010996 0.00902303 0.008430732 -0.007708548 0.006808851 0.008793928
0.00055020244 -0.00027303823 -0.002466741 0.014771419 0.011428863 -0.0071302042 -0.012520425 0.008808053
0.006494117 -0.0011173434 -0.013530272 -0.0044151186 -0.001376185 0.007431472 0.00090210355 -0.0029814334

action_model._discrete_distribution.branches.0.bias f4 [3]
00000000: 0000 0000 0000 0000 0000 0000
0.0 0.0 0.0

network_body._body_endoder.seq_layers.0.weight f4 [128, 6]
00000000: 8332 123f cc46 833b c1a8 f13d b591 2e3e
00000010: 4e19 c33e fdf8 73be aab2 95bd 35a7 f53e
00000020: 96a6 b23e a283 9d3f 9524 09be 82f9 623e
00000030: fa23 a3be aed2 043f 7cac 6ebf 4f2c b93e
00000040: 8fb9 85bf 4ba2 3b3f 5b24 76be 1b82 09be
00000050: acf1 e83d cd86 8dbd 4538 5fbe f24d 453e
00000060: c779 1fbe af11 5dbf 06d5 09bf 4d46 29be
00000070: 0dfb da3e 9fa5 ae3e 4ac2 0c3f 2cc8 463e
00000080: e5f5 1b3e 146b 783e aec4 933e b24b f9be
00000090: a2db 45bf d751 fb3d fb6d 2c3e 5c77 323e
000000a0: 8561 5d3e da08 00be 1718 c8be bacb 3cbd
000000b0: df61 babe f23f b53e e256 9cbb f678 8f3e
000000c0: 13fe 7e3e 37c5 843e 7eb6 d43d 71fc d8bc
000000d0: 9779 3cbf 7fe2 b43c 6f90 fa3e 5718 83be
000000e0: 4197 0dbf 7943 03bc 5f5c 39bf 95bd 6fbf
000000f0: 399a 983e 92ce f13e 12b7 363f 5504 a93e
00000100: 8404 27be bbae 26bf b5af bc3d f211 283e
00000110: c9e5 fbbe 1ebf ce3e 9015 1c3e fb40 90be
00000120: b77e 123e 4f80 7a3e 9729 cdbd 13d9 da3e
00000130: b2dc 3d39 b945 28bf 1988 003e 8eac cc3e
00000140: 58cc 8dbe d1d9 1f3e 4724 cdbe 1d42 b0bd
00000150: 61b0 13bd fb7d 613f b11d b93e 5548 babe
00000160: 816d d53d 1541 023d 1ea1 a0be b907 55be
00000170: c585 49be 03fb c53e 7a43 b73e 7bae c5bd
00000180: c09f 14bf d9b3 9c3e 025f 62be 53c3 d33c
00000190: 64fc dc3e 16a2 c23d f30f 413e b3ed 243e
000001a0: 105e 283f 723d 413f 0065 dfbe 0649 34bf
000001b0: 4180 2a3f e09c 1e3f c984 c1bd a3be debe
000001c0: ce7b 383e 5db9 7ebe 456d 773f a4b0 6ebe
000001d0: 8275 c73d 61ad b5bd 74c0 a73e f093 9cbe
000001e0: c914 31be 15ed 42be 53ce 3a3e af42 e03e
000001f0: 0f64 cfbd b609 71bf cb7f 43bd 400e 16be
00000200: 6c06 33be 4765 453e 4146 913e 4ecf 21be
00000210: ee01 32be 1fd3 303e 3ed0 463e 8105 933e
00000220: e640 6dbe f9a2 d0be d4e6 383d 2e66 e53e
00000230: 11e2 7ebe c2d9 1bbe 5890 273e a803 6a3e
00000240: 6db0 dcbe b19d b6be 2ccb 67bf f2e2 913e
00000250: 56f4 593d b6fc c53e 2047 dbbe f4ed 29bf
00000260: 5ba1 14bf b0b2 4dbe b33a 52be 6ac3 e7be
00000270: ae2b f53e 432f 48bf 0722 dc3e 9d45 bd3d
00000280: c9ce 19bc 2bc0 813f 39c6 3b3e 972a 11bf
00000290: d6bf 633e 69b5 0fbf 68f9 9c3e f95b 213e
000002a0: b095 f93d 2e9e 053f ebb3 1a3f e20f 28bf
000002b0: ad3d 59bd bdf9 8cbe 8f27 fe3e 5d03 a23e
000002c0: 7ead 35bd 962d 0c3f 4b66 db3e 16ec f9bd
000002d0: fd8c d6bd f065 7ebc 6d7f 21bd 1e10 733e
000002e0: 2de6 81be 35d2 26be d1fb 953e 6dc1 db3e
000002f0: 398f d33e d822 7e3d ac02 92bd 783d fcbe
00000300: 570a 7dbe 7b0e 983e c04d 153f b795 35be
00000310: 7e2a 893e 1fef 363e bb38 2ebe 3487 03be
00000320: e2a9 2b3e 63ca c1be fae3 e83e 563a 11bf
00000330: 0d5a 21be 1138 f5bd b7c0 14bd 497d e0be
00000340: 985b d2bd 8749 01be ffea 88be e269 c33e
00000350: 5353 ecbe bb28 18ba 51dd c23e e4e6 f93e
00000360: 3d22 2d3f 0f32 ec3d e0e9 803f 2483 8e3d
00000370: ee69 1fbf 0667 89bf 6e6f bd3d 262b 9abe
00000380: 1d78 90bf 2cab 513f 7716 113f 0a31 0ebe
00000390: 239a 5ebd c5c4 383e 192d 93be 763a 593e
000003a0: 721d 02bf 3fbc eb3e 3597 163f e6e0 20bf
000003b0: 7e97 05bf 6f6d d1be dab0 bebe c55c 9bbe
000003c0: a9d0 8bbe 3f1a bc3e 1ff6 843d c76e 993d
000003d0: afa6 243e e201 54be 9509 25bf 0d59 71be
000003e0: 64c5 05be 4b21 8e3e 29b4 edbe c810 f73e
000003f0: e9cd 4ebd 9857 7ebe 6e15 df3e 230f d93e
0.57108325 0.0040062424 0.117997654 0.1704777 0.38105243 -0.2382545 -0.07309468 0.4797913
0.3489272 1.2305796 -0.13392861 0.22165492 -0.31863385 0.5188397 -0.9323194 0.36166617
-1.0447253 0.73294514 -0.24037306 -0.13428538 0.1137422 -0.06910477 -0.21798809 0.19268015
-0.15573798 -0.8635511 -0.5384067 -0.16530724 0.42769662 0.34110734 0.5498396 0.19412297
0.1523052 0.24259597 0.28860992 -0.48690563 -0.7728826 0.12271469 0.16838829 0.17428344
0.21619232 -0.12503377 -0.3908088 -0.046092726 -0.36402795 0.3540035 -0.0047710994 0.28021973
0.24901609 0.25931713 0.1038637 -0.026487561 -0.7362303 0.022080658 0.4893832 -0.25604507
-0.5530892 -0.008011692 -0.7240657 -0.93648654 0.29805163 0.47227913 0.71373093 0.33011118
-0.16310316 -0.6511037 0.09213201 0.16413096 -0.4919875 0.40380186 0.152426 -0.28174576
0.1430615 0.24463008 -0.10017698 0.4274374 0.0001810666 -0.6573139 0.12551917 0.399754
-0.27694964 0.15610434 -0.4006674 -0.0860636 -0.03605688 0.88082856 0.36155465 -0.3638331
0.10421277 0.03180035 -0.31372923 -0.20803727 -0.19679935 0.3866807 0.35793668 -0.0965242
-0.5805626 0.30605963 -0.22106555 0.025849974 0.4316131 0.09503572 0.1885374 0.161063
0.6576853 0.75484383 -0.43631744 -0.70423925 0.6660195 0.6195812 -0.09449155 -0.4350482
0.18015978 -0.24875398 0.9665111 -0.2330957 0.0973921 -0.0887096 0.32764018 -0.30581617
-0.17293085 -0.19035752 0.18242769 0.43800876 -0.101265065 -0.9415544 -0.047729295 -0.14653873
-0.17482919 0.19276915 0.28373912 -0.15801737 -0.17383549 0.17268036 0.19415376 0.28715137
-0.23169288 -0.40749338 0.04514201 0.4480452 -0.24890925 -0.15219787 0.16363657 0.22852957
-0.43103352 -0.35667184 -0.9054439 0.28493458 0.053211533 0.38669366 -0.42827702 -0.6637871
-0.5805871 -0.20087695 -0.20530204 -0.45266277 0.47884887 -0.78197116 0.4299471 0.09241793
-0.00938768 1.013677 0.18337335 -0.5670561 0.22241148 -0.56136185 0.30659032 0.15757741
0.12186754 0.5219449 0.60430783 -0.65649235 -0.053037334 -0.27534285 0.49639556 0.3164319
-0.04435491 0.5475706 0.4285148 -0.12203233 -0.1047611 -0.0155272335 -0.039428163 0.23736617
-0.25370923 -0.16291125 0.29293683 0.4292101 0.41320208 0.06204495 -0.07129416 -0.49265647
-0.24710976 0.29698548 0.5832176 -0.17732893 0.2679023 0.17864655 -0.17013828 -0.12844545
0.16764024 -0.3784972 0.45486432 -0.5672964 -0.15757008 -0.119735844 -0.0363166 -0.43845585
-0.10271376 -0.12625705 -0.26741788 0.3816672 -0.4615732 -0.0005804409 0.38059476 0.48808968
0.6763037 0.115329854 1.0071373 0.06958607 -0.6227101 -1.0734565 0.09249769 -0.30111045
-1.1286656 0.8190181 0.56674904 -0.13885894 -0.054346215 0.18043812 -0.28745344 0.21213707
-0.5082618 0.46042058 0.58824474 -0.6284317 -0.52184284 -0.40903804 -0.37244302 -0.30344215
-0.27307633 0.36738774 0.064922564 0.07491832 0.1607921 -0.20703843 -0.64467746 -0.23569126
-0.1306358 0.27759776 -0.46426514 0.4825499 -0.05048934 -0.24838102 0.43571037 0.4239436

network_body._body_endoder.seq_layers.0.bias f4 [128]
00000000: 0000 0000 0000 0000 0000 0000 0000 0000
00000010: 0000 0000 0000 0000 0000 0000 0000 0000
00000020: 0000 0000 0000 0000 0000 0000 0000 0000
00000030: 0000 0000 0000 0000 0000 0000 0000 0000
00000040: 0000 0000 0000 0000 0000 0000 0000 0000
00000050: 0000 0000 0000 0000 0000 0000 0000 0000
00000060: 0000 0000 0000 0000 0000 0000 0000 0000
00000070: 0000 0000 0000 0000 0000 0000 0000 0000
00000080: 0000 0000 0000 0000 0000 0000 0000 0000
00000090: 0000 0000 0000 0000 0000 0000 0000 0000
000000a0: 0000 0000 0000 0000 0000 0000 0000 0000
000000b0: 0000 0000 0000 0000 0000 0000 0000 0000
000000c0: 0000 0000 0000 0000 0000 0000 0000 0000
000000d0: 0000 0000 0000 0000 0000 0000 0000 0000
000000e0: 0000 0000 0000 0000 0000 0000 0000 0000
000000f0: 0000 0000 0000 0000 0000 0000 0000 0000
00000100: 0000 0000 0000 0000 0000 0000 0000 0000
00000110: 0000 0000 0000 0000 0000 0000 0000 0000
00000120: 0000 0000 0000 0000 0000 0000 0000 0000
00000130: 0000 0000 0000 0000 0000 0000 0000 0000
00000140: 0000 0000 0000 0000 0000 0000 0000 0000
00000150: 0000 0000 0000 0000 0000 0000 0000 0000
00000160: 0000 0000 0000 0000 0000 0000 0000 0000
00000170: 0000 0000 0000 0000 0000 0000 0000 0000
00000180: 0000 0000 0000 0000 0000 0000 0000 0000
00000190: 0000 0000 0000 0000 0000 0000 0000 0000
000001a0: 0000 0000 0000 0000 0000 0000 0000 0000
000001b0: 0000 0000 0000 0000 0000 0000 0000 0000
000001c0: 0000 0000 0000 0000 0000 0000 0000 0000
000001d0: 0000 0000 0000 0000 0000 0000 0000 0000
000001e0: 0000 0000 0000 0000 0000 0000 0000 0000
000001f0: 0000 0000 0000 0000 0000 0000 0000 0000
0.0 0.0 0.0 0.0 0.0 0.0 0.0 0.0
0.0 0.0 0.0 0.0 0.0 0.0 0.0 0.0
0.0 0.0 0.0 0.0 0.0 0.0 0.0 0.0
0.0 0.0 0.0 0.0 0.0 0.0 0.0 0.0
0.0 0.0 0.0 0.0 0.0 0.0 0.0 0.0
0.0 0.0 0.0 0.0 0.0 0.0 0.0 0.0
0.0 0.0 0.0 0.0 0.0 0.0 0.0 0.0
0.0 0.0 0.0 0.0 0.0 0.0 0.0 0.0
0.0 0.0 0.0 0.0 0.0 0.0 0.0 0.0
0.0 0.0 0.0 0.0 0.0 0.0 0.0 0.0
0.0 0.0 0.0 0.0 0.0 0.0 0.0 0.0
0.0 0.0 0.0 0.0 0.0 0.0 0.0 0.0
0.0 0.0 0.0 0.0 0.0 0.0 0.0 0.0
0.0 0.0 0.0 0.0 0.0 0.0 0.0 0.0
0.0 0.0 0.0 0.0 0.0 0.0 0.0 0.0
0.0 0.0 0.0 0.0 0.0 0.0 0.0 0.0

network_body._body_endoder.seq_layers.2.weight f4 [128, 128]
00000000: 7917 8b3d d373 093e 1b4c da3d ed31 a6bb
00000010: cfd4 bcbd c864 be3d a51b 18bd 54a0 cfbd
00000020: ae81 d83c fe58 0bbd 084c 213b 23a4 033e
00000030: f924 d8bd 4923 fe3c 69da 40bd d863 343d
00000040: 85ac 96bd 97b6 bb3c ab7e 82bb e52e d6bd
00000050: 22b0 f93d 87ce 593d b467 89bd 0f1d 733d
00000060: f95e b13d 1710 67bc 5d88 92bd 34f7 3b3d
00000070: 2d3b 87bd bbc8 523c b667 fe3b 7543 5b3b
00000080: a63d 0fbe d16c 6bbd aaed 38bb d63a 653c
00000090: 6da3 78bd e59e 633c 632c d73d f464 b3bd
000000a0: 9934 213e da7d 28be 3e62 6b3d 3d50 c73b
000000b0: cba7 413d 9244 29bd 7a4f a1bd 9f0f b83d
000000c0: 5f68 fd3c 8872 62bd 2437 7c3d e2fa 5ebd
000000d0: 2cdd 243d 05a6 0abe 3381 823d be2b 06bc
000000e0: e8fc 263e 3ac9 1f3c 86b3 253d dbd7 e33b
000000f0: c409 58bd f444 933b e761 19bd 6d76 d9bc
00000100: f234 5c3b 3142 e2bd 7e45 553d 2718 b3bd
00000110: 1ba4 91bc e031 e0bd dba6 f23c 4eac a73d
00000120: 484e ff3c faa7 893d 16de 18be fd93 a63a
00000130: 45f9 95bd c658 6d3d 2737 12bc aa16 a1bd
00000140: 45b5 87bd 47f3 633c d282 b73c 5203 0c3e
00000150: a64f dabd b862 debd 78de 9f3c 48b0 a73c
00000160: 9c06 3abe b198 7a3d 7fd2 903b 9d00 a13d
00000170: ddec b53d b960 02be 7b9b 37bd 42db 95bd
00000180: 2901 b83d f20b 563d 10f7 b9bd ae13 7a3d
00000190: 6c56 51bd 8985 6d3d 1e0f 463d 6cc8 77bd
000001a0: f696 abbc 83be 12bd d91c 33bc 8510 1bbe
000001b0: f99a 81bd 48e6 26bd 8d33 4c3c ad01 23bd
000001c0: cfdb b4bb 8ffc 2abe 3952 1f3c b3af 01be
000001d0: 9c8a 39bc 12a9 233e de86 b4bd 4601 16be
000001e0: 3754 51bd 057f 873c e9ef c3bd 8e0b c6bc
000001f0: e71a 5cbd 7945 313b 3dbf 983d e97f 8d3c
00000200: 5185 de3d 2a82 ab3b 75f7 09be a03e 3fbc
00000210: c6d6 cb3d 348a 553c 120e f63d b91a 08bc
00000220: dbda 15bd 84c3 0c3e 96c6 c83d 482f 8abd
00000230: adab c8bc 3cb8 cbbd 3beb 77bb 8452 36bd
00000240: 1b9b e53d 443c 15bd 4ea0 8e3c 4410 26bd
00000250: d52d e73d 42f1 ad3d 7121 2bbc 11e4 633d
00000260: 55ac 20be 127c 203d bdfd 3b3d ae96 dcbd
00000270: 2705 4abb e663 c8bc 85cf 8b3c 9b3a 1c3e
00000280: a683 0e3d 89cd a5bc 73d4 89bd 0a81 01be
00000290: 020f 83bd 77fc 4a3e 87a6 833d 803d f4bd
000002a0: 311d 23be 1469 d1bd a375 253d 5a65 fabc
000002b0: 99cb 363d b938 59bd a3c4 cb3c 73fb 1fbe
000002c0: c1cd 1b3d a70b 1b3d 294c afbd b15a 863d
000002d0: bdc1 983d 8495 603d bd20 a4bc 89e1 96bd
000002e0: 46f1 953d fc81 6fbd 23a3 92bd ed7d 08bd
000002f0: e6e2 813c 6c2f 1a3e 7156 c73d 6cf0 47be
00000300: f0d8 49be a1df 863d 1359 3dbd 0aa6 61bc
00000310: 23ff 233e f65e ecbb ab04 a7bd 2f7e ca3d
00000320: b361 14be 5d8b d0bd 12f4 433b 9917 b5bd
00000330: 30d6 163d 9835 79bd bd48 dfbc 8f26 023e
00000340: a6c8 18be 458e 96bd 53f6 d2bd b791 cc3d
00000350: ce75 9dbd 9b44 5dbe 12b3 48bd 34ae 473d
00000360: b4c4 8fbd 2385 4ebd 079a b2bc e538 013e
00000370: 1f19 e8bc b7a6 18bc e6d6 4a3d ff2f 923d
00000380: 15e6 f93c 524d adbb cc89 c9bd 1234 c1bb
00000390: 3fed 51bc 4ab6 cdbd fa64 56bd 3ea6 bbbb
000003a0: 52c0 a73d d533 173d a212 df3d 5387 cfbd
000003b0: ff2b cf3d 5cd2 5e3d 2d07 b13d 329e 9b3d
000003c0: 6f2a d23d 478e 2d3e 6ffd 973d edc3 8d3d
000003d0: 77b0 593d 0aed d33d aad0 163e 213c 0d3d
000003e0: 1163 913d 8148 57bc c959 6fbd 1b4e 813d
000003f0: 7291 e2bd e89f bb3a 4df5 2c3c 9d3b 7c3d
0.067915864 0.1342309 0.10659047 -0.0050718696 -0.092202775 0.09296566 -0.03713574 -0.10138002
0.026429024 -0.034020416 0.0024611969 0.12855582 -0.10553927 0.031022685 -0.047083292 0.04404053
-0.07357124 0.022914214 -0.003982385 -0.10458163 0.12191798 0.053175475 -0.06709233 0.059353884
0.08660693 -0.014102957 -0.071549155 0.04589005 -0.06603084 0.012865241 0.007763828 0.0033456956
-0.13988361 -0.057476822 -0.002821783 0.013991078 -0.06070273 0.013892864 0.10506513 -0.0875949
0.1574272 -0.16454259 0.057466738 0.006082563 0.04727916 -0.04132516 -0.07876487 0.089873545
0.030933557 -0.055285007 0.061576024 -0.05443848 0.04024999 -0.13539894 0.06372299 -0.00818914
0.16307414 0.009752566 0.04045441 0.006953222 -0.05274369 0.004494304 -0.037446883 -0.026545728
0.0033600894 -0.11047781 0.052068226 -0.08744841 -0.017778447 -0.10947013 0.029620579 0.081871614
0.031165257 0.06721492 -0.14928469 0.0012708899 -0.07322935 0.05794599 -0.008924282 -0.07865651
-0.06626371 0.013912982 0.022401247 0.13673142 -0.10659723 -0.10858673 0.019515261 0.0204698
-0.18166584 0.061180774 0.0044196243 0.07861445 0.08883069 -0.1273221 -0.044826012 -0.07317211
0.08984596 0.052257486 -0.090803266 0.061053924 -0.05110781 0.057988677 0.04835426 -0.06049387
-0.020946007 -0.035826217 -0.010932171 -0.1514302 -0.06328387 -0.040746957 0.012463463 -0.03979652
-0.0055193673 -0.16697906 0.009724193 -0.1266468 -0.011324551 0.15982464 -0.088147864 -0.14648923
-0.051105704 0.01654006 -0.095672436 -0.024175432 -0.053736594 0.0027049466 0.07458351 0.017272906
0.10865272 0.0052340226 -0.13473304 -0.011672646 0.09953074 0.0130334385 0.120144024 -0.008307152
-0.03658567 0.13746458 0.09803502 -0.067472994 -0.024495924 -0.09947249 -0.0037829417 -0.044512287
0.11211225 -0.036434427 0.017410424 -0.040542856 0.11288039 0.08493282 -0.010444985 0.055637423
-0.1569074 0.039180823 0.04589628 -0.10770927 -0.0030825825 -0.024461698 0.017066726 0.15256731
0.03479352 -0.020239608 -0.067299746 -0.12646881 -0.06399347 0.1982287 0.06428247 -0.11925793
-0.15929104 -0.1022512 0.04039539 -0.030565906 0.04462776 -0.05303261 0.024874037 -0.15623264
0.03803802 0.03785291 -0.08559448 0.06560267 0.07458828 0.05483009 -0.020035142 -0.07367236
0.0732141 -0.058473572 -0.07160022 -0.033323217 0.015855264 0.15057153 0.09733284 -0.19525307
-0.19711661 0.065856226 -0.046227526 -0.013772497 0.16015296 -0.0072134687 -0.08155187 0.09887349
-0.14490394 -0.101828314 0.0029900116 -0.088423915 0.03682536 -0.060842127 -0.027256364 0.12710021
-0.14920291 -0.073513545 -0.10300889 0.099887304 -0.07688485 -0.21608202 -0.0489989 0.048750117
-0.0701994 -0.050419938 -0.021801962 0.1261936 -0.028332291 -0.009317092 0.04952135 0.07138061
0.03050522 -0.0052887583 -0.09840736 -0.0058961 -0.0128129115 -0.100445345 -0.052342393 -0.0057266047
0.08190979 0.036914665 0.10892226 -0.10133233 0.101158135 0.054399833 0.08643947 0.07598533
0.10262 0.16948806 0.074213855 0.069221355 0.053146806 0.10347946 0.14728037 0.03448117
0.070989735 -0.013139845 -0.058435235 0.063137256 -0.11062898 0.0014314624 0.010556531 0.06158029

network_body._body_endoder.seq_layers.2.bias f4 [128]
00000000: 0000 0000 0000 0000 0000 0000 0000 0000
00000010: 0000 0000 0000 0000 0000 0000 0000 0000
00000020: 0000 0000 0000 0000 0000 0000 0000 0000
00000030: 0000 0000 0000 0000 0000 0000 0000 0000
00000040: 0000 0000 0000 0000 0000 0000 0000 0000
00000050: 0000 0000 0000 0000 0000 0000 0000 0000
00000060: 0000 0000 0000 0000 0000 0000 0000 0000
00000070: 0000 0000 0000 0000 0000 0000 0000 0000
00000080: 0000 0000 0000 0000 0000 0000 0000 0000
00000090: 0000 0000 0000 0000 0000 0000 0000 0000
000000a0: 0000 0000 0000 0000 0000 0000 0000 0000
000000b0: 0000 0000 0000 0000 0000 0000 0000 0000
000000c0: 0000 0000 0000 0000 0000 0000 0000 0000
000000d0: 0000 0000 0000 0000 0000 0000 0000 0000
000000e0: 0000 0000 0000 0000 0000 0000 0000 0000
000000f0: 0000 0000 0000 0000 0000 0000 0000 0000
00000100: 0000 0000 0000 0000 0000 0000 0000 0000
00000110: 0000 0000 0000 0000 0000 0000 0000 0000
00000120: 0000 0000 0000 0000 0000 0000 0000 0000
00000130: 0000 0000 0000 0000 0000 0000 0000 0000
00000140: 0000 0000 0000 0000 0000 0000 0000 0000
00000150: 0000 0000 0000 0000 0000 0000 0000 0000
00000160: 0000 0000 0000 0000 0000 0000 0000 0000
00000170: 0000 0000 0000 0000 0000 0000 0000 0000
00000180: 0000 0000 0000 0000 0000 0000 0000 0000
00000190: 0000 0000 0000 0000 0000 0000 0000 0000
000001a0: 0000 0000 0000 0000 0000 0000 0000 0000
000001b0: 0000 0000 0000 0000 0000 0000 0000 0000
000001c0: 0000 0000 0000 0000 0000 0000 0000 0000
000001d0: 0000 0000 0000 0000 0000 0000 0000 0000
000001e0: 0000 0000 0000 0000 0000 0000 0000 0000
000001f0: 0000 0000 0000 0000 0000 0000 0000 0000
0.0 0.0 0.0 0.0 0.0 0.0 0.0 0.0
0.0 0.0 0.0 0.0 0.0 0.0 0.0 0.0
0.0 0.0 0.0 0.0 0.0 0.0 0.0 0.0
0.0 0.0 0.0 0.0 0.0 0.0 0.0 0.0
0.0 0.0 0.0 0.0 0.0 0.0 0.0 0.0
0.0 0.0 0.0 0.0 0.0 0.0 0.0 0.0
0.0 0.0 0.0 0.0 0.0 0.0 0.0 0.0
0.0 0.0 0.0 0.0 0.0 0.0 0.0 0.0
0.0 0.0 0.0 0.0 0.0 0.0 0.0 0.0
0.0 0.0 0.0 0.0 0.0 0.0 0.0 0.0
0.0 0.0 0.0 0.0 0.0 0.0 0.0 0.0
0.0 0.0 0.0 0.0 0.0 0.0 0.0 0.0
0.0 0.0 0.0 0.0 0.0 0.0 0.0 0.0
0.0 0.0 0.0 0.0 0.0 0.0 0.0 0.0
0.0 0.0 0.0 0.0 0.0 0.0 0.0 0.0
0.0 0.0 0.0 0.0 0.0 0.0 0.0 0.0

value_heads.value_heads.extrinsic.weight f4 [1, 128]
00000000: 846c 9b3d d892 c43d c417 34be b8d2 ddbc
00000010: bb78 25be d88b d3bd 78a7 2b3d 9459 32be
00000020: 4e59 5b3e 1021 223d e969 bcbd e042 df3c
00000030: c8a8 643d ae21 243e 3699 253e b68b 59be
00000040: 00b8 a9ba 08cb 853d c016 953c f0ee de3c
00000050: 7010 753c b6e2 3e3e cacf 5b3e 0092 d3b9
00000060: a887 293d 0bc6 46be 90c0 923c 0a35 0d3e
00000070: 9af7 b6bd 48af 4cbe 8050 0dbb 58ba 123d
00000080: 60e3 473c b831 c6bd d4eb 033d c6ed c2bd
00000090: d0c8 f1bc f8d6 733d d0ba 24bd e015 4abc
000000a0: b2ac 263e 9da0 4ebe 74ca 093e 005b 4a3e
000000b0: 6094 2bbe d003 b6bd a363 50be 0415 aabd
000000c0: 9047 123e 4cc6 e4bd 78e6 c43d a006 f53d
000000d0: eb94 58be 04b9 0bbd 2a14 22be 6a1a adbd
000000e0: 0611 53be d27a fbbd 9e9f 243e 9c13 523e
000000f0: 10b5 5a3d 02f7 91bd 5656 56be 6e92 0dbe
00000100: 3062 313c 9836 993d c4c3 5abe d454 203e
00000110: f0ce 273c b205 4cbe 508d dbbd d0ca 273e
00000120: 3860 2e3e e606 8bbd c211 163e 8806 4cbe
00000130: 1aae 90bd fa29 59be 6088 713d a7c2 32be
00000140: 497e 54be c892 12bd c047 ec3b 80ae eabc
00000150: f69e 0dbe bcee 19be c069 cd3d 304b 6e3c
00000160: 1086 fdbc 0801 d53d 10c1 81bd 8c7a f83d
00000170: 784c 203d dacd 0c3e fbb2 44be 6843 47bd
00000180: 3008 fb3d e019 893b 1848 45be a881 f73d
00000190: 88f3 04bd 9c4e 123e 61fa 28be d832 87bd
000001a0: 5823 12be 0be2 29be 4500 22be 4024 503d
000001b0: 1d93 3fbe 9462 b73d c8b0 133d aebd 4f3e
000001c0: 7c14 db3d 0809 b53d 75ce 43be a9cc d4bd
000001d0: cb00 4bbe 807f 093d be93 433e ea85 d8bd
000001e0: 08d5 1b3d 7acb f4bd c03b 07be 40a7 57bb
000001f0: a0f4 5f3d f8ee 51bd 6050 a5bd c520 bfbd
0.07589057 0.09598321 -0.17587191 -0.027078018 -0.16159336 -0.103294075 0.041907758 -0.17416984
0.21420786 0.039582312 -0.09199888 0.027253568 0.055825025 0.16028473 0.16171727 -0.21244702
-0.0012948513 0.06532866 0.018199325 0.027213544 0.014957532 0.18641171 0.21465984 -0.00040353835
0.041389138 -0.19411485 0.017914087 0.13789764 -0.08933945 -0.1998874 -0.0021562874 0.035822242
0.0122002065 -0.09677452 0.032207325 -0.09518008 -0.0295147 0.059531182 -0.04021722 -0.012334317
0.16276816 -0.20178457 0.13456136 0.19761276 -0.1675582 -0.08887446 -0.20350508 -0.0830479
0.14285111 -0.111706346 0.09614271 0.11964154 -0.21150558 -0.03411199 -0.15828004 -0.08452304
-0.20611963 -0.122792855 0.16076514 0.20515293 0.05339533 -0.07127191 -0.20931372 -0.1382539
0.010826632 0.07481116 -0.21363741 0.1565736 0.010242209 -0.19924048 -0.107203126 0.1638596
0.17028892 -0.06788425 0.14655212 -0.19924366 -0.07064457 -0.21207419 0.058967948 -0.17457066
-0.20751299 -0.035784513 0.0072107017 -0.028647661 -0.1383017 -0.15032476 0.10029936 0.014544293
-0.030947715 0.10400587 -0.06335652 0.12132749 0.039135426 0.13750401 -0.192089 -0.048648268
0.12257421 0.0041839927 -0.19265783 0.12085277 -0.032458812 0.142878 -0.16501762 -0.066014946
-0.14271295 -0.16590135 -0.15820415 0.05081582 -0.18708463 0.08954349 0.036057264 0.20287201
0.106972665 0.08839613 -0.19121726 -0.10390598 -0.19824521 0.03356886 0.19099328 -0.10572417
0.03804496 -0.119528726 -0.13206387 -0.0032906085 0.054676652 -0.05125329 -0.08071971 -0.09332422
