results/TestParameters/MoveToBall/MoveToBall-499959.pt (torch, 437917 bytes, 33 tensors)

network_body._body_endoder.seq_layers.0.weight f4 [128, 6]
000000 f5 99 dc 3e 94 e5 70 be cf d7 e2 3b 35 da 85 be
       0.4308621 -0.23525077 0.006922699 -0.2614304
000010 f0 97 12 3f b5 44 23 be e0 93 72 bc 23 01 4a bc
       0.5726309 -0.15944178 -0.014805764 -0.012329373
000020 dc 7a 61 be 64 14 dd 3d 4b 2b 9a 3e f6 54 9c 3c
       -0.22019523 0.10794905 0.30111155 0.019083481
000030 21 c5 a0 be 16 55 b5 3d 76 e1 7a 3f 7f 79 08 3f
       -0.31400397 0.088541195 0.98000276 0.5331039
000040 15 cb 6d be 78 6b c6 3e ce bb a3 3e 81 8f 71 be
       -0.23222001 0.38753867 0.3197922 -0.23589899
000050 82 d5 0a 3f b2 fc ae 3e a7 9b da be 5c 57 98 3e
       0.5423204 0.34177166 -0.42696878 0.2975415
000060 ee 10 83 3d 67 40 ec 3e 32 3c da be 87 fc bc 3e
       0.063997135 0.46142885 -0.4262405 0.36911413
000070 d5 1d 3a 3e 55 36 2c 3f 19 61 fc 3e 52 2b 21 3d
       0.18175443 0.67270404 0.4929283 0.039347954
000080 df 3c 11 3d 84 b3 e8 3e c3 12 c6 3d c1 b6 09 be
       0.03545844 0.4544946 0.09671547 -0.13448621
000090 0c 59 0b 3e ea 06 53 be 82 aa 92 be 72 61 03 3a
       0.13608187 -0.20608106 -0.28645712 0.0005011774
0000a0 ad 91 3f 3f 13 74 04 3f 7e a5 c0 3e 46 d0 8e 3e
       0.7483166 0.51739615 0.3762626 0.27893275
0000b0 fa 00 a3 be 53 d5 1e bf 2b 6b f7 bd 93 0c 26 3f
       -0.31836683 -0.62044257 -0.120809875 0.64862937
0000c0 88 d0 92 3e 05 8f 39 3f a2 01 3f 3e b8 f3 bb bc
       0.28674722 0.72483855 0.18652967 -0.022943363
0000d0 1c ed 07 bf e4 1a 27 be e9 35 c4 3e 14 42 b9 bf
       -0.53096175 -0.16318852 0.3832238 -1.447329
0000e0 0d d6 37 3e 47 f7 1f 3e 92 d0 c1 3e 8f 51 8f 3e
       0.17952748 0.15621673 0.3785444 0.27991912
0000f0 13 e4 07 3f 0e fd f2 3e 7e 56 15 be 63 5d 26 3e
       0.5308239 0.4745869 -0.14583775 0.16246562
000100 1c 7d b5 be 9d ad 35 3f 63 7e 58 be 78 9c ab bd
       -0.35447013 0.7096804 -0.21141963 -0.083794534
000110 0f c9 33 3e 5a 59 1e bf ec 0b 6c be ac 74 bd be
       0.17557167 -0.6185509 -0.23051423 -0.37003076
000120 4f 6b 93 3e 5a 2e 56 be b8 a8 0e bd 89 86 bb 3e
       0.28792807 -0.20916119 -0.03482887 0.3662608
000130 8b ee 1e 3e bf cb 0a 3f 9f 61 15 be 2c a4 47 3d
       0.15520684 0.5421714 -0.1458802 0.04874055
000140 9f 3a 0b be 6b cc 63 be 0f 6a 8f 3d d9 64 d5 3d
       -0.13596581 -0.22245948 0.07002651 0.10419626
000150 79 ab d6 3e 25 57 a8 3e 66 87 00 3e 5f 9f 0e bf
       0.41927698 0.32878986 0.1255165 -0.5571193
000160 4a 41 9a 3c bc 6c 8e 3d 1b 7e d9 3d 79 74 5b 3f
       0.01882996 0.06954333 0.10619756 0.857246
000170 b9 ac 3c 3f 6f 3c df 3e d3 37 10 bf 91 66 a6 3e
       0.73701054 0.43600795 -0.5633518 0.32500127
000180 03 27 f1 3e a0 1b fc be ea e9 c6 be b3 8b ad 3e
       0.47100076 -0.49239826 -0.38850337 0.33895645
000190 3a 6a b7 3e 65 d2 c1 3e 07 b8 f7 be 29 6c 79 be
       0.35823232 0.3785583 -0.4838259 -0.24357666
0001a0 0a 58 68 3f 85 4f b1 3e 50 bf 86 be 75 c0 0f bf
       0.90759337 0.3463098 -0.26317835 -0.5615304
0001b0 cd 2e ba be 29 9b 16 3e 36 7c 14 be 78 5b 3d 3f
       -0.3636383 0.14707626 -0.14500508 0.73967695
0001c0 51 5f 83 bd 1f 7b ae 3e 92 ae f7 3e 7a c4 9a be
       -0.064146645 0.3407831 0.48375374 -0.30228025
0001d0 9e 89 a3 be 08 a8 7a 3e 87 c9 1b bf f5 8a f7 ba
       -0.3194093 0.24478161 -0.6085438 -0.0018886017
0001e0 c8 dd ad be d6 a7 04 3f 74 4d 5f 3e 67 8e 36 3f
       -0.33958268 0.518186 0.2180689 0.7131104
0001f0 41 ff 51 bf bc f0 b9 3d 93 b5 d3 bd 67 60 d5 3e
       -0.8203011 0.090791196 -0.10337367 0.41675112
000200 f0 58 fc 3e 59 9c ff 3c df 59 ba be 6c 62 12 3e
       0.49286604 0.031202482 -0.3639669 0.14295357
000210 fb 98 0c bf c2 16 a9 3e 98 bb 33 3e 27 38 1b 3d
       -0.5492093 0.33025175 0.1755203 0.037895348
000220 bc 36 88 3e 03 2a 25 3f 46 dd ea 3c b8 c4 ed 3d
       0.2660426 0.6451723 0.028669965 0.11609787
000230 2c 91 54 3e 81 40 06 be 89 3d 86 3d af 05 d0 3e
       0.20758504 -0.13110544 0.06554706 0.40629336
000240 eb 7c db be fe d3 62 3d a1 e9 8c be 4a 1a cf be
       -0.42868742 0.055377953 -0.27521995 -0.40449744
000250 5f 15 29 3b 23 c7 e7 be 44 1d fd be 57 0e 03 bf
       0.0025800092 -0.45269117 -0.4943639 -0.51193756
000260 4d 09 2d 3f c7 93 22 3d e9 0c 4a bf 1e 79 50 bc
       0.67592317 0.039691713 -0.7892595 -0.012724189
000270 9d 19 16 be 4a 3a 0a be 43 25 26 3e c3 3e 04 3f
       -0.14658208 -0.13498798 0.16225152 0.51658267
000280 f5 83 1d 3e 1b bc f1 be 30 be 5f 3e c0 01 b3 3e
       0.15382369 -0.47213826 0.21849895 0.34962273
000290 cf 52 16 3f b3 8c 43 3f 17 3d 00 bf 26 fb ac bd
       0.58720106 0.76386565 -0.50093216 -0.0844634
0002a0 1f c7 1f 3f 94 95 4f 3d 1b 8c d4 3e 4f 85 0b bf
       0.6241321 0.05067976 0.41513142 -0.5450029
0002b0 a9 cd b6 be 8c 3c 07 3f be 3d 0d bf c1 e2 90 3e
       -0.3570378 0.5282676 -0.55172336 0.28298
0002c0 08 72 6b bd b1 8a 1f be 24 38 fa 3e 93 04 70 be
       -0.057481796 -0.1558025 0.48870957 -0.23439245
0002d0 4a 5e 09 3d 51 41 72 be a3 06 29 3f 8b c5 a9 bd
       0.033537187 -0.23657729 0.6602575 -0.082896315
0002e0 d8 f3 e3 3e 0f f5 06 bd 8e 9b 27 3e e0 ba 59 be
       0.44521976 -0.03294855 0.16367933 -0.21262693
0002f0 8a 2c b7 3e 71 5f 40 3e 4f 47 3d 3f f8 62 86 3e
       0.35776168 0.18786408 0.73936933 0.26247382
000300 5a 65 18 be 7d b7 bf 3d d1 91 9d bd e9 6a 37 be
       -0.14882413 0.093611695 -0.07693828 -0.17911877
000310 bc 20 55 3e 38 4a 3b 3e 00 b9 17 3f 1e 34 30 3f
       0.20813268 0.18290031 0.5926666 0.68829525
000320 0d 5c d1 be 22 6d 06 3e 63 be 11 3e 1a 2a 85 be
       -0.40890542 0.13127568 0.14232783 -0.26008683
000330 5e d2 2b 3f 64 7c be 3b 79 5d dc 3e 5f be 7b be
       0.6711787 0.0058131684 0.43040064 -0.2458434
000340 13 56 3d bf 8e 35 43 3d 27 8e cd be f6 88 57 bf
       -0.73959464 0.047658496 -0.40147516 -0.8419336
000350 59 0f 3c be a5 31 ad 3e 02 5d 5a 3e c1 64 4a be
       -0.1836523 0.33826938 0.21324542 -0.19764997
000360 ee c1 f0 3d f2 7a 4d bf 97 35 3f be df a1 95 3e
       0.11755739 -0.80265725 -0.18672787 0.2922506
000370 54 e8 03 3e d9 c6 42 bd d0 ba 6c 3e 4d d6 97 3e
       0.12881595 -0.047552917 0.23118138 0.29655686
000380 eb 58 b6 3e 91 23 85 3b fe b7 33 3d 40 1e 2d 3f
       0.35614714 0.0040630777 0.04387664 0.6762428
000390 25 ed 88 3e 14 0e d9 3d d8 95 02 bf fd e9 01 3e
       0.26743427 0.10598388 -0.51009893 0.12686916
0003a0 93 5c cc be 1b 96 9e 3e 11 b4 f4 3e 05 ba b8 be
       -0.3991438 0.30973896 0.4779363 -0.36079422
0003b0 dd bf 2d bf b6 ba 71 3e 10 76 8a be 24 0f 9c bc
       -0.67870885 0.23606381 -0.270432 -0.019050188
0003c0 50 3f 53 bf 21 81 9e be 41 f9 18 bf fa 0f e5 3e
       -0.8251848 -0.30957893 -0.5975533 0.44738752
0003d0 f0 bc 92 be cb d2 47 3f 52 7a 1c 3f 30 e1 6f 3a
       -0.28659773 0.7805602 0.61124146 0.0009150682
0003e0 ce bd 41 3e 7d 21 69 3e b0 b4 49 bf a5 bb fc 3d
       0.18920061 0.22766681 -0.7879133 0.12340478
0003f0 74 48 9c 3e 6e bb 3a 3e 5f e8 49 bd bd 29 74 bf
       0.30524027 0.18235561 -0.049293872 -0.9537619

network_body._body_endoder.seq_layers.0.bias f4 [128]
000000 d8 f7 1c 3d bf 8c 07 3d d6 72 f7 3b d4 d2 52 bc
       0.0383223 0.03309321 0.0075515313 -0.012867648
000010 21 11 31 3c 57 6a 0b 3d 6e 3e d3 3c 8f 97 83 3d
       0.0108073065 0.03403696 0.025786605 0.06425392
000020 4e 47 02 3c e4 d8 af bc 62 e8 a4 3b 6e 73 fd 3c
       0.007951571 -0.021465726 0.005032585 0.03093883
000030 46 18 96 3c a0 e0 dc bc 24 9b 80 b9 41 2b 0a 3c
       0.018322121 -0.026962578 -0.0002452965 0.008433164
000040 1b 70 85 3d b8 6b 1f 3d 74 d7 63 3c d9 51 d0 bb
       0.06515523 0.038921088 0.0139063485 -0.0063574133
000050 09 b2 85 3d b9 46 cb 3c b2 41 8d 3c 3c fa 11 3d
       0.06528098 0.024813997 0.01724324 0.035639033
000060 aa cd 28 bc 32 4f e5 3d 91 9d 27 3b be ee b6 3c
       -0.01030294 0.11196746 0.0025576095 0.022330638
000070 c4 e9 c4 3b 1b 00 12 bd eb 40 dc 3c 58 fc c4 3c
       0.0060093123 -0.03564463 0.026886424 0.024046108
000080 f6 3a 57 3c 19 54 c4 bb 23 97 d8 3c e1 1d a6 3c
       0.013136616 -0.0059914705 0.026439255 0.02027792
000090 04 c2 05 bd 14 c4 06 3c 15 ac 50 3b 15 69 0d bd
       -0.03265573 0.00822546 0.003184085 -0.034524042
0000a0 54 13 7e 3d af 2d b4 3b f9 40 61 3d cd 62 31 3c
       0.06203015 0.00549861 0.054993603 0.010826779
0000b0 e4 40 fc 3c 82 8f 40 3c c0 ef dd 3c 36 ad b0 3c
       0.030792661 0.011752965 0.02709186 0.021566968
0000c0 ac ad 1c bd 03 14 b8 3d 6c 12 2e bc 9c ec 25 3d
       -0.038251564 0.08988192 -0.010624509 0.04050885
0000d0 db 7e 7b 3b 8f 99 72 bc 8a a7 c5 bb 08 4e 0b 3c
       0.0038375172 -0.014807119 -0.006031935 0.008502491
0000e0 b6 d1 2d bd a4 59 31 bd c8 e1 51 3c cc 02 29 3b
       -0.042436324 -0.04329838 0.012810178 0.002578902
0000f0 84 a8 ad 3a 7f 58 87 3b 70 3e fb 3c a8 e2 18 bd
       0.0013249074 0.0041304226 0.030669421 -0.03732553
000100 e6 7a ae 3b 0b a0 a2 3b 56 9d 91 3c b6 5e 36 bd
       0.005324709 0.0049629263 0.017775219 -0.044523917
000110 d0 55 eb 3b 0f 2e 8d 3c ed 95 02 3c 7e f0 11 3d
       0.0071818605 0.017233877 0.007970315 0.03562974
000120 0b e8 4c 3d 64 29 91 3c 62 2a f9 3c 29 cd 5b 3d
       0.05002598 0.017719932 0.030415718 0.053662453
000130 6d 31 ec 3c 79 d0 ac 3c 8c 8d 2a 3d 5d ed af bc
       0.028832162 0.021095501 0.041638896 -0.021475488
000140 ea d7 11 3c 60 02 42 3c 93 20 2a bc 47 cd 40 3d
       0.008901576 0.011841387 -0.010383743 0.047070768
000150 a1 b4 64 3d 12 31 0f 3c 94 5e 12 3d 3e 5a cc bc
       0.055836324 0.008739727 0.035734728 -0.024945375
000160 ab 76 93 3c 89 2a 37 bd 80 4e 8c 3c 94 9c 36 3d
       0.018000921 -0.0447183 0.017127275 0.04458292
000170 61 d9 42 3d 84 6c 8b bc 38 6b be 3c f4 a0 f5 3d
       0.04757059 -0.017019518 0.023244485 0.1199359
000180 31 37 90 bc 4b ab b1 3c 5a 7d e3 3c eb a4 4d bc
       -0.017604442 0.021688124 0.027769733 -0.012551527
000190 8a 32 45 3c 1c 5d 51 3c fc 5b 0e 3c 74 e4 fd ba
       0.012035975 0.012778547 0.008688923 -0.0019370453
0001a0 04 5a 78 ba 04 55 69 bc b5 b6 0a 3c 1e eb 8f 3c
       -0.00094738626 -0.014241461 0.008466412 0.017568167
0001b0 b4 a4 7e 3d 4f b0 f4 ba 63 b0 89 3d c4 65 0b 3d
       0.062168792 -0.0018668267 0.06723096 0.0340326
0001c0 46 3d cc 3c ba 5e 98 3c c0 23 01 3d 66 d7 9f bc
       0.024931561 0.018599857 0.031528234 -0.01951189
0001d0 6b 16 49 bd 74 b1 99 bc 29 6a b4 bb f2 83 57 bb
       -0.049093645 -0.018761374 -0.0055058193 -0.0032885042
0001e0 9a 6a 0d 3d 40 17 0b 3d 48 ae 50 3d d7 55 34 3d
       0.03452549 0.03395772 0.050947458 0.044027176
0001f0 bd 65 c1 3c 22 7d e7 3c 51 23 1d 3d bd 5b 1c 3d
       0.023608083 0.02825791 0.03836376 0.038173426

network_body._body_endoder.seq_layers.2.weight f4 [128, 128]
000000 4d 7d 61 bc 26 97 04 bd 2a eb 6f bd 55 cb 3a bd
       -0.013762784 -0.03237071 -0.05857388 -0.04560407
000010 33 cf db 3d a3 51 be 3d 0c 13 b2 3d 4b 10 ac 3d
       0.107328795 0.09292915 0.08695039 0.08401545
000020 af e9 b2 3d 05 02 19 be e0 3c 8d bd a7 e9 e3 3d
       0.08735978 -0.14942177 -0.068963766 0.1112855
000030 7f 86 f2 3d 3d 9a e0 bc 96 56 9f 3d 1a 5d 39 be
       0.11842059 -0.027417297 0.07780187 -0.18101922
000040 3d ed 2b 3e 78 2e c9 bd 65 62 e2 3d ff 56 8e be
       0.16789718 -0.09823316 0.110539235 -0.27800748
000050 98 bc 1f bd 87 cd d7 bc 22 2f 1a be 67 05 fa bd
       -0.038998216 -0.02634312 -0.15057042 -0.12208062
000060 18 49 cd bd ab 69 68 be e9 e0 1e be bb 82 0e be
       -0.10023707 -0.22696559 -0.15515484 -0.13917057
000070 6a 3a 78 bc 5f 3e bf bd 3a 21 f0 bc 4c b3 f0 3d
       -0.015150646 -0.09338068 -0.029312719 0.11752948
000080 77 86 35 be 48 67 79 3d fd 0f 4d 3e a2 22 0d bd
       -0.17727076 0.060889512 0.2002563 -0.034456857
000090 cf dd a1 bd 4a 26 d9 3d 1d bd 9e bd 7d ef 85 bc
       -0.07903635 0.10603006 -0.07750914 -0.016349548
0000a0 9b 49 40 be 66 12 b1 bd a0 b4 f6 bd ae f6 da bc
       -0.18778078 -0.08646087 -0.1204617 -0.026728954
0000b0 94 81 15 3e 05 83 54 3e 02 52 37 bd a6 83 2c 3c
       0.14600211 0.20753105 -0.044755943 0.010529434
0000c0 80 99 96 bd 94 0b 48 bd a9 14 b1 3c 1e 59 38 3e
       -0.073534966 -0.048839167 0.021616297 0.18002746
0000d0 77 77 a6 3d 8a c0 f2 3c 7c e1 be 3d 8d bd d6 bd
       0.08128255 0.029632825 0.093203515 -0.10485373
0000e0 c3 98 92 bd 2e af 36 be 8d 93 30 3c 17 bf ea bc
       -0.07158043 -0.17840263 0.010777366 -0.028655572
0000f0 d9 be 69 bd 06 34 b7 bb 14 8a 2c 3e c5 23 61 bc
       -0.057066772 -0.0055909185 0.16849548 -0.013741438
000100 b3 ca 43 bc 0c 57 f5 3d 2f 21 ce 3d f7 10 a5 bd
       -0.011950183 0.119794935 0.10064923 -0.080598764
000110 63 11 a8 bd 03 5d b9 3c 27 d2 8d bd 3d ec c7 bd
       -0.08206441 0.02262736 -0.06924849 -0.09761856
000120 d0 2f 07 3d 3d 75 dd 3d b7 97 88 3d 96 68 0f 3e
       0.033004582 0.10813377 0.06669562 0.1400474
000130 92 57 00 3e fa d8 37 bd 0c 75 cf bd 4f 89 19 3d
       0.12533405 -0.04488466 -0.10129747 0.037484463
000140 a5 32 56 bd e3 e5 32 bd e7 d6 52 bb 02 53 4e 3d
       -0.052294392 -0.04367627 -0.0032171549 0.05037213
000150 31 69 b5 bd 68 94 7a bd a8 38 09 3e 2b 3f 3e 3d
       -0.08857954 -0.061176687 0.13400519 0.04644696
000160 09 bb 37 bd d4 19 5f 3c f0 2b 9a bb f7 c3 2d bd
       -0.044856105 0.013616998 -0.004704945 -0.042423215
000170 95 78 e7 3b be 1c 09 3d ba 93 88 bd f5 da 26 3d
       0.007063935 0.033474676 -0.066688016 0.040736157
000180 df 78 6b 3c 6f 90 13 bc b4 d5 17 bd 0e 78 88 3d
       0.01437208 -0.009006604 -0.037069038 0.066635236
000190 71 cd 6c 3d ba 27 ad bd df e3 7c bc 59 19 5c bb
       0.05781311 -0.08454843 -0.015435188 -0.0033584444
0001a0 6f aa db 3d b6 54 8c be df 2e 99 bd d9 dc 70 3d
       0.10725867 -0.2740838 -0.07479643 0.058804367
0001b0 85 cc a3 bd 28 ce f8 3c 19 8f 1d 3d 4d a1 d3 3d
       -0.079979934 0.03037174 0.038466547 0.103335
0001c0 59 a6 b7 3d be f8 eb 3d 81 be 8b 3d 66 8a 42 bd
       0.08967275 0.11522053 0.06823445 -0.04749527
0001d0 fb 71 dc 3d 88 41 f4 bd 57 4c be 3d 1d 8a 0e be
       0.107639275 -0.119265616 0.092919044 -0.13919874
0001e0 61 d8 1f 3d 84 fb c1 bd a4 4c 18 3d 66 4a bd 3c
       0.039024714 -0.09471801 0.037182465 0.023106765
0001f0 9b 4b 97 3d 70 6b f1 bd 06 bd ad bd c0 1d 67 bd
       0.073874675 -0.1178807 -0.08483319 -0.056424856
000200 a2 03 9a 3d 04 b5 0f 3e 04 b6 7d 3d 22 71 00 bd
       0.07520224 0.14033896 0.06194116 -0.03135789
000210 b9 fa 40 bd 10 94 d8 bc 09 80 12 be 23 9b 70 bd
       -0.047114108 -0.02643779 -0.14306654 -0.0587417
000220 4b 4c dc bd 81 ab 17 3d 6a ea a9 bd d6 87 85 3d
       -0.10756739 0.037028793 -0.08296664 0.06520049
000230 df 19 22 3c c1 ae 14 be c9 50 0a bd 04 6c d4 bd
       0.009893863 -0.14519788 -0.03376845 -0.10372165
000240 77 39 89 3d bc 0b 6c 3b ba 28 65 bd fa cf a7 bd
       0.06700414 0.0036017736 -0.055947043 -0.08193965
000250 6d e6 3a be 07 2d 08 be 76 fa 59 3d fb 7a c0 bc
       -0.18251963 -0.13298427 0.053217374 -0.023496142
000260 e4 46 a9 bd 66 fb 47 3d 7b 89 30 3e 51 c1 4d be
       -0.082654744 0.048823737 0.17239945 -0.20093276
000270 b8 77 07 bd f9 05 4a bc b2 89 01 be 33 02 e3 bb
       -0.033073157 -0.012330526 -0.12650183 -0.0069277524
000280 08 65 f6 bc 5a 49 fb bc 47 51 fd 3d 9e 5f b0 3d
       -0.030077472 -0.030674625 0.12369018 0.086119875
000290 2a ff b6 bd 60 b0 cd bc af fd 42 be f0 ad 1e be
       -0.089353874 -0.025108516 -0.19042085 -0.1549604
0002a0 da 8b 19 3d 15 db 94 bd eb 25 f2 bd 27 b3 ae bd
       0.03748689 -0.07268349 -0.118236385 -0.08530264
0002b0 64 de 4e 3c ad d9 90 3d de 7d d2 3d 38 fb e4 3d
       0.012626264 0.07072768 0.102779135 0.11180729
0002c0 d6 ca b1 3d 02 66 04 3d 33 4a 3b 3e 17 ca ef 3d
       0.08681266 0.032323845 0.18290024 0.117084675
0002d0 c0 50 cb 3c 92 31 f3 bc 74 d9 25 be 69 64 29 bd
       0.024818778 -0.029686723 -0.16196233 -0.041355524
0002e0 8f 37 e1 bd 8a 7c 2a 3d 80 e5 3f 3d eb ef 75 3d
       -0.10996925 0.041622676 0.046849728 0.060043257
0002f0 95 9c 75 bd c7 25 5f bd 2e 9e 28 be d1 ea c9 bc
       -0.05996378 -0.054479387 -0.16466591 -0.024648102
000300 10 65 46 3d dd 67 53 3d 02 a2 fa 3c 2d a7 cc 3d
       0.048436224 0.051612724 0.03059483 0.09992824
000310 5e 87 b1 3d ec 2a e6 3c 20 d6 56 3d b5 c9 91 3d
       0.08668397 0.028096639 0.0524503 0.07118551
000320 b5 3e 78 3d 52 3b ce 3b d7 99 2b 3d 49 b3 ae 3d
       0.060606677 0.0062936926 0.04189476 0.0853029
000330 b1 05 aa 3d b9 32 ee 3d 10 3f 93 bd a2 41 b6 bd
       0.08301867 0.11630768 -0.071897626 -0.08899237
000340 1b c8 6a bd 54 3a e5 3c f8 5d 3f bd e1 66 cb bc
       -0.05731974 0.027981915 -0.046720475 -0.02482933
000350 7e 1a cf bd 10 59 07 be 73 ea 51 3e e7 d7 ed 3d
       -0.10112475 -0.13217568 0.20499592 0.11613446
000360 b7 96 81 bd 60 04 9e bd ab ba de 3a d8 b2 24 bd
       -0.06327575 -0.07715678 0.0016992887 -0.04020962
000370 3f f7 57 be 9c d9 15 be 52 bd 62 3d da 98 c1 3d
       -0.2109041 -0.14633793 0.05535633 0.09452982
000380 c1 32 3a bc 73 3e 9f 3d d3 d7 fa bd 1e c6 63 3d
       -0.01136464 0.07775583 -0.122481965 0.05560886
000390 f7 ba 9a bc f0 d0 96 bd 02 f1 e5 3d 48 7c ea 3d
       -0.01888798 -0.073640704 0.11227609 0.11449486
0003a0 7e b1 0b be d9 20 bd bc fa 8c 7c bd 5d 6e b8 3d
       -0.13641927 -0.023086952 -0.061657883 0.09005425
0003b0 13 a1 35 3d 57 f2 43 3c 84 e2 05 be 94 82 61 3d
       0.044343065 0.011959634 -0.1307469 0.05505617
0003c0 1f 5e b1 3d 35 cb 10 be 5f d9 b5 bc a0 0f 9d bd
       0.0866053 -0.14140017 -0.022198377 -0.07668996
0003d0 fc b6 b5 3c aa 39 d2 bd 57 68 34 be d0 63 96 3c
       0.02218198 -0.10264905 -0.17617927 0.018358141
0003e0 e1 0e b1 3c db a7 59 3d ba 08 de 3d 88 a0 78 bd
       0.02161354 0.053138595 0.10841508 -0.06069997
0003f0 2e f7 82 3d f0 69 33 bd d0 4c cd bd ca 5d d2 3d
       0.06394802 -0.0438022 -0.100244164 0.10271795

network_body._body_endoder.seq_layers.2.bias f4 [128]
000000 0b 5f dd 3c a2 0d 2a bc 9b 0e fe 3b 42 55 f8 bb
       0.02702286 -0.010379227 0.007753206 -0.007578523
000010 22 38 dd bb 3a 6f 8a bc 4c fa 21 3d 23 98 ce bb
       -0.0067510763 -0.01689874 0.039545342 -0.006304757
000020 d9 d6 6a bc 59 8d af 3b 23 18 f7 36 f4 43 0e 3d
       -0.01433345 0.005357426 7.3639835e-06 0.034732774
000030 78 2c 09 3d 67 a1 4b bc 5b 34 be bc 1a 84 3e 3a
       0.033489674 -0.012428618 -0.023218324 0.00072676095
000040 87 00 a6 3c 4a a6 3a 3d f5 f2 30 3c fd f7 81 3c
       0.020263923 0.04556874 0.010800113 0.01586532
000050 47 fd 91 bc dc f5 6a 3d 26 82 00 3d 86 36 f5 3c
       -0.017820967 0.057363376 0.03137412 0.029933225
000060 b9 22 4e ba ab b1 74 3d 55 b2 08 3d 13 8c 55 3d
       -0.00078634504 0.05973975 0.033373196 0.05213554
000070 7a 98 8f bb 2e 76 e8 bb 99 c4 51 3c 57 7c 58 3d
       -0.0043821903 -0.0070941662 0.01280322 0.052852955
000080 74 bb 0c bc 26 d0 08 bb 67 41 3f bc 90 34 8d bc
       -0.008589614 -0.002087602 -0.011673308 -0.017236978
000090 53 b7 01 3b cf 1e 32 ba 97 f6 0a 3c 2f ac 3b 3d
       0.0019793108 -0.0006794752 0.008481643 0.045818504
0000a0 de 81 82 bc 92 cb d2 3c a7 1b 78 3d 2a f1 20 bc
       -0.015931066 0.025731836 0.060573246 -0.009823123
0000b0 c8 4e e4 3c b1 7d 02 3d ff 1f 1c 3d 08 d0 df 3c
       0.027869597 0.03185815 0.03811645 0.027320877
0000c0 a2 a0 aa bc 87 ef 18 3c 1e 0b dd 3c b1 a5 2c bc
       -0.020828549 0.0093344515 0.02698284 -0.010537551
0000d0 fa e3 ae 3b 39 f4 c3 bb c8 bf c5 3b 32 53 35 bc
       0.0053372355 -0.0059800413 0.006034825 -0.011067199
0000e0 87 bf 12 3d 24 ea f6 3c ac 3a 1b 3d 13 7a 82 3a
       0.035827186 0.030140944 0.03789775 0.0009954594
0000f0 60 22 55 3c 45 17 72 bb 45 a2 81 3c f7 43 1c bc
       0.013008684 -0.003694014 0.015824446 -0.009537688
000100 93 24 6f 3c f1 a4 e4 bb 06 b3 2d 3d 18 63 84 3b
       0.014596122 -0.0069776704 0.04240706 0.004040133
000110 22 20 32 3b dc 2d b0 bb 2a e1 50 b9 b9 7b 29 3c
       0.0027179797 -0.0053765606 -0.00019920306 0.010344439
000120 58 9e cf 3c b0 49 42 3c 10 0a f6 3c 5c cd 42 3d
       0.025344059 0.011858389 0.030034095 0.047559127
000130 04 5a 90 bb 8c c1 6d bc 5b 3e b7 3c 9e a8 e8 bb
       -0.004405262 -0.014511477 0.0223686 -0.007100179
000140 bd fc 58 3c bb 35 c2 bb 58 90 bb 3b c8 96 d2 bc
       0.013243851 -0.0059268153 0.005723994 -0.025706664
000150 d9 a0 1f 3d 5b 7f 7e bb 01 a8 5f 3c 83 35 a3 3c
       0.038971756 -0.0038833234 0.013650895 0.019922977
000160 6e 52 05 3d 30 5f 2d 3d 65 54 c5 bc 59 4b 28 3d
       0.032549314 0.042327106 -0.024088094 0.041087482
000170 4f 13 a3 3c fd 75 a7 3c 41 b6 f4 3c f3 b1 83 bc
       0.019906668 0.020442003 0.029872062 -0.016076064
000180 52 bb e3 3c dc ec aa 3c ef 4f 2f 3d ed 91 1e 3c
       0.027799282 0.020864896 0.04280084 0.009678346
000190 2b 5f e1 bb 34 3b 12 3c a2 f6 6a 3c 37 2a f9 3b
       -0.0068778 0.008925248 0.014341028 0.0076039094
0001a0 21 13 a7 3c a0 3a f4 bb 36 97 92 ba bf 40 2a bc
       0.020394864 -0.0074532777 -0.001118398 -0.010391413
0001b0 80 9f b7 3c 4c df 62 3d c8 50 ff 3c 97 84 e8 bb
       0.022414923 0.055388734 0.03116645 -0.007095884
0001c0 2a 9f bc 3c a4 9b 26 3d 3c 84 77 bc b1 3c 73 3c
       0.023025114 0.040675774 -0.015107211 0.014846013
0001d0 1e b4 5f 3c e4 61 45 3b a9 6d 00 bc a5 1b 0b bb
       0.013653783 0.0030118162 -0.007838645 -0.0021226194
0001e0 73 bf 3a 3d 5c 29 3c bc ad 24 e8 bb d0 df 05 3d
       0.045592736 -0.01148447 -0.00708445 0.032684147
0001f0 d4 5d 29 3a e8 a2 9d bc 13 8d 84 3c 93 fc 4a bb
       0.000646082 -0.019242719 0.01618055 -0.00309733

action_model._discrete_distribution.branches.0.weight f4 [2, 128]
000000 d2 5f 34 bd be 74 42 3d 62 36 46 3d e2 72 20 3d
       -0.044036694 0.047474615 0.048391707 0.03917206
000010 be 5f 1c 3d af 91 52 3c 58 82 b0 bc 60 9f f9 3c
       0.038177244 0.0128521165 -0.021546528 0.030471504
000020 18 4a 71 3c 4c 6d 3d 3d 96 5a e7 bb ba 14 81 bd
       0.014727138 0.04624681 -0.007060359 -0.063027814
000030 a4 8b 62 bd 79 3d bb 3c 7f b4 00 bc 9e 61 d8 3c
       -0.055308953 0.02285646 -0.007855534 0.026413735
000040 d9 2b 8c 3d 89 50 92 bd 83 dd 9a bc cd b5 5a 3d
       0.06844301 -0.07144267 -0.018904453 0.053396035
000050 33 cb ac 3c fc 88 01 bd 70 f4 92 bc 7c 09 61 bd
       0.021092987 -0.03162478 -0.017938823 -0.054940686
000060 37 06 c8 3c 45 22 f1 bc 8f 15 62 bc 24 9b cf bc
       0.024417026 -0.029435286 -0.013799085 -0.025342532
000070 91 34 60 3d b5 7a 91 3c 12 d2 01 bd 1c f6 d8 bc
       0.05473763 0.017758707 -0.03169448 -0.026484542
000080 39 6c 3b 3d e6 6b 06 3d 67 f1 a9 3c 0f 4e 3c 3d
       0.045757506 0.032817744 0.020744992 0.04597288
000090 7c c0 65 3d 98 7a 19 3d 06 57 9f bb af 31 a6 bc
       0.05609177 0.03747043 -0.004862669 -0.020287363
0000a0 60 38 85 3b b6 0f 1b bd 26 f2 53 bd b7 a6 1a 3c
       0.0040655583 -0.03785678 -0.051744603 0.009439162
0000b0 01 6f 0f bd 1b 1b 40 bd a9 5f 83 bd 2c 39 14 bd
       -0.03501797 -0.04690085 -0.0641473 -0.036187336
0000c0 fc 58 34 3d 19 a9 1a bc ff 40 73 bd 2f 49 af 3c
       0.044030175 -0.00943973 -0.059388157 0.021397201
0000d0 e4 dc c4 ba 07 d1 29 3d c2 7b 76 3d 4e ce 8d 3c
       -0.0015019444 0.04145911 0.06017662 0.017310288
0000e0 1c 87 54 bd 77 5f ff bc 13 63 40 bd 46 fe 39 3d
       -0.051886663 -0.03117345 -0.046969485 0.04540851
0000f0 a7 a6 2e 3d ff 2f 46 3d 30 60 b2 bb 60 7c 34 3c
       0.0426394 0.048385616 -0.0054435953 0.011015981
000100 6a ae 9c 3d cb fe e4 3c bf 7c af bc 6a 05 8f 3c
       0.07650454 0.027953526 -0.021421788 0.017458636
000110 54 e1 74 3d 8e e5 14 3d f1 09 ab 3c 4f c0 8a 3d
       0.059785202 0.036351733 0.020878764 0.06774961
000120 f0 48 c4 bc 7e f8 52 bb 1f 65 62 bd f9 7c 29 bd
       -0.02396056 -0.003219157 -0.055272218 -0.04137895
000130 94 b8 4c 3d 4d ce 22 3d 15 76 10 3d 8a f7 16 3d
       0.049980715 0.039747525 0.03526886 0.036857165
000140 05 ef f7 bc 68 5b 06 3d 64 bc 37 3d 64 29 db 3b
       -0.03026534 0.032802016 0.044857398 0.0066882838
000150 6f 04 83 bd b9 db 21 3d a6 7c 3b bc 07 a3 27 bc
       -0.0639733 0.039516184 -0.011443293 -0.01023174
000160 aa ff 02 bd 1d 64 6f bd 9b 8f 44 3c 8a 78 7e bd
       -0.0319821 -0.058445085 0.011997129 -0.062126674
000170 86 c5 a5 3d 52 97 97 bc 8b 32 eb bc 7c c1 05 ba
       0.08094315 -0.018504772 -0.028710624 -0.0005102379
000180 f3 14 92 3d ec ef be bc 47 fc 44 bd 37 eb 36 bc
       0.07132902 -0.023307763 -0.048092153 -0.011164478
000190 b3 5e d1 3a 43 27 c1 bc 6d 33 e1 3b 36 10 84 3d
       0.0015973657 -0.023578292 0.0068725855 0.064484045
0001a0 bd a7 b5 bc bf e6 12 3d e7 83 1e 3d 7e 0e 1e 3d
       -0.02217471 0.035864588 0.03870001 0.03858804
0001b0 f0 aa 18 bd ef 2f f0 bc 20 45 8e 3d 65 4a 5d 3b
       -0.037272394 -0.029319732 0.06946778 0.0033766266
0001c0 fb 68 d1 bc 0a 1a 40 bd 27 1b 9d b9 c4 9b c8 bc
       -0.025562754 -0.046899833 -0.00029965604 -0.024488337
0001d0 4d 00 b2 ba d9 d6 70 3d 52 02 2f 3d 00 fa 87 3b
       -0.0013580412 0.058798645 0.042726822 0.0041496754
0001e0 04 4c 67 bd 75 d8 6e 3c ee 0e 19 3d e6 a9 44 3d
       -0.05646898 0.014577975 0.037367754 0.04801359
0001f0 37 4d 31 3d de 04 a8 3b 55 6b 49 bc 63 91 e0 3b
       0.04328653 0.0051275333 -0.012293656 0.006853269
000200 29 08 e9 3c 81 58 25 bd 76 10 29 bd de 92 cc bc
       0.028446274 -0.040367607 -0.041275464 -0.024972375
000210 e3 36 18 bd f0 e0 cd ba 76 e4 0e 3c a8 4d 8c bc
       -0.03716172 -0.0015707295 0.0087214615 -0.017126873
000220 35 02 72 bc 21 65 55 bd 94 60 80 bb 1b b3 42 3d
       -0.014771034 -0.052098397 -0.003917763 0.04753409
000230 aa e2 81 3d 9f 33 ef bc 56 62 e7 bb aa 50 eb bc
       0.06342061 -0.02919942 -0.007061283 -0.028724987
000240 83 e6 a6 bd 4a 95 77 3d 15 b9 8a b9 96 d7 8f bd
       -0.08149435 0.060445108 -0.00026459308 -0.07023542
000250 11 13 b5 bc 1f 7e ed 3c fe 71 8c 3c b9 3d 7c 3d
       -0.022103818 0.028990803 0.0171442 0.0615823
000260 2c 14 9e bc c8 df f9 3c 21 08 15 3c df f4 07 3d
       -0.019296728 0.030502215 0.009096176 0.03319251
000270 b7 22 3c bd 9d 0d b8 bb b5 ac eb 3c 23 cf 0b 3d
       -0.045931544 -0.005616857 0.028768877 0.034133088
000280 9f a7 f9 bc eb 14 1a bd df 8f 90 bc 95 35 4d bd
       -0.030475436 -0.037617605 -0.017646728 -0.050099928
000290 e5 f0 52 bd 50 33 19 bd 40 4f 3e 3b b6 9b cf 3c
       -0.051499266 -0.03740245 0.0029038936 0.025342803
0002a0 c1 fc 99 bc 8a f9 7a 3d 2f b2 06 3d ae 7d 20 bd
       -0.01879728 0.061273135 0.032884773 -0.039182357
0002b0 32 92 e0 3c 03 3e 1c 3d 3e 05 74 3d bf b3 c5 3c
       0.027413461 0.038145076 0.05957531 0.024133561
0002c0 85 2a 1c bd 8a f2 b7 3c 75 b9 51 3d c1 10 87 bc
       -0.038126487 0.022454519 0.051202256 -0.016487481
0002d0 44 02 1b 3a c5 37 c9 bc be ca 76 bd 03 22 b6 bc
       0.00059131184 -0.024562726 -0.060251944 -0.022233015
0002e0 1c a1 37 3d 11 07 d2 3c e5 53 62 3d 96 68 58 bd
       0.04483138 0.025638135 0.05525579 -0.052834116
0002f0 d7 d3 3b bd ee 6d 46 bd 74 9a 62 39 ce 59 b6 bc
       -0.045856323 -0.04844468 0.00021610578 -0.02225962
000300 15 b2 46 bd 08 f6 4d bd 89 7b ca 3c fa 1e 78 bc
       -0.048509676 -0.05028346 0.02471711 -0.015144104
000310 7b 21 81 bd bc a2 49 bd 05 17 12 bd aa 25 62 bd
       -0.06305214 -0.04922746 -0.035666484 -0.0552117
000320 b4 7b d7 3b 73 10 c4 3b 45 cf 82 3d db c4 39 3d
       0.006576026 0.005983406 0.0638719 0.04535375
000330 3c 35 8b bd c4 b6 0a bd a6 ae 2c bd 75 47 0e bd
       -0.06797263 -0.033865705 -0.042158745 -0.034736115
000340 4f 07 0a 3d ea 6c 00 bd aa 94 46 bd 04 52 6a bc
       0.033698376 -0.03135387 -0.04848162 -0.014301781
000350 16 0a 99 3d ab 58 62 bd a5 17 5a 3c 7c 12 83 3c
       0.07472627 -0.05526034 0.013311301 0.016000025
000360 6d f1 53 3c 4e b9 8f 3d 49 d3 ea bb 06 a1 84 3d
       0.012935978 0.07017766 -0.0071663004 0.06476025
000370 12 15 75 bd 51 8c 37 3c 40 0f 74 3c 05 dc 19 bc
       -0.059834547 0.011202888 0.014896214 -0.009390836
000380 87 46 a9 bd 67 34 80 3c f8 69 55 3d c1 ce e7 ba
       -0.08265405 0.015649987 0.052103013 -0.0017685519
000390 95 f0 d9 bc 4b 00 f3 3c 2d 69 86 3c c4 23 7d bd
       -0.026603976 0.029663226 0.016407574 -0.061801687
0003a0 fb cf 9c 3c b5 e8 43 bd 54 93 55 bd dc ec b1 bc
       0.019142142 -0.04782935 -0.052142456 -0.021719389
0003b0 93 26 25 3d 7d 02 b4 3c a0 8d 8d bd 6f c4 93 bb
       0.04031999 0.021973843 -0.069117785 -0.0045095007
0003c0 48 5b 9d 3c 52 f5 34 3d 7c 70 a9 bc 31 1c 09 3d
       0.019208565 0.04417927 -0.02068352 0.03347415
0003d0 c5 ef 65 3c 20 e5 7e bd 57 00 0b bd 8f da d2 bc
       0.014034216 -0.06223023 -0.03393587 -0.025738982
0003e0 00 da 57 3d ef a2 d4 bc 58 65 19 bd fa 32 53 bd
       0.052698135 -0.025956599 -0.037450165 -0.051562287
0003f0 02 c0 32 bd 03 03 19 bc fd 7d 93 3c d5 d2 c3 3b
       -0.043640144 -0.009339097 0.018004412 0.005976061

action_model._discrete_distribution.branches.0.bias f4 [2]
000000 fa 4b 79 bc fa 4b 79 3c
       -0.015215868 0.015215868

exp_avg f4 [128, 6]
000000 6f c2 81 3a be 72 4c 3b bb d2 a3 37 bc 03 bf ba
       0.0009899865 0.0031196321 1.9529243e-05 -0.0014573256
000010 fd 6a d3 3a bb d2 a3 37 18 7c 4b 39 d8 f8 6e 3a
       0.0016129907 1.9529243e-05 0.00019405817 0.000911606
000020 7f 73 80 36 d9 8c 6f b9 e3 d5 9b 39 7f 73 80 36
       3.828143e-06 -0.00022845286 0.00029723262 3.828143e-06
000030 97 14 ec b9 60 23 73 ba 02 07 15 b7 06 10 5e b9
       -0.00045028768 -0.00092749856 -8.882724e-06 -0.00021177539
000040 07 96 45 ba 02 07 15 b7 fc 3a 38 b9 79 8d 2d b9
       -0.00075373094 -8.882724e-06 -0.00017569581 -0.00016551268
000050 ea 97 68 b6 35 cf 3c b9 05 7d e8 b8 ea 97 68 b6
       -3.465912e-06 -0.00018006268 -0.00011085909 -3.465912e-06
000060 b2 76 9e b9 50 99 1a ba 03 10 c8 b6 ea b7 99 38
       -0.00030224543 -0.0005897479 -5.9623285e-06 7.329865e-05
000070 8b 55 1a ba 03 10 c8 b6 c7 f0 e2 38 10 0f 47 3a
       -0.00058873807 -5.9623285e-06 0.00010821368 0.0007593492
000080 eb 41 0f 36 9a 05 a2 3a 72 d3 9b b8 eb 41 0f 36
       2.134703e-06 0.0012361289 -7.430361e-05 2.134703e-06
000090 4a 9c 29 3a 9b cf 0c 3b b4 22 56 37 95 b6 91 ba
       0.0006470127 0.0021486047 1.2763474e-05 -0.0011117036
0000a0 28 62 9a 3a b4 22 56 37 96 2d ea b8 2f ee f5 b8
       0.001177852 1.2763474e-05 -0.000111664805 -0.000117268755
0000b0 99 d3 13 b6 f3 7f a1 ba 91 08 30 b9 99 d3 13 b6
       -2.2027873e-06 -0.0012321457 -0.00016787859 -2.2027873e-06
0000c0 e4 2b 14 bb bc 0a c4 bb 8b 11 3b b8 d9 72 21 3b
       -0.0022609169 -0.005982725 -4.4600612e-05 0.0024635105
0000d0 97 e2 7c bb 8b 11 3b b8 5a f5 bf 37 ae 41 b7 38
       -0.0038587207 -4.4600612e-05 2.2883225e-05 8.738354e-05
0000e0 91 59 f2 34 c1 9c 70 b8 53 cb 92 b8 91 59 f2 34
       4.514118e-07 -5.7366447e-05 -6.9996946e-05 4.514118e-07
0000f0 aa cf ea ba af be 9b bb e7 39 14 b8 de 61 9e 39
       -0.0017914672 -0.004752956 -3.5339875e-05 0.00030209025
000100 0f 87 31 bb e7 39 14 b8 1a f4 61 b7 f8 89 0e b8
       -0.0027088558 -3.5339875e-05 -1.3467879e-05 -3.398393e-05
000110 75 a2 8e b4 96 99 1b b7 ef aa 14 b9 75 a2 8e b4
       -2.6567764e-07 -9.274479e-06 -0.00014178058 -2.6567764e-07
000120 25 84 33 3a 94 52 06 3b 42 a4 62 37 14 2b b7 3a
       0.0006847999 0.0020495998 1.3508894e-05 0.001397463
000130 d7 46 80 3a 42 a4 62 37 6b 6c a9 b9 96 33 87 ba
       0.0009786737 1.3508894e-05 -0.0003231497 -0.0010315056
000140 4a e6 d5 b6 5f 80 47 3a 77 7a 13 ba 4a e6 d5 b6
       -6.374704e-06 0.00076103763 -0.00056258537 -6.374704e-06
000150 3a a4 94 b9 ef 19 55 ba 78 a9 bb b6 46 af 23 b9
       -0.00028351118 -0.00081291696 -5.592763e-06 -0.00015610186
000160 56 74 bb b9 78 a9 bb b6 c1 cf 1c bb d8 15 c9 bb
       -0.00035754096 -5.592763e-06 -0.0023927542 -0.006136637
000170 0d fa 45 b8 d3 ee e9 ba 30 d1 82 bb 0d fa 45 b8
       -4.7201338e-05 -0.0017847664 -0.0039922222 -4.7201338e-05
000180 0a 03 11 3a 8f e0 0d 3b 58 14 37 37 38 73 45 3b
       0.0005531764 0.002164874 1.0912387e-05 0.003012849
000190 22 4b 75 38 58 14 37 37 ad 83 1e b7 da 3b 72 38
       5.8482525e-05 1.0912387e-05 -9.448192e-06 5.7753037e-05
0001a0 6f 20 48 b4 01 8e a8 b7 3f 25 71 b7 6f 20 48 b4
       -1.8638251e-07 -2.0093286e-05 -1.4373391e-05 -1.8638251e-07
0001b0 a9 c2 10 ba 7f e2 af ba 12 c3 36 b7 6c ae 7b b9
       -0.00055221707 -0.0013418942 -1.0893464e-05 -0.00024002203
0001c0 80 81 8f ba 12 c3 36 b7 8e 9e e1 b8 9e 8e 94 b8
       -0.0010948628 -1.0893464e-05 -0.00010758369 -7.0837545e-05
0001d0 7c 6c 0e b6 47 e4 49 b9 79 1f a0 b8 7c 6c 0e b6
       -2.1222795e-06 -0.00019253894 -7.635257e-05 -2.1222795e-06
0001e0 b6 e5 49 ba 6c 58 a4 ba ec e5 7e b7 15 8d 07 b9
       -0.0007701771 -0.0012538559 -1.5193113e-05 -0.0001292716
0001f0 da 19 6e ba ec e5 7e b7 52 38 0c bb d8 17 b0 bb
       -0.00090828317 -1.5193113e-05 -0.0021395874 -0.005373936
000200 9a 07 31 b8 16 25 c1 3a dd 35 63 bb 9a 07 31 b8
       -4.2207168e-05 0.0014735784 -0.0034669556 -4.2207168e-05
000210 e1 6b 9b ba 19 bb 5b bb bd 38 c4 b7 05 46 27 3b
       -0.0011857712 -0.0033528267 -2.3391442e-05 0.0025523913
000220 b0 c1 14 bb bd 38 c4 b7 ea e7 4f b8 f1 23 ce b8
       -0.0022698455 -2.3391442e-05 -4.9568633e-05 -9.82954e-05
000230 f6 3d 83 b5 d9 01 13 b9 ee 1f 23 b8 f6 3d 83 b5
       -9.778294e-07 -0.00014019701 -3.8891965e-05 -9.778294e-07
000240 e6 f0 23 b9 83 87 da b9 52 fa 4e b6 29 39 ce 3a
       -0.00015634633 -0.00041681164 -3.0842098e-06 0.0015733588
000250 ec 8a fc b9 52 fa 4e b6 6e 8d 78 38 36 c1 0c 39
       -0.0004816869 -3.0842098e-06 5.9259524e-05 0.00013423417
000260 84 e6 9c 35 d5 46 cb b8 74 6d ea 37 84 e6 9c 35
       1.1689995e-06 -9.692988e-05 2.7945942e-05 1.1689995e-06
000270 62 ce 19 3a 03 b5 ca 3a b4 2e 42 37 2e b9 f0 39
       0.000586724 0.0015465323 1.1574175e-05 0.00045914337
000280 60 34 97 3a b4 2e 42 37 23 81 09 bb 02 4d 96 bb
       0.0011535995 1.1574175e-05 -0.0020981512 -0.0045868168
000290 ee 99 2d b8 a4 03 4d ba 34 8d 63 bb ee 99 2d b8
       -4.1389772e-05 -0.0007820672 -0.0034721615 -4.1389772e-05
0002a0 82 e5 1f b8 f2 bd fe b8 1b df 49 b5 67 fd 13 3a
       -3.81223e-05 -0.00012147044 -7.5202996e-07 0.0005645365
0002b0 f1 63 83 b9 1b df 49 b5 81 f6 28 b9 18 ca 46 ba
       -0.0002506073 -7.5202996e-07 -0.00016113558 -0.0007583215
0002c0 6b 51 55 b6 a1 6c 8d 3a 88 bc 83 b9 6b 51 55 b6
       -3.1786865e-06 0.001078982 -0.00025126734 -3.1786865e-06
0002d0 68 72 21 3a 39 8d 0a 3b 33 d4 4b 37 e0 e3 a0 b9
       0.00061587105 0.0021141304 1.2149149e-05 -0.00030687358
0002e0 fd 0a 8c 3a 33 d4 4b 37 ee e5 32 3a 2b e7 10 3b
       0.0010684427 1.2149149e-05 0.00068244233 0.0022110443
0002f0 83 dc 61 37 da 8b 73 ba 87 59 9f 3a 83 dc 61 37
       1.3462387e-05 -0.0009290554 0.0012157419 1.3462387e-05
000300 89 40 ac 35 62 e9 08 38 54 77 d9 32 78 95 ff 39
       1.2833781e-06 3.264228e-05 2.5316389e-08 0.00048748753
000310 5e 66 eb 38 54 77 d9 32 3b 8b fd b9 94 8c b0 ba
       0.000112247406 2.5316389e-08 -0.00048359655 -0.001346963
000320 20 0d 20 b7 08 3f 6e 3a c9 cc 3d ba 20 0d 20 b7
       -9.539799e-06 0.0009088372 -0.0007240293 -9.539799e-06
000330 94 19 18 3a 05 33 98 3a 3b 07 40 37 b5 85 e6 ba
       0.0005802151 0.0011611885 1.1445775e-05 -0.0017587455
000340 e4 82 39 3a 3b 07 40 37 58 9b 27 38 1b 4b 41 39
       0.0007076694 1.1445775e-05 3.9960578e-05 0.00018433893
000350 17 9b 53 35 7a 8c a4 38 7b c9 01 b8 17 9b 53 35
       7.882931e-07 7.846295e-05 -3.094364e-05 7.882931e-07
000360 4b 4f 64 37 65 bc c5 38 47 1f 90 34 6e a9 ba b8
       1.3608321e-05 9.428783e-05 2.6844847e-07 -8.90073e-05
000370 9d 59 d5 37 47 1f 90 34 79 24 df 36 7e 97 0c b7
       2.5433308e-05 2.6844847e-07 6.650164e-06 -8.379922e-06
000380 35 dc 0c 34 f4 9c bb b8 1e 67 9f 36 35 dc 0c 34
       1.3118627e-07 -8.94609e-05 4.7505737e-06 1.3118627e-07
000390 3f 24 f8 b9 a5 6b 72 ba 1d a4 1c b7 67 e5 94 b9
       -0.00047329252 -0.00092476077 -9.336535e-06 -0.00028399678
0003a0 d1 26 e3 b9 1d a4 1c b7 57 ed 5d b8 36 e3 4a b8
       -0.00043325734 -9.336535e-06 -5.2911546e-05 -4.837216e-05
0003b0 cf 17 8c b5 ae 26 74 b8 45 31 4a b7 cf 17 8c b5
       -1.0437742e-06 -5.8210157e-05 -1.205161e-05 -1.0437742e-06
0003c0 97 9c be 37 7c df d4 38 65 a6 f0 34 19 84 9b 38
       2.2722683e-05 0.00010150575 4.4824552e-07 7.415581e-05
0003d0 9b 4e ed 34 65 a6 f0 34 b9 f2 a9 b9 d8 b2 cc b9
       4.4201883e-07 4.4824552e-07 -0.00032415034 -0.0003904316
0003e0 d8 8f d6 b6 c8 77 8c b9 c8 3b 38 b9 d8 8f d6 b6
       -6.3944426e-06 -0.00026792125 -0.00017569878 -6.3944426e-06
0003f0 52 fe 8c 39 79 92 50 3a 95 01 b2 36 31 cc d0 b9
       0.00026892364 0.00079563964 5.3049976e-06 -0.00039824986

exp_avg_sq f4 [128, 6]
000000 af a4 01 37 59 b2 1e 38 e3 a4 4e 31 d0 1d 82 37
       7.727343e-06 3.7836235e-05 3.0070673e-09 1.551109e-05
000010 7c 17 3c 38 e3 a4 4e 31 60 e2 f6 35 8c a6 26 37
       4.4844564e-05 3.0070673e-09 1.8394312e-06 9.933148e-06
000020 71 c2 44 30 e8 67 47 36 8a d9 64 37 71 c2 44 30
       7.15807e-10 2.9713792e-06 1.3640509e-05 7.15807e-10
000030 c0 b9 64 34 9a 17 47 35 9f 49 b6 2e 18 77 2d 34
       2.130173e-07 7.416762e-07 8.2894795e-11 1.6155207e-07
000040 e6 4a 3e 35 9f 49 b6 2e 17 b8 09 34 b8 2e c2 34
       7.088951e-07 8.2894795e-11 1.2826091e-07 3.6169308e-07
000050 29 84 5b 2e d1 20 47 34 9d d1 c2 34 29 84 5b 2e
       4.9912217e-11 1.8545258e-07 3.628783e-07 4.9912217e-11
000060 a9 f7 1f 34 d6 31 47 35 94 fa 7e 2e 57 bc 6b 34
       1.4898127e-07 7.42058e-07 5.797547e-11 2.1954598e-07
000070 02 f5 9a 35 94 fa 7e 2e e6 b9 34 36 56 0f 70 37
       1.1545201e-06 5.797547e-11 2.6930297e-06 1.4308685e-05
000080 99 08 90 30 ee ce c0 35 25 27 9d 37 99 08 90 30
       1.0479823e-09 1.4365339e-06 1.8734087e-05 1.0479823e-09
000090 94 75 94 36 8e cc bb 37 98 a2 ec 30 42 ee 12 37
       4.4244316e-06 2.238739e-05 1.7217472e-09 8.757752e-06
0000a0 5b 78 ee 37 98 a2 ec 30 da b6 ec 34 61 88 fd 35
       2.8427856e-05 1.7217472e-09 4.4091468e-07 1.888966e-06
0000b0 82 a7 3c 2f cf b7 7f 36 3d c7 27 36 82 a7 3c 2f
       1.7158011e-10 3.8104952e-06 2.5000911e-06 1.7158011e-10
0000c0 b3 4a 5f 37 c3 59 86 38 10 f5 b1 31 79 a6 f5 37
       1.3309228e-05 6.406337e-05 5.1792384e-09 2.9283796e-05
0000d0 83 d0 89 38 10 f5 b1 31 4f 91 8b 33 05 f2 97 34
       6.5715074e-05 5.1792384e-09 6.4991234e-08 2.8302034e-07
0000e0 6b 76 de 2d 2a 73 28 34 25 e2 c2 34 6b 76 de 2d
       2.5291066e-11 1.5688116e-07 3.6299858e-07 2.5291066e-11
0000f0 d4 a7 36 37 a2 cd 5b 38 3c 92 91 31 ef 84 5d 37
       1.0887121e-05 5.240518e-05 4.2366803e-09 1.32035775e-05
000100 49 54 64 38 3c 92 91 31 22 fe 8c 33 14 b4 6f 34
       5.4437933e-05 4.2366803e-09 6.5654845e-08 2.2324122e-07
000110 f5 bb e0 2d 28 ec 8a 34 d8 95 0e 34 f5 bb e0 2d
       2.5549321e-11 2.587633e-07 1.3279293e-07 2.5549321e-11
000120 6e 92 6b 36 52 6c 94 37 6f be bb 30 46 6c a9 35
       3.5102962e-06 1.7693415e-05 1.3660165e-09 1.2622993e-06
000130 6f 56 b6 37 6f be bb 30 b8 56 5e 35 90 4a 8f 36
       2.173634e-05 1.3660165e-09 8.2827637e-07 4.2704123e-06
000140 83 32 b1 2f e5 eb 16 36 92 9f b5 36 83 32 b1 2f
       3.2232003e-10 2.248905e-06 5.412797e-06 3.2232003e-10
000150 9f aa 1b 35 d7 69 4f 36 87 1f 78 2f 96 fb 4f 35
       5.7990286e-07 3.090701e-06 2.256667e-10 7.7479615e-07
000160 fa 20 6e 36 87 1f 78 2f 69 73 5c 37 a4 7f 87 38
       3.5483959e-06 2.256667e-10 1.3139893e-05 6.4610766e-05
000170 54 b1 af 31 aa 1b 03 37 9a 35 87 38 54 b1 af 31
       5.11333e-09 7.8146495e-06 6.447286e-05 5.11333e-09
000180 6f 6d 47 37 7c 46 6c 38 0d f0 9e 31 78 80 ae 36
       1.1886804e-05 5.633243e-05 4.625696e-09 5.20056e-06
000190 a6 5a 9a 38 0d f0 9e 31 8a b9 b5 32 e7 df d6 33
       7.360177e-05 4.625696e-09 2.1155547e-08 1.0005879e-07
0001a0 4f d4 10 2d 85 58 6c 33 f8 97 f8 33 4f d4 10 2d
       8.232594e-12 5.502854e-08 1.1576043e-07 8.232594e-12
0001b0 8e 9e c2 34 fd dd 02 36 19 1b 1b 2f 88 bd 17 34
       3.625068e-07 1.9500724e-06 1.4106795e-10 1.4131922e-07
0001c0 15 7e 0e 36 19 1b 1b 2f df 7c 98 33 2f 1a 70 34
       2.1233038e-06 1.4106795e-10 7.1007655e-08 2.2361267e-07
0001d0 7b 0e f3 2d 7b 2d 27 34 0a 91 6c 34 7b 0e f3 2d
       2.7632332e-11 1.5569633e-07 2.2031978e-07 2.7632332e-11
0001e0 ad 85 b8 34 2a 4c 78 35 09 0f 13 2f d3 46 20 34
       3.4369933e-07 9.249803e-07 1.3374914e-10 1.4926927e-07
0001f0 1a c6 22 35 09 0f 13 2f d4 6a 00 37 29 ab 0f 38
       6.063798e-07 1.3374914e-10 7.654267e-06 3.4253262e-05
000200 7f b0 4c 31 b6 d7 7f 37 48 26 fc 37 7f b0 4c 31
       2.9786233e-09 1.52494085e-05 3.0058567e-05 2.9786233e-09
000210 b4 5b a1 36 7c 0c dc 37 07 99 00 31 b5 e7 93 37
       4.8088496e-06 2.6231857e-05 1.8713437e-09 1.7631663e-05
000220 ff bf ff 37 07 99 00 31 79 89 4e 32 58 d4 5b 33
       3.0487774e-05 1.8713437e-09 1.2022036e-08 5.1183036e-08
000230 a3 9a a4 2c ce 72 62 33 08 a7 5c 33 a3 9a a4 2c
       4.6783285e-12 5.272414e-08 5.1374656e-08 4.6783285e-12
000240 09 1c 37 34 55 c5 58 35 d9 ee 91 2e 6f 0f 25 36
       1.7053402e-07 8.0753426e-07 6.6362645e-11 2.45959e-06
000250 be 27 9b 35 d9 ee 91 2e 97 09 1f 33 40 65 cc 33
       1.1559966e-06 6.6362645e-11 3.7028794e-08 9.5179075e-08
000260 0f 7f 7d 2d c4 b9 db 33 8d 57 83 33 0f 7f 7d 2d
       1.4409598e-11 1.0231773e-07 6.116088e-08 1.4409598e-11
000270 26 44 48 35 ee be 81 36 39 9b 9f 2f 43 3d 7f 34
       7.4604975e-07 3.8667267e-06 2.9032224e-10 2.3771013e-07
000280 3c 42 99 36 39 9b 9f 2f bc 1b 8b 36 a3 36 87 37
       4.567466e-06 2.9032224e-10 4.1457515e-06 1.6118696e-05
000290 0f bb dd 30 c4 05 b7 35 f9 96 71 37 0f bb dd 30
       1.6133032e-09 1.363624e-06 1.439987e-05 1.6133032e-09
0002a0 71 da 95 33 c7 1a 9d 34 80 db ee 2d 1f 7c 01 35
       6.9780874e-08 2.9263012e-07 2.7154945e-11 4.8236865e-07
0002b0 1c 33 aa 34 80 db ee 2d 4c db aa 35 42 a7 df 36
       3.1702155e-07 2.7154945e-11 1.2729811e-06 6.6653893e-06
0002c0 f1 2a 08 30 23 d5 a3 36 17 00 18 37 f1 2a 08 30
       4.9537535e-10 4.882591e-06 9.059927e-06 4.9537535e-10
0002d0 94 fa 82 36 44 af ac 37 c5 c5 d0 30 37 bc a4 36
       3.903473e-06 2.0585612e-05 1.5190201e-09 4.909492e-06
0002e0 73 35 d5 37 c5 c5 d0 30 82 de 9c 36 a2 fb c0 37
       2.5416468e-05 1.5190201e-09 4.6750656e-06 2.300536e-05
0002f0 48 0a fa 30 79 cc 28 37 a6 03 fa 37 48 0a fa 30
       1.8192816e-09 1.0061188e-05 2.9804021e-05 1.8192816e-09
000300 3c 97 47 33 2a 61 7f 34 6a 11 9f 2d 9d c6 c8 34
       4.6470845e-08 2.3784074e-07 1.808394e-11 3.7397413e-07
000310 4e 12 9e 34 6a 11 9f 2d c1 27 b5 35 ec ba cf 36
       2.9443112e-07 1.808394e-11 1.3497121e-06 6.1908413e-06
000320 1d 60 10 30 8e c9 87 36 eb 18 dc 36 1d 60 10 30
       5.252348e-10 4.0467776e-06 6.5594118e-06 5.252348e-10
000330 24 78 40 35 69 e6 21 36 77 64 99 2f f4 7d c2 36
       7.17004e-07 2.4124986e-06 2.7901922e-10 5.7963134e-06
000340 2f b1 84 35 77 64 99 2f 5d 5f 09 34 39 4b 20 35
       9.886334e-07 2.7901922e-10 1.2793812e-07 5.971411e-07
000350 b4 f6 5a 2e 0c 39 5e 34 77 83 42 35 b4 f6 5a 2e
       4.9786578e-11 2.0696115e-07 7.246194e-07 4.9786578e-11
000360 08 fe 04 33 78 30 1f 34 59 fb 53 2d 23 6b ec 33
       3.0964685e-08 1.4825662e-07 1.2049772e-11 1.10090944e-07
000370 85 50 46 34 59 fb 53 2d e6 bb 09 32 0e cb 0f 33
       1.846948e-07 1.2049772e-11 8.017173e-09 3.347946e-08
000380 2a 8a 5b 2c a4 cb fa 32 ee 9e 40 33 2a 8a 5b 2c
       3.1198468e-12 2.9196435e-08 4.484803e-08 3.1198468e-12
000390 b8 09 26 35 22 72 d7 35 cb 53 84 2f 0b 4e 21 35
       6.185396e-07 1.6051965e-06 2.4070199e-10 6.009074e-07
0003a0 b0 72 80 35 cb 53 84 2f cd 68 92 32 a0 c3 25 33
       9.570122e-07 2.4070199e-10 1.7044295e-08 3.8594976e-08
0003b0 2d 5e e9 2c 1c db 44 32 5f dd 1d 33 2d 5e e9 2c
       6.632714e-12 1.1458521e-08 3.6755747e-08 6.632714e-12
0003c0 dd 6e f1 32 ad 1b f2 33 42 6a 40 2d f5 49 da 32
       2.8106507e-08 1.1274037e-07 1.093753e-11 2.5412172e-08
0003d0 32 37 05 34 42 6a 40 2d 06 4a ab 34 62 b6 44 35
       1.240667e-07 1.093753e-11 3.190509e-07 7.328109e-07
0003e0 28 83 08 2f 9b de 8d 34 f4 7e ff 34 28 83 08 2f
       1.2415724e-10 2.6425263e-07 4.7589822e-07 1.2415724e-10
0003f0 e1 e4 02 35 59 b9 0b 36 2c a3 50 2f 46 72 94 35
       4.8761837e-07 2.08205e-06 1.897546e-10 1.1060117e-06

exp_avg f4 [128]
000000 b6 f3 33 3a f6 18 0d 39 15 b3 a3 b9 2a 7e ff b8
       0.0006864624 0.00013456107 -0.0003122321 -0.000121828474
000010 5a c2 5b b9 8e 5c 9d 38 c4 37 eb 39 64 61 a2 b8
       -0.00020957869 7.503583e-05 0.00044864241 -7.7429024e-05
000020 63 7c cd ba de 1a 85 37 c8 d1 a2 ba 6a ad 1c b7
       -0.0015677329 1.5867347e-05 -0.0012422139 -9.338701e-06
000030 83 f4 f8 39 61 f5 6a b9 45 23 4e b9 d5 77 d9 ba
       0.00047484422 -0.0002240739 -0.0001965883 -0.0016591499
000040 a8 1a c9 39 64 d4 db b6 61 c1 c8 b9 1b 72 9c b8
       0.00038357568 -6.551434e-06 -0.0003829105 -7.4599135e-05
000050 2c ff 0b ba 6e 75 c2 ba 4d 8a 57 ba c5 29 10 b8
       -0.0005340453 -0.0014836022 -0.00082222075 -3.4371176e-05
000060 f2 5a e3 b8 02 59 2c 38 da 4c d5 39 58 b1 be ba
       -0.000108411434 4.109089e-05 0.00040683785 -0.0014548702
000070 0d bf dd b7 d5 51 ea b8 7a e5 df 39 17 19 f8 39
       -2.6434218e-05 -0.00011173232 0.00042704848 0.0004732094
000080 54 e1 6e 35 09 cf af b9 17 ef d2 39 6d 70 e8 37
       8.8989805e-07 -0.00033532854 0.00040232457 2.7708908e-05
000090 b7 4f 1e 37 6f ba 9a 36 13 10 ac b9 b1 e2 19 b8
       9.436094e-06 4.6112614e-06 -0.00032818373 -3.6689165e-05
0000a0 d7 2b 84 37 9f af 6b b9 08 88 43 39 06 be 9e ba
       1.575604e-05 -0.0002247677 0.00018647325 -0.0012111075
0000b0 83 ca e9 39 ae 03 7e 38 d7 c6 80 39 c6 b4 c8 39
       0.00044592106 6.0561746e-05 0.0002456221 0.0003828166
0000c0 c6 ae 79 37 58 5d 25 38 3e fc 56 b9 0f 54 64 39
       1.4882249e-05 3.9426e-05 -0.00020502598 0.00021775089
0000d0 a6 cd 89 36 c9 fd 05 ba fa 81 4e ba e5 be 2d b7
       4.106859e-06 -0.00051113643 -0.00078776444 -1.035605e-05
0000e0 ce a3 27 b9 7a cb e4 37 9e 47 0a 39 67 3c 86 b9
       -0.00015987383 2.727447e-05 0.00013187385 -0.00025603475
0000f0 3c 2f 2d ba 9f 3e 16 ba f1 3e 1e b9 67 6c 38 b9
       -0.0006606465 -0.0005731377 -0.00015091502 -0.0001758799
000100 ab c4 b5 39 d4 bb f0 b9 47 ef 25 38 89 d9 9b b8
       0.0003466954 -0.0004591631 3.956191e-05 -7.431495e-05
000110 ba 7c 42 ba 3b d9 8a b8 3a 49 20 37 a1 c6 3f 39
       -0.00074190984 -6.620815e-05 9.553793e-06 0.00018289174
000120 f4 aa a3 39 d2 3c 8b 38 e0 2b 25 3a 95 ec c9 38
       0.00031217153 6.639365e-05 0.00063007884 9.628494e-05
000130 a1 3f e9 39 ed c0 29 38 b5 35 9e ba 36 3f 4c ba
       0.0004448863 4.0472416e-05 -0.0012070449 -0.00077914016
000140 4c c2 83 ba 64 b1 9b ba 26 ab 83 39 83 fa 01 39
       -0.0010052412 -0.0011878428 0.00025113783 0.00012395722
000150 7d 7b 10 b7 2d ff 57 39 3f 21 30 3a 28 3e c1 37
       -8.611821e-06 0.00020599058 0.0006718821 2.3036337e-05
000160 fd 87 da b9 2c 7d 26 b9 67 97 f4 38 d8 10 f1 b9
       -0.0004168152 -0.00015877624 0.000116630275 -0.00045979652
000170 1d 28 aa ba 37 76 37 b9 c6 78 ab b7 d9 cd 06 b9
       -0.0012981925 -0.00017496278 -2.0441028e-05 -0.0001285592
000180 d6 e6 07 ba 95 c1 a2 38 61 3d 04 38 28 16 1c b9
       -0.00051842385 7.7608194e-05 3.1528416e-05 -0.00014885573
000190 43 3f be 39 a3 1d 06 38 a6 56 25 ba 26 c7 a4 b9
       0.00036286758 3.197569e-05 -0.0006307162 -0.00031428895
0001a0 03 d2 67 ba 0d af 1f b9 5c e2 1c ba c1 f9 fd 39
       -0.0008843245 -0.00015228633 -0.0005984658 0.00048442002
0001b0 7c c5 05 38 37 df de b8 24 ef 03 ba f7 26 94 39
       3.1893593e-05 -0.00010627362 -0.0005032888 0.0002825779
0001c0 08 b4 b7 39 c2 52 e3 38 e4 f7 a8 38 f3 e8 13 36
       0.00035038614 0.00010839618 8.0570375e-05 2.2040301e-06
0001d0 76 90 18 b9 e5 13 8b b9 1f 40 24 ba 3c 24 0d b9
       -0.00014549666 -0.0002652697 -0.00062656583 -0.00013460306
0001e0 17 c1 90 39 fe 45 08 39 c7 60 42 3a 58 7a 11 3a
       0.00027609683 0.00012996045 0.00074149336 0.00055495417
0001f0 2e f7 00 3a 5b 00 14 38 c9 4c 07 bb 1c 32 b9 39
       0.0004919645 3.528628e-05 -0.0020645133 0.00035323284
