results/DefaultSize/MoveToBall/MoveToBall-499988.pt (torch, 439453 bytes, 33 tensors)

network_body._body_endoder.seq_layers.0.weight f4 [128, 6]
000000 47 57 1d 3f 01 a4 20 bc df 7a 4e 3f 58 89 dc 3e
       0.614613 -0.009804727 0.80656236 0.43073535
000010 0c 70 96 3e 96 5d 90 bd bc 21 48 3e 40 25 1b be
       0.2938236 -0.070491 0.19544119 -0.15150928
000020 44 78 93 3e 98 57 bb be bf 6f 5c bf c5 9d ba 3d
       0.28802693 -0.36590266 -0.8610801 0.091121234
000030 59 de ac 3d f7 1a 03 be 51 fa 0b 3e f0 fd 5e be
       0.08440847 -0.12803255 0.13669707 -0.21776557
000040 bc 6f 15 bf 55 eb 06 be db 22 67 bf 75 f0 ca be
       -0.5837362 -0.1317571 -0.9028756 -0.3963658
000050 58 c8 9b 3f f7 b0 00 3e 7f 18 43 3c df f7 42 bf
       1.2170515 0.12567507 0.011907696 -0.7615947
000060 52 d1 1f be 11 5c 02 bf 56 e1 01 3f 93 ef a2 be
       -0.15607193 -0.5092173 0.5073446 -0.31823406
000070 3a d9 83 be 23 2d a7 be 31 74 48 be dc 0e a6 3e
       -0.25751668 -0.32651624 -0.19575574 0.32433212
000080 2c cc 17 3c d2 63 71 bd 75 b1 37 be 09 91 13 3e
       0.009264987 -0.058933087 -0.17938788 0.14410795
000090 04 7f 47 3f 4f 0e 71 be fc 6a bf bd 17 e0 21 3c
       0.77928185 -0.23540615 -0.093465775 0.009880087
0000a0 1d 51 29 3e 03 ae b1 3e d0 e1 bc 3e 43 7e 30 bd
       0.16534849 0.34703073 0.3689103 -0.043089163
0000b0 75 0b 9b bf 9c 69 23 be 88 ce 89 3d 2a 21 47 bf
       -1.2112871 -0.15958256 0.06728846 -0.7778498
0000c0 72 ea 26 3f ef cf 9a 3f be 3a f2 be 80 86 ab bd
       0.65201485 1.2094706 -0.47310442 -0.08375263
0000d0 57 13 be 3e 75 e0 5e be 80 cf 9e be 94 52 d1 3d
       0.3712413 -0.21765311 -0.31017685 0.10220829
0000e0 c8 8b a9 3e 39 8a 30 bd ce 6d 0f 3f cc ea c0 be
       0.33114457 -0.04310057 0.56026924 -0.37679136
0000f0 c3 15 ce bd b9 58 49 bd ca c1 d4 3a 09 78 8d 3e
       -0.100627445 -0.04915688 0.001623207 0.27630642
000100 35 7a dc be ed f6 28 3e 91 7e 47 be bc ce ff be
       -0.43061987 0.16500445 -0.19481875 -0.49962413
000110 d4 dd 1e 3f 15 34 f5 3e 9c 24 0b bd d3 44 b1 be
       0.6205723 0.47891298 -0.03397046 -0.3462282
000120 76 8d 9d 3d 32 30 ee 3d b1 e2 f8 3a d6 96 7d be
       0.07692997 0.11630286 0.0018988458 -0.2476457
000130 1b 56 c6 3c d2 88 d1 3d 72 60 53 3e 6e ea 0a 3f
       0.02421098 0.102311745 0.2064226 0.5426396
000140 6e 62 09 3f b1 42 9e 3d 20 d5 c8 3e d3 fc ec 3e
       0.53665817 0.07727564 0.392251 0.4628664
000150 08 08 42 3e e5 b4 54 be c6 9b a7 3e 25 1f 34 3f
       0.18948376 -0.20772131 0.32736033 0.7036002
000160 0c f1 47 3f 9e 75 e9 3e fa 65 61 be e2 62 8d be
       0.78102183 0.45597547 -0.22011557 -0.27614504
000170 27 91 02 bf 6f 37 ce 3d a6 b9 06 be 58 5f 11 bf
       -0.51002735 0.10069167 -0.13156757 -0.5678611
000180 c3 2e dd 3d 8e ea 64 3e 8a 63 77 be 9f 90 63 be
       0.10799935 0.223551 -0.24159065 -0.22223137
000190 2b 92 8a bc 0c 68 19 3e 28 12 41 be 79 37 8e be
       -0.016915401 0.14981097 -0.18854582 -0.27776697
0001a0 19 b5 40 3c 09 e4 78 be 0d f5 7e bd 60 29 9b 3f
       0.011761927 -0.24305739 -0.062245417 1.2122002
0001b0 3d e3 04 3e c6 a7 88 3e 35 12 1f 3f 94 75 95 3c
       0.1297731 0.266905 0.62137157 0.018244542
0001c0 30 02 c9 bd 0c 35 03 3f 80 d1 98 3e 67 8f 5d 3d
       -0.0981487 0.5125282 0.29847336 0.054091837
0001d0 c9 e6 74 3e 47 3b d0 be de 2f 0e 3f 21 48 e9 3e
       0.23916163 -0.40670225 0.5554179 0.45562842
0001e0 4e db c6 be ed 93 e2 be e5 e0 cb 3e 3d b4 be be
       -0.3883919 -0.44253483 0.39820018 -0.37246886
0001f0 32 41 41 bf 1c 7c aa be 4e 69 08 3c 7d 8f 98 3d
       -0.75490105 -0.33297813 0.008325888 0.07449243
000200 b5 d7 08 3c 18 1c 3d bf 58 3d 88 be a5 fe e5 be
       0.00835221 -0.7387099 -0.26609302 -0.4492084
000210 1b 58 b6 3e ae 40 0d bc ec 28 15 bf 68 30 a5 bd
       0.35614094 -0.008621378 -0.58265567 -0.080658734
000220 f1 a2 23 3f 85 fd 1f 3e 2c 6d b9 3e e8 eb ca b9
       0.63920504 0.15624054 0.36216104 -0.00038704206
000230 e2 49 f5 3e bc cc 98 bc be 58 15 3c 4b 05 91 bd
       0.4790793 -0.018652312 0.009115396 -0.07081088
000240 98 af 38 be e6 45 2e be ff a4 ab be 31 d8 dc be
       -0.18035734 -0.17018852 -0.3352432 -0.4313369
000250 c0 df c0 3e 2c 6f b7 be 04 e0 a7 bd 46 89 0d 3f
       0.37670708 -0.35827005 -0.081970245 0.5528759
000260 82 05 be 3e c4 39 e4 3d dc b6 c5 be ff e8 f5 3e
       0.37113577 0.111438304 -0.38616073 0.48029324
000270 b3 a8 d3 bb 4d 0d 67 3e 9f 1d 82 3e e2 49 56 3f
       -0.0064593195 0.22563668 0.25413224 0.83706486
000280 b6 d4 82 be c4 c2 0f bd 4c c6 86 3e 38 f3 bd 3e
       -0.2555291 -0.035097852 0.26323164 0.37099624
000290 0b 0c bd 3e f9 73 ef bc 15 9a d3 36 d3 63 e9 3e
       0.3692325 -0.029230105 6.3062275e-06 0.45583972
0002a0 5b 53 ba 3e b8 d6 3c bc bd 73 62 be 8c 31 65 3f
       0.3639172 -0.011525802 -0.22114463 0.8952873
0002b0 ae 49 ce be 7f 49 1d be cc 8f d7 3e 3b 48 b6 be
       -0.40290588 -0.15360068 0.42101896 -0.35601982
0002c0 bf 4c cc 3d 6f ab 59 3f 85 fa 59 3e 9f db c8 be
       0.09975576 0.8502721 0.21286972 -0.39230058
0002d0 87 ae 45 3d 89 92 49 3f ea b7 55 3e d5 a2 25 3f
       0.048262145 0.7873922 0.20870939 0.64701587
0002e0 bd 07 62 bf d1 de b4 be a2 ca 25 3f 17 2e c1 bd
       -0.8829306 -0.35326245 0.6476232 -0.09432619
0002f0 3b 27 86 be 71 38 0f bf 2a 70 05 be be e3 b6 be
       -0.26201805 -0.559455 -0.13031068 -0.35720628
000300 a8 ae 0f be 03 bc e6 3e 8a 66 83 3e 24 e0 e2 3c
       -0.1403147 0.45065317 0.2566417 0.02769477
000310 1e 1a 50 3f ea c0 89 3e d3 3f 4b 3e 94 aa 15 3d
       0.8128985 0.26904994 0.19848566 0.03653963
000320 57 ae ec 3e 09 df 1e 3f e5 09 23 bf f4 81 0d bd
       0.4622676 0.62059075 -0.6368697 -0.03454776
000330 d9 9a 4d be 0b 73 06 3f 04 14 ae 3e 17 fb e7 3c
       -0.20078601 0.5251929 0.33999646 0.028317971
000340 c2 97 98 3d fa dd b6 3e f0 d9 81 3d 7f b9 f8 3d
       0.074508205 0.3571623 0.063403964 0.121447556
000350 cd fc 24 3d 54 00 09 3e be 9d 5a 3e 00 8d ab 3b
       0.040280152 0.13379031 0.21349236 0.0052353144
000360 ab 92 dc 3e 55 8b 19 3f 63 ca 0b 3e af 21 b2 be
       0.4308065 0.5997823 0.13651423 -0.34791324
000370 bd 45 19 be 80 3a 14 bf 1a cf fe bb 18 02 b1 bc
       -0.1496801 -0.57901764 -0.0077761533 -0.021607444
000380 82 b8 96 3e e8 7f 7e bd 54 fb 25 3f 26 04 96 3c
       0.29437643 -0.0621337 0.6483662 0.018312525
000390 f0 d6 6c 3c 37 93 77 bd 9d a3 3f 3d f2 b0 7c 3c
       0.014455542 -0.06044313 0.046786893 0.015423046
0003a0 38 00 bd 3e a1 3b bb 3e 14 e9 79 3e 65 62 46 3e
       0.3691423 0.3656893 0.24405318 0.19373472
0003b0 a4 90 67 be ae c1 ba be 3e f9 c2 3e 7a 87 26 3e
       -0.2261377 -0.3647589 0.38080782 0.16262618
0003c0 03 e7 5b 3f c4 1b c2 bf 52 b0 80 be fa 70 17 3e
       0.8589937 -1.5164723 -0.25134522 0.14789191
0003d0 4a 19 65 bd c7 b1 44 3f cd 81 8e be 80 32 e0 bd
       -0.05593232 0.76833767 -0.27833405 -0.10947132
0003e0 37 b5 83 3e 6e 73 65 3e 4f d0 ad be 22 57 aa 3e
       0.25724193 0.22407314 -0.3394799 0.33269602
0003f0 88 07 e7 3e 1f 0b b1 be 25 42 b9 be fb 08 5c 3e
       0.45122933 -0.34578797 -0.36183277 0.21487801

network_body._body_endoder.seq_layers.0.bias f4 [128]
000000 4d e3 3b 3d b9 c5 82 3d d3 61 55 3c e8 da 90 3d
       0.045871068 0.06385369 0.013023811 0.07073003
000010 08 f8 08 bd 72 70 c1 3c b6 6e 81 3d 7d 59 7f 3d
       -0.033439666 0.023613188 0.063199446 0.062341202
000020 60 f8 d8 bc f8 07 fa 3b 55 1a 62 3c eb c1 f6 bd
       -0.026485622 0.0076303445 0.013800223 -0.12048706
000030 13 60 00 bc 1c 92 fe bc ff a6 49 3c 00 85 ea bd
       -0.007835406 -0.03107553 0.012307881 -0.11451149
000040 e6 d3 6e bb e8 f7 89 3d 1e 0c 58 bc 07 8a c1 3c
       -0.003644222 0.067367375 -0.013186483 0.023625387
000050 05 39 aa bb e4 a9 d0 bc f9 1f a3 3c a8 98 0a 3d
       -0.0051947855 -0.025471635 0.019912707 0.03383699
000060 c4 54 89 3c 17 36 52 3d 0b 23 ca ba e0 33 fc 3c
       0.016764052 0.051321115 -0.001542182 0.030786455
000070 25 b2 30 3d 0f bd 9b 3d a1 8d f7 3d f2 e1 01 3d
       0.043138642 0.076044194 0.120875604 0.03170962
000080 76 cb c8 3a 06 a1 b7 3d eb 56 a7 ba f4 68 c6 3c
       0.0015319425 0.0896626 -0.0012766992 0.024219967
000090 c0 84 4a bc 93 17 e1 3c 86 63 ce 3c 3e 0d 96 3c
       -0.012360752 0.027477061 0.02519394 0.018316861
0000a0 73 b4 49 bd 51 1d 91 3c ff 4e 9c bd a0 69 c3 bd
       -0.049244355 0.017714174 -0.07632255 -0.09541631
0000b0 e8 d2 22 bd cf 0f 32 3d 39 1f e2 bc 6c bb e0 ba
       -0.039751917 0.043472107 -0.027602779 -0.00171457
0000c0 d6 08 49 bb e1 38 25 3d f8 2c c3 bb 8f eb 61 3d
       -0.0030675433 0.040337447 -0.0059562884 0.055156287
0000d0 d1 c8 02 3c 47 63 23 3d b7 3d 87 bb c8 db ba bc
       0.007982449 0.0398896 -0.00412723 -0.022809878
0000e0 15 bc 00 bd 50 5c dc bc 63 7e dd bb 43 39 62 bc
       -0.03142937 -0.026899487 -0.0067594512 -0.013807598
0000f0 62 70 71 bc 7e 88 63 3b 36 22 eb 3c 23 d8 8e 3c
       -0.014736267 0.0034718807 0.028702836 0.017437046
000100 3a 89 9b 3c 61 de 90 3b a4 16 b8 bd ce c6 f1 3c
       0.018986333 0.004421041 -0.08988693 0.029513743
000110 f0 9f 53 3c e8 48 03 3b 3c 53 77 3d 79 0c d9 3c
       0.01291655 0.002003247 0.060382113 0.026495205
000120 65 a6 be bb 45 c7 40 3d 52 c0 4d 3d d6 0f d5 3b
       -0.0058181756 0.04706504 0.05023224 0.006502132
000130 cc 3c 8b 3c 32 b3 66 3c af 1f d8 bb b2 e1 67 3d
       0.016996764 0.014080809 -0.006595574 0.056611724
000140 3d 52 a6 bc 83 bc 73 3c 7b 21 d5 3c 28 f0 f9 bc
       -0.020302886 0.014876488 0.026016941 -0.030510023
000150 7e 67 89 3d d9 3e 26 3d ae e0 51 3d e0 c9 ef bb
       0.06709193 0.04058728 0.051239662 -0.0073177665
000160 b3 5a 57 3d 45 06 c9 3c e0 6f 9f 3d e4 41 65 3c
       0.052576732 0.024539122 0.0778501 0.01399276
000170 c6 44 40 bc 2b cf d2 bb 4d aa b6 bd 2e 6c 8e bc
       -0.011735147 -0.0064333878 -0.08919201 -0.017385568
000180 85 ae e8 3d 56 86 0a 3d 9f aa 80 3d 3d bd 17 3d
       0.11361412 0.03381952 0.062825434 0.037045706
000190 1a 20 85 3b 78 2b 11 3c 8c 7d 77 3c 13 68 c9 bc
       0.0040626647 0.008860461 0.015105616 -0.02458576
0001a0 46 c1 d5 bc 48 ad a0 3c 09 99 9c bb a7 3b 3e 3b
       -0.026093137 0.019613877 -0.0047789854 0.0029027255
0001b0 fd 6b e9 3c c2 50 55 3c 59 87 ad 3a b2 2f 59 39
       0.028493876 0.013019742 0.0013239189 0.000207125
0001c0 e9 c4 20 3d 8a bf 3e 3d 12 dd dc bc a9 0b 54 bc
       0.03925029 0.046569385 -0.026960883 -0.012942233
0001d0 f8 03 13 3d a6 38 94 3c 0f 71 21 3c 3d 1d e3 3d
       0.035892457 0.018093418 0.009853615 0.11089561
0001e0 8d e5 84 bc f2 23 f3 3c 01 ed f9 3c ad 38 57 3c
       -0.01622274 0.029680226 0.03050852 0.013136071
0001f0 ff 0d a2 bd 1b d3 bb 3b b7 64 c0 ba 2f e5 71 3d
       -0.07912826 0.005731953 -0.0014678453 0.059056457

network_body._body_endoder.seq_layers.2.weight f4 [128, 128]
000000 6b d0 65 bc d0 74 3c be 91 e1 22 bd 33 dc 3a bd
       -0.0140267415 -0.18403935 -0.0397659 -0.045620155
000010 7a df 7e bd 68 bc 1a 3e cb 28 93 3d cc 27 4b 3d
       -0.062224843 0.15110934 0.07185515 0.0495985
000020 fa ee 91 bd 09 a3 33 bc 62 9a 44 bd 11 2d 17 3c
       -0.07125659 -0.010964164 -0.047998793 0.009227053
000030 7e 0d f2 3d 2d 37 05 be 9e 4a b6 bd 6c ec 87 3d
       0.1181898 -0.13009329 -0.08900951 0.06636891
000040 5f da 5f 3c 37 56 b6 bd ac 19 0a 3c 96 f5 96 3c
       0.013662904 -0.08903163 0.008428972 0.018427651
000050 36 c7 e5 3d 4d 2d 3b bd 17 a0 a6 bd ee 53 ae 3d
       0.11219637 -0.0456975 -0.081360035 0.08512102
000060 6c b1 6b bd 1a 2c 5c 3e 71 a0 c5 3d e6 f1 ab 3d
       -0.05754225 0.21501198 0.096497424 0.08395748
000070 b4 b0 4e 3e d3 68 ed bc fe 2b 30 3d 85 0c 97 3b
       0.20184594 -0.028980648 0.043010704 0.0046096467
000080 63 ac 9d 3d 8e 1a 41 3c 36 0c 15 3e 01 4f 41 ba
       0.07698896 0.011786116 0.1455544 -0.0007374138
000090 11 95 bc 3d 6d 7e 83 bc 74 48 e5 bc 6f 42 a1 bd
       0.0920812 -0.016051495 -0.02798865 -0.07873999
0000a0 b5 a4 50 3d a6 78 68 3d ce 23 5d 3b f9 82 01 be
       0.050938327 0.056755684 0.0033743265 -0.12647618
0000b0 ed 4d 66 bd 32 58 04 3e f0 11 5f 3d 90 6a 9f 3e
       -0.05622666 0.12924269 0.054460466 0.31135988
0000c0 a2 1d c4 3d 33 14 ac 3c 67 42 14 bd 0c 4b c3 3d
       0.095759645 0.021005725 -0.03619614 0.095357984
0000d0 35 a4 1a 3e 4e 81 00 3e a1 a2 95 3d 52 d1 94 bd
       0.15101703 0.12549326 0.073064096 -0.07266487
0000e0 fc be 6c be d9 cf aa bd 89 63 3e 3e e7 9f 84 3d
       -0.2311973 -0.08340425 0.18592657 0.064758115
0000f0 c9 6f d3 3c ad d8 b3 bd e3 19 18 be 83 bc b3 bd
       0.02581014 -0.08781562 -0.14853625 -0.0877619
000100 d7 e8 26 bd 87 28 66 bd 0f 07 cc 3d 52 ee 35 bd
       -0.040749397 -0.056190994 0.09962284 -0.044416733
000110 78 ee 9d 3c 20 fc 56 3d fd 1c 5b 3d 89 ff ad 3d
       0.01927875 0.05248654 0.053494442 0.08496005
000120 14 01 00 3d 11 3f 66 bb 60 89 a5 bc da 06 b9 3d
       0.03125103 -0.0035132805 -0.020207107 0.0903451
000130 b9 13 d4 3c ba 96 0b be 01 c4 f4 3c 13 7a b5 bd
       0.02588831 -0.13631716 0.029878618 -0.088611744
000140 03 ce 1f 3e 7a a6 ce 3c b9 93 b5 bd 83 0d 4c bd
       0.15605931 0.025225867 -0.088660665 -0.049817573
000150 fc 12 1d 3d 20 e7 e0 bd ca 78 74 3e 51 57 75 3e
       0.038348183 -0.109815836 0.23874202 0.2395909
000160 07 de 9e 3c 31 1f 0a 3d 0c ed 57 be 01 98 66 be
       0.01939298 0.033721153 -0.2108652 -0.22518922
000170 e0 84 29 3c 36 04 41 3e 0d 6a 42 3e 1c ea 31 3e
       0.010346621 0.18849263 0.18985768 0.17374462
000180 e4 26 8c 3d 41 1b 0e 3c 9a 3a 1d bd 70 2e 14 be
       0.06843355 0.00867349 -0.038385965 -0.1447084
000190 09 af 46 bd 21 96 0b bd a1 ee ef ba 8c a4 e7 bb
       -0.04850677 -0.03407872 -0.001830537 -0.007069176
0001a0 38 71 50 3c b7 08 72 3c 9c 84 4b bd 41 7a f5 3d
       0.012722306 0.014772586 -0.049687013 0.11986209
0001b0 35 57 2a 3c 83 bd 3c 3e 88 94 d7 3d 34 c3 d9 3c
       0.010396768 0.18431668 0.10526377 0.026582338
0001c0 59 4c 9b bd fc 23 ba 3d 2b f2 be 3c bf 3b d8 bd
       -0.075829215 0.09088895 0.023308834 -0.10558271
0001d0 b6 fe 20 bd ef 25 49 3d 19 f7 47 bd 70 3d e9 bd
       -0.03930541 0.049108442 -0.048819635 -0.113886714
0001e0 42 2f 22 3b a5 97 20 3e d9 58 f3 3b e9 8e 20 3c
       0.0024747406 0.15682848 0.007426363 0.009799697
0001f0 0f 02 8a 3d 1d 47 a5 3b 59 3c 0c 3e 9b c5 20 3e
       0.06738674 0.0050438778 0.13694896 0.1570038
000200 19 38 39 be 00 3b 24 be 5b 07 59 bd 7e e8 a9 3d
       -0.18087806 -0.16038132 -0.05298553 0.082962975
000210 7d 9f df 3d 05 01 e8 3d 8f 25 27 bd 99 d8 5f bd
       0.10919092 0.113283195 -0.040807303 -0.054649923
000220 c2 8f 3a 3e e9 7e f1 3c 9c 68 1e 3d a0 fc 47 3d
       0.18218902 0.02947946 0.038673982 0.048824906
000230 ad 95 4d bb dd cb dc bd bf a3 9b 3d 8c 5f c0 3d
       -0.0031369731 -0.10781071 0.075995915 0.09393224
000240 68 a3 1a 3e 3f 29 cf bc d1 94 c4 3d 29 41 26 bc
       0.15101397 -0.025288222 0.09598697 -0.010147371
000250 12 f8 58 3e 24 8f 06 3e de f1 cd 3d 99 1e 00 be
       0.21188381 0.13140541 0.10055898 -0.12511672
000260 3c d0 fe bb 3f d0 07 3e 54 03 d5 3b d7 d1 b3 bd
       -0.0077762883 0.13263033 0.006500641 -0.08780258
000270 58 7b 74 bd 8d 95 1d be 5a 58 34 3e 30 97 44 3c
       -0.059687942 -0.1538908 0.17611828 0.0119989365
000280 ee 2c a4 3c 13 8a 8d 3d 5e 4e ac 3d 3a fb dc bc
       0.020040955 0.06911101 0.08413385 -0.026975263
000290 7b 80 6b 3d f9 f5 e2 3c c1 ad da bd 86 61 23 be
       0.057495575 0.02770518 -0.10677672 -0.15955171
0002a0 6a f2 ba 3d 03 04 f4 3c f4 a1 27 3c 9d 30 30 bd
       0.09128268 0.02978707 0.010231484 -0.04301511
0002b0 ea 47 51 3e 08 ec 26 be 65 99 fd bc f9 c0 64 3d
       0.2043759 -0.16300976 -0.030956933 0.055848096
0002c0 d2 e1 6a 3d 6d c1 a3 bd a8 06 2e 3e 60 69 a4 3d
       0.057344265 -0.079958774 0.16994727 0.08027911
0002d0 a9 69 11 be a3 da 42 3d e4 d2 b3 bd 5e 39 a7 bd
       -0.14200462 0.04757179 -0.087804586 -0.08165239
0002e0 0d f2 07 3e 99 5f c4 3d b9 f5 49 3d af ed 64 bd
       0.13275929 0.09588546 0.049306605 -0.055890735
0002f0 20 d9 fe bc aa 4d 53 bd 87 ea 3a 3e e1 5b 05 3d
       -0.031109393 -0.051587738 0.18253528 0.032558326
000300 ec c9 66 3d 10 44 23 3e 61 b0 a5 bd d2 e8 5f bd
       0.05634491 0.15943933 -0.08090282 -0.054665394
000310 8b 51 f1 3c 42 28 27 3d c0 d6 06 3e 2f aa 2d bd
       0.029457828 0.040809877 0.13167858 -0.042398628
000320 d1 43 04 bc 91 ca 2a 3e 4b 86 88 bd eb 53 aa 3d
       -0.008072809 0.16678835 -0.06666239 0.08316787
000330 9f 4e 27 3e c9 be 0e 3c 08 d4 ee 3c 31 bc 00 be
       0.16338585 0.008712479 0.029153839 -0.1257179
000340 59 7b 08 3e 1f 05 05 3e be a1 c9 bc d5 b9 36 bd
       0.13328303 0.12990235 -0.024613257 -0.044610817
000350 95 99 22 3d ae 93 16 3e b9 2a d5 3d 28 ec 8f 3d
       0.03969725 0.14704773 0.10408539 0.07027465
000360 d1 96 02 3e 4d dc 03 be 0d d0 4e bc 9b 7e a6 bb
       0.12752844 -0.12877007 -0.012622845 -0.0050810105
000370 f5 da 66 bd 0f 95 98 3d b6 45 e0 3c 4b ed c0 3b
       -0.056361157 0.07450306 0.02737699 0.0058876625
000380 ef e3 c6 bc 56 15 93 3c e4 d3 ce bd 18 19 40 bb
       -0.02427861 0.01795451 -0.10099009 -0.0029311832
000390 0f 23 b4 bd d8 01 02 3e d4 0b 72 bd 79 5c 74 bd
       -0.087957494 0.12696016 -0.05909331 -0.0596585
0003a0 b1 1b 32 3d 0b 81 07 be 19 21 10 be ea 7f 6a bb
       0.04348344 -0.1323282 -0.14075126 -0.003578181
0003b0 5b 2f 18 bd bb 55 4d 3e 9d 46 50 3d 99 75 0e ba
       -0.037154537 0.20052235 0.050848592 -0.00054343935
0003c0 32 7e c5 bd 9e ca 22 be 12 f5 5a 3c bf 4f 27 3e
       -0.096432105 -0.15897605 0.013364093 0.16339014
0003d0 43 b8 d2 bd bc f3 5d be a7 e4 42 3e 97 cf 48 bd
       -0.102890514 -0.21675009 0.19032536 -0.049026098
0003e0 79 b0 1e be 4b 7d 57 3c 2d f2 cd 3d b6 2c 55 3e
       -0.15497006 0.013152431 0.10055957 0.20817837
0003f0 8c 31 11 3d 7f fe c5 3d 34 75 9b bd fc e4 31 3c
       0.035447642 0.09667682 -0.07590714 0.010857817

network_body._body_endoder.seq_layers.2.bias f4 [128]
000000 39 28 46 bb fe c3 af bb e4 d5 fc bb bf fa 6b 3d
       -0.0030236377 -0.0053639403 -0.0077159274 0.057612177
000010 f6 37 fd 3b a2 9b d3 3b e8 97 6a bb fc 96 db 3c
       0.0077276183 0.006457762 -0.003579611 0.026805393
000020 a4 11 ac 3b 2e cc d1 ba 52 fe 9d bb 24 4a 6b 3b
       0.0052511264 -0.0016006285 -0.004821577 0.0035902346
000030 f6 4d 75 ba 55 1a 27 bb a9 ad 08 3d 48 2e c3 3c
       -0.00093576254 -0.0025497873 0.03336874 0.02382578
000040 b6 30 bb bc 74 0d 4d 3d 30 44 21 3d 33 41 f9 3c
       -0.022850376 0.050061658 0.03937167 0.030426597
000050 d4 29 92 3d 04 6b e3 bc 8e 65 f4 bb 81 b5 24 3d
       0.07136884 -0.02776099 -0.0074583953 0.040212158
000060 95 5b 2b 3b 0f 0f 66 3d 74 20 46 3d a9 4b f5 3b
       0.0026147116 0.056166705 0.048370793 0.007485826
000070 2f 60 ed 3c 61 2c d9 3a b5 0d 34 3d 15 97 49 3d
       0.028976528 0.0016569012 0.043958385 0.04921635
000080 fc 2e c6 3b a3 18 93 3c de 6f 46 3c 75 a8 a4 3c
       0.0060480814 0.017956084 0.012111632 0.020099858
000090 05 88 7b 39 9f bb 39 3c 42 38 c3 3c 37 df c8 3b
       0.00023987897 0.011336236 0.023830537 0.006130125
0000a0 a0 db ca 3b 62 cc 74 3c 4e 7d 00 bb 53 52 c5 3c
       0.006190732 0.014941307 -0.0019605937 0.024087107
0000b0 df a7 0a bc 54 3b 1a 3d 7f f3 e9 3b c5 e1 0c b9
       -0.008462875 0.037654236 0.0071396227 -0.00013435546
0000c0 59 22 16 3d 05 1e 5a 3d c6 3a 3a 3d 73 5d 7d 3d
       0.03665385 0.053251285 0.045466207 0.0618567
0000d0 31 2d 93 3c 32 2e 37 bc fb 34 93 3d 36 01 34 3d
       0.017965885 -0.011180447 0.071878396 0.043946467
0000e0 6e 7d c5 3c d8 5f 75 3c 58 cb c3 bb 65 55 2c 3c
       0.024107661 0.014976464 -0.005975168 0.0105184065
0000f0 2d 2a 51 3d 86 ce 25 bc 94 fd 9c bb 7d 4c 8c bc
       0.051065613 -0.01012004 -0.004790971 -0.017126316
000100 5e c8 26 3c 29 f6 50 3c dc 28 80 3d aa 32 c3 bc
       0.010179607 0.012754002 0.06257793 -0.02382787
000110 1a 24 b2 ba 27 e2 e2 bb 82 95 6d 3a a9 5d c0 bb
       -0.0013591081 -0.006923932 0.0009063111 -0.00587054
000120 92 6b fe bc 8a eb 2a 3b c8 26 cb bb 76 75 2e 3d
       -0.031057153 0.0026080334 -0.0061996914 0.04259249
000130 7e 5b 87 3b fd ef 5b 3d 5a 94 86 bb 65 31 97 bb
       0.0041307798 0.053695668 -0.0041070404 -0.0046140426
000140 8e f8 b7 3d 4c ea 26 3d 11 4f ca 3c 1b 34 d3 bb
       0.08982955 0.040750787 0.024695905 -0.0064454204
000150 4b c0 de 3b 29 8c 18 3d 67 b5 11 3c 27 a9 92 3c
       0.0067978255 0.037243042 0.008893347 0.017902924
000160 3d 4a 15 bd 0b 30 02 3b a8 2a 15 3d 4e 36 0c 3d
       -0.036447752 0.0019865062 0.036417633 0.034231476
000170 3b 8b 35 3c 36 da a4 3c e8 ff d6 bb b2 36 55 bb
       0.011080558 0.020123582 -0.006561268 -0.0032533822
000180 85 68 b2 bb aa c4 1f bb 91 6b 80 bb 37 f1 bf b8
       -0.0054445886 -0.0024378696 -0.003919073 -9.1525195e-05
000190 53 6b fb 3c 41 e4 d2 bb 23 93 cf 3c 49 bb a7 3c
       0.030690825 -0.0064359014 0.025338715 0.020475047
0001a0 e9 8b cc 3c 35 ec e7 bb aa d9 1f 3d 25 9a 0f bc
       0.024969058 -0.0070777186 0.03902594 -0.008764778
0001b0 39 47 93 3d 59 8f 56 3d e8 2d 02 3d 33 e1 13 bc
       0.07191319 0.0523828 0.03178206 -0.00902586
0001c0 e1 e4 30 bc 7d 9e 8d 3c c1 f9 53 3a 49 b6 88 3c
       -0.0107967565 0.017287487 0.00080862275 0.016688483
0001d0 c3 4b 50 3d dc 09 0e 3d 5d ff ba 3c ac 08 50 3d
       0.050853502 0.03467737 0.022826845 0.05078952
0001e0 05 00 03 3d 66 ca 8e 3c a1 b0 68 3c 76 41 6b 3a
       0.03198244 0.017430495 0.014202268 0.0008974293
0001f0 b9 fc 24 3d a8 8c 9c 3c f2 89 12 3b 05 3e bb 3c
       0.040280078 0.019110039 0.0022360054 0.022856722

action_model._discrete_distribution.branches.0.weight f4 [3, 128]
000000 04 78 97 bb f7 cb 9e ba 33 8d 32 bb 92 6a 80 bb
       -0.0046224613 -0.001211523 -0.0027244806 -0.003918954
000010 3a c5 d0 3c 4e 3a 72 bc 56 33 9b 3c d3 eb d2 ba
       0.02548467 -0.014784409 0.018945377 -0.001609201
000020 aa 95 28 bb f0 11 60 3b 31 ae 79 bc 40 b2 33 bc
       -0.0025723972 0.003419038 -0.015239284 -0.010967791
000030 f9 af f7 3b 95 93 f9 3b 36 8a d4 3b d7 e2 cf bc
       0.0075588194 0.00761647 0.0064862026 -0.02537672
000040 ac fb 89 3a 7d 13 13 3c 07 7f 9d 3b 48 04 2c ba
       0.0010527275 0.008976814 0.0048064026 -0.0006561917
000050 11 e3 28 3c 58 00 e8 ba fb 41 b9 3b 74 2f ce 3b
       0.010308043 -0.0017700298 0.0056536174 0.006292278
000060 03 71 cc 3b 11 7d 97 bc 7a 0b 8b 3b 55 fc 0a 3b
       0.006239058 -0.018492253 0.0042433115 0.002120753
000070 56 ed ee bc 8c 99 af bc 73 a9 ee ba e0 e7 9b 3c
       -0.029165905 -0.021435522 -0.0018208459 0.019031465
000080 de a6 48 3c 80 32 81 bc 5e 43 42 3c 08 b6 d6 bc
       0.0122468155 -0.01577115 0.011856882 -0.026209846
000090 fd 9e 9a 3a b3 6d 91 bb 56 70 14 bd eb 64 be bc
       0.001179665 -0.004438126 -0.036239944 -0.02324148
0000a0 3c cb bf 38 39 70 2f bd 75 46 08 bc 7d fb 4d bc
       9.145445e-05 -0.042831633 -0.0083175795 -0.0125721665
0000b0 20 b5 3b 3b 5f ae 7f 3b 04 f5 08 bc 11 d3 e7 bb
       0.0028641894 0.0039013845 -0.0083591975 -0.0070747216
0000c0 b6 4a 0a bb 04 98 2d 3c d6 61 6b ba ef 03 1b 3c
       -0.002110166 0.010595325 -0.0008979117 0.009461387
0000d0 70 49 6a bc 49 c6 9f bb ea 98 94 39 d2 e1 16 bc
       -0.014299735 -0.0048759324 0.0002834269 -0.009209113
0000e0 2c 4c b9 bc cf e9 4c 3c cf b1 30 bc 9b 40 bf bc
       -0.02261933 0.012506916 -0.01078458 -0.023346236
0000f0 cd c2 c8 3b 22 1d 1b 3c 9d 14 1a bc 78 0f 4a 3c
       0.0061267377 0.009467395 -0.009404329 0.01233279
000100 ac a0 72 3c 80 75 b2 ba 8e d4 2e ba cb 24 83 bc
       0.014808815 -0.001361534 -0.00066692464 -0.016008755
000110 95 8b b2 3b 7b 1b ff 3b 3f 3a b3 bc 6b 8a 2f 3b
       0.0054487684 0.0077852583 -0.02187836 0.0026785384
000120 b9 4c b8 bb 9a 2f 09 bc 73 07 02 3b f5 b4 59 3c
       -0.0056243804 -0.0083731655 0.0019840866 0.013287772
000130 69 5d 8e 3c f6 bd 9d 3c 7d f5 b0 3b 83 ff 82 bc
       0.017378526 0.01925562 0.0054003582 -0.015990978
000140 db e3 55 3c 0c ca ea bc 77 35 5f 3c 12 f6 81 39
       0.013054813 -0.028660797 0.013623587 0.00024788134
000150 06 9c ae bc d9 b7 41 bc 6b 54 c7 3b 58 21 44 bc
       -0.021314632 -0.011823618 0.0060830615 -0.01197084
000160 f1 1c 15 bc bb c1 06 bd 14 0b e5 ba c6 82 d1 bc
       -0.009101138 -0.0328996 -0.0017474615 -0.025575053
000170 90 16 a2 bc fc ae f5 ba b6 95 02 3b af 24 80 3c
       -0.01978615 -0.0018744166 0.001992566 0.015642492
000180 87 71 81 b9 92 34 6b 3b 8e 61 7a bc 11 71 5a bc
       -0.00024689382 0.0035889489 -0.015282048 -0.013332621
000190 69 ba 3f bb d8 86 66 bc 6a a2 03 bd 16 f3 1a bc
       -0.0029255396 -0.014070235 -0.032137312 -0.00945737
0001a0 6a 16 42 bc 59 56 f0 3b 5b f5 dc 3b 99 8a 10 bc
       -0.011846164 0.007334512 0.006743116 -0.008822107
0001b0 5b ff bb 3c 30 72 03 bb 06 b9 f7 3b f6 3e a3 3b
       0.022948911 -0.0020057075 0.0075598983 0.0049818708
0001c0 5b 46 99 3b 7e 38 7f bc b2 76 ea bb 23 71 9a bc
       0.0046775765 -0.015577434 -0.007155263 -0.018852776
0001d0 57 65 50 3b 6e 6d 96 bb be 58 e6 ba 23 18 d9 39
       0.0031798685 -0.0045906818 -0.0017574055 0.0004140745
0001e0 97 01 9b bc 0e 88 5a bc df f6 90 bc 04 bb 09 bc
       -0.018921657 -0.013338102 -0.017695842 -0.008406404
0001f0 ed 21 86 bc 77 44 e2 bc 98 83 22 3c 57 4c 24 bc
       -0.016373599 -0.027620537 0.00991907 -0.010027966
000200 60 80 e7 bc 9c 43 71 bc ec 21 c0 bb d4 2a 88 3d
       -0.028259456 -0.014725592 -0.005863419 0.06648794
000210 2c 35 34 3c 85 8e 89 bd 34 85 06 bb 9a c2 12 3c
       0.010999005 -0.067166366 -0.0020526173 0.008957529
000220 d8 9a b9 3b a9 5d 0e bd f7 71 ac bc 29 bb 41 3c
       0.0056642108 -0.03475729 -0.021050436 0.011824408
000230 9e e5 c6 bc fa 77 8a 3b 8a e8 30 3c 3e 46 03 3d
       -0.024279412 0.004225728 0.010797629 0.03204941
000240 ff 33 58 bc 38 ff ba 3c d8 b5 dd 3c 99 d2 00 3b
       -0.013195991 0.022826776 0.027064249 0.0019656776
000250 df 24 47 3d 03 5d 35 3c 1b d7 ff bb b1 c9 5a 3d
       0.048619147 0.011069539 -0.007807625 0.053415004
000260 c6 7b 0b bd c1 68 91 3d 20 b2 14 3d 1f c8 24 bd
       -0.034053586 0.07100058 0.036302686 -0.040229913
000270 e9 1b 3d bd 6f 8a f8 bc ee 0e 88 3d b6 ae c7 3c
       -0.046169195 -0.030339448 0.066434726 0.0243753
000280 ad 58 82 bd f6 ed c2 3c f0 c6 cf 3b 1a 5f 43 bd
       -0.0636457 0.02379511 0.006340854 -0.047698118
000290 d7 e9 3e 3c 2a 43 b5 bd 5e a3 37 bd 03 4a a2 bb
       0.011652431 -0.08850701 -0.044833533 -0.0049526705
0002a0 80 05 19 bd c9 39 35 3d d1 74 03 bc 3b 11 34 3d
       -0.03735876 0.04424456 -0.008023457 0.043961745
0002b0 39 c9 f3 bc ee d6 2a 3d 2b d8 96 bc 2e a2 3a bd
       -0.029759036 0.04170888 -0.018413624 -0.045564823
0002c0 17 a4 4b 3d b1 cb 99 3d 3e 14 8d 3d bf 14 3a 3d
       0.049717035 0.07509554 0.068886265 0.04542994
0002d0 42 d6 1e 3d 31 73 30 b9 96 cc 15 3d 26 d3 7b 3d
       0.03877855 -0.0001682758 0.03657206 0.061480664
0002e0 a4 77 18 3d bc 83 13 3c f6 54 fa bc 10 61 a5 3c
       0.037223473 0.009003576 -0.03055809 0.020187885
0002f0 02 91 40 3d f4 69 e1 bc 44 c1 1e bd 27 41 97 bc
       0.04701329 -0.027516343 -0.03875853 -0.018463684
000300 0b ae 43 bc 50 db 29 3d 69 de 6a 3d 17 b4 c4 bc
       -0.011943351 0.04146892 0.057341013 -0.024011655
000310 4e f2 43 bc f9 0f c4 bc 4e 0e d5 b9 5e 88 4b bc
       -0.011959625 -0.023933398 -0.00040637184 -0.012422649
000320 4a 34 81 bc 95 fc 3d bd c4 88 f8 3a 8b 13 2a 3d
       -0.015772004 -0.04638346 0.0018961658 0.041522544
000330 33 e3 65 bc e3 a9 8f 3d 82 72 05 bd 1c 47 d2 bc
       -0.014031219 0.07014825 -0.032579906 -0.025668673
000340 01 77 63 3d 5d c6 8e 3d 27 7d cd bc f6 1f d6 bb
       0.055533413 0.069714285 -0.025084091 -0.0065345718
000350 40 f5 90 3c c5 49 5e 3d ab 92 9b 3c d5 70 f0 3c
       0.01769507 0.05426957 0.018990835 0.029350678
000360 db b5 02 bc 05 8d 4b 3c 0b 64 8d 3d 67 ac a4 3d
       -0.007977928 0.012423758 0.06903847 0.08040696
000370 bd 20 bc 3c 0f 62 09 3d 5a 3d 3d bc 6a 32 29 bc
       0.02296483 0.03354078 -0.011550272 -0.010326961
000380 14 8b ca bc 5c 09 30 bc d7 0a 9a bc e6 d9 a0 bc
       -0.02472452 -0.010744419 -0.018803997 -0.019635152
000390 8a 83 d9 3c 21 03 8f bc 63 d9 56 3d bd 38 0a 3d
       0.02655198 -0.017457547 0.05245341 0.033745516
0003a0 bd 03 60 3d 20 f9 46 3c ea c4 17 3d 47 ab 7c bc
       0.054691065 0.012144357 0.037053026 -0.015421695
0003b0 a8 9c 6a 3d 1a e1 99 3d 7f 19 00 3c 8b 8c aa bc
       0.057278305 0.07513638 0.007818579 -0.02081897
0003c0 3f 18 50 bc 25 7e b6 bd 63 36 04 bb e5 8f f6 bc
       -0.012701093 -0.08910779 -0.0020174019 -0.030097911
0003d0 55 0d 75 3d a0 9a b1 3b 12 56 10 3d 7f 22 77 3d
       0.059827168 0.005420044 0.035238333 0.060335632
0003e0 da 92 78 3d e3 03 10 3d aa ac 65 3d 87 fa 4c 3c
       0.060686924 0.035159957 0.05607287 0.012510902
0003f0 df e8 71 3d e8 63 05 bd ba b1 db bc 53 5c 01 3d
       0.059059974 -0.03256598 -0.026818145 0.031582188

action_model._discrete_distribution.branches.0.bias f4 [3]
000000 61 f0 0f ba 47 70 d9 3b 8e 17 b5 bb
       -0.00054908363 0.006635699 -0.0055264896

exp_avg f4 [128, 6]
000000 87 fa 89 3a e3 86 80 3b 2d 33 ae 37 ee 72 f2 ba
       0.0010526933 0.0039223297 2.0766247e-05 -0.0018497386
000010 6c a4 82 3b 2d 33 ae 37 a6 8d ea b8 6d 75 0b b9
       0.003986886 2.0766247e-05 -0.000111843736 -0.00013299818
000020 34 10 14 b6 ee 72 0e b9 7d a1 79 b9 34 10 14 b6
       -2.206315e-06 -0.0001358499 -0.0002380665 -2.206315e-06
000030 58 b9 a2 38 e2 0b 0f 39 fa 70 cd 35 92 1f 30 b9
       7.759285e-05 0.0001364197 1.5306571e-06 -0.00016796429
000040 61 f3 59 38 fa 70 cd 35 f7 75 4e 39 46 84 0d 3a
       5.1963496e-05 1.5306571e-06 0.00019689636 0.00053984334
000050 70 54 82 36 63 20 57 b9 06 9c 0b 3a 70 54 82 36
       3.8841317e-06 -0.00020516063 0.00053256785 3.8841317e-06
000060 8c 7d 08 39 28 07 96 39 30 52 2c 36 4c 57 cb b8
       0.0001301674 0.0002861556 2.5677837e-06 -9.6960546e-05
000070 2b 7b 8c 39 30 52 2c 36 bf 81 47 bb af ec 1d bc
       0.00026794648 2.5677837e-06 -0.0030442325 -0.009638949
000080 4e e1 7b b8 39 aa 5d 3b 66 88 18 bc 4e e1 7b b8
       -6.0052895e-05 0.0033823384 -0.009309864 -6.0052895e-05
000090 34 5b c5 3a 90 28 be 3b 3a 2a f9 37 b0 a9 4d bb
       0.0015057088 0.0058031753 2.9702776e-05 -0.003138166
0000a0 31 75 c6 3b 3a 2a f9 37 6f 9b 45 3a d0 29 25 3b
       0.006056451 2.9702776e-05 0.0007538115 0.0025201924
0000b0 5d 7b 79 37 95 4e aa ba cc 43 2f 3b 5d 7b 79 37
       1.4870279e-05 -0.001299339 0.002674329 1.4870279e-05
0000c0 77 50 d3 b9 a0 25 cc ba c6 64 05 b7 d0 ab f5 39
       -0.00040305007 -0.0015575178 -7.950881e-06 0.00046858052
0000d0 2b 05 b4 ba c6 64 05 b7 45 90 ee 37 6d 4b 2b 39
       -0.001373445 -7.950881e-06 2.8438992e-05 0.00016335929
0000e0 5a 98 16 35 89 bd 3e b8 8c 1a 69 39 5a 98 16 35
       5.6101055e-07 -4.547605e-05 0.00022230501 5.6101055e-07
0000f0 40 3d d9 39 54 63 ef 39 3e 22 09 37 7c 0a 82 38
       0.000414351 0.00045659638 8.173809e-06 6.200836e-05
000100 bd 0e cf 39 3e 22 09 37 4d 1b a7 39 32 75 e6 39
       0.00039493098 8.173809e-06 0.00031873063 0.00043956336
000110 73 f9 d2 36 a1 3d 3d 38 a2 cd ce 39 73 f9 d2 36
       6.2875274e-06 4.5118508e-05 0.0003944459 6.2875274e-06
000120 a5 cd 60 ba ec 79 1f bb 9c e8 8d b7 59 3f a9 3a
       -0.00085755653 -0.0024334146 -1.6916827e-05 0.0012912556
000130 52 05 27 bb 9c e8 8d b7 4f 2c 7b ba 0f de 5a bb
       -0.002548535 -1.6916827e-05 -0.00095814926 -0.0033396517
000140 04 8e 9e b7 f6 f2 ba 3a b4 f5 55 bb 04 8e 9e b7
       -1.8901199e-05 0.0014263082 -0.0032647671 -1.8901199e-05
000150 a9 44 9c 3a de 1f 9b 3b 71 4a c5 37 01 75 05 bb
       0.0011922318 0.0047340235 2.3518895e-05 -0.002036393
000160 ec 56 9c 3b 71 4a c5 37 9e 14 9c 39 e1 8e fd 39
       0.004771104 2.3518895e-05 0.0002977 0.00048362373
000170 c8 0d c5 36 33 ab 86 b8 c0 a0 f0 39 c8 0d c5 36
       5.872662e-06 -6.421506e-05 0.00045896135 5.872662e-06
000180 c4 3f 80 ba eb c0 3a bb 8f ea a1 b7 fb ee c0 3a
       -0.0009784629 -0.0028496336 -1.930192e-05 0.0014719659
000190 5b 61 43 bb 8f ea a1 b7 eb ae 66 b7 20 98 e3 37
       -0.0029812667 -1.930192e-05 -1.3749795e-05 2.7131347e-05
0001a0 df 9e 91 b4 31 8d e9 b8 03 ad d4 38 df 9e 91 b4
       -2.712395e-07 -0.00011136605 0.00010141174 -2.712395e-07
0001b0 7a 7b c9 ba 29 71 a8 bb cb 5f fe b7 48 e4 ef 3a
       -0.0015371882 -0.005140443 -3.0323767e-05 0.0018302286
0001c0 85 3f a1 bb cb 5f fe b7 24 a4 bb 39 38 e0 95 3a
       -0.004920902 -3.0323767e-05 0.00035789714 0.001143462
0001d0 4d e6 ec 36 c9 a0 f3 b9 07 77 8d 3a 4d e6 ec 36
       7.0601586e-06 -0.00046468366 0.0010792919 7.0601586e-06
0001e0 29 eb 52 b5 c9 05 17 39 8e 25 85 b2 75 9c 1a 39
       -7.85733e-07 0.00014402637 -1.5500316e-08 0.00014744869
0001f0 73 d3 69 39 8e 25 85 b2 3c 90 15 b8 42 cc cf b8
       0.00022299383 -1.5500316e-08 -3.5658697e-05 -9.908575e-05
000200 6f d3 3c b5 b1 fd 29 36 73 6b 08 b9 6f d3 3c b5
       -7.0343134e-07 2.533063e-06 -0.00013009999 -7.0343134e-07
000210 c7 28 71 3a 5d 09 4a 3b c7 3b 98 37 19 12 b4 ba
       0.00091994967 0.0030828335 1.8147648e-05 -0.0013738304
000220 60 f0 4b 3b c7 3b 98 37 a0 8e c9 39 cf 35 b2 3a
       0.0031118616 1.8147648e-05 0.0003844397 0.0013596358
000230 f4 77 fe 36 bf c7 39 ba d3 d7 b8 3a f4 77 fe 36
       7.5837543e-06 -0.00070869544 0.0014102407 7.5837543e-06
000240 2c ff 8a 39 94 a8 23 3a 41 7c af 36 e6 d5 e8 b9
       0.0002651153 0.00062430766 5.2298715e-06 -0.00044409855
000250 9b 88 32 3a 41 7c af 36 e3 b1 2d bb 49 47 21 bc
       0.0006810517 5.2298715e-06 -0.0026503734 -0.009843656
000260 cf 4a 5b b8 4e ab 24 3b d4 52 0c bc cf 4a 5b b8
       -5.228334e-05 0.002512652 -0.00856467 -5.228334e-05
000270 ae f3 62 39 66 2e 06 bb e4 43 8f 36 5e c2 0a 3a
       0.00021643817 -0.0020474433 4.2696356e-06 0.0005293245
000280 30 ba c8 ba e4 43 8f 36 66 77 37 b9 c9 b0 0e ba
       -0.0015314277 4.2696356e-06 -0.0001749672 -0.0005443213
000290 fa a0 67 b6 fe f7 c5 39 6b 95 11 ba fa a0 67 b6
       -3.4515383e-06 0.00037759537 -0.0005553576 -3.4515383e-06
0002a0 a3 85 8d 3a fb 45 2b b9 6c ac b2 37 2d 36 20 3a
       0.0010797273 -0.000163339 2.1299544e-05 0.00061115884
0002b0 45 59 95 b8 6c ac b2 37 f7 c3 00 ba 02 19 19 3b
       -7.1215014e-05 2.1299544e-05 -0.00049120135 0.0023360853
0002c0 7a 91 22 b7 d3 9e 6c ba a1 9e d0 3a 7a 91 22 b7
       -9.689824e-06 -0.0009026352 0.0015916416 -9.689824e-06
0002d0 03 51 ee b9 49 56 b9 bb 67 70 16 b7 57 54 94 3a
       -0.00045455256 -0.005656038 -8.966867e-06 0.0011316639
0002e0 a2 d4 94 bb 67 70 16 b7 b5 5b 2c 3a a3 db 0a 3b
       -0.0045419494 -8.966867e-06 0.0006574945 0.0021188043
0002f0 c8 9a 59 37 63 9f 98 ba 63 cc 06 3b c8 9a 59 37
       1.2970246e-05 -0.0011644181 0.0020568601 1.2970246e-05
000300 50 44 d7 39 0f e2 c4 3a 80 e3 07 37 85 42 0d ba
       0.00041058892 0.0015020984 8.099596e-06 -0.00053886353
000310 2c fb bf 3a 80 e3 07 37 1a 67 96 3a 36 25 4c 3a
       0.0014646999 8.099596e-06 0.0011474818 0.0007787527
000320 b3 e2 bd 37 7a eb f7 39 46 e5 0e 3a b3 e2 bd 37
       2.263612e-05 0.00047286955 0.00054510345 2.263612e-05
000330 ef d0 c6 ba 5c 59 95 bb 16 02 fb b7 3e 43 ed 3a
       -0.0015168468 -0.0045577716 -2.9922503e-05 0.0018101705
000340 fc e1 8f bb 16 02 fb b7 a3 d7 e3 39 d9 2a c8 3a
       -0.004390953 -2.9922503e-05 0.00043457476 0.0015271559
000350 bb d3 0f 37 84 d7 41 ba d3 e5 d3 3a bb d3 0f 37
       8.5727615e-06 -0.000739448 0.0016166515 8.5727615e-06
000360 56 aa a7 ba 30 8b 83 bb 0c ae d3 b7 16 a9 fc 3a
       -0.0012791853 -0.004014395 -2.5234207e-05 0.0019276466
000370 14 25 86 bb 0c ae d3 b7 26 d1 6f 3a 33 d2 38 3b
       -0.0040937755 -2.5234207e-05 0.0009148292 0.002820146
000380 da 62 97 37 ba 8e ab ba e5 98 3c 3b da 62 97 37
       1.8046634e-05 -0.00130888 0.0028777656 1.8046634e-05
000390 05 f3 6e 3a f5 70 42 3b a2 d6 96 37 9e 75 5d ba
       0.0009115192 0.0029669378 1.798134e-05 -0.0008448007
0003a0 5b 49 3f 3b a2 d6 96 37 cb 58 03 3a fd 45 d6 3a
       0.002918801 1.798134e-05 0.00050104846 0.0016347762
0003b0 c4 d3 25 37 07 b2 19 ba 74 1e d1 3a c4 d3 25 37
       9.884072e-06 -0.0005863015 0.001595451 9.884072e-06
0003c0 16 de 32 3a b2 38 38 3a 9c d2 61 37 f7 e9 52 39
       0.00068232545 0.0007027491 1.3460081e-05 0.0002011432
0003d0 03 0c 22 3a 9c d2 61 37 5d d6 e8 39 6b 78 1e 3a
       0.00061815995 1.3460081e-05 0.000444102 0.00060451654
0003e0 ec fa 12 37 85 82 1b b8 38 32 0f 3a ec fa 12 37
       8.7607e-06 -3.7076436e-05 0.00054625 8.7607e-06
0003f0 30 26 8a 39 5e 38 90 39 49 6a ae 36 f0 05 4f 38
       0.00026349863 0.00027507817 5.1979773e-06 4.9358176e-05

exp_avg_sq f4 [128, 6]
000000 40 cb 41 37 0e 3d 8b 38 b9 72 9a 31 fd 20 f6 36
       1.1551019e-05 6.639409e-05 4.4950323e-09 7.3352116e-06
000010 94 ef b2 38 b9 72 9a 31 87 a6 2a 34 2a b6 fa 34
       8.532326e-05 4.4950323e-09 1.5893066e-07 4.669867e-07
000020 df 00 88 2e ce 60 0a 36 aa 86 0d 34 df 00 88 2e
       6.184719e-11 2.061995e-06 1.3180639e-07 6.184719e-11
000030 78 b5 f3 32 24 fe d8 33 91 3a 42 2d 1a 2d c0 34
       2.8371446e-08 1.0104512e-07 1.1040628e-11 3.5795603e-07
000040 72 f1 53 33 91 3a 42 2d f2 62 32 34 c8 d3 64 35
       4.934686e-08 1.1040628e-11 1.6613538e-07 8.52448e-07
000050 31 2b 8e 2e 58 0e d3 34 a2 82 8e 35 31 2b 8e 2e
       6.465085e-11 3.931225e-07 1.0617844e-06 6.465085e-11
000060 52 b8 0c 33 94 7b 18 34 a3 4c 60 2d 64 ff 83 34
       3.276393e-08 1.420106e-07 1.2749943e-11 2.4586473e-07
000070 40 ce 32 34 a3 4c 60 2d cf 98 40 38 0c 64 88 39
       1.6652575e-07 1.2749943e-11 4.591868e-05 0.00026014482
000080 89 7e 99 32 98 50 9d 38 12 61 a3 39 89 7e 99 32
       1.7869086e-08 7.501355e-05 0.00031162106 1.7869086e-08
000090 60 23 d8 37 58 47 0d 39 84 41 2c 32 c3 cc 3a 38
       2.576568e-05 0.00013473385 1.0026614e-08 4.4536555e-05
0000a0 e0 d9 36 39 84 41 2c 32 b3 8a aa 36 75 f0 d3 37
       0.00017438037 1.0026614e-08 5.0825415e-06 2.5265132e-05
0000b0 b9 ea 07 31 24 f9 8e 37 60 98 0c 38 b9 ea 07 31
       1.977851e-09 1.7043734e-05 3.352051e-05 1.977851e-09
0000c0 01 fb 0f 36 98 8c 19 37 0c 7f 65 30 af 4d 13 37
       2.1454764e-06 9.152245e-06 8.349026e-10 8.77997e-06
0000d0 06 6f 1f 37 0c 7f 65 30 81 cd 34 34 c5 78 61 35
       9.502988e-06 8.349026e-10 1.6838568e-07 8.3994775e-07
0000e0 3e 18 90 2e a3 fa fd 35 eb 3d 76 35 3e 18 90 2e
       6.552668e-11 1.8922914e-06 9.1732244e-07 6.552668e-11
0000f0 73 6c 32 34 11 85 10 35 cf 32 8e 2e bb cf 4e 34
       1.6616995e-07 5.383782e-07 6.466438e-11 1.9260817e-07
000100 c1 a3 2a 35 cf 32 8e 2e 19 44 82 33 f3 92 92 34
       6.356823e-07 6.466438e-11 6.0659836e-08 2.730154e-07
000110 e4 a2 cf 2d 47 16 35 33 c2 9d b5 34 e4 a2 cf 2d
       2.3605513e-11 4.2162608e-08 3.382866e-07 2.3605513e-11
000120 8d 5c 75 36 8c 2f ac 37 ce 8b c3 30 99 c3 08 37
       3.6561717e-06 2.0526139e-05 1.4227852e-09 8.151773e-06
000130 4d 68 e5 37 ce 8b c3 30 39 d9 12 37 a3 b1 3c 38
       2.7347496e-05 1.4227852e-09 8.752854e-06 4.498813e-05
000140 64 11 6a 31 15 28 82 37 84 eb 67 38 64 11 6a 31
       3.4061367e-09 1.5515872e-05 5.5294033e-05 3.4061367e-09
000150 35 77 a4 37 fc a9 f0 38 fd 12 03 32 9f 64 23 37
       1.9605834e-05 0.00011475754 7.629521e-09 9.738985e-06
000160 66 f4 1a 39 fd 12 03 32 cb 15 bf 33 88 80 00 35
       0.0001477763 7.629521e-09 8.898095e-08 4.7870753e-07
000170 0c 4a 18 2e 2f 2e 80 34 f9 49 2d 35 0c 4a 18 2e
       3.4626566e-11 2.387546e-07 6.4555167e-07 3.4626566e-11
000180 9a 83 94 36 ce c3 c8 37 ed b8 ec 30 73 8d 24 37
       4.426064e-06 2.3933037e-05 1.7223819e-09 9.8080955e-06
000190 8a 89 03 38 ed b8 ec 30 93 82 ab 32 7d e5 96 33
       3.1360927e-05 1.7223819e-09 1.9966398e-08 7.026663e-08
0001a0 4d b0 08 2d 5a cc 14 34 8f 94 e1 33 4d b0 08 2d
       7.769852e-12 1.3857917e-07 1.05044016e-07 7.769852e-12
0001b0 04 7f 84 37 a4 f9 ba 38 d9 30 d3 31 5d 57 ae 37
       1.5794772e-05 8.91567e-05 6.1464616e-09 2.0783098e-05
0001c0 55 22 e2 38 d9 30 d3 31 fb 1a 85 35 96 6e ad 36
       0.000107829146 6.1464616e-09 9.917125e-07 5.1686757e-06
0001d0 8a 29 d4 2f e0 c5 2c 36 29 00 d6 36 8a 29 d4 2f
       3.859209e-10 2.5745176e-06 6.3777156e-06 3.859209e-10
0001e0 30 6a 93 33 9e 71 65 34 7f f8 ea 2d 01 9e 2c 35
       6.864536e-08 2.136862e-07 2.6713074e-11 6.430492e-07
0001f0 d9 49 3f 34 7f f8 ea 2d 2c 1b 8f 33 68 1e 95 34
       1.7815127e-07 2.6713074e-11 6.663899e-08 2.7775536e-07
000200 5e 1a e4 2d 20 c3 18 35 c7 49 de 34 5e 1a e4 2d
       2.5932308e-11 5.6908357e-07 4.1404402e-07 2.5932308e-11
000210 bc 50 f5 36 3c 5d 24 38 58 82 43 31 ff 7b 6a 37
       7.3109677e-06 3.918748e-05 2.8450327e-09 1.3976357e-05
000220 0d be 52 38 58 82 43 31 b2 3c d0 35 fa df 09 37
       5.02449e-05 2.8450327e-09 1.5514872e-06 8.217985e-06
000230 7b f5 25 30 54 85 6c 36 f2 fa 34 37 7b f5 25 30
       6.03755e-10 3.5244348e-06 1.0787264e-05 6.03755e-10
000240 43 12 83 34 a5 2a 97 35 81 eb d0 2e 8a 70 e2 35
       2.441394e-07 1.1262788e-06 9.500579e-11 1.6871065e-06
000250 ed c2 d6 35 81 eb d0 2e 17 4c 4f 38 40 2b 91 39
       1.6000973e-06 9.500579e-11 4.942351e-05 0.0002768878
000260 b4 35 a5 32 5f 27 05 38 dc be 9c 39 b4 35 a5 32
       1.923295e-08 3.174634e-05 0.0002989684 1.923295e-08
000270 d4 f2 27 37 bb d6 50 38 9d d9 85 31 21 e1 67 36
       1.00105135e-05 4.9791048e-05 3.895549e-09 3.4552725e-06
000280 fb 5d 5b 38 9d d9 85 31 83 49 82 34 d2 a8 b0 35
       5.2301195e-05 3.895549e-09 2.4267874e-07 1.3162155e-06
000290 8b ab cf 2e ad ff 9a 34 23 3e e3 35 8b ab cf 2e
       9.443742e-11 2.8870764e-07 1.6930902e-06 9.443742e-11
0002a0 c4 ec cb 36 e0 67 82 37 b5 85 22 31 53 78 1b 36
       6.0774346e-06 1.5545578e-05 2.3650106e-09 2.3166838e-06
0002b0 99 74 41 37 b5 85 22 31 47 f2 c8 37 89 1a 08 39
       1.1530844e-05 2.3650106e-09 2.3954677e-05 0.00012979856
0002c0 f7 25 20 32 4e 01 f0 36 01 95 25 39 f7 25 20 32
       9.321858e-09 7.1527093e-06 0.00015791135 9.321858e-09
0002d0 51 06 e1 37 11 33 de 38 8d 56 33 32 8d 94 1a 37
       2.6825031e-05 0.00010595297 1.0438851e-08 9.2137025e-06
0002e0 66 41 ac 38 8d 56 33 32 0a 71 80 36 52 78 6d 37
       8.2137805e-05 1.0438851e-08 3.8278567e-06 1.4154315e-05
0002f0 6b ba cc 30 43 3d b6 37 ac 01 7a 37 6b ba cc 30
       1.4895937e-09 2.1724618e-05 1.49015505e-05 1.4895937e-09
000300 88 d8 e6 35 0b 74 1d 37 38 fa 37 30 cc fe a4 35
       1.7199354e-06 9.384948e-06 6.6930594e-10 1.2293108e-06
000310 c9 8a 3f 37 38 fa 37 30 47 f9 f3 35 c9 1f 64 36
       1.1416801e-05 6.6930594e-10 1.817746e-06 3.399315e-06
000320 93 70 42 30 6a 5d 50 35 45 e9 19 36 93 70 42 30
       7.0736766e-10 7.7621974e-07 2.2934557e-06 7.0736766e-10
000330 62 22 2f 37 37 cd 75 38 a8 93 8b 31 33 9c 62 37
       1.0438818e-05 5.8603673e-05 4.062219e-09 1.3507018e-05
000340 da 10 96 38 a8 93 8b 31 5f 82 09 36 56 3c 49 37
       7.155696e-05 4.062219e-09 2.0490477e-06 1.1994582e-05
000350 86 2e 5b 30 e3 63 2c 36 f4 46 86 37 86 2e 5b 30
       7.973785e-10 2.568814e-06 1.6007085e-05 7.973785e-10
000360 b6 21 25 37 ae d9 6f 38 e2 9a 83 31 16 0d 16 37
       9.842615e-06 5.718477e-05 3.83021e-09 8.9437435e-06
000370 15 45 99 38 e2 9a 83 31 79 78 be 36 15 16 0c 38
       7.308476e-05 3.83021e-09 5.676466e-06 3.3399167e-05
000380 9a cc 17 31 c4 71 ae 36 94 fc 37 38 9a cc 17 31
       2.2089695e-09 5.198848e-06 4.386583e-05 2.2089695e-09
000390 77 de c0 36 fd e9 0f 38 0f b6 19 31 1f 1c 07 37
       5.747944e-06 3.4311775e-05 2.2367919e-09 8.0531745e-06
0003a0 b2 5f 38 38 0f b6 19 31 52 e2 09 36 4c d4 30 37
       4.395814e-05 2.2367919e-09 2.0546327e-06 1.0539847e-05
0003b0 7a c7 5b 30 cb f5 ba 36 07 a4 57 37 7a c7 5b 30
       7.995521e-10 5.571846e-06 1.2853189e-05 7.995521e-10
0003c0 cb a4 a2 34 47 02 fa 34 4e 9f 01 2f 3f 64 99 34
       3.0294754e-07 4.6567786e-07 1.1789078e-10 2.857141e-07
0003d0 8b fd f5 34 4e 9f 01 2f bf 1f 3f 34 9f 75 53 35
       4.5819283e-07 1.1789078e-10 1.779981e-07 7.8774787e-07
0003e0 f9 51 98 2e c5 85 b9 34 c7 af 88 35 f9 51 98 2e
       6.926721e-11 3.4556265e-07 1.0183948e-06 6.926721e-11
0003f0 08 f9 91 33 28 ff 1d 34 07 ac e8 2d 24 64 83 33
       6.797387e-08 1.471459e-07 2.6451742e-11 6.118378e-08

exp_avg f4 [128]
000000 af 59 3f 3a fe a3 a2 b8 e5 aa 61 38 3f 29 0f 39
       0.00072994357 -7.755308e-05 5.380334e-05 0.00013652908
000010 54 49 bd 38 d5 56 0a bb 17 d9 88 3a a2 05 09 3a
       9.025881e-05 -0.0021108885 0.0010440674 0.00052269746
000020 d0 86 92 b9 ec 6b a5 37 8c a2 96 39 d2 be 67 39
       -0.00027947733 1.9719788e-05 0.00028731336 0.00022100963
000030 41 e1 1b ba 31 2a 2e ba ee b6 58 3a 4d 74 58 39
       -0.0005946346 -0.000664386 0.0008267005 0.0002064269
000040 7a db 31 ba 06 f5 1f b7 82 b5 8b ba 8a 1c 82 39
       -0.0006784719 -9.5341875e-06 -0.0010658952 0.00024816795
000050 ef 3f 12 b5 8f 6a cf b7 a4 38 27 3a c8 c2 8b 39
       -5.4482274e-07 -2.4725943e-05 0.00063789845 0.0002665727
000060 28 c3 40 39 d2 e1 f0 ba bb 5e 1d 39 ee 6e fe b8
       0.00018383248 -0.0018377847 0.00015007977 -0.00012132326
000070 b0 43 44 3a d5 92 b2 b9 05 40 a5 b9 3f 07 ef 39
       0.0007486893 -0.00034060204 -0.0003151895 0.0004559103
000080 6b 44 95 39 8d 94 50 3a 3d dc 89 ba b8 fc 9d 39
       0.0002847047 0.0007956706 -0.0010517907 0.00030133664
000090 2e 85 68 ba 5d 4a 26 3a 55 b0 25 3a 40 27 b6 39
       -0.0008869943 0.00063434785 0.0006320526 0.0003474299
0000a0 34 0e f8 39 65 73 a1 39 37 96 3f 39 ae b7 a5 38
       0.00047312828 0.0003079429 0.00018271139 7.902026e-05
0000b0 3a d6 82 b8 34 0f fe 38 2d 33 11 b9 aa d7 6c ba
       -6.238786e-05 0.000121144956 -0.00013847342 -0.0009034822
0000c0 0e 96 38 b8 dd e1 e1 39 10 60 0c 3a 1d 6e 85 39
       -4.4008768e-05 0.00043083625 0.00053548906 0.00025449778
0000d0 21 a7 cd ba ea ce 45 38 80 65 3f ba b0 59 de 39
       -0.0015690067 4.7161164e-05 -0.00073011965 0.00042409962
0000e0 24 45 63 39 fe ff a3 38 36 69 6d ba 5a 78 18 ba
       0.00021674164 7.820128e-05 -0.000905651 -0.00058162736
0000f0 f0 66 1e 38 48 7e 17 38 a6 96 dd b9 75 82 95 38
       3.7766004e-05 3.6118814e-05 -0.00042264647 7.129173e-05
000100 cf 3b 76 b8 cd 56 d9 ba 4a 72 cc 39 ca 6b 81 ba
       -5.870667e-05 -0.0016581655 0.00038995064 -0.0009874043
000110 f3 f1 a2 ba 2e 91 91 ba 1b 4f 12 37 a9 5c 76 3a
       -0.0012431726 -0.0011105889 8.720696e-06 0.0009397963
000120 b6 63 23 39 d1 b8 61 b9 e2 ef 17 39 a0 40 9e b7
       0.00015582037 -0.00021526522 0.00014489845 -1.8865161e-05
000130 8d 08 78 38 31 b1 15 39 91 b1 c9 ba cd 3b 1b 39
       5.913577e-05 0.00014275756 -0.0015388002 0.0001480423
000140 32 7a 9b 38 a2 64 fb ba 14 3f 69 3a 2e 00 21 b9
       7.4137366e-05 -0.0019179771 0.0008897644 -0.00015354223
000150 55 da 63 b8 d2 04 7e b9 22 38 3b 39 e2 4f d4 b9
       -5.4324355e-05 -0.00024225123 0.00017854621 -0.00040495308
000160 f2 bc 74 39 e7 be 90 38 47 47 e2 38 c9 ac b7 b7
       0.00023340041 6.9020134e-05 0.00010789796 -2.189576e-05
000170 de 2f c2 38 9a fe 80 ba e0 46 99 39 48 57 86 38
       9.259557e-05 -0.0009841502 0.0002923524 6.405875e-05
000180 85 55 89 ba 48 ae bf 39 4f 32 5c 3a 8e 50 55 b8
       -0.0010477757 0.00036560209 0.00083998305 -5.085818e-05
000190 67 c3 36 ba 6a d6 13 ba 46 a1 b9 39 f3 85 bf b9
       -0.0006971866 -0.0005639555 0.00035406108 -0.0003653016
0001a0 d6 72 c1 b9 dc d1 33 38 26 26 5f b8 eb d1 0f 37
       -0.00036897388 4.2872372e-05 -5.320287e-05 8.5723395e-06
0001b0 77 90 51 3a ed 00 58 b8 72 27 7b b7 20 14 7a 39
       0.0007994244 -5.1499275e-05 -1.496995e-05 0.00023849355
0001c0 73 e5 2b 39 6e 67 6b 3a 95 83 a3 37 17 fa 1b ba
       0.00016393307 0.0008979951 1.9492387e-05 -0.0005950047
0001d0 b2 8c cb 39 09 03 37 3a bd ec 06 ba 69 d8 7f 39
       0.00038824003 0.0006981348 -0.0005146971 0.00024399314
0001e0 9b f8 f0 b8 aa c5 8a b9 80 c4 fe 39 99 b5 07 bb
       -0.00011490398 -0.00026468682 0.0004859306 -0.0020707606
0001f0 0b e5 46 38 38 de bc 37 f7 8b 68 ba c6 cc 2b b9
       4.742019e-05 2.2514825e-05 -0.0008870954 -0.00016384115
