results/ppo/MoveToBall/MoveToBall-2693.onnx (onnx, 72799 bytes, 6 tensors)

network_body._body_endoder.seq_layers.0.weight f4 [128, 6]
0	0xbebe5c70	-0.371799
1	0x3f134098	0.5752044
2	0xbe95dedf	-0.292716
3	0xbd7da12f	-0.061921295
4	0xbcccc2c9	-0.024995225
5	0xbc223293	-0.009899753
6	0x3d810e5e	0.063015684
7	0x3f1fd559	0.6243492
8	0x3d34dc97	0.044155683
9	0xbf0d2f13	-0.55149955
10	0xbf0d0123	-0.5507986
11	0xbe622040	-0.22082615
12	0x3d15a52d	0.036534477
13	0x3e85d821	0.26141456
14	0xbe8395ee	-0.25700325
15	0xbecac117	-0.3960044
16	0xbf5b1ac6	-0.8558773
17	0xbf35f5dd	-0.7107828
18	0x3f05c9d5	0.52261096
19	0xbef25b40	-0.47335243
20	0x3d7056a3	0.058676373
21	0xbe9a0859	-0.30084494
22	0x3d00c4e7	0.03143778
23	0x3e994712	0.29937035
24	0xbde6bb92	-0.11266245
25	0xbde93526	-0.113870904
26	0xbe87252e	-0.26395553
27	0x3df451c5	0.11929659
28	0x3f17ce7a	0.59299433
29	0xbddf559e	-0.10905002
30	0xbe7d0a5c	-0.24710983
31	0x3e3fb5d3	0.18721704
32	0xbeba03d3	-0.36331043
33	0x3dac8f8f	0.08425819
34	0x3f4c708e	0.79859245
35	0x3e42a5cc	0.19008559
36	0x3ecc4e6e	0.39903587
37	0xbe6e449e	-0.23268363
38	0xbeea3f7b	-0.45751557
39	0x3f7be374	0.9839394
40	0x3cdd05d8	0.026980326
41	0x3f7ca948	0.986958
42	0x3ee76acb	0.45198664
43	0xbd140130	-0.036133945
44	0x3eb05ae8	0.34444356
45	0xbcc8801e	-0.024475154
46	0xbf112923	-0.56703395
47	0x3cb73eac	0.022368751
48	0xbf0effd2	-0.558591
49	0x3e9b23fb	0.30300888
50	0xbe504d86	-0.20342073
51	0x3dfff618	0.124981105
52	0x3ebe2f25	0.37145343
53	0x3bfeb217	0.007772695
54	0xbeda6870	-0.42657804
55	0xbe250bc4	-0.1611777
56	0x3f44c009	0.7685552
57	0x3e268dbd	0.16265006
58	0xbcb4420f	-0.022004155
59	0xbf3193d5	-0.693662
60	0xbfb70045	-1.4296957
61	0xbe837699	-0.2567642
62	0x3a942356	0.0011302035
63	0xbe4f1da1	-0.20226146
64	0xbce4c75c	-0.027927093
65	0xbebb662f	-0.36601397
66	0xbefc161b	-0.49235615
67	0x3f085cbe	0.53266513
68	0xbf1b735c	-0.607229
69	0xbf6fdba8	-0.93694544
70	0xbe9d7253	-0.30751285
71	0xbf239681	-0.63901526
72	0xbeea41e2	-0.4575339
73	0xbe37d28f	-0.17951415
74	0xbf21e0cf	-0.63233656
75	0xbf1209e7	-0.5704636
76	0x3f93f33d	1.1558605
77	0xbee28c0c	-0.44247472
78	0x3f0f25c4	0.55917
79	0x3e17f209	0.14838423
80	0x3d63e366	0.055636786
81	0xbe82df90	-0.2556119
82	0x3dfbeb2d	0.123007156
83	0x3ec9e4d1	0.39432386
84	0x3e663c84	0.22484022
85	0x3d9cdd4a	0.07659395
86	0x3e83b8ff	0.25727078
87	0x3d04f368	0.032458693
88	0x3e30dce9	0.1727177
89	0x3efd252c	0.49442422
90	0xbea2ecd7	-0.3182132
91	0xbdde9e87	-0.108700804
92	0xbdd3f4a2	-0.103493944
93	0xbf1dd08d	-0.6164635
94	0xbf2d2c53	-0.6764576
95	0x3e127709	0.14303221
96	0xbe80f23c	-0.2518481
97	0x3f24915d	0.64284307
98	0xbd54bfa1	-0.051940564
99	0xbefe4a1a	-0.4966591
100	0x3d1857f5	0.037193257
101	0xbf21eba5	-0.6325019
102	0xbcd0799d	-0.025448615
103	0x3f1464c1	0.5796624
104	0x3e91e839	0.28497484
105	0xbebdb1ae	-0.3704962
106	0x3e5f6818	0.21817052
107	0xbe728a1c	-0.23685497
108	0x3cb50261	0.02209586
109	0x3eaaf9e0	0.33393764
110	0xbdeb2a63	-0.11482694
111	0xbf732099	-0.94971615
112	0x3ea983c0	0.3310833
113	0xbf0fee92	-0.56223404
114	0xbe222ae3	-0.15836672
115	0x3d2a267f	0.04154062
116	0xbe95b6c0	-0.2924099
117	0x3e6fbbc3	0.23411469
118	0xbf35cfc4	-0.7102015
119	0x3e30fa89	0.17283072
120	0xbc0235aa	-0.007947365
121	0x3b720401	0.0036928656
122	0x3e88a4ed	0.26688328
123	0xbeb3f778	-0.3514974
124	0xbead715f	-0.33875558
125	0x3f83db1f	1.0301245
126	0xbe291619	-0.16512336
127	0x3e4e600f	0.20153831
128	0x3ea0ba36	0.31392068
129	0x3dcc8577	0.09986394
130	0xbeb4f794	-0.35345137
131	0xbe0d8b38	-0.13822639
132	0x3ea83b5c	0.32857788
133	0xbf008f13	-0.50218314
134	0x3e5ac890	0.21365571
135	0xbe2f9df3	-0.17150097
136	0x3e2d424d	0.16919823
137	0xbec8e085	-0.39233795
138	0xbf01835d	-0.5059107
139	0xbe7caaa2	-0.24674466
140	0x3f39acd4	0.7252934
141	0xbf3a8e16	-0.72873056
142	0xbea39355	-0.31948343
143	0xbf0923b9	-0.53570133
144	0x3dbf0906	0.09327893
145	0x3e491c01	0.19639589
146	0xbd20a77b	-0.03922222
147	0xbe8a7c9b	-0.2704819
148	0x3d6df707	0.05809691
149	0xbf23bacc	-0.63956904
150	0x3d2f8069	0.04284707
151	0x3f11c83d	0.56946164
152	0x3cf05c0f	0.029340772
153	0xbf01c7e9	-0.50695664
154	0xbe9a15a8	-0.30094647
155	0x3e73806f	0.23779462
156	0xbd2ab2d2	-0.041674443
157	0x3f32e38e	0.6987847
158	0x3edc23f6	0.42996186
159	0xbea731e3	-0.32655248
160	0xbe7a2428	-0.24427855
161	0xbee77949	-0.4520972
162	0xbf66e59f	-0.90194124
163	0x3f3feb71	0.7496863
164	0xbf4ce5db	-0.8003823
165	0x3dc14c4e	0.09438382
166	0xbed46bd3	-0.41488513
167	0x3e3ffd27	0.18748914
168	0x3e71da79	0.23618497
169	0xbe9dc419	-0.30813673
170	0xbe92446d	-0.2856783
171	0x3e333ce6	0.175037
172	0x3e83b669	0.25725105
173	0xbe7280f0	-0.23681998
174	0xbe8c6156	-0.2741801
175	0xbf1099e2	-0.56484807
176	0xbe57212d	-0.2100875
177	0xbee910ea	-0.45520717
178	0xbf80cae8	-1.0061922
179	0xbf8d0f44	-1.1020284
180	0x3e2f6c4f	0.1713116
181	0xbf7036c0	-0.9383354
182	0x3e189f0e	0.14904425
183	0xbe926881	-0.28595355
184	0x3e9ae0db	0.30249676
185	0xbe941e1d	-0.28929225
186	0x3e45b209	0.19306196
187	0xbf03185e	-0.51209056
188	0xbe87475b	-0.26421627
189	0x3f60e754	0.8785298
190	0x3f0be356	0.5464376
191	0x3d140692	0.03613908
192	0x3ec7608a	0.3894084
193	0x3f385186	0.71999395
194	0xbd0442d0	-0.03229028
195	0x3e0bb03d	0.13641448
196	0xbda60d6b	-0.08108028
197	0xbf092794	-0.53576016
198	0xbe482457	-0.19545113
199	0x3e5953a4	0.21223313
200	0x3e74f01d	0.23919721
201	0xbe490e58	-0.19634378
202	0x3f089f75	0.5336831
203	0x3e8083ae	0.25100464
204	0xbeb89b36	-0.36055917
205	0xbf60cb40	-0.87810135
206	0x3eb86696	0.36015767
207	0x3ea60209	0.32423428
208	0xbf2a9ced	-0.666457
209	0x3e27b376	0.16377053
210	0xbd23cf96	-0.03999289
211	0x3d893868	0.06700212
212	0x3e83a8e9	0.25714806
213	0x3e13e95d	0.1444449
214	0xbf1a4f1c	-0.6027696
215	0xbeb40caf	-0.35165927
216	0x3edabc4a	0.42721778
217	0xbf1ac1fc	-0.60452247
218	0xbefd2d73	-0.49448738
219	0xbf509eff	-0.8149261
220	0xbe815bd4	-0.25265372
221	0xbedd30d0	-0.43201303
222	0x3d981f14	0.07427803
223	0x3cbd41dd	0.023102695
224	0xbdbcbfc1	-0.09216262
225	0xbde51f7c	-0.11187646
226	0xbe6e2ea4	-0.2325998
227	0xbeadf1b8	-0.3397348
228	0x3f04d350	0.5188494
229	0x3f247b9a	0.642511
230	0x3e4cd6c7	0.20003806
231	0xbe00425c	-0.12525314
232	0x3f052ed7	0.52024597
233	0x3f5a64bf	0.85309976
234	0x3d9da526	0.07697515
235	0x3d4c7e51	0.049925152
236	0x3e6de030	0.23230052
237	0xbe62f4f8	-0.2216376
238	0xbdb4f91e	-0.08836578
239	0x3cf4e1ef	0.02989289
240	0xbe9e029c	-0.30861366
241	0x3de20c39	0.110374875
242	0xbf368f5e	-0.7131251
243	0xbe7a7d35	-0.24461825
244	0x3db27adc	0.0871484
245	0x3f4be321	0.79643446
246	0x3cd06179	0.025437104
247	0x3e868649	0.26274326
248	0x3e4d9c12	0.20079067
249	0xbea154ba	-0.31509954
250	0x3e578636	0.21047291
251	0xbdd032b7	-0.10165923
252	0xbf1f4a9a	-0.6222321
253	0xbe529bb0	-0.20567203
254	0x3e752ac6	0.23942098
255	0x3f0733f2	0.5281364

network_body._body_endoder.seq_layers.0.bias f4 [128]
0	0x00000000	0.0
1	0x00000000	0.0
2	0x00000000	0.0
3	0x00000000	0.0
4	0x00000000	0.0
5	0x00000000	0.0
6	0x00000000	0.0
7	0x00000000	0.0
8	0x00000000	0.0
9	0x00000000	0.0
10	0x00000000	0.0
11	0x00000000	0.0
12	0x00000000	0.0
13	0x00000000	0.0
14	0x00000000	0.0
15	0x00000000	0.0
16	0x00000000	0.0
17	0x00000000	0.0
18	0x00000000	0.0
19	0x00000000	0.0
20	0x00000000	0.0
21	0x00000000	0.0
22	0x00000000	0.0
23	0x00000000	0.0
24	0x00000000	0.0
25	0x00000000	0.0
26	0x00000000	0.0
27	0x00000000	0.0
28	0x00000000	0.0
29	0x00000000	0.0
30	0x00000000	0.0
31	0x00000000	0.0
32	0x00000000	0.0
33	0x00000000	0.0
34	0x00000000	0.0
35	0x00000000	0.0
36	0x00000000	0.0
37	0x00000000	0.0
38	0x00000000	0.0
39	0x00000000	0.0
40	0x00000000	0.0
41	0x00000000	0.0
42	0x00000000	0.0
43	0x00000000	0.0
44	0x00000000	0.0
45	0x00000000	0.0
46	0x00000000	0.0
47	0x00000000	0.0
48	0x00000000	0.0
49	0x00000000	0.0
50	0x00000000	0.0
51	0x00000000	0.0
52	0x00000000	0.0
53	0x00000000	0.0
54	0x00000000	0.0
55	0x00000000	0.0
56	0x00000000	0.0
57	0x00000000	0.0
58	0x00000000	0.0
59	0x00000000	0.0
60	0x00000000	0.0
61	0x00000000	0.0
62	0x00000000	0.0
63	0x00000000	0.0
64	0x00000000	0.0
65	0x00000000	0.0
66	0x00000000	0.0
67	0x00000000	0.0
68	0x00000000	0.0
69	0x00000000	0.0
70	0x00000000	0.0
71	0x00000000	0.0
72	0x00000000	0.0
73	0x00000000	0.0
74	0x00000000	0.0
75	0x00000000	0.0
76	0x00000000	0.0
77	0x00000000	0.0
78	0x00000000	0.0
79	0x00000000	0.0
80	0x00000000	0.0
81	0x00000000	0.0
82	0x00000000	0.0
83	0x00000000	0.0
84	0x00000000	0.0
85	0x00000000	0.0
86	0x00000000	0.0
87	0x00000000	0.0
88	0x00000000	0.0
89	0x00000000	0.0
90	0x00000000	0.0
91	0x00000000	0.0
92	0x00000000	0.0
93	0x00000000	0.0
94	0x00000000	0.0
95	0x00000000	0.0
96	0x00000000	0.0
97	0x00000000	0.0
98	0x00000000	0.0
99	0x00000000	0.0
100	0x00000000	0.0
101	0x00000000	0.0
102	0x00000000	0.0
103	0x00000000	0.0
104	0x00000000	0.0
105	0x00000000	0.0
106	0x00000000	0.0
107	0x00000000	0.0
108	0x00000000	0.0
109	0x00000000	0.0
110	0x00000000	0.0
111	0x00000000	0.0
112	0x00000000	0.0
113	0x00000000	0.0
114	0x00000000	0.0
115	0x00000000	0.0
116	0x00000000	0.0
117	0x00000000	0.0
118	0x00000000	0.0
119	0x00000000	0.0
120	0x00000000	0.0
121	0x00000000	0.0
122	0x00000000	0.0
123	0x00000000	0.0
124	0x00000000	0.0
125	0x00000000	0.0
126	0x00000000	0.0
127	0x00000000	0.0

network_body._body_endoder.seq_layers.2.weight f4 [128, 128]
0	0x3c029f02	0.007972481
1	0xbd9f367a	-0.077740625
2	0xbe19d500	-0.1502266
3	0xbcaf4c36	-0.021398645
4	0x3ca12077	0.0196688
5	0xbd662d69	-0.05619565
6	0xbbbc1845	-0.005740198
7	0x3e07eaef	0.13273214
8	0xbd31967e	-0.04335641
9	0xbd76f0e2	-0.060288318
10	0xbd928269	-0.0715378
11	0xbde0f848	-0.10984856
12	0xbd373794	-0.044730738
13	0xbc220b0c	-0.009890329
14	0x3ddf3fca	0.10900839
15	0x3d19fac9	0.037592683
16	0x3d8f79ee	0.07005678
17	0x3dc91c03	0.09819796
18	0x3d8de8e9	0.0692919
19	0xbe33a3c8	-0.17542946
20	0x3d837589	0.064189024
21	0x3c4d50ee	0.012531502
22	0x3cf3fceb	0.029783687
23	0xbdafa2bc	-0.08575961
24	0x3cbdafa4	0.023155041
25	0x3cf34bdc	0.029699259
26	0x3e134558	0.14381921
27	0xbd8d8d71	-0.069117434
28	0xbd7dde07	-0.06197932
29	0xbdfb2c4a	-0.12264307
30	0xbda53460	-0.0806663
31	0xbe07e7a7	-0.13271962
32	0x3bf73f9d	0.007545425
33	0x3da66f06	0.08126645
34	0x3d3fc2e7	0.046816733
35	0x3c374ea2	0.011188181
36	0x3d1ff2a8	0.039049774
37	0xbdc34821	-0.09535242
38	0x3d7556a2	0.059897073
39	0x3dcf02b4	0.101079375
40	0xbc2fcd62	-0.010730119
41	0xbd625aff	-0.055262562
42	0x3da50853	0.08058228
43	0x3da4c053	0.080444954
44	0xbc97d9ea	-0.018536527
45	0xbc373938	-0.011183076
46	0x3deecd86	0.11660294
47	0xbe06b2f6	-0.13154206
48	0x3d94c6b6	0.072644636
49	0xbb3f4ab9	-0.0029188825
50	0xbc6c9172	-0.014438974
51	0x3ce3e8d1	0.027820976
52	0xbd0b3b6d	-0.03399222
53	0x3d1d4d11	0.038403574
54	0x3cfa122f	0.030526249
55	0xbe09aafe	-0.13444135
56	0xbceb01b7	-0.028687341
57	0x3da89234	0.08231011
58	0x3c5e6f5c	0.013576355
59	0xbd5a2230	-0.05325526
60	0xbe142e48	-0.1447078
61	0xbdf9b98c	-0.121935934
62	0xbdb6a9bc	-0.08919093
63	0xbbfc7d42	-0.0077053616
64	0xbc8c3aad	-0.017117823
65	0x3c8ff56f	0.017573087
66	0xbda05adb	-0.07829829
67	0x3d1462e6	0.03622713
68	0xbc761653	-0.015019971
69	0x3d464cf9	0.04841325
70	0x3e130743	0.14358239
71	0xbc659905	-0.0140135335
72	0x3dc27985	0.09495834
73	0xbda2e08f	-0.079529874
74	0xbdfe31a5	-0.12411813
75	0x3d973104	0.07382396
76	0xbde82bbe	-0.11336468
77	0x3d307b0f	0.043086108
78	0xbcbc803a	-0.023010362
79	0xbd1573b0	-0.03648728
80	0xbc5b61c0	-0.013390005
81	0xbd327824	-0.043571606
82	0x3d8e406d	0.06945882
83	0x3e064b67	0.13114701
84	0x3d862e3e	0.06551789
85	0x3da0ae01	0.078456886
86	0x3dce7916	0.10081689
87	0xbdfe8d45	-0.12429289
88	0xba51c6bd	-0.00080023316
89	0xbe0386c6	-0.1284438
90	0xbc315295	-0.010822912
91	0x3badeaa8	0.005307514
92	0x3caf918d	0.021431709
93	0xbc74394b	-0.014906238
94	0x3c03c50c	0.008042585
95	0xbc721151	-0.014774636
96	0x3d380b53	0.044932675
97	0x3d2435cb	0.040090363
98	0xbaea40f4	-0.0017872141
99	0x3c87813b	0.016541114
100	0x3d63f49c	0.0556532
101	0xbca0d54d	-0.01963296
102	0xbd1e4b1b	-0.038645845
103	0xbdfddeff	-0.12396049
104	0x3e19dd24	0.15025765
105	0x3bca4a0d	0.0061733783
106	0xbdeb3f4d	-0.11486683
107	0xbde600f7	-0.11230653
108	0xbdfe2cb6	-0.12410872
109	0x3b6f26ec	0.0036491705
110	0x3db4ed5c	0.08834335
111	0x3d46c4c6	0.0485275
112	0xbd89c3ab	-0.06726774
113	0x3d8cc57e	0.06873606
114	0xbe20116d	-0.15631647
115	0xbcaaf35a	-0.020867992
116	0xbc767baf	-0.015044137
117	0xbd9cbc2d	-0.07653079
118	0xbddf7e61	-0.10912777
119	0x3d1ad13a	0.03779719
120	0x3e49b3bd	0.19697471
121	0x3c937c22	0.018003527
122	0x3daa4956	0.08314769
123	0xbcd48a96	-0.02594499
124	0x3de34d5a	0.11098738
125	0x3e03bc77	0.12864862
126	0xbc31be3b	-0.010848577
127	0x3c6c5e72	0.014426814
128	0xbe117a07	-0.14206706
129	0xbd22337f	-0.03959989
130	0x3defe0e4	0.11712816
131	0xbe0780bf	-0.13232706
132	0x3d0ba656	0.034094177
133	0xbd065132	-0.032792278
134	0x3e1bba3d	0.15207763
135	0x3d880069	0.06640703
136	0x3c30ab2b	0.010782997
137	0x3b1de45e	0.0024092416
138	0x3af3558a	0.0018564921
139	0x3d0f12d4	0.034930065
140	0x3d427e8f	0.047483977
141	0x3dd2ad36	0.102869436
142	0x3e1c3f94	0.15258628
143	0x3de56e85	0.112027206
144	0x3dff2cd5	0.12459723
145	0xbd3a0a77	-0.045420136
146	0x3daa4914	0.0831472
147	0xbd3ac505	-0.04559805
148	0x3cd0d0de	0.02549022
149	0xbc427c14	-0.011870403
150	0x3d7c05fb	0.06152914
151	0xbc7f93f6	-0.0155992415
152	0x3db5a2ab	0.08868917
153	0x3d24aa74	0.04020162
154	0x3dd0c58d	0.1019393
155	0x3a037011	0.00050139526
156	0x3d496b2d	0.049174476
157	0xbc9ca18a	-0.019119997
158	0xbd4bcc73	-0.049755525
159	0x3cc2a8e8	0.023762181
160	0xbda4bf89	-0.08044345
161	0x3db3310f	0.087495916
162	0x3ca357b1	0.019939275
163	0xbc573c0c	-0.013136875
164	0x3c58989f	0.013219981
165	0x3d88c308	0.06677824
166	0x3bf09c0c	0.007342821
167	0x3d7f48a6	0.062325142
168	0x3d2c8c8c	0.042126223
169	0x3d926acc	0.07149276
170	0x3d6b69cb	0.05747394
171	0xbdc2fc3e	-0.09520768
172	0x3c4522be	0.012032209
173	0x3d711d8b	0.058866065
174	0xbe5e247b	-0.21693604
175	0xbd039b06	-0.032130264
176	0x3c8bb9ba	0.017056335
177	0x3cc00869	0.02344151
178	0x3d7197bf	0.058982607
179	0xbc645205	-0.013935571
180	0x3d2fa1c5	0.042878885
181	0x3d4ceb68	0.05002919
182	0x3da25bca	0.079276636
183	0x3d524723	0.051337373
184	0xbdb4a49e	-0.08820461
185	0x3dd1bf16	0.10241525
186	0xbd482f94	-0.0488735
187	0xbdbe9957	-0.09306591
188	0xbc5f80b7	-0.013641528
189	0x3dc39b27	0.09551077
190	0xbd2b684c	-0.041847512
191	0xbc89dbf9	-0.016828524
192	0x3e60d8f3	0.2195776
193	0xbe0ff64b	-0.14058797
194	0xbd2f3045	-0.042770643
195	0xbd84f2bc	-0.064916104
196	0xbd09493c	-0.033517107
197	0xbe39ab89	-0.18131842
198	0x3d24bfd6	0.04022201
199	0x3e03075e	0.12795779
200	0xbd89be58	-0.06725758
201	0x3d7d4199	0.061830137
202	0xbdfc4e77	-0.123196535
203	0xbda3183a	-0.07963605
204	0xbde05729	-0.109541245
205	0x3da95b06	0.082693145
206	0x3d6c5099	0.05769405
207	0xbcbba65f	-0.02290648
208	0x3e01ecba	0.1268796
209	0x3d8ddf07	0.06927305
210	0x3d299e4d	0.041410733
211	0x3d639df5	0.05557056
212	0x3d675ef4	0.05648704
213	0x3e0785ba	0.13234606
214	0x3e212f02	0.15740588
215	0xbcdde376	-0.027086
216	0xbca121b7	-0.019669397
217	0xbdfc7cef	-0.12328517
218	0x3b1b2f13	0.0023679181
219	0xbdfc5667	-0.123211674
220	0x3e080712	0.13283947
221	0xbd8d41f5	-0.06897346
222	0xbb95b502	-0.004568697
223	0x3de0dba2	0.10979392
224	0xbdcd6ed7	-0.10030907
225	0xbd94ead8	-0.072713554
226	0xbe16e119	-0.14734305
227	0x3ccc47ca	0.024936575
228	0x3e186f61	0.14886238
229	0xbc910a49	-0.0177051
230	0xbd6a5bb2	-0.057216354
231	0x3dfa608b	0.12225445
232	0x3e1bbedc	0.15209526
233	0x3d6419c7	0.055688646
234	0x3d12dac6	0.03585317
235	0x3e2a0972	0.16605166
236	0x3de3fa21	0.11131693
237	0x3e10d385	0.14143188
238	0x3dea26db	0.11433192
239	0xbd5d54dc	-0.054036006
240	0x3d7095b2	0.05873651
241	0x3d9eac6a	0.07747729
242	0xbdd55c41	-0.10417987
243	0x3c3cd333	0.011524963
244	0x3e15a5d9	0.14614047
245	0x3d6890ca	0.056778707
246	0x3dfc46db	0.12318202
247	0xbd095e59	-0.033537243
248	0x3d8529c8	0.0650211
249	0xbe85aaf5	-0.26106992
250	0xbd8ca06f	-0.06866538
251	0x3dc1120e	0.09427272
252	0x3d31affe	0.04338073
253	0x3dad1a55	0.08452288
254	0xbd1768e4	-0.036965266
255	0x3d8a82ae	0.067632064

network_body._body_endoder.seq_layers.2.bias f4 [128]
0	0x00000000	0.0
1	0x00000000	0.0
2	0x00000000	0.0
3	0x00000000	0.0
4	0x00000000	0.0
5	0x00000000	0.0
6	0x00000000	0.0
7	0x00000000	0.0
8	0x00000000	0.0
9	0x00000000	0.0
10	0x00000000	0.0
11	0x00000000	0.0
12	0x00000000	0.0
13	0x00000000	0.0
14	0x00000000	0.0
15	0x00000000	0.0
16	0x00000000	0.0
17	0x00000000	0.0
18	0x00000000	0.0
19	0x00000000	0.0
20	0x00000000	0.0
21	0x00000000	0.0
22	0x00000000	0.0
23	0x00000000	0.0
24	0x00000000	0.0
25	0x00000000	0.0
26	0x00000000	0.0
27	0x00000000	0.0
28	0x00000000	0.0
29	0x00000000	0.0
30	0x00000000	0.0
31	0x00000000	0.0
32	0x00000000	0.0
33	0x00000000	0.0
34	0x00000000	0.0
35	0x00000000	0.0
36	0x00000000	0.0
37	0x00000000	0.0
38	0x00000000	0.0
39	0x00000000	0.0
40	0x00000000	0.0
41	0x00000000	0.0
42	0x00000000	0.0
43	0x00000000	0.0
44	0x00000000	0.0
45	0x00000000	0.0
46	0x00000000	0.0
47	0x00000000	0.0
48	0x00000000	0.0
49	0x00000000	0.0
50	0x00000000	0.0
51	0x00000000	0.0
52	0x00000000	0.0
53	0x00000000	0.0
54	0x00000000	0.0
55	0x00000000	0.0
56	0x00000000	0.0
57	0x00000000	0.0
58	0x00000000	0.0
59	0x00000000	0.0
60	0x00000000	0.0
61	0x00000000	0.0
62	0x00000000	0.0
63	0x00000000	0.0
64	0x00000000	0.0
65	0x00000000	0.0
66	0x00000000	0.0
67	0x00000000	0.0
68	0x00000000	0.0
69	0x00000000	0.0
70	0x00000000	0.0
71	0x00000000	0.0
72	0x00000000	0.0
73	0x00000000	0.0
74	0x00000000	0.0
75	0x00000000	0.0
76	0x00000000	0.0
77	0x00000000	0.0
78	0x00000000	0.0
79	0x00000000	0.0
80	0x00000000	0.0
81	0x00000000	0.0
82	0x00000000	0.0
83	0x00000000	0.0
84	0x00000000	0.0
85	0x00000000	0.0
86	0x00000000	0.0
87	0x00000000	0.0
88	0x00000000	0.0
89	0x00000000	0.0
90	0x00000000	0.0
91	0x00000000	0.0
92	0x00000000	0.0
93	0x00000000	0.0
94	0x00000000	0.0
95	0x00000000	0.0
96	0x00000000	0.0
97	0x00000000	0.0
98	0x00000000	0.0
99	0x00000000	0.0
100	0x00000000	0.0
101	0x00000000	0.0
102	0x00000000	0.0
103	0x00000000	0.0
104	0x00000000	0.0
105	0x00000000	0.0
106	0x00000000	0.0
107	0x00000000	0.0
108	0x00000000	0.0
109	0x00000000	0.0
110	0x00000000	0.0
111	0x00000000	0.0
112	0x00000000	0.0
113	0x00000000	0.0
114	0x00000000	0.0
115	0x00000000	0.0
116	0x00000000	0.0
117	0x00000000	0.0
118	0x00000000	0.0
119	0x00000000	0.0
120	0x00000000	0.0
121	0x00000000	0.0
122	0x00000000	0.0
123	0x00000000	0.0
124	0x00000000	0.0
125	0x00000000	0.0
126	0x00000000	0.0
127	0x00000000	0.0

action_model._discrete_distribution.branches.0.weight f4 [2, 128]
0	0xbc1c0057	-0.009521565
1	0x3a328f67	0.000681153
2	0xbb8b4976	-0.0042507006
3	0x3b6803c8	0.0035402644
4	0xb7e36542	-2.710766e-05
5	0x39c4497f	0.00037438792
6	0x3b87a709	0.004139785
7	0x3c5d46ef	0.013505681
8	0x3be9c537	0.0071341055
9	0xbc5dd877	-0.013540379
10	0x3bed7240	0.0072462857
11	0xba26af9a	-0.0006358564
12	0x3bdd9397	0.006761979
13	0xbb8c6ea8	-0.004285652
14	0x3c135367	0.008992053
15	0xbbeeb0e2	-0.0072842697
16	0x3b90db5f	0.0044206823
17	0xbc7a7518	-0.015286706
18	0xbb3a9a55	-0.0028473337
19	0x3baa8647	0.0052039954
20	0x3aafe857	0.0013420683
21	0xbc2aef38	-0.010433011
22	0xbb932d4c	-0.004491484
23	0xbc574b9d	-0.013140586
24	0xbbba48e5	-0.0056849592
25	0x3b9371ab	0.0044996343
26	0x3ad0b208	0.0015922198
27	0x399ac9f8	0.00029523647
28	0x3cbb7c63	0.02288646
29	0xbaffce3d	-0.001951642
30	0x3bcd01ea	0.0062563317
31	0xba74e97a	-0.0009342652
32	0x3b2a1960	0.0025955066
33	0x398336d2	0.0002502711
34	0x3bd6ebf8	0.0065588914
35	0xbb8304be	-0.003998368
36	0xba86e150	-0.0010290537
37	0x3bafe9c5	0.0053684437
38	0xbb44b1ff	-0.003001332
39	0x3b86ea17	0.004117261
40	0x3b05ca9a	0.002041495
41	0xbc24883f	-0.010042249
42	0x3c0500f9	0.008117908
43	0x3bdad4ff	0.006678223
44	0x3c2617f7	0.01013755
45	0xba957cb5	-0.0011404963
46	0x3b8b4469	0.0042500985
47	0x3c17fa92	0.009276049
48	0x3c21f1b6	0.009884289
49	0xbc30e981	-0.010797859
50	0xbc4c2b6e	-0.012461526
51	0xbc1b043b	-0.009461458
52	0xbc0a3c92	-0.008437293
53	0xbb597745	-0.0033182662
54	0xbc81e6f7	-0.015857203
55	0xbc696b20	-0.014246732
56	0x3c347c73	0.011015999
57	0xbc3f482e	-0.011674924
58	0x3b58afc5	0.0033063751
59	0xbba270e1	-0.004957304
60	0xbbaade96	-0.0052145226
61	0xbc929675	-0.01789401
62	0xbc08f423	-0.008358988
63	0xbb83c272	-0.0040209824
64	0x3abb8932	0.0014307855
65	0xba3b9f51	-0.0007157224
66	0xbafb8468	-0.001918924
67	0x3b81926f	0.003954224
68	0xb93cb32a	-0.00017995821
69	0xbc984618	-0.01858811
70	0x3c950beb	0.01819416
71	0x3c72e335	0.014824678
72	0x3cb5616d	0.022141183
73	0x3bf4f6d0	0.0074757114
74	0x3c862452	0.01637474
75	0x3bc77807	0.0060873064
76	0xbb71146b	-0.0036785852
77	0x3be2e5e5	0.006924378
78	0xbba4b2e2	-0.0050262073
79	0xbb8e30a6	-0.0043392954
80	0xbc776edf	-0.015102117
81	0x3c550c55	0.0130034285
82	0xbbf87385	-0.0075821304
83	0x3bedc5fa	0.0072562667
84	0xbbfcf308	-0.0077194013
85	0xb9fface2	-0.00048766198
86	0x3b215a8b	0.0024620618
87	0xbc5b097b	-0.01336896
88	0xbbc3f65d	-0.0059802965
89	0x3a412435	0.0007367761
90	0x3bd74080	0.0065689683
91	0xbbee0b0f	-0.007264502
92	0xbb1071b2	-0.0022040424
93	0xbabaeba0	-0.0014260896
94	0xbbcbfb78	-0.006225046
95	0x3a4ec648	0.00078878226
96	0x3b634bdf	0.0034682674
97	0x3bcca2de	0.006245001
98	0x3bc2d29d	0.005945517
99	0x3ba0fb26	0.0049127517
100	0x3bb331f1	0.0054686
101	0xbb6d17fb	-0.0036177624
102	0x3c05f428	0.008175887
103	0xbc473fb7	-0.012161187
104	0xbc1bb1a0	-0.009502798
105	0xbc835319	-0.016030835
106	0x3bef12a2	0.0072959224
107	0x3c6ad74a	0.0143335555
108	0xbc27aa0c	-0.010233413
109	0x3bec9b10	0.0072206333
110	0x3c0b05e2	0.008485289
111	0xbc66063b	-0.014039571
112	0x3bc94500	0.0061422586
113	0xbc58341a	-0.013196016
114	0x3c06fd25	0.008239065
115	0xbc002df8	-0.00782346
116	0xbbed9c23	-0.007251279
117	0xbc8110e1	-0.015755119
118	0xbabff04a	-0.0014643755
119	0x3ccefecf	0.025267987
120	0xbc8542b4	-0.016267158
121	0x3ba3b884	0.004996361
122	0xba480114	-0.0007629555
123	0xbc65fe27	-0.014037645
124	0x3b973013	0.004613885
125	0xb96e75bb	-0.00022741307
126	0x3b2868e9	0.0025697297
127	0xbab8a454	-0.001408706
128	0xbbdc7b70	-0.006728582
129	0xbb829f7f	-0.0039862986
130	0x3abad323	0.0014253597
131	0xb9e2b7cb	-0.00043243016
132	0xbb9b4181	-0.0047380333
133	0x3b87b2fb	0.004141209
134	0x3b59c243	0.0033227361
135	0x3b2760a8	0.002553979
136	0xbbf8ff8b	-0.0075988225
137	0x3b407a40	0.0029369742
138	0x3aa4a3d2	0.0012561029
139	0xbb54e81b	-0.0032486978
140	0x3b99f3ea	0.0046982663
141	0xbc03e7a0	-0.008050829
142	0x3bf6688a	0.0075197862
143	0x3c3ef343	0.011654678
144	0x3c260b38	0.010134511
145	0xbbbdc742	-0.0057915756
146	0xbbbdca54	-0.0057919417
147	0xba18bee4	-0.0005826785
148	0x3c9c29f7	0.01906298
149	0x3bc7abe9	0.0060934913
150	0x3bc47d3c	0.0059963744
151	0x3afdfcb2	0.0019377677
152	0x3b88ce43	0.004174979
153	0xbbd7e56d	-0.006588629
154	0x3c550b4f	0.013003184
155	0xbbbdb23b	-0.005789069
156	0xb84e35b5	-4.9164246e-05
157	0x3bdc4620	0.0067222267
158	0xbbf65568	-0.0075175054
159	0x3a440594	0.0007477638
160	0xbc777a20	-0.0151048
161	0xbb2e7de8	-0.002662534
162	0xbae3fe68	-0.0017394545
163	0xbb7c6900	-0.0038514733
164	0xbcc635d2	-0.024195585
165	0x37c05fa8	2.2932727e-05
166	0xbb85a263	-0.004078196
167	0x3c1a205c	0.009407129
168	0xbc00fbba	-0.007872516
169	0xbbf7e60f	-0.007565267
170	0x3c37cfee	0.011219008
171	0x3bd7eb47	0.0065893265
172	0xbc1954e2	-0.009358617
173	0x3b588ba5	0.003304222
174	0x3bedc78f	0.0072564553
175	0xbb9f3137	-0.004858162
176	0x3c549135	0.012974073
177	0xba89ce55	-0.0010513762
178	0x3bb4d137	0.0055181044
179	0xbb2e91b0	-0.002663713
180	0x3b83c8cc	0.0040217396
181	0xbbbf9ba7	-0.0058474126
182	0xba746987	-0.0009323586
183	0xbc4fc435	-0.012681057
184	0x3b7e859a	0.0038836957
185	0xbc4e46b2	-0.012590097
186	0xbb21e9f9	-0.002470611
187	0xbc6b3168	-0.014355041
188	0x3c14ca38	0.009081416
189	0xbab01586	-0.0013434149
190	0x39a57016	0.00031554763
191	0xbb26dd86	-0.0025461628
192	0x3cb7e197	0.022446437
193	0x3bf9f648	0.007628236
194	0xbba7f907	-0.005126122
195	0x3bfe5248	0.0077612735
196	0x3c08af18	0.008342527
197	0x38b273c7	8.5092666e-05
198	0x3bf1cb07	0.007378939
199	0x3bb77a7f	0.0055993195
200	0xbb4712fd	-0.0030376308
201	0x3b85c28a	0.0040820288
202	0x3a821bcb	0.0009926496
203	0x3a90db27	0.0011051641
204	0xbc7cd310	-0.015431181
205	0xbb917c81	-0.004439891
206	0xbb5cbcc7	-0.0033681856
207	0xb9ec0145	-0.00045014374
208	0x3c90e102	0.017685417
209	0xbb808d6c	-0.003923109
210	0x3c7c665d	0.015405265
211	0x3b73a2b3	0.0037175834
212	0xbb07221e	-0.00206197
213	0x3adc7e0d	0.0016822234
214	0xbababcf0	-0.0014246982
215	0x3b553e00	0.0032538176
216	0x3b8f73e7	0.0043778303
217	0xbc0315a6	-0.008000767
218	0xbba8ee83	-0.005155386
219	0xbba64ab1	-0.005074822
220	0x3c295c5d	0.0103369625
221	0xbc4d3e45	-0.012527053
222	0xbb9f410e	-0.00486005
223	0x3b7b853d	0.0038378977
224	0xbadad8e8	-0.0016696723
225	0xbba676fb	-0.0050801015
226	0xbab20498	-0.0013581691
227	0xbbbd0421	-0.0057683145
228	0xbb6f4b7f	-0.0036513505
229	0x3c1194df	0.008885591
230	0x3a6d6f72	0.0009057439
231	0x3c2c3599	0.010510826
232	0xbbbac6c6	-0.005699965
233	0xbbf88980	-0.0075847507
234	0x3b6ffa50	0.0036617704
235	0xbbb05b4f	-0.0053819786
236	0xbaf1f822	-0.001846079
237	0x3c83877d	0.016055817
238	0xbc1f6f0b	-0.009731065
239	0xbbbfc689	-0.0058525247
240	0x3ca939ca	0.020657439
241	0xbbc41043	-0.005983384
242	0x3c4ac3a5	0.012375747
243	0xbc00c98e	-0.007860554
244	0xbac93f17	-0.0015353885
245	0xba4572ab	-0.00075320405
246	0x3c3958dd	0.011312691
247	0x3bf43bf8	0.007453438
248	0x3bb5130b	0.0055259517
249	0x3bf012dd	0.0073264674
250	0xbbab9fee	-0.005237571
251	0xbc41036e	-0.011780603
252	0xba179f4f	-0.00057839317
253	0x3c38ee42	0.011287274
254	0x3c80514f	0.015663771
255	0x3b4953f6	0.003072021

action_model._discrete_distribution.branches.0.bias f4 [2]
0	0x00000000	0.0
1	0x00000000	0.0
