results/ppo/MoveToBall/MoveToBall-1044.pt (torch, 149101 bytes, 11 tensors)

network_body._body_endoder.seq_layers.0.weight f4 [128, 6]
0.6715068 -0.42751834 -0.45971456 0.70750326 0.9093759 0.39600548 -0.12850855 -0.84261024
-0.7904067 -0.002353484 0.06765086 0.6017833 0.304864 0.6665704 0.86803615 0.13802367
-0.21565261 -0.15639125 -0.23546706 -0.18306966 0.6467981 0.2618083 -0.14273708 0.82539904
0.020447465 -0.2077217 -0.059487335 0.47062954 -0.05870065 -0.578382 0.1805504 0.47812656
-0.44975498 0.43863857 0.60134465 0.8083683 -0.48243797 0.14596651 -0.43056172 -0.04824466
0.26808885 -0.08902688 -0.20637622 -0.3529478 -0.30207953 0.46813712 0.025516586 0.38011554
0.33454004 -0.36158788 0.18302765 -0.00828252 0.66617817 -0.120483495 -0.30937698 0.28032693
0.39596245 0.54819304 0.37851763 0.00067011715 0.16132158 -0.53379667 -0.42562646 -0.4198875
-0.2367275 0.19710352 0.25320765 0.03219805 -0.018575782 0.073389284 0.29319912 0.3614931
-0.6083066 -0.48875028 -0.5394188 0.0631197 -0.2766128 0.43844217 -0.23669748 -0.31768286
-0.22575624 -0.3195905 0.12115124 0.37626278 -0.20093139 -0.71191305 -0.7787434 0.15862523
-0.17132244 -0.31166172 0.09474477 -0.3263084 -0.1306834 0.41411301 -0.33315685 0.24633625
0.10316774 0.046987012 -0.12556094 -0.14528464 0.22392568 0.1489126 -0.24539147 0.6472754
-0.33207497 0.37354758 0.34748438 0.22014776 0.6545388 -0.2527754 -1.0038986 -0.12777108
0.45163444 -0.04370409 0.6088867 0.79848 0.44943148 -0.30443102 -0.7244454 0.6345439
-0.3632252 -0.46301484 0.25314632 0.31305325 0.10530568 0.5321043 0.3010198 -0.01057886
-0.004304023 0.60447836 -0.9744174 0.7028482 -0.07753083 -0.14382723 0.71617603 -0.7102573
0.5770896 0.06944108 -0.4226498 -0.032927044 -0.3160344 0.049773823 -0.8113531 -0.011519479
0.5164802 -0.072924234 -0.1163336 0.0702013 0.028293867 -0.06711342 0.20267418 0.41064018
-0.07826916 -0.11302726 0.19979396 0.047685716 0.12181611 -0.4175853 -0.2889796 -0.033167724
-0.09299482 0.17726652 0.092606574 0.0069833808 -0.4320816 -0.928554 -0.23786108 -0.8687597
0.006053277 -0.23635012 -0.29833236 -0.109186314 0.21912874 -0.6852175 0.264394 0.077637486
0.5034853 -0.72047496 -0.06745255 -0.046455964 -0.42040905 0.110957906 -0.28565076 -0.2950748
0.31238917 0.018525789 -0.2946156 -0.6265125 -0.16518897 0.2602493 0.055168327 -0.6258869
-0.020651707 -0.329692 0.22088934 -0.4058694 0.7601477 0.11920667 -0.264746 -0.6065203
0.02349979 -0.62643784 0.16376784 0.022120174 0.5054561 0.1065669 0.010490893 0.07375375
0.129001 0.5562514 0.64130807 -0.5359927 0.3286438 0.41181043 0.36365995 0.80745053
0.9923512 0.4092168 0.214703 -0.024275627 -0.16136718 -0.30356106 -0.050394155 -0.52286303
-0.19481753 -0.54243165 0.21084957 0.3356173 -0.15774305 0.33173135 0.09062627 -0.32582903
0.71354765 0.47056448 -0.03245587 -0.51855093 0.2031327 0.13771164 -0.23440829 0.3904834
-0.38151252 -0.10016876 0.31434762 -0.22054291 -0.0974346 0.09457836 0.587639 0.81524575
-0.62875646 -0.4619294 0.16712762 -0.32264763 -0.75165105 0.08679992 0.7877426 0.06394643
00000000: dfe7 2b3f afe3 dabe b55f ebbe ef1e 353f
00000010: dccc 683f 3bc1 ca3e bf97 03be 4eb5 57bf
00000020: 1858 4abf e93c 1abb 898c 8a3d 780e 1a3f
00000030: 2217 9c3e 5ca4 2a3f 9e37 5e3f 1456 0d3e
00000040: 0ad4 5cbe 0725 20be 471e 71be 9d76 3bbe
00000050: 8f94 253f bd0b 863e ab29 12be 5a4d 533f
00000060: 7181 a73c ffb4 54be fea8 73bd 5bf6 f03e
00000070: 1870 70bd d810 14bf 34e2 383e 01cd f43e
00000080: 4946 e6be 3c95 e03e b9f1 193f 3af1 4e3f
00000090: 1c02 f7be 3f78 153e 9672 dcbe 319c 45bd
000000a0: f142 893e ba53 b6bd 4a54 53be 93b5 b4be
000000b0: 2baa 9abe abaf ef3e 2908 d13c 819e c23e
000000c0: d548 ab3e 0c22 b9be 9a6b 3b3e 68b3 07bc
000000d0: a78a 2a3f 0dc0 f6bd a966 9ebe 0387 8f3e
000000e0: 97bb ca3e 6156 0c3f 10cd c13e cdaa 2f3a
000000f0: 7c31 253e e6a6 08bf b6eb d9be 7ffb d6be
00000100: b268 72be 81d5 493e 6fa4 813e 1ae2 033d
00000110: 3d2c 98bc 1f4d 963d 321e 963e a015 b93e
00000120: fbb9 1bbf 7a3d fabe 5a17 0abf e744 813d
00000130: 31a0 8dbe 7e7b e03e d360 72be 54a7 a2be
00000140: a52c 67be 5ea1 a3be 241e f83d 84a5 c03e
00000150: f5c0 4dbe ef3f 36bf ba5b 47bf a76e 223e
00000160: 266f 2fbe 2092 9fbe 8c09 c23d e511 a7be
00000170: dfd1 05be 9f06 d43e 8993 aabe 923f 7c3e
00000180: 9c49 d33d 7475 403d 0c93 00be 7fc5 14be
00000190: c64c 653e 8b7c 183e e747 7bbe d7b3 253f
000001a0: bb05 aabe a141 bf3e 79e9 b13e 6a6e 613e
000001b0: db8f 273f c76b 81be c07f 80bf 6cd6 02be
000001c0: a13c e73e 0f03 33bd 00e0 1b3f 2f69 4c3f
000001d0: e21b e63e 62de 9bbe 4175 39bf 7871 223f
000001e0: a7f8 b9be 4810 edbe 659c 813e 8448 a03e
000001f0: 81aa d73d fd37 083f 441f 9a3e f452 2dbc
00000200: c308 8dbb 18bf 1a3f 6b73 79bf dced 333f
00000210: 7cc8 9ebd 7247 13be 5057 373f 6cd3 35bf
00000220: 25bc 133f 2037 8e3d 8e65 d8be 82de 06bd
00000230: 43cf a1be a3df 4b3d d6b4 4fbf 32bc 3cbc
00000240: 0c38 043f 4d59 95bd 4f40 eebd b3c5 8f3d
00000250: 8ac8 e73c c372 89bd d289 4f3e 6e3f d23e
00000260: 954b a0bd d67a e7bd ca96 4c3e 1952 433d
00000270: ba7a f93d becd d5be 22f5 93be e1da 07bd
00000280: 1174 bebd 5b85 353e 84a8 bd3d d8d4 e43b
00000290: cd39 ddbe b7b5 6dbf db91 73be 0967 5ebf
000002a0: 915a c63b c405 72be 05bf 98be 139d dfbd
000002b0: 4963 603e 6a6a 2fbf a65e 873e 6700 9f3d
000002c0: 6ae4 003f 0c71 38bf 9024 8abd 9c48 3ebd
000002d0: db3f d7be e63d e33d d140 92be 0b14 97be
000002e0: 79f1 9f3e 65c3 973c dbd7 96be 2063 20bf
000002f0: 4c27 29be 653f 853e 2ff8 613d 203a 20bf
00000300: c52d a9bc 64cd a8be d130 623e 1dce cfbe
00000310: 0a99 423f a022 f43d ca8c 87be ea44 1bbf
00000320: a282 c03c 3b5e 20bf c2b2 273e 5e35 b53c
00000330: 9265 013f bf3f da3d ffe1 2b3c 350c 973d
00000340: d718 043e 7e66 0e3f c42c 243f d136 09bf
00000350: 0044 a83e d1d8 d23e a331 ba3e 14b5 4e3f
00000360: ba0a 7e3f dd84 d13e 1adb 5b3e aedd c6bc
00000370: 703d 25be 5b6c 9bbe 1a6a 4ebd 5ada 05bf
00000380: 3f7e 47be cddc 0abf f3e8 573e 08d6 ab3e
00000390: 6587 21be b1d8 a93e 449a b93d 10d3 a6be
000003a0: 0fab 363f d4ed f03e 72f0 04bd c1bf 04bf
000003b0: 0502 503e 4804 0d3e ba08 70be 71ed c73e
000003c0: 9c55 c3be 4725 cdbd 2cf2 a03e 00d6 61be
000003d0: cb8b c7bd 4db2 c13d 826f 163f f2b3 503f
000003e0: 2ff6 20bf 0382 ecbe 8123 2b3e 1232 a5be
000003f0: 346c 40bf 28c4 b13d 80a9 493f 59f6 823d

network_body._body_endoder.seq_layers.0.bias f4 [128]
0.0 0.0 0.0 0.0 0.0 0.0 0.0 0.0
0.0 0.0 0.0 0.0 0.0 0.0 0.0 0.0
0.0 0.0 0.0 0.0 0.0 0.0 0.0 0.0
0.0 0.0 0.0 0.0 0.0 0.0 0.0 0.0
0.0 0.0 0.0 0.0 0.0 0.0 0.0 0.0
0.0 0.0 0.0 0.0 0.0 0.0 0.0 0.0
0.0 0.0 0.0 0.0 0.0 0.0 0.0 0.0
0.0 0.0 0.0 0.0 0.0 0.0 0.0 0.0
0.0 0.0 0.0 0.0 0.0 0.0 0.0 0.0
0.0 0.0 0.0 0.0 0.0 0.0 0.0 0.0
0.0 0.0 0.0 0.0 0.0 0.0 0.0 0.0
0.0 0.0 0.0 0.0 0.0 0.0 0.0 0.0
0.0 0.0 0.0 0.0 0.0 0.0 0.0 0.0
0.0 0.0 0.0 0.0 0.0 0.0 0.0 0.0
0.0 0.0 0.0 0.0 0.0 0.0 0.0 0.0
0.0 0.0 0.0 0.0 0.0 0.0 0.0 0.0
00000000: 0000 0000 0000 0000 0000 0000 0000 0000
00000010: 0000 0000 0000 0000 0000 0000 0000 0000
00000020: 0000 0000 0000 0000 0000 0000 0000 0000
00000030: 0000 0000 0000 0000 0000 0000 0000 0000
00000040: 0000 0000 0000 0000 0000 0000 0000 0000
00000050: 0000 0000 0000 0000 0000 0000 0000 0000
00000060: 0000 0000 0000 0000 0000 0000 0000 0000
00000070: 0000 0000 0000 0000 0000 0000 0000 0000
00000080: 0000 0000 0000 0000 0000 0000 0000 0000
00000090: 0000 0000 0000 0000 0000 0000 0000 0000
000000a0: 0000 0000 0000 0000 0000 0000 0000 0000
000000b0: 0000 0000 0000 0000 0000 0000 0000 0000
000000c0: 0000 0000 0000 0000 0000 0000 0000 0000
000000d0: 0000 0000 0000 0000 0000 0000 0000 0000
000000e0: 0000 0000 0000 0000 0000 0000 0000 0000
000000f0: 0000 0000 0000 0000 0000 0000 0000 0000
00000100: 0000 0000 0000 0000 0000 0000 0000 0000
00000110: 0000 0000 0000 0000 0000 0000 0000 0000
00000120: 0000 0000 0000 0000 0000 0000 0000 0000
00000130: 0000 0000 0000 0000 0000 0000 0000 0000
00000140: 0000 0000 0000 0000 0000 0000 0000 0000
00000150: 0000 0000 0000 0000 0000 0000 0000 0000
00000160: 0000 0000 0000 0000 0000 0000 0000 0000
00000170: 0000 0000 0000 0000 0000 0000 0000 0000
00000180: 0000 0000 0000 0000 0000 0000 0000 0000
00000190: 0000 0000 0000 0000 0000 0000 0000 0000
000001a0: 0000 0000 0000 0000 0000 0000 0000 0000
000001b0: 0000 0000 0000 0000 0000 0000 0000 0000
000001c0: 0000 0000 0000 0000 0000 0000 0000 0000
000001d0: 0000 0000 0000 0000 0000 0000 0000 0000
000001e0: 0000 0000 0000 0000 0000 0000 0000 0000
000001f0: 0000 0000 0000 0000 0000 0000 0000 0000

network_body._body_endoder.seq_layers.2.weight f4 [128, 128]
-0.068238005 0.04767339 -0.02358568 -0.11688825 -0.050142694 -0.13061336 -0.005022991 -0.008079408
0.058608685 -0.035080153 -0.15959848 0.22473313 0.0631473 -0.022394154 0.023908703 0.102264956
-0.08076964 -0.029711416 0.16244023 0.059395965 0.15240015 -0.07621743 -0.0031071578 -0.044409055
0.035767075 0.047545776 0.17815483 0.16321678 -0.022908231 0.14723684 -0.045391995 -0.0618309
0.06975282 -0.041165937 -0.016204344 -0.026453521 -0.029369896 -0.051569846 0.012181327 -0.048493464
0.030545687 -0.024931522 0.12626041 0.046364967 0.013882272 -0.08892526 -0.011871754 0.0824226
0.006506872 -0.009875709 0.029440401 0.13519453 0.13451762 -0.08742919 -0.028107733 -0.013804968
-0.033442963 -0.03845686 0.031691406 0.03384956 -0.031316128 -0.040110856 -0.08016805 0.13182524
-0.099548705 -0.08418508 -0.15425907 0.064225465 0.12270982 -0.017627167 -0.10372828 0.013682185
0.0041149105 0.16407293 -0.051042367 -0.068438895 -0.026243364 0.0893575 0.14487924 0.062085688
-0.19497776 0.014623941 0.070172325 -0.09931577 0.059538543 0.043394826 0.12341965 -0.12011121
0.013804641 0.13145062 0.023408243 0.050217837 -0.07758515 -0.004064521 -0.09074381 0.010185851
-0.050209135 0.2105851 0.18143097 0.011916092 -0.1529913 -0.015198151 0.03956023 0.020365585
-0.06096979 -0.06102308 0.034635197 0.01573108 -0.07681865 -0.005854124 0.030632071 0.06451261
0.049675625 0.01639637 0.061901387 0.05435229 0.076383114 0.008216862 0.006744484 0.22075075
0.14245392 -0.092339985 0.03385541 0.07819054 0.14063805 0.047168557 0.14733416 0.107857354
0.05541285 0.055691216 0.1240456 0.09285411 0.16161145 0.023669472 -0.10856227 0.043847974
-0.047720883 -0.025590813 0.09169698 -0.023329623 -0.024012528 -0.11894373 -0.035936665 -0.08528183
-0.021884883 0.02868899 0.09419195 0.10452047 0.035521407 0.07231188 -0.07435103 0.03329778
0.035455067 -0.034890305 -0.039877616 0.14875166 0.03062989 -0.039541893 -0.06364393 0.08812551
-0.08231676 -0.018824168 -0.021344462 0.05413659 0.02054142 -0.07607187 -0.077808924 -0.1534089
-0.055721674 -0.017212035 0.06574786 -0.10865586 -0.02514322 -0.15165414 -0.014055455 -0.080434196
0.019290853 0.10756985 -0.1193411 0.004770521 -0.016507281 0.19814904 -0.114770144 0.06557457
-0.03114808 -0.025556464 0.028016398 0.049723048 0.060851656 -0.11308811 -0.019735128 -0.07758282
-0.022691347 0.11660718 -0.008070054 -0.013975305 0.1274852 0.044179358 0.07483819 -0.047046762
0.086973764 -0.019158658 0.032971043 -0.05863758 -0.0010170105 0.11847504 0.077396676 -0.00081181235
0.063312225 -0.018286146 0.2115553 -0.09561898 0.026126526 -0.06900001 -0.0728681 -0.14677759
0.025615655 -0.018344054 0.13779145 -0.1493639 0.010823039 -0.06296783 0.050113387 0.044804912
-0.011118881 0.048468605 -0.06824402 -0.022214439 -0.006701944 0.03793423 0.0873202 -0.16585422
0.012706435 0.0870675 -0.18554121 0.015683452 0.028314022 0.055526152 -0.027870117 0.12831746
-0.002286679 -0.041607756 0.038714908 -0.026338832 -0.03740745 0.06624639 0.08556265 0.18868971
-0.080188274 -0.12333392 -0.031976707 0.1287745 0.053405672 0.06032817 -0.081101805 -0.10904774
00000000: 5ec0 8bbd 2c45 433d c236 c1bc 1b63 efbd
00000010: 6d62 4dbd 82bf 05be e797 a4bb 7e5f 04bc
00000020: a90f 703d 35b0 0fbd c96d 23be 7120 663e
00000030: 5f53 813d f273 b7bc 2fdc c33c 4a70 d13d
00000040: 8e6a a5bd 5b65 f3bc bb56 263e 2f49 733d
00000050: c90e 1c3e e217 9cbd 75a1 4bbb 45e6 35bd
00000060: 7f80 123d 5cbf 423d 386e 363e 4d22 273e
00000070: 0baa bbbc 41c5 163e f5ec 39bd 6642 7dbd
00000080: 91da 8e3d 9d9d 28bd f9be 84bc 0eb5 d8bc
00000090: 2399 f0bc e73a 53bd 3094 473c 15a1 46bd
000000a0: f33a fa3c 313d ccbc 694a 013e 31e9 3d3d
000000b0: 7872 633c 721e b6bd bf81 42bc 2ecd a83d
000000c0: 9937 d53b bacd 21bc ff2c f13c 6f70 0a3e
000000d0: fdbe 093e 130e b3bd 3042 e6bc 3c2e 62bc
000000e0: 7dfb 08bd f184 1dbd d9ce 013d d6a5 0a3d
000000f0: 5745 00bd 484b 24bd 262f a4bd 32fd 063e
00000100: 31e0 cbbd 3a69 acbd 17f6 1dbe a488 833d
00000110: 494f fb3d d966 90bc 7e6f d4bd 3e2b 603c
00000120: 5fd6 863b bc02 283e cd11 51bd b129 8cbd
00000130: 53fc d6bc 1101 b73d 395b 143e 904d 7e3d
00000140: 40a8 47be 4199 6f3c 82b6 8f3d 1166 cbbd
00000150: b0de 733d c6be 313d 71c3 fc3d defc f5bd
00000160: dc2c 623c fe9a 063e a5c2 bf3c 38b1 4d3d
00000170: f7e4 9ebd ac2f 85bb e4d7 b9bd 8ee2 263c
00000180: 18a8 4dbd 9fa3 573e 0ac9 393e b63b 433c
00000190: c0a9 1cbe aa01 79bc e809 223d bad5 a63c
000001a0: 75bb 79bd 56f3 79bd a3dd 0d3d 77de 803c
000001b0: 1953 9dbd f4d3 bfbb 1cf0 fa3c 301f 843d
000001c0: ab78 4b3d ae51 863c 4f8c 7d3d 82a0 5e3d
000001d0: c06e 9c3d 04a0 063c d500 dd3b 7c0c 623e
000001e0: 71df 113e bf1c bdbd f8ab 0a3d 5d22 a03d
000001f0: 6c03 103e d133 413d c4de 163e 51e4 dc3d
00000200: 96f8 623d 791c 643d 9f0b fe3d 4c2a be3d
00000210: 797d 253e 7be6 c13c e555 debd ef99 333d
00000220: f976 43bd d3a3 d1bc a0cb bb3d c41d bfbc
00000230: ecb5 c4bc c598 f3bd 5332 13bd 3da8 aebd
00000240: ed47 b3bc 2c05 eb3c b6e7 c03d d40e d63d
00000250: e57e 113d 4018 943d 5a45 98bd 4163 083d
00000260: 5539 113d 23e9 0ebd b656 23bd 5b52 183e
00000270: 89eb fa3c aef6 21bd c057 82bd 267b b43d
00000280: b195 a8bd 2435 9abc 95da aebc 54be 5d3d
00000290: 7b46 a83c 92cb 9bbd 495a 9fbd 3917 1dbe
000002a0: 693c 64bd 4100 8dbc d0a6 863d f786 debd
000002b0: 27f9 cdbc 394b 1bbe da48 66bc afba a4bd
000002c0: da07 9e3c 954d dc3d 1b69 f4bd 0852 9c3b
000002d0: 473a 87bc 95e7 4a3e 9c0c ebbd f64b 863d
000002e0: 422a ffbc ca5b d1bc a582 e53c 65aa 4b3d
000002f0: 963f 793d bd9a e7bd 90ab a1bc bee3 9ebd
00000300: 34e3 b9bc bfcf ee3d 4338 04bc adf8 64bc
00000310: 7b8b 023e 6af5 343d c444 993d 1bb4 40bd
00000320: 4d1f b23d 9ef2 9cbc a50c 073d f62d 70bd
00000330: 364d 85ba 0ba3 f23d 2682 9e3d cecf 54ba
00000340: d7a9 813d d4cc 95bc f4a1 583e e2d3 c3bd
00000350: 4c07 d63c e14f 8dbd df3b 95bd dd4c 16be
00000360: ecd7 d13c 4546 96bc 3419 0d3e daf2 18be
00000370: 1e53 313c 47f5 80bd b243 4d3d 5b85 373d
00000380: f82b 36bc 0487 463d 85c3 8bbd 0efb b5bc
00000390: fb9b dbbb ec60 1b3d efd4 b23d b0d5 29be
000003a0: a72e 503c 7250 b23d 84fe 3dbe 957a 803c
000003b0: cff2 e73c 646f 633d df4f e4bc a765 033e
000003c0: 1cdc 15bb e56c 2abd 8693 1e3d 89c4 d7bc
000003d0: 8e38 19bd 30ac 873d 783b af3d e037 413e
000003e0: c039 a4bd 7f96 fcbd 02fa 02bd 76dd 033e
000003f0: e8bf 5a3d ac1a 773d b418 a6bd 6c54 dfbd

network_body._body_endoder.seq_layers.2.bias f4 [128]
0.0 0.0 0.0 0.0 0.0 0.0 0.0 0.0
0.0 0.0 0.0 0.0 0.0 0.0 0.0 0.0
0.0 0.0 0.0 0.0 0.0 0.0 0.0 0.0
0.0 0.0 0.0 0.0 0.0 0.0 0.0 0.0
0.0 0.0 0.0 0.0 0.0 0.0 0.0 0.0
0.0 0.0 0.0 0.0 0.0 0.0 0.0 0.0
0.0 0.0 0.0 0.0 0.0 0.0 0.0 0.0
0.0 0.0 0.0 0.0 0.0 0.0 0.0 0.0
0.0 0.0 0.0 0.0 0.0 0.0 0.0 0.0
0.0 0.0 0.0 0.0 0.0 0.0 0.0 0.0
0.0 0.0 0.0 0.0 0.0 0.0 0.0 0.0
0.0 0.0 0.0 0.0 0.0 0.0 0.0 0.0
0.0 0.0 0.0 0.0 0.0 0.0 0.0 0.0
0.0 0.0 0.0 0.0 0.0 0.0 0.0 0.0
0.0 0.0 0.0 0.0 0.0 0.0 0.0 0.0
0.0 0.0 0.0 0.0 0.0 0.0 0.0 0.0
00000000: 0000 0000 0000 0000 0000 0000 0000 0000
00000010: 0000 0000 0000 0000 0000 0000 0000 0000
00000020: 0000 0000 0000 0000 0000 0000 0000 0000
00000030: 0000 0000 0000 0000 0000 0000 0000 0000
00000040: 0000 0000 0000 0000 0000 0000 0000 0000
00000050: 0000 0000 0000 0000 0000 0000 0000 0000
00000060: 0000 0000 0000 0000 0000 0000 0000 0000
00000070: 0000 0000 0000 0000 0000 0000 0000 0000
00000080: 0000 0000 0000 0000 0000 0000 0000 0000
00000090: 0000 0000 0000 0000 0000 0000 0000 0000
000000a0: 0000 0000 0000 0000 0000 0000 0000 0000
000000b0: 0000 0000 0000 0000 0000 0000 0000 0000
000000c0: 0000 0000 0000 0000 0000 0000 0000 0000
000000d0: 0000 0000 0000 0000 0000 0000 0000 0000
000000e0: 0000 0000 0000 0000 0000 0000 0000 0000
000000f0: 0000 0000 0000 0000 0000 0000 0000 0000
00000100: 0000 0000 0000 0000 0000 0000 0000 0000
00000110: 0000 0000 0000 0000 0000 0000 0000 0000
00000120: 0000 0000 0000 0000 0000 0000 0000 0000
00000130: 0000 0000 0000 0000 0000 0000 0000 0000
00000140: 0000 0000 0000 0000 0000 0000 0000 0000
00000150: 0000 0000 0000 0000 0000 0000 0000 0000
00000160: 0000 0000 0000 0000 0000 0000 0000 0000
00000170: 0000 0000 0000 0000 0000 0000 0000 0000
00000180: 0000 0000 0000 0000 0000 0000 0000 0000
00000190: 0000 0000 0000 0000 0000 0000 0000 0000
000001a0: 0000 0000 0000 0000 0000 0000 0000 0000
000001b0: 0000 0000 0000 0000 0000 0000 0000 0000
000001c0: 0000 0000 0000 0000 0000 0000 0000 0000
000001d0: 0000 0000 0000 0000 0000 0000 0000 0000
000001e0: 0000 0000 0000 0000 0000 0000 0000 0000
000001f0: 0000 0000 0000 0000 0000 0000 0000 0000

action_model._discrete_distribution.branches.0.weight f4 [2, 128]
-0.005639241 0.018524513 0.0026108155 0.0013991126 -0.002922612 0.015985139 0.0004174453 0.0029384338
0.011380847 -0.016277336 0.008306576 -0.0072176023 0.0051641483 -0.007879196 0.00094718346 -0.016556868
-0.0046430114 -0.0010505149 -0.013038628 0.014919514 0.011395558 0.012149249 -0.028602151 -0.004845289
0.0058484003 -0.017147152 0.007035432 -0.003914108 0.0050953934 0.0034948129 0.0018826699 0.0023585209
-0.0029152883 -0.0052466607 -0.00062286557 0.0014311002 -0.009608167 0.00541828 0.00962475 0.011456535
-0.015031658 0.0061859502 0.010737653 0.004972968 -0.005823217 -0.0017481087 -0.007793183 -0.0052819722
-0.0050569247 0.008466884 -0.004620242 -0.00587507 -0.0019596647 -0.0034007572 0.00465928 -0.011102951
-0.0012526165 -0.009458545 -0.014192688 0.0051270803 0.0030636226 -0.001006385 0.0031897984 -0.0009878431
-0.0038968802 0.001945191 -0.004599011 -0.00015226463 0.0073184185 0.0058824155 -0.00643901 -0.009863071
-0.001684361 -0.0036025823 -0.0026562898 -0.0010384433 0.0004615168 -0.011078052 0.00028909583 -0.013300844
-0.0021537922 0.007080458 0.015611358 -0.0067613977 0.013953077 0.00076562323 0.00055200397 0.0009711914
0.0008887551 0.009650253 0.0017218158 0.0059541035 0.0060697454 0.019808209 -0.012968989 0.010394928
-0.001154923 0.0016823284 -0.009936682 -0.00045356815 0.0006184733 -0.00373788 0.0036915482 0.003851828
0.004340416 -0.005455577 0.0012899208 0.016736856 0.004856318 -0.005249132 -0.004949331 0.03047359
0.00781951 -0.0010038199 -0.0002778559 0.0006506094 -0.011755931 0.007843284 0.013704573 0.019559702
-0.0033788648 -0.010179286 0.012466213 0.0045741163 0.014238581 0.000828374 -0.009180839 0.015137834
-0.007076464 -0.012620471 0.0068006287 -0.000604516 0.010499458 -0.0034617751 -0.009519056 -0.0056831087
-0.006717024 -0.004249782 0.0004058146 0.013077795 -0.0015849628 0.011100252 0.008851513 -0.016143931
0.010094676 -0.010646678 -0.004154647 -0.008283348 0.008777144 0.014855482 -0.002193192 0.000638716
-0.006812752 0.0021878786 -0.016003644 -0.004966898 -0.002034851 0.0066892034 0.014397094 -0.00426908
0.0058593433 -0.0072246515 0.003349406 0.0017646516 -0.005312904 -0.003265233 0.012625714 -0.0032746275
-0.0014065912 -0.008644122 -0.0028765525 -0.02044399 -0.000234566 -0.0010229778 -0.006608789 0.004301389
0.005759273 -0.021309637 0.0037719698 -0.018487435 -0.000493492 -0.0033212558 0.0076711276 -0.009169019
0.009141619 0.0072135315 0.009196123 0.0034316245 0.002925758 -0.005873678 -0.0017744331 0.011326547
0.006964151 0.010055146 0.0020425292 0.01299613 0.010704047 -0.018786775 0.004266839 0.010631751
0.0021846762 0.002896488 -0.0024251367 -0.016268069 -0.005719678 -0.0053011156 0.0075200214 -0.0006749027
0.0048709563 -0.005798447 -0.005252339 -0.008297686 -0.003455823 -0.0022484353 -0.006437289 -0.0047776815
-0.010719817 -0.0028944595 -0.0016336497 -0.013970688 0.005242439 0.007533271 -0.00793077 -0.010508701
0.013977225 -0.0059420257 0.0047272653 0.0036831924 0.008045977 -0.021253882 -0.00991645 0.0005391606
0.002357296 -0.0020358188 -0.0011974348 -0.004512149 -0.01406388 0.021696331 -5.652635e-05 0.0040117046
0.008763527 -0.015341423 -0.00092296436 -0.014153852 0.0082037905 -0.0031305838 -0.0073813344 -0.003393282
-0.012159189 -0.0047211396 -0.0075027877 0.006156284 0.011731813 -0.0060797515 0.022809474 -0.005828444
00000000: 62c9 b8bb b8c0 973c 371a 2b3b 6e62 b73a
00000010: 4b89 3fbb 44f3 823c 8fdc da39 bd92 403b
00000020: bb76 3a3c 0c58 85bc 4e18 083c a381 ecbb
00000030: 0438 a93b be17 01bc 684c 783a 45a2 87bc
00000040: 6724 98bb 6eb1 89ba f89f 55bc fa70 743c
00000050: 6fb4 3a3c a50d 473c 0f4f eabc 3bc5 9ebb
00000060: f0a3 bf3b 2f78 8cbc 7b89 e63b eb41 80bb
00000070: 42f7 a63b 3b09 653b ebc3 f63a 6a91 1a3b
00000080: 6c0e 3fbb 2eec abbb cd47 23ba c193 bb3a
00000090: 936b 1dbc d48b b13b 21b1 1d3c 31b4 3b3c
000000a0: 5847 76bc 83b3 ca3b fbec 2f3c 47f4 a23b
000000b0: afd0 bebb cb20 e5ba f55d ffbb 6514 adbb
000000c0: 8fb4 a5bb afb8 0a3c 6665 97bb a983 c0bb
000000d0: b86d 00bb 3ddf 5ebb e0ac 983b 27e9 35bc
000000e0: d62e a4ba 03f8 1abc 7388 68bc 1101 a83b
000000f0: 0fc7 483b ade8 83ba f00b 513b 847a 81ba
00000100: cd62 7fbb c7f5 fe3a 4db3 96bb 3aa9 1fb9
00000110: 58cf ef3b 47c1 c03b 55fe d2bb b898 21bc
00000120: c7c5 dcba 4d19 6cbb 2615 2ebb 601c 88ba
00000130: bdf7 f139 b880 35bc c991 9739 c8eb 59bc
00000140: a326 0dbb 3003 e83b c8c6 7f3c b78e ddbb
00000150: 729b 643c 1bb4 483a 5cb4 103a 8d97 7e3a
00000160: 58fb 683a 181c 1e3c 8dae e13a a41a c33b
00000170: b7e4 c63b d344 a23c e27b 54bc 7d4f 2a3c
00000180: c960 97ba 9381 dc3a 77cd 22bc e3cc edb9
00000190: 0a21 223a 38f7 74bb e7ed 713b f36e 7c3b
000001a0: 0c3a 8e3b b2c4 b2bb 8f12 a93a bb1b 893c
000001b0: bf21 9f3b e900 acbb ff2d a2bb c0a3 f93c
000001c0: 671d 003c 9b92 83ba 30ad 91b9 a88d 2a3a
000001d0: f39b 40bc 1e81 003c 2589 603c ab3b a03c
000001e0: f26f 5dbb 05c7 26bc 163f 4c3c 78e2 953b
000001f0: f048 693c 3d27 593a 3b6b 16bc ad04 783c
00000200: afe1 e7bb 18c6 4ebc cfd7 de3b 6278 1eba
00000210: eb05 2c3c f3de 62bb d1f5 1bbc 5f39 babb
00000220: 7b1a dcbb c141 8bbb 83c3 d439 3f44 563c
00000230: 87be cfba d5dd 353c f005 113c 4740 84bc
00000240: 2464 253c 676f 2ebc b423 88bb e1b6 07bc
00000250: 03ce 0f3c 6864 733c a8bb 0fbb 816f 273a
00000260: 823d dfbb 8362 0f3b 131a 83bc 5cc1 a2bb
00000270: 225b 05bb 1b31 db3b cae1 6b3c a3e3 8bbb
00000280: bcff bf3b c5bc ecbb b581 5b3b e24b e73a
00000290: de17 aebb 85fd 55bb 15dc 4e3c 229b 56bb
000002a0: 5e5d b8ba 13a0 0dbc 8b84 3cbb 287a a7bc
000002b0: d5f5 75b9 7015 86ba 8a8e d8bb abf2 8c3b
000002c0: 49b8 bc3b 8c91 aebc 2733 773b f672 97bc
000002d0: b05d 01ba 6da9 59bb 155e fb3b a739 16bc
000002e0: bbc6 153c 7d5f ec3b 56ab 163c 1be5 603b
000002f0: 13be 3f3b fb77 c0bb 1894 e8ba fb92 393c
00000300: 8833 e43b 57be 243c f4db 053b b8ed 543c
00000310: 0760 2f3c b9e6 99bc d7d0 8b3b cc30 2e3c
00000320: c92c 0f3b 01d3 3d3b 0bef 1ebb 9d44 85bc
00000330: 236c bbbb fbb4 adbb 836a f63b f4eb 30ba
00000340: 8b9c 9f3b e600 bebb d01b acbb 05f3 07bc
00000350: 177b 62bb 7c5a 13bb e5ef d2bb 198e 9cbb
00000360: 2ca2 2fbc f9b0 3dbb 3020 d6ba 50e5 64bc
00000370: c4c8 ab3b a8d9 f63b 0ff0 01bc b02c 2cbc
00000380: bb00 653c 53b5 c2bb 2de7 9a3b b761 713b
00000390: 46d3 033c 9f1c aebc 9b78 22bc 7556 0d3a
000003a0: dd7c 1a3b 5f6b 05bb 3ff3 9cba a6da 93bb
000003b0: 306c 66bc 81bc b13c b516 6db8 9e74 833b
000003c0: e594 0f3c 985a 7bbc 17f3 71ba 8fe5 67bc
000003d0: 3169 063c 7b2a 4dbb 1fdf f1bb d361 5ebb
000003e0: 5637 47bc cab3 9abb f2d9 f5bb a7ba c93b
000003f0: ca36 403c a738 c7bb efda ba3c 88fc bebb

action_model._discrete_distribution.branches.0.bias f4 [2]
0.0 0.0
00000000: 0000 0000 0000 0000

network_body._body_endoder.seq_layers.0.weight f4 [128, 6]
-0.26742792 0.120493665 -0.013256041 -0.53900373 -0.28857386 -0.060763463 -0.67105144 -0.5530445
0.016966594 0.4157505 0.21139741 -0.25029925 -1.1157862 0.85576427 0.64700586 -0.07722682
-0.6670698 -0.16672422 -0.33509693 -1.0859075 0.32501754 -0.46656406 0.9471834 0.23735775
0.033835165 0.7536939 -0.21161284 -0.3080065 0.7612827 0.46974757 -0.035562467 -0.3128916
0.09495347 0.2725128 0.5143897 0.741468 -0.04243245 -0.41501555 -0.13832197 0.1451084
0.50228083 -0.092028424 -0.6694774 -0.9512244 0.31847274 -0.2841607 -0.44711626 0.020645479
0.044652566 -0.23513663 0.18802698 0.30658266 0.111511104 -0.27205735 0.6941994 0.2558332
-0.13851218 -0.26218653 0.22022426 -0.42261758 0.6256183 0.33454904 -0.5998759 -0.587677
0.089136735 -0.055118687 -0.31497696 0.4249325 -0.7003896 -0.27831054 -0.0010601884 0.03608345
0.51758975 0.37195116 0.13164897 0.8740536 -0.5082155 -0.2644762 0.7422156 0.16771564
0.3084778 -0.3863471 -0.026857706 0.5739681 0.044154856 0.2384625 -0.12559873 0.24380793
-0.1872919 -0.67985713 0.09819684 -0.046231203 -0.39355978 -0.71083003 0.20607129 0.3384093
0.18710181 -0.745894 -0.3684287 -0.23057646 -0.66316384 -0.39510548 0.09234789 -0.48331767
-0.093876235 0.3660883 -0.42363614 -0.6841738 -0.057626814 -0.31284177 0.027992088 -0.58044684
-0.44678715 0.37846148 -0.9090424 0.030644352 0.34625578 -0.3529136 -0.16325939 0.6084153
-0.21299133 0.7574392 -0.06041697 -0.9929744 -0.088328436 0.41788876 -0.023077242 0.5560874
-0.005708054 0.33477226 -0.022563046 -0.09875151 -0.4598927 0.3896243 -0.2489001 -0.5946635
-0.62754095 0.75011915 0.039300162 0.801288 0.44240922 -0.13396803 0.037443325 -0.16116026
0.48598933 0.015010756 -0.33313876 -0.381849 0.39053985 0.5288447 -0.66722953 -0.018180171
-0.11884158 0.19143847 -0.33065212 -0.2921339 0.2767783 0.010085049 -0.5272629 0.23074682
-0.06759007 -0.1339564 -0.41207615 0.011686729 0.24757625 0.43496555 0.10266938 0.2723638
0.029954825 -0.5402583 0.5679432 0.06761141 0.082040906 -0.2611765 -0.005572198 0.06625897
-0.04001387 0.20121893 0.42452195 0.33424696 -0.074108995 -0.23948814 -0.08533967 -0.046468195
-0.26308507 0.06517271 0.43016228 -0.045793023 -0.054502614 -0.5546624 0.4495808 0.5220813
0.7467338 0.14206956 -0.22761844 -0.45850685 0.6503093 0.012796519 0.047622368 0.19852933
0.5856755 0.19377147 -0.90273774 0.5776302 0.2170104 -0.3234168 0.23583166 0.25099123
0.6994286 -0.92541677 0.7757548 -0.28068298 -0.45438927 -0.10893896 -0.9309642 0.19527356
0.17115895 -0.010676715 -0.3305979 0.2110654 0.36184275 -0.12518974 -0.7041237 -0.07825506
0.21045981 -0.5661905 0.5530689 -0.28247067 -0.82840115 0.33487782 0.34244165 0.060449768
-0.014016752 -0.43971565 0.58990884 -0.31617266 0.09711195 -0.18262884 -0.39789054 -0.82340693
0.58451265 -0.27962962 -0.7776572 -0.08694147 -0.36033106 -0.2123997 0.10859748 -0.82283396
-0.37340614 -0.23224041 -0.10509059 -0.23840135 -0.048679776 -0.76419485 0.21913595 0.18036868
00000000: 50ec 88be 62c5 f63d de2f 59bc 26fc 09bf
00000010: f4bf 93be 1ce3 78bd 07ca 2bbf 5394 0dbf
00000020: 87fd 8a3c 40dd d43e 9078 583e 3927 80be
00000030: 15d2 8ebf 5e13 5b3f 2da2 253f 1829 9ebd
00000040: 16c5 2abf c1b9 2abe d391 abbe 04ff 8abf
00000050: b368 a63e 7ce1 eebe 9c7a 723f e90d 733e
00000060: be96 0a3d 15f2 403f 09b1 58be 07b3 9dbe
00000070: 6ce3 423f c182 f03e f3a9 11bd 5433 a0be
00000080: f776 c23d cc86 8b3e 0baf 033f d9d0 3d3f
00000090: a6cd 2dbd eb7c d4be 46a4 0dbe 4c97 143e
000000a0: 7a95 003f 6679 bcbd df62 2bbf 7183 73bf
000000b0: dc0e a33e 837d 91be 6cec e4be b520 a93c
000000c0: 9ce5 363d a8c7 70be 258a 403e 67f8 9c3e
000000d0: ef5f e43d 1a4b 8bbe 0db7 313f 92fc 823e
000000e0: 23d6 0dbe 503d 86be 7882 613e 5561 d8be
000000f0: 8528 203f 034a ab3e 7891 19bf 0072 16bf
00000100: 528d b63d 22c4 61bd a944 a1be c190 d93e
00000110: bc4c 33bf b87e 8ebe 05f6 8aba 3dcc 133d
00000120: c380 043f 6270 be3e fdce 063e fac1 5f3f
00000130: 691a 02bf 6d69 87be d701 3e3f a6bd 2b3e
00000140: cdf0 9d3e 49cf c5be b104 dcbc 93ef 123f
00000150: b9db 343d 832f 743e f49c 00be c9a8 793e
00000160: 73c9 3fbe 1e0b 2ebf 6d1b c93d ee5c 3dbd
00000170: ab80 c9be f5f8 35bf 5a04 533e fc43 ad3e
00000180: 9e97 3f3e e9f2 3ebf b0a2 bcbe 3c1c 6cbe
00000190: 1bc5 29bf 444b cabe e420 bd3d 6a75 f7be
000001a0: 2f42 c0bd ed6f bb3e d6e6 d8be 0426 2fbf
000001b0: 180a 6cbd cc2c a0be aa4f e53c 2a98 14bf
000001c0: 49c1 e4be b4c5 c13e 01b7 68bf dd09 fb3c
000001d0: 7048 b13e 17b1 b4be 782d 27be 1bc1 1b3f
000001e0: 661a 5abe 89e7 413f c977 77bd 9233 7ebf
000001f0: 8ae5 b4bd 84f5 d53e 7c0c bdbc be5b 0e3f
00000200: a10a bbbb 4567 ab3e 23d6 b8bc 3b3e cabd
00000210: 0e77 ebbe d67c c73e abdf 7ebe de3b 18bf
00000220: 86a6 20bf cf07 403f 35f9 203d 3621 4d3f
00000230: 7683 e23e ea2e 09be 2c5e 193d 3207 25be
00000240: 98d3 f83e adef 753c 2a91 aabe b681 c3be
00000250: d7f4 c73e 5e62 073f 8ecf 2abf 95ee 94bc
00000260: 3763 f3bd 7208 443e 3c4b a9be 9392 95be
00000270: e3b5 8d3e c33b 253c b4fa 06bf e548 6c3e
00000280: aa6c 8abd de2b 09be a5fb d2be b279 3f3c
00000290: a184 7d3e ceb3 de3e 5344 d23d 4573 8b3e
000002a0: d263 f53c 5e4e 0abf ba64 113f da77 8a3d
000002b0: 1005 a83d edb8 85be fc96 b6bb c8b2 873d
000002c0: 95e5 23bd 560c 4e3e f15a d93e 6b22 ab3e
000002d0: 75c6 97bd 613c 75be 91c6 aebd 6f55 3ebd
000002e0: 16b3 86be 4579 853d 3b3e dc3e 7791 3bbd
000002f0: 223e 5fbd 5bfe 0dbf 742f e63e 1fa7 053f
00000300: f229 3f3f af7a 113e cf14 69be 69c1 eabe
00000310: ac7a 263f 7ea8 513c ac0f 433d 464b 4b3e
00000320: d4ee 153f 076c 463e d219 67bf 93df 133f
00000330: f937 5e3e e396 a5be db7d 713e ec81 803e
00000340: c10d 333f 1de8 6cbf de97 463f aeb5 8fbe
00000350: b6a5 e8be 641b dfbd ab53 6ebf cbf5 473e
00000360: 4b44 2f3e 63ed 2ebc 2144 a9be 8721 583e
00000370: 7443 b93e bd31 00be 7341 34bf 3044 a0bd
00000380: c782 573e dcf1 10bf ec95 0d3f ff9f 90be
00000390: 1912 54bf 1b75 ab3e 8354 af3e 2d9a 773d
000003a0: 85a6 65bc 6922 e1be 4404 173f 62e1 a1be
000003b0: a1e2 c63d 0e03 3bbe 4fb8 cbbe ccca 52bf
000003c0: 9fa2 153f 9d2b 8fbe 8b14 47bf 5f0e b2bd
000003d0: 507d b8be 4f7f 59be 5b68 de3d 3fa5 52bf
000003e0: 172f bfbe 6ed0 6dbe bc39 d7bd 7c1f 74be
000003f0: 7264 47bd 46a2 43bf 2d65 603e 91b2 383e

network_body._body_endoder.seq_layers.0.bias f4 [128]
0.0 0.0 0.0 0.0 0.0 0.0 0.0 0.0
0.0 0.0 0.0 0.0 0.0 0.0 0.0 0.0
0.0 0.0 0.0 0.0 0.0 0.0 0.0 0.0
0.0 0.0 0.0 0.0 0.0 0.0 0.0 0.0
0.0 0.0 0.0 0.0 0.0 0.0 0.0 0.0
0.0 0.0 0.0 0.0 0.0 0.0 0.0 0.0
0.0 0.0 0.0 0.0 0.0 0.0 0.0 0.0
0.0 0.0 0.0 0.0 0.0 0.0 0.0 0.0
0.0 0.0 0.0 0.0 0.0 0.0 0.0 0.0
0.0 0.0 0.0 0.0 0.0 0.0 0.0 0.0
0.0 0.0 0.0 0.0 0.0 0.0 0.0 0.0
0.0 0.0 0.0 0.0 0.0 0.0 0.0 0.0
0.0 0.0 0.0 0.0 0.0 0.0 0.0 0.0
0.0 0.0 0.0 0.0 0.0 0.0 0.0 0.0
0.0 0.0 0.0 0.0 0.0 0.0 0.0 0.0
0.0 0.0 0.0 0.0 0.0 0.0 0.0 0.0
00000000: 0000 0000 0000 0000 0000 0000 0000 0000
00000010: 0000 0000 0000 0000 0000 0000 0000 0000
00000020: 0000 0000 0000 0000 0000 0000 0000 0000
00000030: 0000 0000 0000 0000 0000 0000 0000 0000
00000040: 0000 0000 0000 0000 0000 0000 0000 0000
00000050: 0000 0000 0000 0000 0000 0000 0000 0000
00000060: 0000 0000 0000 0000 0000 0000 0000 0000
00000070: 0000 0000 0000 0000 0000 0000 0000 0000
00000080: 0000 0000 0000 0000 0000 0000 0000 0000
00000090: 0000 0000 0000 0000 0000 0000 0000 0000
000000a0: 0000 0000 0000 0000 0000 0000 0000 0000
000000b0: 0000 0000 0000 0000 0000 0000 0000 0000
000000c0: 0000 0000 0000 0000 0000 0000 0000 0000
000000d0: 0000 0000 0000 0000 0000 0000 0000 0000
000000e0: 0000 0000 0000 0000 0000 0000 0000 0000
000000f0: 0000 0000 0000 0000 0000 0000 0000 0000
00000100: 0000 0000 0000 0000 0000 0000 0000 0000
00000110: 0000 0000 0000 0000 0000 0000 0000 0000
00000120: 0000 0000 0000 0000 0000 0000 0000 0000
00000130: 0000 0000 0000 0000 0000 0000 0000 0000
00000140: 0000 0000 0000 0000 0000 0000 0000 0000
00000150: 0000 0000 0000 0000 0000 0000 0000 0000
00000160: 0000 0000 0000 0000 0000 0000 0000 0000
00000170: 0000 0000 0000 0000 0000 0000 0000 0000
00000180: 0000 0000 0000 0000 0000 0000 0000 0000
00000190: 0000 0000 0000 0000 0000 0000 0000 0000
000001a0: 0000 0000 0000 0000 0000 0000 0000 0000
000001b0: 0000 0000 0000 0000 0000 0000 0000 0000
000001c0: 0000 0000 0000 0000 0000 0000 0000 0000
000001d0: 0000 0000 0000 0000 0000 0000 0000 0000
000001e0: 0000 0000 0000 0000 0000 0000 0000 0000
000001f0: 0000 0000 0000 0000 0000 0000 0000 0000

network_body._body_endoder.seq_layers.2.weight f4 [128, 128]
0.09383106 0.04407843 0.0068708984 -0.06672228 0.014351571 -0.06938392 -0.062075563 0.0982258
-0.12680586 -0.12028808 0.028959354 0.04485217 -0.10207174 0.015627537 0.0012951205 -0.04361232
-0.023839261 0.10758198 -0.2137743 0.08550575 -0.0036184166 0.08171951 0.029901434 -0.046859868
0.09751162 0.005517659 0.11661288 -0.1297531 0.07653956 0.031916723 -0.10201455 0.035344213
-0.12960687 0.0684371 -0.11953369 -0.12351391 0.13315491 -0.05330699 -0.04871484 0.0030442353
-0.07266959 -0.016020123 0.011824055 -0.010297088 -0.05692147 -0.04385329 0.044358883 -0.06911826
0.079230465 0.084469095 0.08862416 -0.045603372 0.034074225 -0.035893634 0.046793364 -0.052988492
0.14784016 0.028902289 -0.079053976 0.0033587525 0.03837703 -0.055487674 0.030585539 -0.07219244
0.002132429 -0.022397669 -0.061048318 0.0732785 -0.0011845153 -0.022511572 -0.05130137 -0.10581639
-0.16668329 -0.035805214 -0.15420736 0.073978074 -0.04604732 -0.12235882 0.027663149 -0.034414433
0.18601142 0.10812975 0.036245126 -0.013772205 -0.12301601 -0.10011837 -0.1137059 0.011045104
0.06731501 0.04912971 -0.07555782 -0.06991558 0.003838445 0.067262135 -0.08498984 -0.22442794
-0.006961367 0.018569957 -0.12290428 -0.06647739 0.05920315 -0.044333957 -0.033015538 0.025391461
-0.029244613 -0.14886782 -0.12811565 -0.026258457 0.021189805 -0.11565152 0.11596665 -0.014550073
0.024879403 -0.07563482 0.050105996 0.19326699 -0.091071025 0.1799629 0.11235854 -0.1009203
0.059695657 0.071308926 -0.009616948 0.023940824 -0.16544217 -0.0012867565 0.042523373 -0.11523419
-0.11222963 -0.14848045 0.020929227 0.08155446 -0.042662024 -0.029000657 0.035386197 0.16083007
-0.008269227 -0.03316035 0.1721521 -0.059030507 0.033068813 -0.00893125 0.008877261 -0.17924003
-0.026896125 0.032870058 -0.19264841 -0.013380456 -0.032298665 -0.028292406 0.11928646 -0.031744897
-0.035419255 -0.18598801 -0.105649106 0.05656412 -0.077968165 -0.07282739 0.0676211 -0.1602728
-0.12139287 -0.056855455 -0.03370595 0.019807408 0.088285126 0.018150335 -0.061524168 -0.061465345
-0.05817287 -0.07780535 -0.0038681482 -0.07417418 -0.09246738 0.089605555 0.11673705 0.11426508
0.0014681736 -0.07559725 0.06841531 0.0017403839 0.10799166 0.13377632 -0.06735378 -0.19013941
0.13292192 0.04788927 0.02750748 0.07258646 -0.18269648 0.0721624 0.06830137 0.028223852
-0.15889041 -0.046014484 -0.05551637 -0.0069266367 -0.044777006 0.07290445 0.1183916 0.020871803
-0.05378257 -0.037169825 0.091563985 0.071310334 0.1376701 0.17043832 0.029234838 0.027895262
-0.022687672 -0.034254868 0.07526581 -0.29555744 -0.16566245 0.044920854 0.2448994 -0.0415524
-0.029021174 -0.03312478 -0.015626471 0.064619295 -0.063962094 -0.12401765 -0.0034031784 0.110744074
0.019580705 -0.27528387 -0.030849688 -0.11163698 0.13040864 -0.13670401 -0.16896161 0.0068835495
0.15205318 -0.014983599 -0.081158616 -0.04342077 0.04018349 0.167392 -0.027129386 0.03740618
-0.022821473 -0.10466207 0.0298481 0.018185088 0.20540635 0.096568406 0.07837204 -0.13264468
0.004333441 0.2396987 -0.015255026 -0.050599713 -0.18531524 0.09679515 -0.037051495 0.012312386
00000000: 802a c03d 958b 343d 4625 e13b b1a5 88bd
00000010: da22 6b3c 2819 8ebd f242 7ebd 9c2a c93d
00000020: 65d9 01be 9959 f6bd 2b3c ed3c e9b6 373d
00000030: fd0a d1bd 5205 803c 08c1 a93a d5a2 32bd
00000040: 8e4a c3bc f153 dc3d a6e7 5abe a31d af3d
00000050: f522 6dbb 8f5c a73d daf3 f43c 22f0 3fbd
00000060: 2cb4 c73d 7acd b43b bcd2 ee3d ffdd 04be
00000070: c6c0 9c3d 1cbb 023d 01ed d0bd 18c5 103d
00000080: aab7 04be c028 8c3d 14ce f4bd dcf4 fcbd
00000090: c359 083e 6e58 5abd 3689 47bd cb81 473b
000000a0: cbd3 94bd a23c 83bc aeb9 413c 1eb5 28bc
000000b0: 7d26 69bd 829f 33bd a9b1 353d e08d 8dbd
000000c0: 9543 a23d 22fe ac3d 9580 b53d 9aca 3abd
000000d0: 6a91 0b3d 3405 13bd 66aa 3f3d 760a 59bd
000000e0: 6963 173e 7ec4 ec3c 0de7 a1bd 841e 5c3b
000000f0: 3c31 1d3d 0b47 63bd 868e fa3c a1d9 93bd
00000100: 39c0 0b3b 517b b7bc cd0d 7abd 0a13 963d
00000110: bd41 9bba 306a b8bc 6321 52bd 43b6 d8bd
00000120: 06af 2abe 7da8 12bd 89e8 1dbe d181 973d
00000130: 1d9c 3cbd 4397 fabd d49d e23c 26f6 0cbd
00000140: c779 3e3e 2173 dd3d c575 143d d1a4 61bc
00000150: d1ef fbbd dc0a cdbd a4de e8bd 86f6 343c
00000160: 74dc 893d 3c3c 493d 0fbe 9abd e62f 8fbd
00000170: 6c8e 7b3b bbc0 893d 270f aebd 70d0 65be
00000180: 2e1c e4bb 0620 983c 3db5 fbbd 4c25 88bd
00000190: 017f 723d 8697 35bd 4d3b 07bd c101 d03c
000001a0: 6692 efbc ce70 18be c030 03be fa1b d7bc
000001b0: 3e96 ad3c b4da ecbd ec7f ed3d 6e63 6ebc
000001c0: e4cf cb3c 6ee6 9abd f23b 4d3d c8e7 453e
000001d0: 7283 babd 3248 383e 3c1c e63d 4daf cebd
000001e0: 6f83 743d 6a0a 923d 6790 1dbc 8c1f c43c
000001f0: ac69 29be 62a8 a8ba fd2c 2e3d e7ff ebbd
00000200: a6d8 e5bd 420b 18be c573 ab3c 0606 a73d
00000210: 60be 2ebd c992 edbc 1ef1 103d a3b0 243e
00000220: a77b 07bc 26d3 07bd a448 303e f9c9 71bd
00000230: 2a73 073d 6154 12bc ee71 113c b38a 37be
00000240: 4355 dcbc c1a2 063d a045 45be b339 5bbc
00000250: 9b4b 04bd 7ac5 e7bc 764c f43d f006 02bd
00000260: c813 11bd a473 3ebe 8f5e d8bd c7af 673d
00000270: c6ad 9fbd 8726 95bd ee7c 8a3d 8e1e 24be
00000280: d39c f8bd 44e1 68bd 400f 0abd 2543 a23c
00000290: d5ce b43d 03b0 943c c400 7cbd 16c3 7bbd
000002a0: ad46 6ebd 6958 9fbd c280 7dbb a2e8 97bd
000002b0: 8a5f bdbd 1e83 b73d d613 ef3d cf03 ea3d
000002c0: bb6f c03a bbd2 9abd 531d 8c3d 981d e43a
000002d0: bb2a dd3d a9fc 083e c7f0 89bd e8b3 42be
000002e0: af1c 083e 8a27 443d 5e57 e13c 36a8 943d
000002f0: c914 3bbe e1c9 933d 97e1 8b3d b535 e73c
00000300: 2bb4 22be af79 3cbd 2265 63bd d7f8 e2bb
00000310: 1868 37bd ee4e 953d 4c77 f23d 58fb aa3c
00000320: 1d4b 5cbd 633f 18bd e685 bb3d 270b 923d
00000330: 64f9 0c3e 6287 2e3e e67d ef3c 9b84 e43c
00000340: 7fdb b9bc d54e 0cbd f624 9a3d 4e53 97be
00000350: 6ba3 29be eefe 373d e9c6 7a3e d932 2abd
00000360: d0bd edbc d9ad 07bd 1603 80bc 1f57 843d
00000370: 8ffe 82bd f7fc fdbd dc07 5fbb cacd e23d
00000380: b767 a03c 02f2 8cbe 7cb8 fcbc eea1 e4bd
00000390: d889 053e 23fc 0bbe 4604 2dbe 668f e13b
000003a0: d4b3 1b3e c57d 75bc 7d36 a6bd fad9 31bd
000003b0: 7197 243d cf68 2b3e 723e debc 3937 193d
000003c0: 19f4 babc 1159 d6bd 0184 f43c e5f8 943c
000003d0: 0b56 523e a8c5 c53d 8581 a03d 02d4 07be
000003e0: 8aff 8d3b 9373 753e 37f0 79bc a541 4fbd
000003f0: 47c3 3dbe 893c c63d 4fc3 17bd e4b9 493c

network_body._body_endoder.seq_layers.2.bias f4 [128]
0.0 0.0 0.0 0.0 0.0 0.0 0.0 0.0
0.0 0.0 0.0 0.0 0.0 0.0 0.0 0.0
0.0 0.0 0.0 0.0 0.0 0.0 0.0 0.0
0.0 0.0 0.0 0.0 0.0 0.0 0.0 0.0
0.0 0.0 0.0 0.0 0.0 0.0 0.0 0.0
0.0 0.0 0.0 0.0 0.0 0.0 0.0 0.0
0.0 0.0 0.0 0.0 0.0 0.0 0.0 0.0
0.0 0.0 0.0 0.0 0.0 0.0 0.0 0.0
0.0 0.0 0.0 0.0 0.0 0.0 0.0 0.0
0.0 0.0 0.0 0.0 0.0 0.0 0.0 0.0
0.0 0.0 0.0 0.0 0.0 0.0 0.0 0.0
0.0 0.0 0.0 0.0 0.0 0.0 0.0 0.0
0.0 0.0 0.0 0.0 0.0 0.0 0.0 0.0
0.0 0.0 0.0 0.0 0.0 0.0 0.0 0.0
0.0 0.0 0.0 0.0 0.0 0.0 0.0 0.0
0.0 0.0 0.0 0.0 0.0 0.0 0.0 0.0
00000000: 0000 0000 0000 0000 0000 0000 0000 0000
00000010: 0000 0000 0000 0000 0000 0000 0000 0000
00000020: 0000 0000 0000 0000 0000 0000 0000 0000
00000030: 0000 0000 0000 0000 0000 0000 0000 0000
00000040: 0000 0000 0000 0000 0000 0000 0000 0000
00000050: 0000 0000 0000 0000 0000 0000 0000 0000
00000060: 0000 0000 0000 0000 0000 0000 0000 0000
00000070: 0000 0000 0000 0000 0000 0000 0000 0000
00000080: 0000 0000 0000 0000 0000 0000 0000 0000
00000090: 0000 0000 0000 0000 0000 0000 0000 0000
000000a0: 0000 0000 0000 0000 0000 0000 0000 0000
000000b0: 0000 0000 0000 0000 0000 0000 0000 0000
000000c0: 0000 0000 0000 0000 0000 0000 0000 0000
000000d0: 0000 0000 0000 0000 0000 0000 0000 0000
000000e0: 0000 0000 0000 0000 0000 0000 0000 0000
000000f0: 0000 0000 0000 0000 0000 0000 0000 0000
00000100: 0000 0000 0000 0000 0000 0000 0000 0000
00000110: 0000 0000 0000 0000 0000 0000 0000 0000
00000120: 0000 0000 0000 0000 0000 0000 0000 0000
00000130: 0000 0000 0000 0000 0000 0000 0000 0000
00000140: 0000 0000 0000 0000 0000 0000 0000 0000
00000150: 0000 0000 0000 0000 0000 0000 0000 0000
00000160: 0000 0000 0000 0000 0000 0000 0000 0000
00000170: 0000 0000 0000 0000 0000 0000 0000 0000
00000180: 0000 0000 0000 0000 0000 0000 0000 0000
00000190: 0000 0000 0000 0000 0000 0000 0000 0000
000001a0: 0000 0000 0000 0000 0000 0000 0000 0000
000001b0: 0000 0000 0000 0000 0000 0000 0000 0000
000001c0: 0000 0000 0000 0000 0000 0000 0000 0000
000001d0: 0000 0000 0000 0000 0000 0000 0000 0000
000001e0: 0000 0000 0000 0000 0000 0000 0000 0000
000001f0: 0000 0000 0000 0000 0000 0000 0000 0000

value_heads.value_heads.extrinsic.weight f4 [1, 128]
0.16620699 0.061080784 0.03507197 0.055558056 -0.19455072 -0.137932 -0.008858278 0.059646368
0.018587083 0.06145379 -0.19312489 0.19357139 -0.18094939 0.0042533576 0.14345038 0.11311588
0.13332322 -0.016257986 -0.20375891 0.025643006 -0.20150034 -0.08276005 -0.051475853 0.16141656
-0.0018451363 -0.008734316 -0.16172402 0.20115808 -0.007207975 -0.18858269 -0.03547947 -0.17211285
-0.20005386 0.20890507 0.012183547 -0.0007596612 0.065267384 0.11186251 -0.1592027 -0.1750753
0.03351079 -0.06966184 -0.1848609 0.1795693 -0.21126828 -0.046280175 0.13337973 0.19070426
-0.016186938 0.07824573 -0.117480926 0.15605679 -0.1760785 -0.14975661 -0.20101586 -0.022520378
0.18971667 0.14507633 -0.10264144 -0.1967199 -0.14604819 0.06902599 -0.20107907 -0.13615917
0.12247759 0.04800436 0.11822507 0.016265273 -0.16738439 -0.098677576 -0.18850996 0.17249435
-0.2006164 -0.021008104 -0.15877199 0.19903275 0.019853294 -0.052450746 0.050763756 -0.114552885
-0.15050724 -0.0096806735 -0.041850403 0.17008457 -0.088897675 -0.20035666 -0.13804708 -0.123722665
-0.08073652 -0.10213597 0.1685699 0.11413854 0.082175314 0.114231884 -0.032859743 0.020936653
-0.04443933 -0.11369337 -0.12994242 -0.08201945 -0.20319323 0.032258913 -0.19793749 -0.1962351
-0.034826636 0.04080248 -0.19432971 -0.07104801 -0.088453025 0.14794338 0.0675132 0.16078117
0.0141426325 0.038864225 -0.15251838 0.17852828 0.047305495 -0.014698237 0.15805268 -0.13732633
-0.12711647 0.20124823 -0.0041719526 -0.13071802 0.13520297 0.13931626 0.17774728 -0.05043851
00000000: 2a32 2a3e d82f 7a3d a0a7 0f3d d890 633d
00000010: 4e38 47be 0c3e 0dbe 5022 11bc c04f 743d
00000020: f043 983c f8b6 7b3d 88c2 45be 9437 463e
00000030: cc4a 39be c05f 8b3b a8e4 123e 4ca9 e73d
00000040: e285 083e 782f 85bc 2da6 50be 4811 d23c
00000050: 1b56 4ebe 1a7e a9bd 58d8 52bd 624a 253e
00000060: 80d8 f1ba 601a 0fbc fb9a 25be 62fc 4d3e
00000070: e030 ecbb d21b 41be ec52 11bd 5a3e 30be
00000080: ebda 4cbe 36eb 553e 809d 473c 0024 47ba
00000090: e8aa 853d 2c18 e53d 0806 23be f046 33be
000000a0: 9c42 093d deaa 8ebd 2d4c 3dbe 04e1 373e
000000b0: b656 58be 4890 3dbd b294 083e fa47 433e
000000c0: 789a 84bc 4c3f a03d d799 f0bd 5acd 1f3e
000000d0: ec4d 34be cc59 19be 1ad7 4dbe a87c b8bc
000000e0: 1645 423e e48e 143e ad35 d2bd f170 49be
000000f0: a88d 15be 805d 8d3d ace7 4dbe 4f6d 0bbe
00000100: 88d5 fa3d 38a0 443d fc1f f23d c03e 853c
00000110: d066 2bbe 7817 cabd c108 41be 5ca2 303e
00000120: 636e 4dbe 3019 acbc 2095 22be 3ecf 4b3e
00000130: 60a3 a23c 98d6 56bd a8ed 4f3d b49a eabd
00000140: 921e 1abe b09b 1ebc 546b 2bbd a62a 2e3e
00000150: fc0f b6bd 4c2a 4dbe 375c 0dbe 4f62 fdbd
00000160: 3059 a5bd aa2c d1bd 969d 2c3e 78c1 e93d
00000170: 884b a83d 68f2 e93d f097 06bd 5883 ab3c
00000180: 0406 36bd 12d8 e8bd a00f 05be d0f9 a7bd
00000190: e311 50be ec21 043d 20b0 4abe dbf1 48be
000001a0: 60a6 0ebd 8020 273d 5efe 46be 9e81 91bd
000001b0: dc26 b5bd 787e 173e 5c44 8a3d d2a3 243e
000001c0: 80b6 673c 1830 1f3d c72d 1cbe 1ed0 363e
000001d0: 68c3 413d e0d0 70bc 90d8 213e 469f 0cbe
000001e0: d22a 02be 0414 4e3e e0b4 88bb f2da 05be
000001f0: a672 0a3e eca8 0e3e 6203 363e 9c98 4ebd
