results/ppo/MoveToBall/MoveToBall-32104.onnx (onnx, 72799 bytes, 6 tensors)

network_body._body_endoder.seq_layers.0.weight f4 [128, 6]
0	0xbcbafb41	-0.022824885
1	0xbe794402	-0.24342349
2	0x3e0ce151	0.13757826
3	0x3f06cc22	0.5265523
4	0xbdea5150	-0.114412904
5	0x3f25063e	0.6446265
6	0x3ec4ce13	0.38438472
7	0x3f371e69	0.7153078
8	0xbd41aebb	-0.047285777
9	0x3f135f0b	0.575669
10	0x3ea2307e	0.31677622
11	0x3f165dc4	0.58736825
12	0x3cdc1191	0.026863845
13	0xbeb3c0a7	-0.3510792
14	0x3df0c9ee	0.11757265
15	0x3f198a59	0.59976727
16	0x3ec1e749	0.3787177
17	0x3ef2cbfb	0.4742125
18	0xbdc11e26	-0.094295785
19	0x3f01cc12	0.5070201
20	0xbedfa9f0	-0.4368434
21	0xbe9c4bd3	-0.305266
22	0xbf4c14b9	-0.7971912
23	0x3ae64016	0.0017566707
24	0xbcfb1e97	-0.030654235
25	0x3e50868b	0.20363824
26	0x3db066fb	0.08613392
27	0xbf609c29	-0.8773828
28	0x3f2179c7	0.6307644
29	0xbeb223ad	-0.34792843
30	0xbd0dc0aa	-0.034607567
31	0x3e7742d4	0.24146587
32	0xbf263982	-0.649315
33	0x3f34f33d	0.7068365
34	0x3e14dcd9	0.14537372
35	0xbeab02ba	-0.33400518
36	0xbdf0030d	-0.11719332
37	0xbf163165	-0.5866912
38	0xbccb42a4	-0.02481205
39	0x3e32b90c	0.17453402
40	0xbedd26f0	-0.4319377
41	0xbeda960c	-0.42692602
42	0xbed954af	-0.4244742
43	0x3e8f338f	0.27969024
44	0xbc5c5434	-0.01344781
45	0x3e6fe230	0.23426127
46	0x3dbcd213	0.09219756
47	0xbea8f905	-0.33002487
48	0xbefd3d87	-0.49461004
49	0x3e1e4a88	0.15458119
50	0xbdd9015b	-0.10595962
51	0x3e5aa796	0.21352991
52	0x3edb96ec	0.42888582
53	0xbe5e83c4	-0.21729952
54	0x3eed6f5b	0.4637402
55	0x3d3a82e9	0.045535002
56	0x3e9d3d01	0.30710605
57	0xbe48dfdd	-0.19616647
58	0x3dbb29f7	0.091388635
59	0x3f1374ec	0.57600284
60	0x3ee4aa6d	0.44661275
61	0x3c93cbbf	0.01804149
62	0xbd8583ff	-0.06519317
63	0x3e442d90	0.19158006
64	0x3e8db629	0.2767804
65	0xbbeae1e4	-0.0071680415
66	0x3bf0eee6	0.0073526977
67	0xbdf1ec58	-0.11812657
68	0xbe9230b3	-0.2855278
69	0xbe6379ee	-0.22214481
70	0xbe76320a	-0.24042526
71	0xbea053c9	-0.31313923
72	0x3f0a4d02	0.54023755
73	0xbdec26c1	-0.11530829
74	0xbdfa9190	-0.12234795
75	0xbe9378e2	-0.28803164
76	0xbd0df6e3	-0.034659278
77	0xbd91fb23	-0.07127979
78	0xbed51128	-0.41614652
79	0xbed65189	-0.4185908
80	0xbeb711af	-0.3575568
81	0x3da50db5	0.08059255
82	0xbed66b19	-0.41878584
83	0x3db83b3c	0.08995673
84	0xbe50adf3	-0.20378856
85	0xbe2cac5b	-0.16862623
86	0x3ed4c87f	0.41559216
87	0x3e49b148	0.19696534
88	0x3e45f1fc	0.19330591
89	0x3e89ade6	0.26890486
90	0xbe76a593	-0.24086599
91	0x3e0af766	0.13570938
92	0xbf4724e3	-0.7779066
93	0xbe927480	-0.28604507
94	0x3e7ecb7e	0.24882314
95	0xbee38be6	-0.44442672
96	0xbe00208b	-0.12512414
97	0x3e79d7e8	0.24398768
98	0x3f2d64e5	0.6773208
99	0x3dcc2402	0.099678054
100	0xbd7a2086	-0.061066173
101	0xbf21b4b5	-0.6316636
102	0x3e9ed990	0.31025362
103	0xbed4f93a	-0.41596395
104	0xbf47b330	-0.78007793
105	0xbefd08d9	-0.49420813
106	0xbd7cd82c	-0.061729595
107	0x3e978624	0.2959453
108	0xbf12e90f	-0.5738687
109	0xbed24550	-0.41068506
110	0xbe65d94a	-0.2244617
111	0xbdde858e	-0.10865317
112	0x3e83e050	0.25757074
113	0xbe98d14b	-0.29847178
114	0x3eba5d1f	0.3639917
115	0xbe556118	-0.2083782
116	0x3dad934c	0.0847536
117	0xbdc32273	-0.09528055
118	0xbe0317fe	-0.12802121
119	0xbd8c1f3c	-0.06841895
120	0xbdf32239	-0.11871762
121	0xbe639b45	-0.222272
122	0x3f4551fa	0.7707821
123	0x3e37ce06	0.17949685
124	0xbf428093	-0.7597744
125	0x3cda0340	0.026612878
126	0xbe4869d5	-0.19571622
127	0xbe5ecce1	-0.21757843
128	0xbe290f6c	-0.16509789
129	0x3e7d9674	0.24764425
130	0x3e986b7b	0.297695
131	0xbf138bdf	-0.576353
132	0xbc88cc42	-0.01669896
133	0x3e94ccc5	0.29062477
134	0xbdea9800	-0.11454773
135	0xbedddae6	-0.4333107
136	0x3e94482b	0.2896131
137	0xbd668a36	-0.056284152
138	0xbd34c593	-0.044133734
139	0x3ec77159	0.38953665
140	0xbeaea1f0	-0.34107924
141	0x3cf6d75b	0.030131986
142	0x3e8f0b22	0.2793818
143	0x3d47a25f	0.048738834
144	0xbd8c973a	-0.06864782
145	0xbecb96c1	-0.39763454
146	0xbdf91b1b	-0.12163373
147	0xbf0b5b06	-0.54435766
148	0xbf02bca8	-0.51069117
149	0x3e4be118	0.19910085
150	0xbcdffc9c	-0.027342133
151	0x3edd876e	0.43267387
152	0x3cab9c85	0.020948658
153	0x3ed6a7ac	0.41924798
154	0x3f0241cd	0.50881654
155	0x3d3b12d8	0.045672268
156	0x3c09cf56	0.008411249
157	0x3c2a6e97	0.010402343
158	0x3c721227	0.014774836
159	0xbf048be8	-0.5177598
160	0xbd47a200	-0.04873848
161	0xbe576dc0	-0.2103796
162	0x3ea6fad0	0.3261323
163	0xbe9ccc13	-0.30624446
164	0x3ea6dca7	0.3259022
165	0xbf161452	-0.58624756
166	0xbe685af6	-0.22690949
167	0x3ef7edba	0.48423558
168	0xbea84958	-0.32868457
169	0xbd42bf34	-0.047545627
170	0x3f36d69b	0.7142121
171	0x3f35474f	0.70811933
172	0x3f09cd08	0.5382848
173	0x3e987055	0.29773203
174	0xbe3bc461	-0.18336631
175	0x3f8f3292	1.1187308
176	0xbd17713b	-0.03697322
177	0xbe83539a	-0.2564972
178	0xbe189d43	-0.1490374
179	0x3d676a8e	0.056498103
180	0x3eeeaa4d	0.46614304
181	0xbea1f565	-0.31632534
182	0x3ea78df3	0.32725486
183	0x3ea2461f	0.31694123
184	0x3f101f4b	0.5629775
185	0xbeeef103	-0.46668252
186	0x3dfc1d1e	0.12310241
187	0xbf18f1af	-0.5974378
188	0xbe839c76	-0.25705308
189	0xbe88a99a	-0.26691896
190	0xbd82b7b0	-0.06382692
191	0xbd1fd40d	-0.039020587
192	0xbd122e0d	-0.03568845
193	0xbe16f03a	-0.14740077
194	0xbd3f78af	-0.046745952
195	0xbf97e629	-1.1867114
196	0xbe0961d2	-0.13416222
197	0xbf1527b1	-0.5826369
198	0xbeedc48e	-0.46439022
199	0xbf369638	-0.71322966
200	0x3e3c06b6	0.18361935
201	0x3f330078	0.6992259
202	0xbd8adbae	-0.06780182
203	0xbd1a3b23	-0.037654053
204	0x3dda81a6	0.1066926
205	0x3dd0cf37	0.10195773
206	0xbe5572b5	-0.20844539
207	0x3e9aac35	0.3020951
208	0xbdb0f124	-0.08639744
209	0x3e5c1e2f	0.21495889
210	0xbece7b2f	-0.40328357
211	0xbde8ae00	-0.11361313
212	0x3df33a86	0.11876397
213	0xbeedce86	-0.46446627
214	0xbe0894f0	-0.13338065
215	0x3e6d4d1d	0.23173948
216	0x3d2c3965	0.042046923
217	0x3d078685	0.033087272
218	0x3e7d1961	0.24716713
219	0xbeb5359c	-0.35392463
220	0xbdde548e	-0.10855971
221	0x3e370946	0.17874631
222	0xbd05b4a4	-0.032642975
223	0x3cc0da06	0.023541462
224	0x3e97a4c2	0.29617888
225	0x3c596b31	0.013270185
226	0xbed35b38	-0.41280532
227	0x3cec9fc2	0.028884772
228	0xbeb06a00	-0.34455872
229	0xbeb78756	-0.3584544
230	0x3e59964e	0.21248743
231	0x3f1ab635	0.60434276
232	0xbf154038	-0.58301115
233	0xbde18a6a	-0.110127285
234	0x3ea1f6ea	0.31633693
235	0xbdbda886	-0.09260659
236	0x3f6de487	0.9292683
237	0xbe9b6ee9	-0.30358055
238	0x3eb2555d	0.34830752
239	0x3cb4e604	0.022082336
240	0xbeb27b42	-0.34859663
241	0x3efc3ed1	0.49266675
242	0x3eb7d4bd	0.35904494
243	0x3f5f708d	0.87281114
244	0xbf05c9f1	-0.52261263
245	0x3f31bf98	0.69432974
246	0x3c8a845d	0.016908819
247	0xbf4ea0f6	-0.80714357
248	0x3e8482a8	0.25880933
249	0xbebd0c39	-0.36923388
250	0x3e224cb2	0.1584957
251	0xbe58c57c	-0.21169084
252	0xbe735a9f	-0.23765038
253	0xbea29a80	-0.317585
254	0xbeb3ef20	-0.35143375
255	0x3e896f84	0.26842892

network_body._body_endoder.seq_layers.0.bias f4 [128]
0	0xba665ffb	-0.0008788106
1	0x3a9f2c14	0.0012143874
2	0xbb7b547f	-0.0038349924
3	0xba14d345	-0.00056772336
4	0x3a77ab58	0.00094478345
5	0xbb16d57e	-0.0023015435
6	0x3a78e326	0.0009494297
7	0xba20b2a2	-0.0006130134
8	0xbb237470	-0.0024941228
9	0xba409eb6	-0.00073478685
10	0xbb623c89	-0.0034520945
11	0xbb008954	-0.0019613104
12	0x37f09524	2.8679679e-05
13	0x3b09f1de	0.0021048705
14	0x3b52b55e	0.003215156
15	0xbb030379	-0.0019991084
16	0xb8a3df83	-7.814078e-05
17	0x39ecc367	0.00045159014
18	0xbbb8f17a	-0.0056440206
19	0x3abe2269	0.0014506105
20	0x38885e5b	6.5025604e-05
21	0x3b679739	0.0035337938
22	0x3ab7a4ca	0.0014010903
23	0xbb4af765	-0.0030970213
24	0xb8cb81f8	-9.704003e-05
25	0x3aba9739	0.0014235742
26	0xbae35bff	-0.0017346143
27	0xb94551ef	-0.00018817907
28	0x3b1e6a42	0.0024172221
29	0xbafe4c04	-0.0019401317
30	0x39245935	0.00015673491
31	0xbb434459	-0.0029795377
32	0x3acf9cc1	0.0015839563
33	0x3aa34b4c	0.0012458353
34	0xbad46d88	-0.0016206959
35	0x3a335c05	0.000684202
36	0xbaaa807e	-0.0013008264
37	0x3bd2ee8c	0.0064371284
38	0xbb5083ea	-0.0031816908
39	0xbb351db6	-0.0027636117
40	0x3b7365cf	0.003713954
41	0x3a970c80	0.0011524111
42	0x3abcd9c4	0.0014408161
43	0x3b5007a2	0.003174283
44	0x390aef4a	0.00013249848
45	0xba3c958f	-0.0007193917
46	0x39b1056a	0.00033764105
47	0x39155ad3	0.00014243582
48	0xbba60a7e	-0.0050671687
49	0xbbb54d7c	-0.0055329185
50	0x3b521551	0.0032056163
51	0x3ae1d3c6	0.0017229251
52	0x3ae1f2b5	0.001723847
53	0x39a9e925	0.00032407898
54	0x39694b2e	0.00022248618
55	0xbacf60c2	-0.0015821683
56	0x39a5a43f	0.00031593625
57	0x3b491e45	0.0030688208
58	0x3b490454	0.0030672746
59	0x3a80dc87	0.0009831347
60	0xbb7afaa6	-0.003829637
61	0x3b6c0380	0.0036012828
62	0x3aff95a6	0.0019499555
63	0x3abcb4f5	0.0014397191
64	0x38560c56	5.1033065e-05
65	0xba466cfe	-0.00075693417
66	0xbb08f209	-0.0020896217
67	0x3aacfb41	0.0013197438
68	0xba2bdbaf	-0.0006555868
69	0x3b3016f0	0.002686914
70	0xba22512c	-0.0006191905
71	0x399434ec	0.0002826819
72	0xbae5938d	-0.0017515287
73	0xba83197d	-0.0010002103
74	0x3ad318a8	0.0016105371
75	0xbb7cfed9	-0.003860405
76	0x3b0a4f4d	0.0021104396
77	0x39c91559	0.00038353613
78	0xbaa6bce0	-0.0012721084
79	0xbb7cd4b1	-0.0038578922
80	0xba69d8cd	-0.00089205505
81	0xbac3f1ea	-0.0014949415
82	0x3b99d85d	0.004694982
83	0xbb46e671	-0.0030349756
84	0xbab75d6c	-0.0013989634
85	0x399827e9	0.00029021435
86	0xbb039558	-0.002007803
87	0x3b8d0683	0.004303755
88	0x3b827985	0.0039817714
89	0x3a777e73	0.00094411446
90	0xbac861bc	-0.0015287916
91	0x3b599f1b	0.0033206407
92	0x3b1ce191	0.002393816
93	0xba95c911	-0.001142772
94	0xbb85c439	-0.0040822295
95	0xbb188cff	-0.00232774
96	0xbafedda1	-0.0019444713
97	0x3ac20eaf	0.0014805401
98	0xba7765a9	-0.0009437451
99	0xba87c17c	-0.0010357345
100	0x3b3423b2	0.0027487096
101	0x3a38002c	0.00070190686
102	0xbb44d919	-0.0030036627
103	0x366c6b77	3.5229293e-06
104	0xba27accb	-0.00063962926
105	0x3aa82a9e	0.0012830084
106	0x3b9fe323	0.0048793717
107	0x3a3e9e28	0.0007271492
108	0x38f40857	0.0001163638
109	0xbad14eed	-0.0015968956
110	0x39813f33	0.00024651884
111	0xba2eece3	-0.0006672872
112	0xba7cdc73	-0.00096458866
113	0x3a873dcb	0.0010318098
114	0x3af0832f	0.0018349643
115	0x3a3376d7	0.00068460166
116	0xb94a1c62	-0.00019274795
117	0xba0cb618	-0.000536771
118	0xb92f2812	-0.00016704228
119	0xbac5f668	-0.0015103342
120	0x3ad5b730	0.0016305204
121	0x3a2e5b5d	0.00066511874
122	0x3ad02827	0.0015881107
123	0xb8f91628	-0.00011877372
124	0x3b7b8f50	0.0038384981
125	0x3b312892	0.0027032238
126	0x3b24f30c	0.0025169281
127	0x3ab1da2d	0.001356905

network_body._body_endoder.seq_layers.2.weight f4 [128, 128]
0	0x3c29f73b	0.010373886
1	0xbd83bf86	-0.064330146
2	0x3df36759	0.118849464
3	0xbd9221e2	-0.07135369
4	0xbc894e03	-0.016760832
5	0xbc64f838	-0.013975196
6	0x3d3adb6c	0.045619413
7	0x3e20ab4b	0.15690343
8	0xbd05216f	-0.032502588
9	0xbd0ceb80	-0.034404278
10	0x3b4244e8	0.0029643122
11	0xbd12719f	-0.03575289
12	0xbcac9d2e	-0.021071043
13	0xb863811c	-5.424126e-05
14	0x3e31804e	0.173341
15	0x3de01c87	0.10942941
16	0xbca4ec1d	-0.020132119
17	0x3d91bd0c	0.07116136
18	0x3ce2ef75	0.027702073
19	0x3c047b0b	0.008085976
20	0x3bf96ea8	0.007612068
21	0x3dd75ca2	0.10515715
22	0x3d568888	0.0523763
23	0xbd55e113	-0.0522166
24	0x3e0c7ebe	0.13720223
25	0x3e0bfe3e	0.13671204
26	0x3d2bc57a	0.041936375
27	0xbe4cccff	-0.20000075
28	0x3d779c90	0.060452044
29	0x3d1aa6cb	0.037756722
30	0xbbfccb67	-0.007714677
31	0xbdc90316	-0.09815042
32	0x3c88a0b2	0.016678188
33	0xbd9c24be	-0.076241955
34	0xbdd1993f	-0.102343075
35	0x3ca236f7	0.0198016
36	0x3c360774	0.011110175
37	0x3e15e0e6	0.14636573
38	0xbe2367ba	-0.15957537
39	0xbc380eb7	-0.011233977
40	0xbd825dfc	-0.06365582
41	0x3e084391	0.13307025
42	0xbe07cd34	-0.13261873
43	0xbbd872aa	-0.006605466
44	0xbd9d6824	-0.07685879
45	0x3d996bde	0.07491277
46	0x3d8e76c7	0.06956249
47	0xbe3c336d	-0.18378992
48	0xbdfdacca	-0.123864725
49	0xbdcba859	-0.09944219
50	0xbe40d749	-0.18832125
51	0xbdc4e869	-0.09614641
52	0xbd9710c9	-0.073762484
53	0x3dd99be8	0.1062544
54	0xbcfbab2f	-0.030721275
55	0xbdd6ba36	-0.10484736
56	0x3dd0552b	0.101724945
57	0xbe4cbbcd	-0.19993515
58	0xbe15d1e7	-0.14630853
59	0xbd72773b	-0.05919574
60	0x3dcbc6fc	0.09950063
61	0xbe10e246	-0.14148816
62	0xbe26724e	-0.16254541
63	0xbdef73c4	-0.116920024
64	0x3d8fdb57	0.07024258
65	0xbc9dbc7b	-0.019254914
66	0x3aa15fd5	0.0012311885
67	0x3da1792d	0.078844406
68	0x3dba2e62	0.09090878
69	0xbdb4aeeb	-0.088224255
70	0xbc3d9d13	-0.011573094
71	0xbd8bccac	-0.068261474
72	0x3ba91ee3	0.0051611527
73	0xbda6e4a6	-0.0814908
74	0x3c165437	0.009175352
75	0x3cfdb008	0.030967727
76	0xbbca2d8d	-0.006169981
77	0xbdb9621a	-0.090519145
78	0x3e0ea744	0.13930994
79	0x3cf1ef5f	0.029533086
80	0xbe308389	-0.17237677
81	0xbd81e4e2	-0.06342484
82	0xbd0fddda	-0.035123684
83	0xbd6347c2	-0.055488355
84	0x3d075468	0.03303948
85	0x3d5f83ee	0.054569177
86	0x3df5e5ac	0.12006697
87	0x3d2839c3	0.04107071
88	0x3bd6e06e	0.006557516
89	0xbc97c73b	-0.018527618
90	0xbc1331fd	-0.008984086
91	0xbe01835b	-0.12647764
92	0x3e13b29d	0.14423604
93	0xbcf5c735	-0.030002216
94	0x3d0bd40d	0.034137774
95	0x3e0a7b99	0.13523711
96	0xbdec52b2	-0.115392104
97	0xbddf0341	-0.108892925
98	0x3e50f9bf	0.2040777
99	0xbdaa6c83	-0.08321478
100	0x3c5cc858	0.0134755
101	0xbe2020dd	-0.15637536
102	0x3d1b2486	0.03787663
103	0xbdffbf3b	-0.12487646
104	0x3d69080e	0.056892447
105	0x3e3b8186	0.18311128
106	0xbdb383fc	-0.087654084
107	0xbcc6c57d	-0.024264092
108	0x3d8ec1da	0.06970568
109	0xbde1ed3f	-0.11031579
110	0xbe185567	-0.14876328
111	0x3e3dd06e	0.18536541
112	0xbcd7eda3	-0.026358431
113	0x3dc09bcf	0.09404718
114	0x3ddc4870	0.10756004
115	0x3e10e5de	0.14150187
116	0x3db02791	0.08601297
117	0x3c83eca7	0.016104056
118	0xbd558ccd	-0.05213623
119	0xbd9318a6	-0.07182436
120	0xbc4ebe08	-0.012618549
121	0x3e2385dd	0.15969034
122	0x3db2ddb5	0.087336935
123	0x3e45269d	0.19253011
124	0x3e2387cf	0.15969776
125	0xbc7cd62f	-0.015431925
126	0x3cd06617	0.025439305
127	0x3c2f161e	0.0106864255
128	0x3e63c13d	0.22241683
129	0x3d3e72f6	0.046496354
130	0x3e006f25	0.12542398
131	0xbd7f1980	-0.062280178
132	0x3dd370e3	0.10324266
133	0x3d859a52	0.06523575
134	0x3bf82787	0.0075730714
135	0x3d8f7687	0.07005029
136	0x3d657518	0.056019872
137	0x3cb9a646	0.022662293
138	0xbe0cd8b8	-0.13754547
139	0xbbf81c96	-0.007571767
140	0x3dc862fd	0.097845055
141	0x3c682ff3	0.014171588
142	0x3c6c8d18	0.014437936
143	0x3dbc9f16	0.09210031
144	0xbc95e7f8	-0.018299088
145	0xbd0d0865	-0.034431834
146	0xbd8befa1	-0.06832815
147	0x3a729f9f	0.0009255353
148	0xbc842e78	-0.01613544
149	0x3cf466e0	0.02983421
150	0xbd54685a	-0.05185733
151	0x3de17acc	0.1100975
152	0xbc335e67	-0.0109478
153	0xbd0ec111	-0.03485209
154	0x3daccd86	0.08437638
155	0xbb27af86	-0.0025586798
156	0x3c402ff2	0.011730181
157	0xbac36b6d	-0.0014909335
158	0x3c75fcf2	0.01501392
159	0x3c0000ec	0.00781272
160	0x3c8eb282	0.017419104
161	0xbe0e2ee2	-0.13885072
162	0xbce10208	-0.027466789
163	0x3cd17130	0.025566667
164	0xbc2f77f8	-0.010709755
165	0xbe0bad53	-0.13640337
166	0xbe02d888	-0.12777913
167	0x3d3dfa71	0.046381418
168	0xbb1c0416	-0.0023806146
169	0xbdbfc02f	-0.09362828
170	0x3d8a7f90	0.06762612
171	0xbe493ca5	-0.1965204
172	0xbca2761d	-0.019831711
173	0x3d0b7ba8	0.034053475
174	0x3d7a6434	0.061130717
175	0xbded7061	-0.115937
176	0xbd4424f3	-0.0478868
177	0xbd35df7c	-0.044402584
178	0x3bfb826c	0.0076754596
179	0x3b81679c	0.003949119
180	0x3d1e5a95	0.038660605
181	0x3e01ec26	0.1268774
182	0x3dce1fdb	0.1006467
183	0xbc111709	-0.00885559
184	0x3dff0d48	0.12453705
185	0x3d2dbcb3	0.042416286
186	0xbd94e7bd	-0.07270763
187	0xbd9e39a2	-0.07725836
188	0x3c772ed5	0.015086849
189	0xbc8b3129	-0.016991215
190	0xbdaf7e93	-0.08569064
191	0x3dd744d8	0.10511178
192	0x3dd63aee	0.10460459
193	0x3d840a9e	0.064473376
194	0x3e50a69a	0.20376053
195	0xbdaab939	-0.0833611
196	0xbd9e092c	-0.07716593
197	0xbccc5881	-0.024944546
198	0x3e23f934	0.16013032
199	0x3dc504a4	0.09620026
200	0xbd488484	-0.0489545
201	0x3dc8eee9	0.098111935
202	0xbccac9a7	-0.024754358
203	0x3c53118d	0.012882602
204	0x3d98c65f	0.07459711
205	0xbd23f905	-0.040032405
206	0x3d4884f9	0.048954938
207	0xbda71752	-0.08158745
208	0xbd2620db	-0.040558677
209	0xbc6c21a2	-0.014412316
210	0xbb1ad44a	-0.002362507
211	0xbd125900	-0.03572941
212	0xbb8111e5	-0.003938901
213	0xbdab2300	-0.08356285
214	0xbd810bc1	-0.0630107
215	0xbd051efe	-0.03250026
216	0x3e12316f	0.1427667
217	0x3ce2ded8	0.02769415
218	0x3c151075	0.009098162
219	0xbdcf1e22	-0.10113169
220	0x3d9b2dbe	0.07577084
221	0xbd0864fb	-0.033299427
222	0x3c8c72d9	0.017144607
223	0x3cfee885	0.031116733
224	0x3e01acbe	0.12663552
225	0x3dc49b5c	0.09599945
226	0xbdb49801	-0.08818055
227	0xbd00805e	-0.03137242
228	0xbdb7d461	-0.08976055
229	0xbd384675	-0.044989068
230	0x3dc2f2a3	0.095189355
231	0x3d929341	0.07156993
232	0x3d76cc52	0.06025345
233	0xbcb356b2	-0.021891925
234	0xbde0b3e6	-0.10971813
235	0x3e17f8b9	0.14840974
236	0x3d9797af	0.07401978
237	0xbe6847bb	-0.22683613
238	0x3d4239e4	0.04741849
239	0xbd9f2945	-0.077715434
240	0xbdcaaff5	-0.098968424
241	0x3e4e0fa0	0.20123148
242	0x3d8faa3f	0.07014894
243	0xbd8e941b	-0.069618426
244	0xbde34b09	-0.11098296
245	0x3dfdb973	0.12388887
246	0x3df006bf	0.11720037
247	0x3cddbbcb	0.027067086
248	0xbb2f98ad	-0.0026793883
249	0x3d39fbe7	0.04540625
250	0xbcf588ad	-0.029972399
251	0xbc902bd5	-0.017599026
252	0x3cf47436	0.02984057
253	0xbd27b629	-0.040945206
254	0x3d89fab4	0.06737271
255	0x3da97dcb	0.08275946

network_body._body_endoder.seq_layers.2.bias f4 [128]
0	0xba828554	-0.0009957948
1	0xb9c457d8	-0.00037449482
2	0x3aef8ed2	0.0018276817
3	0xba8f9c84	-0.001095668
4	0x3b42e970	0.002974119
5	0x37344c04	1.0746535e-05
6	0xbb6bb962	-0.003596865
7	0x38e82bc6	0.000110707755
8	0x3a22c594	0.0006209251
9	0xb98a643d	-0.00026396094
10	0xb90b15f6	-0.00013264254
11	0xb98870fd	-0.00026024124
12	0xb9f7e980	-0.00047285482
13	0xba5d493a	-0.00084413926
14	0x3b37dfba	0.0028056935
15	0x3a8f3f9f	0.0010928995
16	0x3ab3e263	0.0013724085
17	0x3b422cf1	0.0029628838
18	0xbb00b491	-0.0019638876
19	0x39f83554	0.0004734198
20	0x3a30eadf	0.00067488657
21	0xb850d1a8	-4.9786322e-05
22	0xbb4eb7df	-0.0031542701
23	0xba9cf73f	-0.001197554
24	0xba02f0a7	-0.00049949664
25	0xb93592b7	-0.0001731616
26	0xb90ae8d4	-0.00013247441
27	0x3abbb40d	0.0014320627
28	0x3aaafece	0.0013045908
29	0xb881bd9f	-6.186519e-05
30	0xbacd7e33	-0.0015677869
31	0x3aad38be	0.0013215763
32	0x3ad35d38	0.0016125804
33	0xb9db2a50	-0.0004180246
34	0xbac3a9eb	-0.0014927959
35	0x3ac3789d	0.0014913265
36	0xba0fe8ff	-0.0005489736
37	0xbb090afd	-0.002091109
38	0xbb1b7f81	-0.0023727121
39	0x3a78ef51	0.000949611
40	0x3a1d3f51	0.00059985096
41	0x3b1d843b	0.0024035114
42	0x3a2df812	0.00066363916
43	0x39f824d9	0.000473297
44	0x3a5ea27d	0.00084928406
45	0xbaed6e4d	-0.0018114537
46	0x3b10bf42	0.0022086655
47	0xbb2804f6	-0.0025637723
48	0x3a6abae1	0.0008954239
49	0x3b2b2dc1	0.00261198
50	0xba1d1f28	-0.00059937174
51	0x3a08764c	0.0005205616
52	0xbb0ce3d2	-0.0021498096
53	0xba89911e	-0.0010495519
54	0x3afc003d	0.0019226145
55	0xba0363c7	-0.00050121214
56	0x3b325e7a	0.0027216957
57	0x3b37bc2e	0.0028035748
58	0x3a3d2e72	0.0007216699
59	0x39202928	0.00015274121
60	0x39a64ee4	0.00031720765
61	0x39b620a2	0.00034738058
62	0xbb2a540f	-0.0025990044
63	0xbadb1af0	-0.0016716402
64	0xba95ec2b	-0.0011438181
65	0xba99f1e6	-0.0011745065
66	0xb906b255	-0.0001284567
67	0x3aa87ceb	0.0012854611
68	0xbabb1b8e	-0.001427518
69	0xb848469d	-4.774948e-05
70	0xbad36b89	-0.001613007
71	0x39e2b4ab	0.00043240687
72	0xba1123cd	-0.0005536646
73	0x3ae1f409	0.0017238866
74	0xbb324858	-0.0027203765
75	0x38d17624	9.987902e-05
76	0xba277e5d	-0.0006389374
77	0x3b525ef8	0.0032100063
78	0xba59c866	-0.0008307755
79	0x399c70b0	0.00029838597
80	0xb80989ac	-3.2791562e-05
81	0xba4e945d	-0.0007880384
82	0xbb1d7e70	-0.0024031661
83	0xbae78310	-0.0017662961
84	0x3a88cfd2	0.0010437912
85	0x3af95a9f	0.00190242
86	0xbaa585a4	-0.0012628329
87	0xbb30e742	-0.002699331
88	0x3b9245b7	0.004463877
89	0xba868e00	-0.0010265708
90	0xba583074	-0.0008246966
91	0xbb4dbc47	-0.003139274
92	0xbab16656	-0.0013534527
93	0x396580eb	0.00021887168
94	0xbb39752c	-0.00282986
95	0x3a6f6cd9	0.0009133346
96	0xbade0d17	-0.0016941157
97	0xba956a80	-0.0011399537
98	0x382f022e	4.172528e-05
99	0x3ae72862	0.0017635936
100	0xbb5dafd5	-0.0033826728
101	0xbac7f2a7	-0.0015254811
102	0xbae2fadf	-0.0017317197
103	0x3ad191d9	0.00159889
104	0x3a8f1565	0.001091641
105	0xbb19842b	-0.0023424726
106	0xbb22ae73	-0.0024823218
107	0x3821e67f	3.8600057e-05
108	0xb93d9c26	-0.00018082614
109	0xbb28c378	-0.0025751274
110	0xba3c84c3	-0.0007191414
111	0xbb147681	-0.0022653642
112	0xbb6876a2	-0.0035471101
113	0xba5faf6f	-0.00085329165
114	0xbaccfc1f	-0.0015639103
115	0xbb1af53f	-0.0023644713
116	0xbaa8142b	-0.0012823393
117	0x391193dc	0.0001388336
118	0x3b05f881	0.002044231
119	0x3a5f46c2	0.00085173186
120	0xbb8e5fb8	-0.0043449067
121	0xbb0bc097	-0.002132451
122	0xb984975e	-0.0002528978
123	0x3b1a6e73	0.0023564368
124	0xba70b8c0	-0.00091828033
125	0x3b1bd850	0.0023780055
126	0x3a85acca	0.001019859
127	0xbaa57d84	-0.0012625908

action_model._discrete_distribution.branches.0.weight f4 [2, 128]
0	0x3c0cc674	0.008592237
1	0x3c044d2e	0.008075042
2	0x3ba7b2c5	0.0051177465
3	0x3a19d349	0.0005867971
4	0x3c1b363c	0.00947338
5	0xbc41b851	-0.01182373
6	0xbb8f1cab	-0.004367431
7	0xba8213b4	-0.0009924085
8	0x3b8a96bd	0.004229395
9	0xbb00a273	-0.0019628077
10	0x3b49156b	0.0030682932
11	0x3b90734c	0.0044082757
12	0x3ba472d9	0.0050185737
13	0x3ba8a9cd	0.005147195
14	0xbbc38362	-0.00596659
15	0x3a718e2c	0.00092146057
16	0x3ca62ea5	0.020285914
17	0xbbaf42a2	-0.0053485194
18	0xbbeefe02	-0.0072934637
19	0x3c2d2883	0.010568741
20	0xbbb619ec	-0.0055572893
21	0x3b05c33c	0.0020410558
22	0x39b8a88b	0.0003522079
23	0xba8f2b25	-0.0010922892
24	0x3c81a001	0.015823366
25	0xbc28b1ec	-0.010296326
26	0x3a8ff7dd	0.0010983903
27	0xba00c6cc	-0.00049124355
28	0xbb14fa19	-0.0022732078
29	0x3c44c1b8	0.012009077
30	0x3b8b59a9	0.0042526317
31	0xbc6a4132	-0.01429777
32	0x3a9d34c0	0.001199387
33	0x3acd87ab	0.0015680691
34	0xba937d4f	-0.0011252555
35	0x3b65d886	0.0035071685
36	0xbb949d17	-0.004535328
37	0xbc526bbb	-0.012843068
38	0xbb8a88ea	-0.004227747
39	0x3b89b8f9	0.0042029587
40	0xbaba5651	-0.0014216398
41	0xbbf05566	-0.007334399
42	0x3c319e1a	0.010840917
43	0xbc252ab4	-0.010080982
44	0xbba4ded6	-0.005031447
45	0xb94e9ab7	-0.00019703327
46	0xbcd0326a	-0.025414664
47	0xbc48e2a2	-0.012261065
48	0xb980e2cc	-0.0002458304
49	0x3b1e57cd	0.002416122
50	0x3c70fc44	0.014708582
51	0xbc17dced	-0.009268981
52	0x3a0fb8f6	0.00054825784
53	0x3b798193	0.0038071617
54	0xbcc849c9	-0.024449246
55	0xbb01cfaa	-0.0019807615
56	0x3c0e3c01	0.008681298
57	0xbab59ceb	-0.0013855969
58	0xbc04d486	-0.00810731
59	0x3bb616a5	0.0055568987
60	0xbc8f4843	-0.017490512
61	0xb9f3fc7e	-0.00046536693
62	0xbbee11e8	-0.007265318
63	0xba9b7bd4	-0.0011862465
64	0xbbc6ec37	-0.0060706395
65	0xbae070d3	-0.0017123468
66	0x3b968917	0.004593979
67	0x3be81363	0.007082389
68	0x3c182b9e	0.009287743
69	0xbade125a	-0.0016942725
70	0xb8d3bc90	-0.000100963865
71	0xbb9051f1	-0.0044042994
72	0x3ba774c6	0.005110356
73	0x3c41f5de	0.011838404
74	0xba7c0e20	-0.0009615142
75	0x3c269ab5	0.010168721
76	0x3a7466f1	0.0009323201
77	0x3c8d8fc1	0.017280461
78	0xbc561d04	-0.013068441
79	0xbc449776	-0.011999002
80	0xbc184f75	-0.009296288
81	0x3b8dfd9d	0.0043332116
82	0x3bce0be7	0.00628804
83	0x3b89cbed	0.004205218
84	0xbc16e64b	-0.00921018
85	0xbb216631	-0.0024627561
86	0xbb619c00	-0.0034425259
87	0xbb2d32f3	-0.0026428073
88	0xbb1e2e93	-0.0024136647
89	0xbbb2722d	-0.0054457397
90	0x3c11bc2c	0.008894961
91	0x3be3532a	0.006937404
92	0x3b35b157	0.002772411
93	0xbc8b3592	-0.016993318
94	0xbaf8b508	-0.001897485
95	0xbc5b8795	-0.0133990245
96	0xb979238b	-0.00023759731
97	0x3ca879ed	0.020565951
98	0xbbdd3f03	-0.0067518963
99	0x3c7e6cea	0.015528897
100	0xbbbc34da	-0.005743605
101	0xbbbc3a7e	-0.0057442775
102	0x3bc2467c	0.0059288125
103	0xb94d0364	-0.00019551587
104	0x3bae44b5	0.005318249
105	0xbb0d62c3	-0.002157376
106	0xbbba5694	-0.0056865904
107	0x3bbb0410	0.0057072714
108	0x3b1f2bc6	0.0024287566
109	0x3bd1f529	0.006407399
110	0x3a0fedef	0.0005490472
111	0x3c60e74b	0.01372702
112	0xbcbe54f1	-0.023233863
113	0x3b08503e	0.0020799781
114	0xb9f6cfb5	-0.0004707553
115	0x3c5a893b	0.013338382
116	0xbaf66c64	-0.0018800613
117	0xbbfe5fa8	-0.007762868
118	0x3b74ab7c	0.0037333658
119	0xbc62a41f	-0.013833075
120	0xbc066363	-0.008202407
121	0x3b792113	0.0038014099
122	0x3add910c	0.0016904189
123	0xbbc22b05	-0.0059255385
124	0xba466d33	-0.00075693725
125	0x3c3555b2	0.011067795
126	0x3cbc9c33	0.0230237
127	0xbae466b8	-0.0017425632
128	0xbc035a5d	-0.00801715
129	0x3b5c69dd	0.0033632435
130	0xbc31125b	-0.010807599
131	0xbaebe038	-0.00179959
132	0xb93cd271	-0.00018007473
133	0x3b06aeae	0.0020550895
134	0xbb4dd164	-0.0031405324
135	0x3abd9af7	0.0014465739
136	0x3bf954f9	0.0076090065
137	0xbb0a5262	-0.0021106233
138	0x3b7dc1aa	0.003872017
139	0xbc070b99	-0.008242511
140	0xbc50d30a	-0.012745628
141	0xbbe8063b	-0.007080821
142	0x3bcafe22	0.006194846
143	0xbc12a3a4	-0.008950148
144	0xbc45c574	-0.012071002
145	0x3be4943c	0.0069756787
146	0xbc37c375	-0.011216034
147	0xbc59515f	-0.013264029
148	0x3c1bcfc2	0.009509983
149	0x3bcd8017	0.006271373
150	0x3c50f393	0.012753385
151	0x3ad72e15	0.0016416932
152	0xbbd2077e	-0.0064095845
153	0xbc890642	-0.016726617
154	0xbc6fccf1	-0.014636264
155	0x3c736440	0.014855444
156	0xbbeeb674	-0.0072849337
157	0x3ab37823	0.001369242
158	0xbaab4e24	-0.0013069552
159	0x3c730216	0.01483204
160	0xbc8883cf	-0.016664414
161	0x3c8710fd	0.016487593
162	0xba81bb5a	-0.0009897754
163	0xbc69fea0	-0.014281899
164	0xbbac7b9f	-0.00526376
165	0x3c1a6bfc	0.00942516
166	0xbc092eed	-0.008373004
167	0x3c8451f0	0.016152352
168	0xbc7d4604	-0.015458588
169	0x3c77f73b	0.015134628
170	0x3b65f305	0.0035087478
171	0x3c948980	0.018131971
172	0xbcab8b8c	-0.020940565
173	0xbb741590	-0.0037244298
174	0x38a2b446	7.7583405e-05
175	0x3ba4923d	0.005022316
176	0x3c0a61dd	0.008446184
177	0xbba136ac	-0.0049198475
178	0xbbf6f037	-0.00753596
179	0x3bb20761	0.0054330085
180	0xba89f107	-0.0010524102
181	0xba30134c	-0.00067167426
182	0x3c77fdb5	0.015136172
183	0xbcb09b77	-0.021558506
184	0xbb30b89d	-0.0026965507
185	0xbc5094cf	-0.012730791
186	0xbc68193a	-0.014166171
187	0xbbd6b462	-0.006552265
188	0xbc4ee4e7	-0.012627817
189	0x3a9b31b7	0.0011840378
190	0x3bc33169	0.005956818
191	0xbaf72fbe	-0.0018858833
192	0xbb930d22	-0.0044876495
193	0x3a436b07	0.0007454608
194	0xbc30bf32	-0.010787772
195	0x3ace3d09	0.0015734743
196	0xbbf26f07	-0.0073984894
197	0x3b3bbf37	0.0028647908
198	0xbae50125	-0.0017471655
199	0x3bb189a0	0.0054180175
200	0xbc4fa977	-0.012674681
201	0xbc7e6a4e	-0.015528275
202	0xbba99873	-0.005175644
203	0xbc350440	-0.011048377
204	0xbca5e8cc	-0.020252608
205	0xbb03acba	-0.0020091967
206	0xbc08088d	-0.00830282
207	0x3cc6d8a5	0.024273226
208	0x3c5d96a9	0.01352469
209	0xbc81ac12	-0.01582912
210	0x3bb1236b	0.0054058335
211	0x3b25dd1d	0.0025308796
212	0xbbdb86a5	-0.0066994005
213	0x3ab002d4	0.0013428577
214	0xbc421baf	-0.011847421
215	0x37e40ea3	2.7186534e-05
216	0x3b11948e	0.002221379
217	0xbb76bff6	-0.0037651039
218	0xba40a194	-0.0007348296
219	0x3b60091b	0.0034185115
220	0xbc7dacd8	-0.015483104
221	0xbc37df30	-0.011222646
222	0xbac5eae1	-0.0015099907
223	0x3b718fe9	0.0036859459
224	0xbb12a2a6	-0.0022374778
225	0xbbb37477	-0.00547653
226	0xbcbc5d46	-0.022993695
227	0x3c5dede0	0.013545483
228	0xb9e48f6e	-0.00043594412
229	0x3c18e29e	0.0093313735
230	0x3b223f18	0.0024756845
231	0x3c160c58	0.009158216
232	0x3c849c0f	0.016187696
233	0xbaeb414d	-0.0017948538
234	0xbc99a349	-0.018754618
235	0xb96ee4d3	-0.00022782692
236	0xbaff9f95	-0.0019502515
237	0x3b04f8d3	0.0020289912
238	0xbc280114	-0.010254163
239	0x3c3ffeb8	0.0117184445
240	0xbc8e5ccd	-0.017378235
241	0xbb6a830d	-0.0035783679
242	0xbb3bc49f	-0.002865113
243	0xbc4061f9	-0.0117421085
244	0x3b5de255	0.0033856828
245	0x3ca5a395	0.020219604
246	0xbbf582c0	-0.0074923933
247	0x3bacee34	0.0052774195
248	0xbb0d02f4	-0.0021516653
249	0x3bccc1c7	0.006248686
250	0x3b9a0339	0.004700091
251	0x3c7de1af	0.015495702
252	0xbb78c05b	-0.003795645
253	0xbc5b667b	-0.0133911325
254	0x3c4aef7d	0.0123862
255	0xbb9e0e32	-0.0048234696

action_model._discrete_distribution.branches.0.bias f4 [2]
0	0xb935a214	-0.00017321884
1	0x3935a1f1	0.00017321833
