results/ppo/MoveToBall/MoveToBall-12561.pt (torch, 149101 bytes, 11 tensors)

network_body._body_endoder.seq_layers.0.weight f4 [128, 6]
000000 0e c8 b3 bc 4c 0b 78 be eb c4 0d 3e 6c 08 07 3f
       -0.02194598 -0.2422306 0.1384465 0.52747226
000010 21 0c ef bd 22 3f 25 3f e6 2e c4 3e 6c 14 37 3f
       -0.11672235 0.6454946 0.3831703 0.71515536
000020 7f a7 46 bd e1 a5 12 3f 02 83 a2 3e 38 0e 16 3f
       -0.04849958 0.5728436 0.31740576 0.58615446
000030 55 7c fb 3c 8c ff b1 be 0d 9f f8 3d 36 be 19 3f
       0.030698935 -0.3476528 0.121397115 0.60055864
000040 c6 fa c3 3e 41 c1 f4 3e 84 f4 bf bd 6f 2f 02 3f
       0.38277262 0.4780369 -0.093728095 0.5085363
000050 71 5f df be c6 b0 9c be b3 7c 4b bf 23 60 18 3b
       -0.43627504 -0.30603617 -0.7948715 0.0023250661
000060 02 6e 01 bd cb 92 4d 3e 6f 79 ae 3d 03 79 60 bf
       -0.031599052 0.20075528 0.08519255 -0.8768465
000070 0d 49 21 3f 0d 9f b2 be 44 53 04 bd 15 7b 78 3e
       0.6300209 -0.3488697 -0.03230597 0.24265702
000080 12 a3 25 bf e2 bd 34 3f 0c b5 18 3e d9 d5 a9 be
       -0.6470195 0.7060224 0.14912814 -0.33170965
000090 f5 f4 f1 bd 96 14 16 bf 8d d0 d2 bc 56 cc 33 3e
       -0.118143 -0.5862516 -0.02573421 0.17558417
0000a0 b0 03 df be ed 0e db be 56 04 d9 be 22 b5 8e 3e
       -0.435575 -0.42784825 -0.4238612 0.27872568
0000b0 fd 4d 52 bc 7e ac 71 3e 8c ec c2 3d d8 a8 a8 be
       -0.012835977 0.23600957 0.09517774 -0.32941318
0000c0 9d f6 fb be c0 d2 1e 3e 52 e8 d3 bd 7e 60 5d 3e
       -0.49211589 0.15510082 -0.10347046 0.2161884
0000d0 c1 4a dd 3e 3f f7 5b be a9 cf ed 3e fb 07 44 3d
       0.43221095 -0.21481036 0.46447495 0.047859173
0000e0 f8 9c 9d 3e ff 48 46 be 95 ad b4 3d ea a4 13 3f
       0.3078382 -0.19363783 0.08822171 0.57673514
0000f0 eb 6e e6 3e a2 4c b0 3c 5b f7 7c bd 9b 07 44 3e
       0.450065 0.021520916 -0.061759334 0.19143526
000100 18 4d 8f 3e d6 b9 74 bb 9f 9b 18 3c 41 f5 eb bd
       0.27988505 -0.0037342212 0.009314447 -0.11521388
000110 d6 35 91 be 95 d0 64 be cf 29 74 be ec 58 9f be
       -0.28361386 -0.22345193 -0.23844074 -0.3112253
000120 20 4b 0a 3f 8d 11 f1 bd e2 9f fa bd 74 12 93 be
       0.5402088 -0.11770926 -0.122375265 -0.28725016
000130 d3 9e 08 bd 75 09 92 bd 1d 25 d6 be dc e1 d6 be
       -0.03335459 -0.0713071 -0.4182519 -0.41969192
000140 1a 1e b8 be b4 ed a5 3d 31 9a d6 be 8e 09 b4 3d
       -0.35960466 0.08101979 -0.41914514 0.08790885
000150 dd f8 53 be 8d cb 2e be a6 27 d3 3e 04 4c 4b 3e
       -0.20700403 -0.17069836 0.41241187 0.19853216
000160 f3 ac 41 3e 0d 0d 88 3e 82 99 74 be 72 8e 0a 3e
       0.18913631 0.26572457 -0.23886684 0.13530901
000170 4e a2 46 bf a6 56 91 be b4 cc 80 3e ba 86 e2 be
       -0.7759141 -0.2838642 0.25156176 -0.44243413
000180 0e 0c 00 be 12 58 7c 3e f0 69 2d 3f cd c9 ca 3d
       -0.12504598 0.24642971 0.6773977 0.09901772
000190 d3 81 82 bd aa af 21 bf 5f 9e 9e 3e 98 80 d4 be
       -0.06372418 -0.6315867 0.30980203 -0.4150436
0001a0 6d d0 47 bf fb 7f fd be 7e f0 76 bd a3 4b 97 3e
       -0.7805241 -0.49511704 -0.060287945 0.29549894
0001b0 27 77 11 bf a8 2f d0 be de 1a 60 be a1 52 de bd
       -0.5682244 -0.4066136 -0.21885249 -0.10855604
0001c0 d3 12 86 3e 14 f2 95 be f8 9e b9 3e 25 f6 53 be
       0.26186237 -0.29286253 0.36254096 -0.20699365
0001d0 90 a3 aa 3d f0 fc c7 bd 55 47 05 be f7 0e 8f bd
       0.08331978 -0.09765041 -0.13015492 -0.06985276
0001e0 80 44 f3 bd 97 f0 62 be cd 4f 45 3f 68 44 38 3e
       -0.118783 -0.2216209 0.7707489 0.17994845
0001f0 50 9a 42 bf ee bd d9 3c 3d 08 4c be 70 56 61 be
       -0.7601671 0.026579823 -0.19925018 -0.2200563
000200 c7 a8 2c be 21 90 7e 3e ae 42 96 3e 35 72 14 bf
       -0.16861258 0.24859668 0.29347748 -0.57986766
000210 cc 46 94 bc e3 61 93 3e 1f 70 ed bd a2 6d de be
       -0.018100165 0.2878562 -0.11593651 -0.43443018
000220 fe 2b 95 3e 74 3a 6c bd 0f 16 28 bd c6 0b c8 3e
       0.29135126 -0.057672933 -0.04103666 0.39071482
000230 c0 0c ad be 3f 33 07 3d a9 f1 90 3e d8 4b 54 3d
       -0.3379879 0.033007856 0.28309372 0.051830143
000240 6a 64 8c bd 09 10 cb be 8f e0 f8 bd da c1 0b bf
       -0.0685509 -0.3966067 -0.12152206 -0.5459267
000250 a4 0e 02 bf 60 fe 4b 3e 1b a6 eb bc 6b fb db 3e
       -0.5080359 0.19921255 -0.028765729 0.42965254
000260 99 f7 9f 3c 37 ca d7 3e 58 cd 02 3f 64 40 35 3d
       0.019527243 0.42146465 0.5109458 0.04425086
000270 87 3c 26 3c e1 34 63 3c 24 eb 86 3c d3 ac 04 bf
       0.010146267 0.013867588 0.016469546 -0.5182621
000280 df a3 3f bd 7c b1 55 be 7d 13 a7 3e e4 32 9d be
       -0.04678714 -0.20868486 0.32632056 -0.3070289
000290 93 f4 a6 3e 5d 12 16 bf 1d 97 69 be a6 05 f8 3e
       0.3260847 -0.5862177 -0.22811551 0.4844181
0002a0 2f 86 a9 be 43 8a 48 bd d9 38 36 3f b9 40 35 3f
       -0.33110186 -0.04895998 0.7118049 0.70801884
0002b0 b1 d8 08 3f cf 34 97 3e c3 c7 39 be 2e 49 8f 3f
       0.53455645 0.29532477 -0.1814261 1.1194208
0002c0 e2 88 0f bd ba d3 82 be 0f d4 14 be e7 52 6f 3d
       -0.03504265 -0.2555216 -0.14534019 0.05842867
0002d0 c4 95 ee 3e 4f 89 a1 be 2e 79 a7 3e 54 66 a2 3e
       0.46598637 -0.3155007 0.3270964 0.31718695
0002e0 5f 87 0f 3f c8 05 ef be bc 1b 01 3e 0f a5 18 bf
       0.56065935 -0.46684098 0.12608236 -0.5962686
0002f0 b0 1b 82 be 7d 60 89 be 2e 35 81 bd de cd 13 bd
       -0.2541175 -0.26831427 -0.06308971 -0.036085002
000300 15 ab 18 bd 8f 08 1a be 1e e6 45 bd 2e a6 97 bf
       -0.03727253 -0.15042327 -0.04831516 -1.1847589
000310 b5 b9 0b be 89 8e 15 bf e1 67 ee be dd 90 36 bf
       -0.1364506 -0.58420616 -0.46563628 -0.71314794
000320 13 c6 3a 3e d5 7b 33 3f da 7a 92 bd b1 3d 1f bd
       0.18239622 0.7011083 -0.07152338 -0.038877193
000330 66 d3 dd 3d 3b 55 d1 3d df cb 53 be 64 ac 99 3e
       0.10831337 0.102213345 -0.2068324 0.30014336
000340 57 bc a8 bd 05 c5 5d 3e da d4 ce be c3 be ed bd
       -0.08239048 0.21657188 -0.40396768 -0.116086505
000350 4d d1 f1 3d 94 f6 ec be 28 66 0b be 7e 98 6c 3e
       0.11807499 -0.46281874 -0.13613188 0.23105046
000360 78 8d 31 3d ee dc 14 3d 75 6c 7e 3e d9 38 b5 be
       0.043347806 0.036343507 0.2484606 -0.35394934
000370 a6 55 e0 bd 5a 5c 38 3e f2 12 20 bd e8 98 90 3c
       -0.10953836 0.1800398 -0.039080568 0.017651036
000380 be 5f 94 3e 77 ff 2e 3c 6d 9e d6 be 75 4f b8 3c
       0.28979295 0.010681025 -0.41917744 0.022498826
000390 a5 c8 ae be 44 d3 b6 be e5 95 5c 3e 61 3f 1a 3f
       -0.34137455 -0.35708058 0.21541555 0.6025296
0003a0 9e 1c 14 bf 3a 8b db bd 27 61 a3 3e 2f 6b bd bd
       -0.57856166 -0.10719915 0.3191006 -0.09248959
0003b0 47 99 6e 3f 87 97 9a be 7d 45 b4 3e c5 7d cb 3c
       0.9320263 -0.3019373 0.35209265 0.024840245
0003c0 1e 62 b4 be 15 8b fa 3e 46 f4 b5 3e 2b b0 5e 3f
       -0.35231107 0.48934236 0.35537928 0.8698756
0003d0 45 ff 05 bf 5e cf 30 3f 2d 13 81 3c c1 5a 4f bf
       -0.52342635 0.6906642 0.015756214 -0.80997854
0003e0 70 ee 83 3e 1e c5 bc be 58 59 20 3e f0 ed 59 be
       0.2576785 -0.36869138 0.15659082 -0.21282172
0003f0 59 d4 74 be cf 65 a2 be e7 aa b4 be d4 fb 89 3e
       -0.23909129 -0.317183 -0.35286638 0.26949942

network_body._body_endoder.seq_layers.0.bias f4 [128]
000000 00 00 00 00 00 00 00 00 00 00 00 00 00 00 00 00
       0.0 0.0 0.0 0.0
000010 00 00 00 00 00 00 00 00 00 00 00 00 00 00 00 00
       0.0 0.0 0.0 0.0
000020 00 00 00 00 00 00 00 00 00 00 00 00 00 00 00 00
       0.0 0.0 0.0 0.0
000030 00 00 00 00 00 00 00 00 00 00 00 00 00 00 00 00
       0.0 0.0 0.0 0.0
000040 00 00 00 00 00 00 00 00 00 00 00 00 00 00 00 00
       0.0 0.0 0.0 0.0
000050 00 00 00 00 00 00 00 00 00 00 00 00 00 00 00 00
       0.0 0.0 0.0 0.0
000060 00 00 00 00 00 00 00 00 00 00 00 00 00 00 00 00
       0.0 0.0 0.0 0.0
000070 00 00 00 00 00 00 00 00 00 00 00 00 00 00 00 00
       0.0 0.0 0.0 0.0
000080 00 00 00 00 00 00 00 00 00 00 00 00 00 00 00 00
       0.0 0.0 0.0 0.0
000090 00 00 00 00 00 00 00 00 00 00 00 00 00 00 00 00
       0.0 0.0 0.0 0.0
0000a0 00 00 00 00 00 00 00 00 00 00 00 00 00 00 00 00
       0.0 0.0 0.0 0.0
0000b0 00 00 00 00 00 00 00 00 00 00 00 00 00 00 00 00
       0.0 0.0 0.0 0.0
0000c0 00 00 00 00 00 00 00 00 00 00 00 00 00 00 00 00
       0.0 0.0 0.0 0.0
0000d0 00 00 00 00 00 00 00 00 00 00 00 00 00 00 00 00
       0.0 0.0 0.0 0.0
0000e0 00 00 00 00 00 00 00 00 00 00 00 00 00 00 00 00
       0.0 0.0 0.0 0.0
0000f0 00 00 00 00 00 00 00 00 00 00 00 00 00 00 00 00
       0.0 0.0 0.0 0.0
000100 00 00 00 00 00 00 00 00 00 00 00 00 00 00 00 00
       0.0 0.0 0.0 0.0
000110 00 00 00 00 00 00 00 00 00 00 00 00 00 00 00 00
       0.0 0.0 0.0 0.0
000120 00 00 00 00 00 00 00 00 00 00 00 00 00 00 00 00
       0.0 0.0 0.0 0.0
000130 00 00 00 00 00 00 00 00 00 00 00 00 00 00 00 00
       0.0 0.0 0.0 0.0
000140 00 00 00 00 00 00 00 00 00 00 00 00 00 00 00 00
       0.0 0.0 0.0 0.0
000150 00 00 00 00 00 00 00 00 00 00 00 00 00 00 00 00
       0.0 0.0 0.0 0.0
000160 00 00 00 00 00 00 00 00 00 00 00 00 00 00 00 00
       0.0 0.0 0.0 0.0
000170 00 00 00 00 00 00 00 00 00 00 00 00 00 00 00 00
       0.0 0.0 0.0 0.0
000180 00 00 00 00 00 00 00 00 00 00 00 00 00 00 00 00
       0.0 0.0 0.0 0.0
000190 00 00 00 00 00 00 00 00 00 00 00 00 00 00 00 00
       0.0 0.0 0.0 0.0
0001a0 00 00 00 00 00 00 00 00 00 00 00 00 00 00 00 00
       0.0 0.0 0.0 0.0
0001b0 00 00 00 00 00 00 00 00 00 00 00 00 00 00 00 00
       0.0 0.0 0.0 0.0
0001c0 00 00 00 00 00 00 00 00 00 00 00 00 00 00 00 00
       0.0 0.0 0.0 0.0
0001d0 00 00 00 00 00 00 00 00 00 00 00 00 00 00 00 00
       0.0 0.0 0.0 0.0
0001e0 00 00 00 00 00 00 00 00 00 00 00 00 00 00 00 00
       0.0 0.0 0.0 0.0
0001f0 00 00 00 00 00 00 00 00 00 00 00 00 00 00 00 00
       0.0 0.0 0.0 0.0

network_body._body_endoder.seq_layers.2.weight f4 [128, 128]
000000 b3 bc cc 3b 39 d7 7d bd d3 92 fa 3d eb 96 93 bd
       0.0062480806 -0.06197283 0.12235036 -0.0720652
000010 ff 80 91 bc 62 2a 32 bc 98 15 2a 3d 57 c1 21 3e
       -0.017761705 -0.010874363 0.0415245 0.1579641
000020 4d e0 f1 bc e4 f8 0f bd 7c eb d4 3b 70 58 12 bd
       -0.0295259 -0.03514947 0.0064977985 -0.03572887
000030 9f b3 b1 bc ab 10 4d bb ea 57 33 3e a1 db dc 3d
       -0.021692095 -0.0031290452 0.17514005 0.107840784
000040 e6 80 c8 bc 3b e7 90 3d c7 e9 e1 3c 6e 62 1e 3c
       -0.024475526 0.07075354 0.027577294 0.009667022
000050 87 71 b5 3b 68 54 dd 3d 2a 60 51 3d 41 87 58 bd
       0.005537215 0.10807115 0.0511171 -0.052863363
000060 d9 92 0d 3e 14 b8 0e 3e f3 17 26 3d 19 d2 4c be
       0.13825549 0.13937408 0.040550184 -0.20002021
000070 f7 35 84 3d 31 fb 11 3d 1d 0c 56 bb 44 29 c3 bd
       0.064556055 0.035639945 -0.0032661029 -0.09529355
000080 95 98 7d 3c 19 fe a4 bd 64 af d1 bd c8 ea 94 3c
       0.015478273 -0.08056278 -0.10238531 0.018178359
000090 f4 63 21 3c 31 f9 14 3e e4 26 27 be 03 46 3f bc
       0.009850491 0.14548184 -0.1632343 -0.011674407
0000a0 b1 a6 8f bd 2a e3 0a 3e 27 4c 0b be 0c b5 19 bc
       -0.07014216 0.13563219 -0.13603269 -0.009381544
0000b0 f6 8b a2 bd 1b 84 96 3d a9 36 8e 3d 35 62 3e be
       -0.07936852 0.07349416 0.06944019 -0.1859215
0000c0 a1 db 02 be 6b af c7 bd 36 e3 3f be c8 fb bd bd
       -0.12779094 -0.09750255 -0.18739018 -0.09276539
0000d0 91 ce 95 bd 23 ee d8 3d 6a 2b 04 bd ab 45 d1 bd
       -0.0731479 0.10592296 -0.032267965 -0.10218366
0000e0 fd 36 cc 3d 96 f2 48 be 69 cf 16 be 3d 8b 6c bd
       0.09971426 -0.19623789 -0.14727558 -0.057749975
0000f0 08 70 c5 3d 4e b3 0d be 06 b2 22 be f0 9f f0 bd
       0.09640509 -0.1383793 -0.15888223 -0.11749256
000100 b1 cd 94 3d a7 b5 c1 bc c9 ac 91 3a c1 59 98 3d
       0.07265795 -0.023646189 0.0011114116 0.07438994
000110 58 05 af 3d 5e b3 b5 bd ad 19 32 bc 65 74 97 bd
       0.08545941 -0.08872102 -0.010870379 -0.07395247
000120 51 92 7a 3b 41 d1 a1 bd ef e0 0f 3c 65 2b 03 3d
       0.0038234184 -0.0790124 0.008781656 0.032023806
000130 00 3e 10 bc b7 21 b1 bd 5f 43 0e 3e 4e 4c c6 3c
       -0.008803844 -0.08649009 0.13892888 0.024206307
000140 70 aa 32 be b1 74 7e bd 57 49 1b bd d3 26 5f bd
       -0.17447829 -0.062123004 -0.03791174 -0.054480385
000150 28 48 f3 3c 2c 9b 68 3d 93 a4 f8 3d b3 b0 15 3d
       0.029697493 0.05678861 0.12140765 0.036545467
000160 ca 48 c0 3b 09 db 9b bc b5 75 27 bc f5 b6 01 be
       0.005868052 -0.019025343 -0.010220935 -0.12667449
000170 88 8a 0f 3e 49 e0 07 bd 50 eb f4 3c e6 47 09 3e
       0.14017689 -0.03317288 0.029897362 0.13406333
000180 c4 05 f0 bd 7c 8d e2 bd 56 e7 51 3e 95 7e ab bd
       -0.1171985 -0.11062142 0.20498404 -0.08373753
000190 4b 57 55 3c 32 9e 24 be 00 aa 29 3d 5e 00 02 be
       0.013021301 -0.16075972 0.04142189 -0.12695453
0001a0 fa 61 6a 3d 71 09 3a 3e 9b 04 b6 bd c1 d6 e6 bc
       0.057222344 0.18167664 -0.08887597 -0.028178575
0001b0 97 2b 8b 3d b6 20 e4 bd 5f 66 16 be ec e2 3f 3e
       0.067954235 -0.111390516 -0.14687489 0.18738908
0001c0 10 8b dc bc d6 40 c1 3d 4a 32 df 3d 17 03 10 3e
       -0.026921779 0.094361946 0.10898264 0.14063679
0001d0 fc 3e b0 3d c0 51 64 3c 4b 2e 5b bd f8 75 96 bd
       0.08605763 0.013935506 -0.053510945 -0.073467195
0001e0 ed 17 64 bc 50 0a 23 3e 7c 09 b1 3d e1 4a 48 3e
       -0.01392172 0.15921903 0.08644387 0.19559814
0001f0 c8 e6 27 3e 44 c3 8f bc 98 3b c5 3c 81 be 3b 3c
       0.1639663 -0.017549165 0.024076268 0.011458994
000200 68 73 61 3e 47 e4 41 3d 1d ff 04 3e cd a8 84 bd
       0.2201668 0.047336843 0.12987943 -0.06477509
000210 4e 63 d3 3d a3 0a 88 3d 96 ba f0 3b 9d a9 90 3d
       0.10321675 0.06642654 0.0073464615 0.07063601
000220 52 99 72 3d 9a 3a b6 3c 74 0b 0a be 56 82 f6 bb
       0.05922825 0.02224474 -0.13480932 -0.0075228615
000230 8d c4 c8 3d 1c 7f 6a 3c f3 e6 99 3c b1 3f bb 3d
       0.09803114 0.014312532 0.018786883 0.091430075
000240 a2 ef b6 bc 91 1f 0b bd b4 12 8a bd ce d8 b6 3a
       -0.022331063 -0.03396565 -0.067418486 0.0013950111
000250 27 8b 6b bc bd ac 0e 3d a3 39 57 bd f2 27 e2 3d
       -0.014376438 0.034832705 -0.0525452 0.11042775
000260 9c b5 1d bc 90 c9 06 bd 94 c4 ab 3d cf 11 12 bb
       -0.009625819 -0.03290707 0.08387104 -0.0022288447
000270 42 8f 79 3c ec 29 90 bb 5c bf 9c 3c 13 af 1d 3c
       0.015231909 -0.0043995287 0.019134216 0.0096242605
000280 14 43 8c 3c 10 20 10 be 5a 06 f1 bc 34 53 cf 3c
       0.01712183 -0.14074731 -0.029421974 0.025308229
000290 31 1b 39 bc f7 f8 0c be 87 6a 01 be 96 8d 42 3d
       -0.011297987 -0.13766848 -0.12638293 0.047498308
0002a0 11 72 f3 bb a7 c5 bc bd 8c 2a 8c 3d 8d d7 4e be
       -0.0074293693 -0.09217387 0.06844053 -0.20199414
0002b0 ac 44 ca bc f8 2f 07 3d 88 08 81 3d fc 5f f0 bd
       -0.024690948 0.03300473 0.06300455 -0.117370576
0002c0 e8 c0 5c bd f0 bd 2e bd 7b 86 c7 3b 24 b6 ac 3b
       -0.053894907 -0.042661607 0.0060890294 0.0052707363
0002d0 82 05 1c 3d 96 01 fc 3d 2b 2b cb 3d 44 c7 df bb
       0.03809119 0.1230499 0.09920343 -0.0068291742
0002e0 bc a3 fb 3d 5e 12 36 3d 31 39 93 bd 2b 1c 98 bd
       0.12287089 0.04445111 -0.07188643 -0.074272476
0002f0 46 d9 12 3c 6e c6 7b bc 73 88 a9 bd 06 ea d8 3d
       0.008962935 -0.015367134 -0.08277979 0.105915114
000300 00 9b d9 3d ba f6 7d 3d 44 32 51 3e 16 19 b5 bd
       0.10625267 0.062002875 0.20429331 -0.088426754
000310 98 da a2 bd bd eb be bc a1 e2 24 3e 40 62 c0 3d
       -0.0795185 -0.023305768 0.16102077 0.0939374
000320 5d 9b 4b bd dd 53 ca 3d 70 10 d3 bc ef 3e 7d 3c
       -0.049708713 0.09879277 -0.025764674 0.015456899
000330 a0 4d 94 3d 66 f8 15 bd 24 37 40 3d 39 7f b3 bd
       0.07241368 -0.036613844 0.046927586 -0.087645
000340 27 45 2e bd 01 12 38 bc 2d 78 06 bc 43 d2 0d bd
       -0.042546418 -0.011234761 -0.008207363 -0.03462435
000350 ae d7 96 bb b6 ba a5 bd f0 1d 7b bd ff b5 07 bd
       -0.0046033477 -0.08092253 -0.061307847 -0.03313255
000360 35 12 13 3e bb f5 d8 3c f6 ce 0c 3c 74 94 cd bd
       0.14362414 0.02648436 0.008594265 -0.10038081
000370 01 19 9d 3d a9 16 12 bd 3f ff 79 3c 5c cd f5 3c
       0.07670785 -0.03566614 0.015258609 0.03000515
000380 4b 17 fd 3d 17 06 c2 3d 95 07 b2 bd 83 31 fd bc
       0.123579584 0.09473818 -0.086928524 -0.030907398
000390 31 55 bd bd b6 16 3e bd c5 8d cb 3d b4 8b 8a 3d
       -0.092447646 -0.046408378 0.0993915 0.067649275
0003a0 9f cf 7d 3d 84 c8 b8 bc 2c d3 e6 bd 86 6f 15 3e
       0.06196558 -0.02255655 -0.112707466 0.14593324
0003b0 6d d6 8d 3d b9 0f 68 be 2d 7b 42 3d e4 ac 9c bd
       0.06925664 -0.22662248 0.04748075 -0.07650164
0003c0 7c 8b cf bd ef 1d 50 3e 9d 05 92 3d 7f 62 91 bd
       -0.101340264 0.20323919 0.07129977 -0.07098865
0003d0 32 50 e2 bd 2c 0e f9 3d b7 d0 ed 3d 97 89 d0 3c
       -0.11050452 0.12160906 0.11612075 0.025456233
0003e0 e1 3a d6 bb 0b 66 39 3d 5d 5a fa bc a4 16 86 bc
       -0.0065377806 0.04526333 -0.030560667 -0.016368218
0003f0 de c3 0f 3d 5b cb 2e bd 15 d0 88 3d f0 01 ab 3d
       0.035098903 -0.042674404 0.066803135 0.08349979

network_body._body_endoder.seq_layers.2.bias f4 [128]
000000 00 00 00 00 00 00 00 00 00 00 00 00 00 00 00 00
       0.0 0.0 0.0 0.0
000010 00 00 00 00 00 00 00 00 00 00 00 00 00 00 00 00
       0.0 0.0 0.0 0.0
000020 00 00 00 00 00 00 00 00 00 00 00 00 00 00 00 00
       0.0 0.0 0.0 0.0
000030 00 00 00 00 00 00 00 00 00 00 00 00 00 00 00 00
       0.0 0.0 0.0 0.0
000040 00 00 00 00 00 00 00 00 00 00 00 00 00 00 00 00
       0.0 0.0 0.0 0.0
000050 00 00 00 00 00 00 00 00 00 00 00 00 00 00 00 00
       0.0 0.0 0.0 0.0
000060 00 00 00 00 00 00 00 00 00 00 00 00 00 00 00 00
       0.0 0.0 0.0 0.0
000070 00 00 00 00 00 00 00 00 00 00 00 00 00 00 00 00
       0.0 0.0 0.0 0.0
000080 00 00 00 00 00 00 00 00 00 00 00 00 00 00 00 00
       0.0 0.0 0.0 0.0
000090 00 00 00 00 00 00 00 00 00 00 00 00 00 00 00 00
       0.0 0.0 0.0 0.0
0000a0 00 00 00 00 00 00 00 00 00 00 00 00 00 00 00 00
       0.0 0.0 0.0 0.0
0000b0 00 00 00 00 00 00 00 00 00 00 00 00 00 00 00 00
       0.0 0.0 0.0 0.0
0000c0 00 00 00 00 00 00 00 00 00 00 00 00 00 00 00 00
       0.0 0.0 0.0 0.0
0000d0 00 00 00 00 00 00 00 00 00 00 00 00 00 00 00 00
       0.0 0.0 0.0 0.0
0000e0 00 00 00 00 00 00 00 00 00 00 00 00 00 00 00 00
       0.0 0.0 0.0 0.0
0000f0 00 00 00 00 00 00 00 00 00 00 00 00 00 00 00 00
       0.0 0.0 0.0 0.0
000100 00 00 00 00 00 00 00 00 00 00 00 00 00 00 00 00
       0.0 0.0 0.0 0.0
000110 00 00 00 00 00 00 00 00 00 00 00 00 00 00 00 00
       0.0 0.0 0.0 0.0
000120 00 00 00 00 00 00 00 00 00 00 00 00 00 00 00 00
       0.0 0.0 0.0 0.0
000130 00 00 00 00 00 00 00 00 00 00 00 00 00 00 00 00
       0.0 0.0 0.0 0.0
000140 00 00 00 00 00 00 00 00 00 00 00 00 00 00 00 00
       0.0 0.0 0.0 0.0
000150 00 00 00 00 00 00 00 00 00 00 00 00 00 00 00 00
       0.0 0.0 0.0 0.0
000160 00 00 00 00 00 00 00 00 00 00 00 00 00 00 00 00
       0.0 0.0 0.0 0.0
000170 00 00 00 00 00 00 00 00 00 00 00 00 00 00 00 00
       0.0 0.0 0.0 0.0
000180 00 00 00 00 00 00 00 00 00 00 00 00 00 00 00 00
       0.0 0.0 0.0 0.0
000190 00 00 00 00 00 00 00 00 00 00 00 00 00 00 00 00
       0.0 0.0 0.0 0.0
0001a0 00 00 00 00 00 00 00 00 00 00 00 00 00 00 00 00
       0.0 0.0 0.0 0.0
0001b0 00 00 00 00 00 00 00 00 00 00 00 00 00 00 00 00
       0.0 0.0 0.0 0.0
0001c0 00 00 00 00 00 00 00 00 00 00 00 00 00 00 00 00
       0.0 0.0 0.0 0.0
0001d0 00 00 00 00 00 00 00 00 00 00 00 00 00 00 00 00
       0.0 0.0 0.0 0.0
0001e0 00 00 00 00 00 00 00 00 00 00 00 00 00 00 00 00
       0.0 0.0 0.0 0.0
0001f0 00 00 00 00 00 00 00 00 00 00 00 00 00 00 00 00
       0.0 0.0 0.0 0.0

action_model._discrete_distribution.branches.0.weight f4 [2, 128]
000000 86 02 11 3c fb 70 00 3c 6a ae b5 b9 1d 67 18 3b
       0.008850699 0.007839437 -0.0003465296 0.002325482
000010 77 dd fb 3b e9 be 35 bc 3d 57 65 3a df b8 ae ba
       0.007686313 -0.01109288 0.0008748656 -0.0013330242
000020 9e 07 8d 3b 91 ab 35 bb 52 f6 dd 3a ae 89 aa 3b
       0.0043038866 -0.002772067 0.0016934371 0.005204401
000030 ee 84 48 3b 97 51 a1 3b d2 21 5b bb 37 09 93 ba
       0.003059681 0.0049230563 -0.0033436907 -0.0011217956
000040 ba c2 74 3c b7 70 7c ba 80 7c 55 bc 43 db 28 3c
       0.014939005 -0.0009629833 -0.013030171 0.010306182
000050 af a9 9e bb 98 b4 59 3b 66 07 2f bb 13 69 92 3a
       -0.004842005 0.0033219215 -0.002670729 0.001117023
000060 75 78 69 3c eb 19 3d bc 35 3c fb 3a cc 4e 9d 3a
       0.014249911 -0.011541824 0.0019167723 0.0012001633
000070 57 45 9a bb 0e 7b 2f 3c 14 68 13 3c 77 90 44 bc
       -0.004707973 0.010710491 0.008996982 -0.011997334
000080 a7 3e 3f bb 0b cb 16 3a df 8e 37 bb 68 b2 64 3a
       -0.002918163 0.00057523017 -0.0028008742 0.00087240944
000090 16 b7 37 bb b8 73 82 bc f4 da a9 b9 21 1d 96 3b
       -0.0028032712 -0.01592432 -0.00032397325 0.004581109
0000a0 1e 25 0a bb a6 71 38 bb 39 dc 4b 3c 37 dd 42 bc
       -0.0021079252 -0.0028143912 0.012442642 -0.011893562
0000b0 8a ca 06 bc cf a4 42 bb 07 bf cf bc 6a bd 20 bc
       -0.008227 -0.0029700284 -0.025359644 -0.009810785
0000c0 f9 c2 9d ba 97 d3 40 3a 4a a7 65 3c 7f eb 15 bc
       -0.0012036256 0.0007355748 0.014016936 -0.009150385
0000d0 c7 7c f5 b9 17 59 c9 3b af b3 a2 bc 7d 67 1b bb
       -0.00046823008 0.0061446535 -0.01986107 -0.0023712807
0000e0 fa 6b ee 3b 1b 69 e0 bb 13 56 27 bc 7f a8 5e 3b
       0.0072760554 -0.006848467 -0.010213393 0.0033974943
0000f0 eb b2 9a bc c7 3c 07 bb 97 6e 2a bc 18 de d8 39
       -0.018884143 -0.0020635591 -0.010402343 0.00041364203
000100 15 69 e0 bb 62 06 52 bb 88 79 57 3b ff 72 a7 3b
       -0.0068484643 -0.0032047261 0.0032878835 0.005110144
000110 73 5e 29 3c 50 b9 2b bb 17 28 2a 3b e5 ce f9 ba
       0.01033746 -0.0026202984 0.0025963837 -0.0019058852
000120 ed ae c9 3b 71 a1 01 3c ed 51 e3 bb 03 fd fd 3b
       0.006154886 0.007912026 -0.0069372565 0.0077511086
000130 ba e1 64 ba 00 9d 38 3c b2 20 1d bc 78 47 21 bc
       -0.00087311456 0.0112679005 -0.009590315 -0.0098437
000140 7f 3e 3d bc 9b af a9 3b 05 b3 9f 3b 55 5c 79 3b
       -0.011550545 0.0051784045 0.0048736357 0.003804942
000150 43 e7 0b bc 43 15 fb ba d6 ef 97 bb ca e8 5c bb
       -0.008539024 -0.0019156117 -0.004636745 -0.003370809
000160 97 8d a3 39 1f a2 7b bb d8 96 00 3c ef 26 2f 3c
       0.00031195275 -0.0038396192 0.007848464 0.010690435
000170 b5 19 e9 3a 5d ae 8d bc c7 79 04 bb 57 8f 53 bc
       0.001778415 -0.017295057 -0.0020214187 -0.012912593
000180 17 0e 8d bb ba 72 ad 3c 87 26 f0 bb 48 1d 7e 3c
       -0.004304658 0.02117287 -0.0073288116 0.015509911
000190 17 14 00 bc e2 c9 bc bb c6 9e a6 3b 0a 95 50 3b
       -0.00781729 -0.005761371 0.0050848452 0.0031827115
0001a0 75 5b 82 3b f3 9b 4a b8 02 56 c3 bb d3 8f a0 3b
       0.0039781877 -4.8305792e-05 -0.0059611807 0.0048999577
0001b0 75 ca 2c 3b 5e a3 01 3c c0 f6 89 3a 6d f6 58 3c
       0.002636579 0.007912485 0.0010525808 0.013242346
0001c0 e3 91 c7 bc e5 3a 1a ba d7 88 a2 ba ba 13 6f 3c
       -0.024361556 -0.000588341 -0.0012400401 0.0145921055
0001d0 4e 4f b9 ba c2 e4 e4 bb c7 af 66 3b 95 05 57 bc
       -0.0014138015 -0.006985278 0.0035199986 -0.013123889
0001e0 f1 97 1d bc ea 29 9a 3b ea d8 54 ba d7 e3 10 bb
       -0.009618745 0.0047047036 -0.0008119481 -0.002210846
0001f0 9f ff a6 ba db 24 a5 3b d6 a1 b6 3c 07 55 3e bb
       -0.0012740976 0.005039794 0.022293966 -0.002904238
000200 6f 96 07 bc a7 da 6b 3b 07 17 af bb 67 e2 67 bb
       -0.008275612 0.0035988481 -0.0053433212 -0.003538275
000210 a2 a1 d2 3a 08 92 ad 3a 22 58 09 bc 20 40 ea 3a
       0.0016069899 0.0013242373 -0.008382829 0.0017871894
000220 17 e4 f6 3b 8f 92 aa ba f1 ed ab 3b cb 16 14 bc
       0.0075345146 -0.0013013649 0.0052468707 -0.009038637
000230 db ba 30 bc 02 ae e0 bb 50 17 6a 3b 3a 53 e2 bb
       -0.010786737 -0.006856681 0.0035719462 -0.006906894
000240 cb 55 dc bb 65 bf 29 3b f1 8b b3 bb 1f 04 55 bc
       -0.0067240945 0.0025901434 -0.005479329 -0.013001471
000250 a3 17 10 3c 6b 87 a3 3b 58 3d 81 3c 41 cc 14 ba
       0.008794698 0.0049905083 0.015776321 -0.0005676188
000260 69 78 9e bb 87 a4 7d bc 7a 35 7d bc fa ad 57 3c
       -0.0048361314 -0.015481121 -0.015454644 0.013164038
000270 2a ee 9e bb c6 d6 2e 3b 07 4a c6 bb 5b 51 4d 3c
       -0.0048501687 0.0026678308 -0.006051305 0.012531604
000280 5b 91 4d bc 1f 33 8f 3c 27 ca 33 3a a7 d3 3e bc
       -0.0125468625 0.017480431 0.0006858431 -0.011647142
000290 2b 3d e5 bb b0 e7 4c 3c 8b 24 49 bc e7 38 81 3c
       -0.006995817 0.0125064105 -0.012276779 0.015774203
0002a0 88 07 72 bc f1 e8 2d 3c 00 f5 f9 3a c1 62 a3 3c
       -0.014772303 0.01061462 0.0019070208 0.01994455
0002b0 fe 5d 91 bc ab 69 79 ba 03 40 bd 37 96 8f 28 3b
       -0.017745014 -0.0009514342 2.2560364e-05 0.002572035
0002c0 25 13 1a 3c 73 4a 54 bb 42 46 e0 bb 86 24 ae 3b
       0.0094039785 -0.0032393008 -0.006844313 0.0053144125
0002d0 3f ac 16 b8 69 35 45 bb 7c d1 2c 3c 7c 68 ad bc
       -3.5923204e-05 -0.003009165 0.010547992 -0.021167986
0002e0 13 41 a9 ba bd 27 ee bb ad 97 45 bc fb f1 8f bb
       -0.001291307 -0.0072679208 -0.012060088 -0.00439286
0002f0 95 0f 38 bc 13 56 36 3b 58 fe 14 3c 8a 71 64 bb
       -0.011234184 0.00278223 0.009093843 -0.0034857714
000300 87 20 73 bb b7 a8 12 3b 04 59 1b bc 50 5f 68 3b
       -0.0037098245 0.0022378394 -0.009481672 0.0035457201
000310 59 6a 0a bc 58 6f 78 3b 47 a3 91 bb cf 56 3f 3b
       -0.008448207 0.0037908163 -0.004444513 0.002919603
000320 88 c6 60 bc e1 15 3e bc bf bd 51 3a 0c 68 0d bc
       -0.013719209 -0.011601896 0.00080009917 -0.008630764
000330 85 1e 97 bc a9 2e 83 3b df 04 41 bc a3 30 b5 3c
       -0.01844717 0.004003365 -0.0117809465 0.022117918
000340 da 42 81 3c 8f 98 88 bc 4d 7c df 3b a4 18 40 3b
       0.015778948 -0.016674308 0.0068202377 0.0029311562
000350 ba 84 f1 bb 6b 97 50 3a c0 8a 2e bc e2 f7 45 3a
       -0.0073705586 0.00079571333 -0.010653198 0.0007551891
000360 dd 2e 04 ba 1a 01 b0 bb 27 67 a3 39 20 62 af b9
       -0.00050423836 -0.005371225 0.00031166637 -0.0003345171
000370 b8 63 6d bc 9b ed 32 bc 57 ac b5 ba e8 ae 51 3b
       -0.014489107 -0.010920907 -0.0013860565 0.0031995121
000380 a2 ce ef 3a b2 57 c7 bb 67 a3 b7 bc 82 3d 5e 3c
       0.0018295834 -0.006083452 -0.022416783 0.013564469
000390 77 a9 d6 3a 51 2a 19 3c 7d 8e 59 3b 14 66 bd 3b
       0.0016377409 0.009348468 0.0033196502 0.005779991
0003a0 5f 96 8f 3c f8 d8 7f bb 6f 63 97 bc a7 e8 17 3a
       0.017527757 -0.0039039236 -0.01848003 0.0005794861
0003b0 78 6e 0d bb a3 56 09 3a 0d 41 30 bc 96 ef 47 3c
       -0.0021580737 0.0005239045 -0.010757697 0.012203118
0003c0 dc 1f 85 bc 52 90 6e ba 2f 5a 09 bb 78 ec 54 bc
       -0.016250543 -0.0009100485 -0.0020958295 -0.012995832
0003d0 c7 53 3f 3b df 44 9f 3c eb 84 ee bb 17 b1 95 3b
       0.0029194222 0.01944202 -0.0072790287 0.00456823
0003e0 fb c2 40 ba 65 28 af 3b 9b 02 ec 3b 26 05 41 3c
       -0.0007353273 0.0053453916 0.007202459 0.011781013
0003f0 d8 db 56 bb 6d 46 f1 bb 3b e4 56 3c c0 fa 6f bb
       -0.0032784846 -0.0073631317 0.013115938 -0.0036617965

action_model._discrete_distribution.branches.0.bias f4 [2]
000000 00 00 00 00 00 00 00 00
       0.0 0.0

network_body._body_endoder.seq_layers.0.weight f4 [128, 6]
000000 47 f7 a3 3e 4a 49 9b be c1 81 8b 3e d2 5d e6 bc
       0.32024595 -0.30329353 0.27247432 -0.028120909
000010 55 3d 74 bd 16 75 ff bc 07 e4 b0 3e 1f 37 4d bf
       -0.059628803 -0.03118376 0.3454897 -0.80162233
000020 2c 02 50 bf a5 1c ab 3d 31 1e a8 bb 21 f5 5a bf
       -0.81253314 0.08355073 -0.005130552 -0.8553029
000030 10 4f 76 be 3b cb c3 3d 1b c6 dc bd 71 62 58 3b
       -0.24053597 0.095602475 -0.10779973 0.003301766
000040 a6 0b 30 3e 37 07 c8 be 37 1a 2f 3e 09 01 4f 3e
       0.17191944 -0.39068004 0.17099844 0.20215239
000050 6f ee 09 bf ba 0c fd be 8a e7 44 bf a5 60 53 be
       -0.53879446 -0.49423772 -0.769158 -0.20642336
000060 0f 51 68 3e 68 ee 1f be 45 17 59 3f 74 bf 85 be
       0.22687171 -0.15618289 0.8480113 -0.2612263
000070 8d 27 18 ba 0d f7 91 be eb 04 33 3e ad 76 47 3e
       -0.00058042334 -0.28508797 0.17482345 0.19478865
000080 8e 64 b0 3c fe 22 92 3e e7 3a 17 3f 5c 8f 18 be
       0.021532323 0.28542322 0.5907425 -0.14898437
000090 64 ce 2b 3e 35 9b 68 bc a6 36 18 3e 7c 2c 99 3e
       0.1677795 -0.0141971605 0.14864597 0.2991675
0000a0 2b 56 0f 3f 46 68 87 be 7c 30 10 3e 98 d1 9c be
       0.55990857 -0.26446742 0.14080995 -0.30628657
0000b0 51 74 28 3f ac 6d e2 be 73 fc f5 bd c3 36 c3 bd
       0.65802485 -0.44224298 -0.120110415 -0.09531929
0000c0 a7 23 89 3e a4 24 ff be e3 89 34 3e 73 07 91 3b
       0.26785013 -0.49832642 0.17630725 0.004425937
0000d0 63 a5 f1 3e d1 b5 9c 3e 0a 97 ff 3c e9 e9 51 3d
       0.47196493 0.30607465 0.03119995 0.051248465
0000e0 74 bd 9a 3e 21 11 8b 3d ce 3b a2 3e ec c3 32 3d
       0.30222666 0.067903765 0.31686252 0.043643877
0000f0 f3 8f 48 bd 45 24 79 3e f0 c2 00 be 82 29 49 3d
       -0.048965406 0.24330242 -0.12574363 0.04911185
000100 8e f0 b6 be c5 5a bb 3e 22 fe e0 be c1 1a 1f bf
       -0.35730404 0.3659269 -0.43943888 -0.621502
000110 9b b7 fa 3e 51 4f e4 be 03 de 01 3e 18 ec 65 3f
       0.48968205 -0.44591764 0.12682347 0.89813375
000120 0f 22 43 3e 47 71 80 be 16 f8 85 bc 3d 77 08 3f
       0.19055961 -0.25086424 -0.016353648 0.53306943
000130 ed f0 29 3f 97 58 e6 be c6 15 09 bf 7b 28 c6 be
       0.6638325 -0.44989464 -0.5354885 -0.3870276
000140 ff 9f 0a 3d 9c be ed 3e 4e 33 48 bf 69 7b 7e be
       0.03384399 0.46434486 -0.78203285 -0.24851765
000150 86 1e 27 3e d6 ee ad 3e f9 f6 04 bf f0 7f 22 be
       0.16320238 0.3397128 -0.5193935 -0.15869117
000160 0a 24 6e 3f 4c 09 de 3e ec 90 17 bf 56 48 ee bb
       0.9302374 0.43366468 -0.5920551 -0.0072718067
000170 82 b5 e7 be d8 37 82 3e 8c 37 91 bd 8a 76 1e 3d
       -0.45255667 0.2543323 -0.07090673 0.038687266
000180 e0 cf b6 be e3 04 90 3e 82 35 09 3e 10 16 b5 be
       -0.3570547 0.28128728 0.13399318 -0.35368395
000190 59 5d 06 be a5 02 13 bf 1d f4 4c 3e a8 ca c9 bd
       -0.13121547 -0.5742591 0.20014997 -0.09853107
0001a0 7e ba de be 51 12 50 bf 34 cf 93 bd cc 26 c1 be
       -0.43501657 -0.8127795 -0.07217255 -0.37724912
0001b0 a5 0e 4e 3e d6 d3 f4 3e fa 50 0b bf 68 db 00 3f
       0.20122774 0.47817868 -0.54420435 0.5033479
0001c0 b9 45 3d 3d c7 fe 1a 3f cd 60 e8 be c1 04 12 3f
       0.04620907 0.6054501 -0.45386353 0.57038504
0001d0 26 8e ca 3e d5 43 9a 3e a1 02 b2 be ac 6f 26 3e
       0.39561576 0.30129877 -0.3476763 0.16253537
0001e0 5c cc 75 be 8e fe 15 be c1 87 2d bf 7f f6 fa be
       -0.24003738 -0.14647886 -0.6778527 -0.49016187
0001f0 1c 89 33 bf ce 4b ab 3e 9b ed 16 be 91 78 18 3f
       -0.7013109 0.33456272 -0.14739077 0.5955897
000200 f4 65 31 3f 1b df e9 be 9e f8 a8 be 7e 64 c1 be
       0.69296193 -0.45678028 -0.3300218 -0.37771982
000210 0f e9 4f be 8a 55 2d 3d 5b 59 f6 3c 89 49 62 be
       -0.20303749 0.042317905 0.030071905 -0.22098364
000220 12 d2 18 3e d8 69 82 3e ad c1 3f 3d 18 72 8f be
       0.14923885 0.25471377 0.046815563 -0.28016734
000230 8a fd 41 be 95 7a 81 3c 2f f9 65 be 5a c9 38 3e
       -0.18944374 0.015805522 -0.22458337 0.1804556
000240 3f 27 d0 be bd ad fe bd df 33 00 bd 3d 92 da 3e
       -0.40654942 -0.12435482 -0.031299468 0.42689696
000250 cf e1 b0 3e 1a fd 10 be 7c 9d 55 bf 1a f6 ec 3e
       0.34547278 -0.1415905 -0.8344343 0.4628151
000260 e1 a3 ba 3e 25 e6 ba 3d 55 34 17 bf a6 3d d3 3d
       0.36453155 0.09125928 -0.5906423 0.10314493
000270 7b 9e 82 3e 55 cd 5d be f0 f1 06 3f d0 ac 84 be
       0.25511536 -0.21660359 0.5271292 -0.25913095
000280 c7 bc c2 3e 06 31 92 3e 89 bf 02 be a4 9e 8a 3e
       0.3803465 0.28553027 -0.12768377 0.27074158
000290 3c 9b da bb 5e 1f 2b bc f5 1f 21 be 18 ac 0c bf
       -0.0066713374 -0.01044449 -0.15734847 -0.54950094
0002a0 5c 73 02 3f b3 34 e7 3d 61 a9 4a bf 20 8f 65 bd
       0.50957274 0.112893485 -0.791647 -0.056044698
0002b0 d8 e6 9c 3d 5c 8b 83 3e 22 0d 33 3f bb 77 01 bf
       0.076612175 0.2569226 0.69941914 -0.5057332
0002c0 74 8a b8 3d 71 b0 cc 3d bc 12 a9 bd 9b 70 86 3e
       0.09010783 0.09994591 -0.082555264 0.26257786
0002d0 25 5e 06 bf 99 11 82 3e 57 6c d4 be c3 c8 55 be
       -0.52487403 0.2540405 -0.41488907 -0.20877366
0002e0 cb 74 b9 3d f1 7c f9 be 77 34 d7 3e dd 85 b2 3e
       0.090554796 -0.48728135 0.42032215 0.34867755
0002f0 6f 51 90 3e c8 ca f7 be df 26 0b 3e 73 f6 8b 3d
       0.2818713 -0.48396897 0.13589047 0.06834116
000300 c9 a2 26 3f 3b 96 00 3e 96 cc f8 bc 50 e1 1a 3d
       0.6509214 0.12557308 -0.030370992 0.03781253
000310 e1 cd e2 be 44 f3 d2 3e 15 55 ff 3e 5f 9b 95 3d
       -0.44297698 0.41201222 0.498696 0.07305025
000320 f6 85 92 3e 43 e8 17 3f 71 4c 22 3f 08 81 e7 3e
       0.2861783 0.5933878 0.6339789 0.4521563
000330 19 69 64 bd 60 60 cf be c6 0b a0 be ce 7b 20 3e
       -0.05576429 -0.40503216 -0.31258982 0.15672228
000340 de 6b 2f 3e cd b7 27 3e b7 ea 81 bf bb 63 34 bc
       0.17130992 0.16378708 -1.0149754 -0.011010106
000350 56 ab e2 be f5 41 29 3f 67 ee d0 be 1e 45 0d 3f
       -0.44271344 0.6611627 -0.40806887 0.5518359
000360 9d 89 bb 3e bd 43 1e 3d 67 36 6c bf f1 e3 ee bd
       0.36628428 0.03863882 -0.9227051 -0.1166457
000370 e0 5c 1a 3f d4 d5 a1 3e 34 81 a4 be ae a7 44 3e
       0.60297966 0.3160845 -0.32129824 0.1920459
000380 5d b1 d3 be 52 6c 2d bf 92 c0 e0 be 30 c6 4f be
       -0.41346255 -0.6774341 -0.4389692 -0.20290446
000390 d5 f9 d8 3b cd aa 28 bd 91 f6 d1 be 43 56 b4 be
       0.006621579 -0.041178513 -0.41008428 -0.35222062
0003a0 e7 3e 80 be bc 01 05 3f 18 d9 12 3f b6 f2 f4 be
       -0.2504799 0.5195577 0.5736251 -0.47841424
0003b0 a6 ab 66 bf aa 5a 83 be f5 2f 1e 3e 7e 52 61 3e
       -0.90105665 -0.2565511 0.15447982 0.22004125
0003c0 4c 90 ad bc ea 15 1e be ed 65 05 3f a5 e6 2e be
       -0.02118697 -0.15438047 0.5210865 -0.17080171
0003d0 b4 ea 9c 3e e5 a2 32 3d 6b 88 0c 3f 38 88 6b bd
       0.30647814 0.04361238 0.5489566 -0.057502955
0003e0 8a d4 4e 3f 3b 1e ca be 51 79 3e be e3 24 81 be
       0.8079306 -0.3947619 -0.18600966 -0.25223455
0003f0 19 af f3 bd 42 90 00 bf 88 a0 6f 3e 8b 5d 4b 3d
       -0.118986316 -0.5022012 0.23401082 0.049649756

network_body._body_endoder.seq_layers.0.bias f4 [128]
000000 00 00 00 00 00 00 00 00 00 00 00 00 00 00 00 00
       0.0 0.0 0.0 0.0
000010 00 00 00 00 00 00 00 00 00 00 00 00 00 00 00 00
       0.0 0.0 0.0 0.0
000020 00 00 00 00 00 00 00 00 00 00 00 00 00 00 00 00
       0.0 0.0 0.0 0.0
000030 00 00 00 00 00 00 00 00 00 00 00 00 00 00 00 00
       0.0 0.0 0.0 0.0
000040 00 00 00 00 00 00 00 00 00 00 00 00 00 00 00 00
       0.0 0.0 0.0 0.0
000050 00 00 00 00 00 00 00 00 00 00 00 00 00 00 00 00
       0.0 0.0 0.0 0.0
000060 00 00 00 00 00 00 00 00 00 00 00 00 00 00 00 00
       0.0 0.0 0.0 0.0
000070 00 00 00 00 00 00 00 00 00 00 00 00 00 00 00 00
       0.0 0.0 0.0 0.0
000080 00 00 00 00 00 00 00 00 00 00 00 00 00 00 00 00
       0.0 0.0 0.0 0.0
000090 00 00 00 00 00 00 00 00 00 00 00 00 00 00 00 00
       0.0 0.0 0.0 0.0
0000a0 00 00 00 00 00 00 00 00 00 00 00 00 00 00 00 00
       0.0 0.0 0.0 0.0
0000b0 00 00 00 00 00 00 00 00 00 00 00 00 00 00 00 00
       0.0 0.0 0.0 0.0
0000c0 00 00 00 00 00 00 00 00 00 00 00 00 00 00 00 00
       0.0 0.0 0.0 0.0
0000d0 00 00 00 00 00 00 00 00 00 00 00 00 00 00 00 00
       0.0 0.0 0.0 0.0
0000e0 00 00 00 00 00 00 00 00 00 00 00 00 00 00 00 00
       0.0 0.0 0.0 0.0
0000f0 00 00 00 00 00 00 00 00 00 00 00 00 00 00 00 00
       0.0 0.0 0.0 0.0
000100 00 00 00 00 00 00 00 00 00 00 00 00 00 00 00 00
       0.0 0.0 0.0 0.0
000110 00 00 00 00 00 00 00 00 00 00 00 00 00 00 00 00
       0.0 0.0 0.0 0.0
000120 00 00 00 00 00 00 00 00 00 00 00 00 00 00 00 00
       0.0 0.0 0.0 0.0
000130 00 00 00 00 00 00 00 00 00 00 00 00 00 00 00 00
       0.0 0.0 0.0 0.0
000140 00 00 00 00 00 00 00 00 00 00 00 00 00 00 00 00
       0.0 0.0 0.0 0.0
000150 00 00 00 00 00 00 00 00 00 00 00 00 00 00 00 00
       0.0 0.0 0.0 0.0
000160 00 00 00 00 00 00 00 00 00 00 00 00 00 00 00 00
       0.0 0.0 0.0 0.0
000170 00 00 00 00 00 00 00 00 00 00 00 00 00 00 00 00
       0.0 0.0 0.0 0.0
000180 00 00 00 00 00 00 00 00 00 00 00 00 00 00 00 00
       0.0 0.0 0.0 0.0
000190 00 00 00 00 00 00 00 00 00 00 00 00 00 00 00 00
       0.0 0.0 0.0 0.0
0001a0 00 00 00 00 00 00 00 00 00 00 00 00 00 00 00 00
       0.0 0.0 0.0 0.0
0001b0 00 00 00 00 00 00 00 00 00 00 00 00 00 00 00 00
       0.0 0.0 0.0 0.0
0001c0 00 00 00 00 00 00 00 00 00 00 00 00 00 00 00 00
       0.0 0.0 0.0 0.0
0001d0 00 00 00 00 00 00 00 00 00 00 00 00 00 00 00 00
       0.0 0.0 0.0 0.0
0001e0 00 00 00 00 00 00 00 00 00 00 00 00 00 00 00 00
       0.0 0.0 0.0 0.0
0001f0 00 00 00 00 00 00 00 00 00 00 00 00 00 00 00 00
       0.0 0.0 0.0 0.0

network_body._body_endoder.seq_layers.2.weight f4 [128, 128]
000000 12 43 62 3a f5 e5 ab 3d 26 ed 8c bb 30 b3 28 3d
       0.000863121 0.0839347 -0.0043007312 0.04118651
000010 33 44 83 bd 1f 04 47 3e fc de 8e bc fc 04 86 bd
       -0.06409492 0.19435166 -0.017440312 -0.065439194
000020 72 69 de bc e9 e1 4d 3d 4d a1 49 3d 06 4d 29 3e
       -0.02714989 0.050264273 0.049226094 0.16533288
000030 c4 b0 a1 bb f6 98 b9 bc 58 91 cb 3d f5 6b ac 3d
       -0.004934402 -0.022655945 0.099398315 0.08419029
000040 6d 3e 1d be f8 4d db bc 76 23 f6 3c 7c fe 03 3e
       -0.15355845 -0.026770577 0.030046206 0.12890047
000050 e0 0d ab bc 23 a2 a5 bd 70 34 76 3c 12 83 22 3c
       -0.02088064 -0.08087566 0.0150271505 0.009918945
000060 63 03 2f bc 6c 34 ec bd d2 60 03 3e 6d b2 aa bc
       -0.01068196 -0.11533436 0.12829903 -0.020837033
000070 e6 19 b9 3d 63 3d 3d bd e0 70 b1 3b 73 e4 d7 3d
       0.09038143 -0.04620112 0.005415067 0.1054162
000080 46 a7 49 bc 88 ab 08 3e fd 0e b6 3d 8d 07 5e 3e
       -0.0123079475 0.13346684 0.088895775 0.21682568
000090 a6 15 c1 bc e5 c0 0e be ef a4 8b bd ff a5 2c bd
       -0.023569893 -0.13940771 -0.06818568 -0.042150494
0000a0 a8 8d 5c bd 4b 79 87 3c b3 98 db bd 19 fc 33 3c
       -0.05384603 0.01653733 -0.107224844 0.010985398
0000b0 73 b1 4d be 9a 3b 83 bd e6 8b 91 bc 59 53 34 bd
       -0.20087223 -0.064078525 -0.017766904 -0.0440248
0000c0 4f 0e 62 3d 1a 42 9a 3d f4 f5 d6 bd 51 cd d5 bc
       0.055189427 0.07532139 -0.104961306 -0.026098879
0000d0 16 e3 94 bd 1a 75 6b 3d 3c ea 3b bd 27 19 a9 bc
       -0.07269876 0.057484724 -0.04587768 -0.020641876
0000e0 69 a8 10 3e a7 ee 00 be ae a2 3f bc 35 3e 96 3c
       0.14126743 -0.12591039 -0.011696501 0.01834021
0000f0 3e 39 46 bd 1c 89 ff 3c 53 1f 00 3d ce ef eb bd
       -0.048394434 0.031193309 0.031279873 -0.115203485
000100 f9 3a 77 3d 2a cd 04 be e6 a4 36 bd 64 a1 17 bd
       0.060358975 -0.12968889 -0.044590853 -0.03701915
000110 e8 3b bb bd e7 c1 e7 bd 37 55 2c 3e 41 c2 38 3e
       -0.091422856 -0.11316281 0.16829382 0.18042852
000120 45 77 e6 bc 99 9f 62 bd 29 3d bc 3d b7 b2 a4 3b
       -0.028133044 -0.055327985 0.09191353 0.0050261873
000130 3e e5 eb bd c7 0e b0 bc ec ea 46 3d 33 11 d9 3d
       -0.11518334 -0.021491421 0.048563883 0.105989836
000140 d4 59 43 3d 5d cc 0a bc ce 04 56 bd 09 25 b2 3d
       0.04769309 -0.008471576 -0.052250676 0.0869847
000150 7d 92 7a bd db e6 87 3d 56 e7 98 3d 4a 17 d8 3d
       -0.06117486 0.06635829 0.07465999 0.10551317
000160 a7 f9 c9 3c 60 ea f6 bc fb e2 b1 3d c9 9d d0 bd
       0.024655176 -0.030141056 0.08685871 -0.10186345
000170 7b d8 f5 3c b2 67 dc bc a1 1d 38 bd 53 97 a0 bc
       0.030010452 -0.026904915 -0.04495013 -0.019603407
000180 1f ac 1a be ab 76 16 3c d8 5b 9d 3d c7 55 64 3d
       -0.15104721 0.009183566 0.076835334 0.055745866
000190 e1 00 51 bc 5e c7 52 bd 0a 43 7c bd fb 26 b8 bc
       -0.012756557 -0.051459663 -0.06158737 -0.022479525
0001a0 e7 a8 02 bd 48 db 71 bd c9 87 75 3d 57 4c e5 bd
       -0.03189936 -0.059047014 0.059943948 -0.11196201
0001b0 40 f6 25 3d c8 da 0b be 71 29 6b 3d a1 4d 7b 3d
       0.040518045 -0.13657677 0.05741257 0.06135333
0001c0 6b 16 0b 3e c7 de 6d 3d 72 1b ca bc 17 b7 f4 bd
       0.1358277 0.058073785 -0.02467129 -0.11948984
0001d0 a3 6f 80 bd a3 be f9 bb aa a0 fb 3c 66 22 9a bc
       -0.06271293 -0.0076216026 0.030716259 -0.01881523
0001e0 7c 08 12 3e 1f 12 7c 3c c4 8c d0 3d df 3d 6a 3d
       0.14261049 0.01538518 0.10183099 0.05718791
0001f0 30 c5 f1 3c 51 e6 5a be 66 b1 00 3e 54 7d df bd
       0.029512972 -0.21376921 0.12567672 -0.10912576
000200 4b bf 8b 3a c0 f5 68 3e 83 02 85 bd ee 04 19 3e
       0.0010661868 0.22749996 -0.0649462 0.14943287
000210 11 9d 1e 3e 5e 90 73 3d 25 ce 40 3e 20 b1 66 3d
       0.15489604 0.05946385 0.18828638 0.056321263
000220 a8 3c 27 bd de 0a 8c 3d 71 6f 14 bd 7e 0a e1 bc
       -0.04082933 0.0683801 -0.03623909 -0.027470823
000230 b4 40 1d be 24 82 64 bc cb e6 87 38 86 6b d8 bd
       -0.15356714 -0.013947044 6.48029e-05 -0.105673835
000240 c1 d3 c6 3c 31 6b b3 3d 17 31 75 3d e8 14 7d bd
       0.024270894 0.087606795 0.05986127 -0.061787516
000250 2a fc 89 bd b3 b9 24 3c f8 ff 89 3c 70 d5 c3 bb
       -0.067375496 0.01005404 0.016845688 -0.0059763715
000260 89 f6 85 bc c4 f4 25 3d 4b e2 30 3d 6e 76 dd 3d
       -0.016352909 0.04051663 0.04318456 0.10813604
000270 bd f6 1d be 7b c1 47 3d f5 30 0a 3e bf 67 64 3c
       -0.15426154 0.0487685 0.13495238 0.013940751
000280 be 78 b5 3d 28 72 bb bd 53 aa bb 3c 78 55 a5 3d
       0.0886092 -0.09152633 0.022908365 0.080729425
000290 79 5b ab bd b9 30 c1 bd ff a2 94 bc de e0 60 bc
       -0.083670564 -0.09433121 -0.018144129 -0.0137254875
0002a0 e3 66 c5 3d 61 98 70 3b 3e 58 7e bc 87 bc 7c 3d
       0.09638765 0.0036711919 -0.015523968 0.06170323
0002b0 da 56 5e bd 84 65 0d 3c f9 f6 35 3e a0 d4 7d bc
       -0.054282047 0.00863016 0.17769994 -0.015492588
0002c0 db a6 97 3d f8 bc 2e bc 44 9d a1 3d d7 0b 90 3d
       0.07404872 -0.010665171 0.07891324 0.07033508
0002d0 4c 16 65 bd 8c 9c 1f 3e 42 68 52 bc 93 24 ad bc
       -0.055929467 0.15587062 -0.01284224 -0.021135604
0002e0 7f e4 a4 3d 58 bc b3 bb 39 1b 24 3e 00 cb e3 3d
       0.08051395 -0.005485099 0.1602601 0.111227036
0002f0 ae e5 da bc 34 c4 dc 3d e4 5f bf 3d e4 6a 04 3c
       -0.026720848 0.1077961 0.093444616 0.008082125
000300 c0 bd eb bd da 8d f0 3d dd 1d ce bc d0 db 6b 3c
       -0.11510801 0.11745806 -0.025160724 0.014395669
000310 51 f0 16 3e cd 1a 06 3e 7b 9e 19 3e 65 4d a4 bd
       0.14740111 0.13096161 0.15001862 -0.08022574
000320 87 12 c1 bd df 36 8c 3d 33 62 04 be e9 26 ed 3c
       -0.09427362 0.06846403 -0.12928085 0.028949218
000330 93 8d eb 3b 01 28 2e 3c eb 33 75 3d f6 a4 c7 bd
       0.007188508 0.010629655 0.059863966 -0.09748261
000340 63 f9 30 3d 60 aa dc 3d 03 f7 b1 bd 5e 6c 80 bd
       0.043206584 0.10774684 -0.08689692 -0.062706694
000350 f6 d0 2f bd 4d b2 b2 3b 23 08 94 bd f3 32 f2 3b
       -0.04292389 0.005453384 -0.072281145 0.0073913275
000360 ee 7d 2d be 07 29 61 3d 24 3a 21 bd 89 5d 49 bd
       -0.1694257 0.054970767 -0.039362088 -0.049161468
000370 1c 49 e0 bd 73 32 bb bc 77 15 9e 3c 6c 8a 1f bd
       -0.109514445 -0.022851204 0.019297345 -0.03895037
000380 34 d7 06 3e 93 cd e4 bd 20 6e 83 bd 8d 5a ed 3c
       0.13168031 -0.11172023 -0.06417489 0.028973842
000390 04 88 6d bc b1 33 40 3e 79 40 59 3d 13 bb 0c be
       -0.014497761 0.18769719 0.05304 -0.13743238
0003a0 23 40 de 3d 10 ee df 3c 80 f2 3b bd 02 f6 bd 3d
       0.10852077 0.027335197 -0.045885563 0.09275438
0003b0 9d 2c a5 3d 53 20 a3 bd 82 85 90 3d 69 6b af 3d
       0.0806515 -0.0796515 0.070567146 0.08565409
0003c0 eb dd 00 be dc e3 12 3e 53 5a 07 3d 02 eb bb 3c
       -0.12584655 0.14344734 0.033045124 0.022939209
0003d0 93 51 82 3d bc de df bd 63 8d f2 3d 67 aa b7 bd
       0.06363215 -0.10931155 0.118433736 -0.089680485
0003e0 55 07 01 3e 19 0c 91 3d 3b 89 d9 bd be f0 03 be
       0.12600453 0.070823856 -0.10621878 -0.12884805
0003f0 73 95 69 3d 1b cd 5c 3c f8 bc 98 3d 6d 3f 4f bd
       0.05702729 0.013476635 0.07457918 -0.050597597

network_body._body_endoder.seq_layers.2.bias f4 [128]
000000 00 00 00 00 00 00 00 00 00 00 00 00 00 00 00 00
       0.0 0.0 0.0 0.0
000010 00 00 00 00 00 00 00 00 00 00 00 00 00 00 00 00
       0.0 0.0 0.0 0.0
000020 00 00 00 00 00 00 00 00 00 00 00 00 00 00 00 00
       0.0 0.0 0.0 0.0
000030 00 00 00 00 00 00 00 00 00 00 00 00 00 00 00 00
       0.0 0.0 0.0 0.0
000040 00 00 00 00 00 00 00 00 00 00 00 00 00 00 00 00
       0.0 0.0 0.0 0.0
000050 00 00 00 00 00 00 00 00 00 00 00 00 00 00 00 00
       0.0 0.0 0.0 0.0
000060 00 00 00 00 00 00 00 00 00 00 00 00 00 00 00 00
       0.0 0.0 0.0 0.0
000070 00 00 00 00 00 00 00 00 00 00 00 00 00 00 00 00
       0.0 0.0 0.0 0.0
000080 00 00 00 00 00 00 00 00 00 00 00 00 00 00 00 00
       0.0 0.0 0.0 0.0
000090 00 00 00 00 00 00 00 00 00 00 00 00 00 00 00 00
       0.0 0.0 0.0 0.0
0000a0 00 00 00 00 00 00 00 00 00 00 00 00 00 00 00 00
       0.0 0.0 0.0 0.0
0000b0 00 00 00 00 00 00 00 00 00 00 00 00 00 00 00 00
       0.0 0.0 0.0 0.0
0000c0 00 00 00 00 00 00 00 00 00 00 00 00 00 00 00 00
       0.0 0.0 0.0 0.0
0000d0 00 00 00 00 00 00 00 00 00 00 00 00 00 00 00 00
       0.0 0.0 0.0 0.0
0000e0 00 00 00 00 00 00 00 00 00 00 00 00 00 00 00 00
       0.0 0.0 0.0 0.0
0000f0 00 00 00 00 00 00 00 00 00 00 00 00 00 00 00 00
       0.0 0.0 0.0 0.0
000100 00 00 00 00 00 00 00 00 00 00 00 00 00 00 00 00
       0.0 0.0 0.0 0.0
000110 00 00 00 00 00 00 00 00 00 00 00 00 00 00 00 00
       0.0 0.0 0.0 0.0
000120 00 00 00 00 00 00 00 00 00 00 00 00 00 00 00 00
       0.0 0.0 0.0 0.0
000130 00 00 00 00 00 00 00 00 00 00 00 00 00 00 00 00
       0.0 0.0 0.0 0.0
000140 00 00 00 00 00 00 00 00 00 00 00 00 00 00 00 00
       0.0 0.0 0.0 0.0
000150 00 00 00 00 00 00 00 00 00 00 00 00 00 00 00 00
       0.0 0.0 0.0 0.0
000160 00 00 00 00 00 00 00 00 00 00 00 00 00 00 00 00
       0.0 0.0 0.0 0.0
000170 00 00 00 00 00 00 00 00 00 00 00 00 00 00 00 00
       0.0 0.0 0.0 0.0
000180 00 00 00 00 00 00 00 00 00 00 00 00 00 00 00 00
       0.0 0.0 0.0 0.0
000190 00 00 00 00 00 00 00 00 00 00 00 00 00 00 00 00
       0.0 0.0 0.0 0.0
0001a0 00 00 00 00 00 00 00 00 00 00 00 00 00 00 00 00
       0.0 0.0 0.0 0.0
0001b0 00 00 00 00 00 00 00 00 00 00 00 00 00 00 00 00
       0.0 0.0 0.0 0.0
0001c0 00 00 00 00 00 00 00 00 00 00 00 00 00 00 00 00
       0.0 0.0 0.0 0.0
0001d0 00 00 00 00 00 00 00 00 00 00 00 00 00 00 00 00
       0.0 0.0 0.0 0.0
0001e0 00 00 00 00 00 00 00 00 00 00 00 00 00 00 00 00
       0.0 0.0 0.0 0.0
0001f0 00 00 00 00 00 00 00 00 00 00 00 00 00 00 00 00
       0.0 0.0 0.0 0.0

value_heads.value_heads.extrinsic.weight f4 [1, 128]
000000 ab de 2e be b8 a5 33 3d 32 5e 86 bd e8 7c a4 bc
       -0.17077129 0.043859214 -0.06560935 -0.020079091
000010 10 37 9b 3d 12 83 25 3e d5 57 55 be 3f d0 59 be
       0.07578862 0.1616328 -0.20834287 -0.21270846
000020 c3 7b 2f be 29 9a 13 be 47 b0 0e be 2c 95 db bd
       -0.17137055 -0.14414276 -0.13934432 -0.10721812
000030 f0 39 28 bd 60 32 11 be 56 9b 81 bd ca 11 30 3e
       -0.04107088 -0.14179373 -0.06328456 0.17194286
000040 60 b5 f8 3d 9e 43 00 3e 9a 69 99 bd 0e 75 8c bd
       0.121439695 0.12525794 -0.07490845 -0.06858264
000050 8e 60 0e 3e da ab 3f 3e 4d 97 c3 bd f8 42 e0 bc
       0.1390402 0.187179 -0.09550343 -0.027375683
000060 dc a5 60 bd 6c 64 1f be 06 1a 05 be 94 be 93 3d
       -0.054845676 -0.15565652 -0.12998208 0.07214084
000070 aa 25 b2 bd 46 86 39 3e e0 bb f1 3d 18 87 86 bd
       -0.0869859 0.18117628 0.118034124 -0.06568736
000080 c8 8f 48 3d 00 cf 5b 3a 08 b4 8b bc c3 c8 47 be
       0.048965245 0.00083850324 -0.017053619 -0.19510178
000090 6e 30 3a 3e c8 20 e3 bd 80 00 c8 bc 80 c1 3c 3d
       0.18182537 -0.11090237 -0.0244143 0.046082973
0000a0 15 e0 25 be 90 69 a7 3d a8 e2 fa 3c 88 17 13 3e
       -0.16198762 0.08174431 0.030625656 0.14364445
0000b0 88 29 ab 3d 80 83 37 3e e0 6e 5f 3d 08 9d 89 bd
       0.08357531 0.17921257 0.054549098 -0.067194045
0000c0 80 19 3c 3e 77 21 2f be 10 b6 39 be 9b 30 54 be
       0.18369102 -0.1710261 -0.18135858 -0.20721667
0000d0 78 c9 35 3e 00 0e ff 3d 67 e1 44 be 45 70 bf bd
       0.17752635 0.12453842 -0.19226609 -0.093475856
0000e0 84 37 a1 3d a0 2b 62 bd 6c 19 2c 3e 10 e4 5c 3c
       0.07871917 -0.055217385 0.16806573 0.013482109
0000f0 90 3f 5c 3d 20 69 23 3e 44 f9 f6 bd 44 73 93 3d
       0.053771555 0.15958071 -0.120592624 0.071997195
000100 a0 24 dd 3d e8 34 ae 3d b0 d9 0b bc 00 a7 f4 3d
       0.10798001 0.08506185 -0.008535787 0.11945915
000110 34 da f1 3d 6a 4d 09 be 9e 9c 56 be 98 e4 7a 3d
       0.11809197 -0.13408437 -0.20958182 0.06125316
000120 a6 b6 5b 3e ac 19 14 3e f0 25 dd bc d2 e9 14 be
       0.21456394 0.14462918 -0.02699563 -0.1454232
000130 5e d9 bc bd 98 ab 6a 3d a6 bb 9c bd a4 6e a5 3d
       -0.09221147 0.05729255 -0.076529786 0.08077744
000140 cc c1 ef 3d da 86 50 3e c8 47 3e 3e 62 59 f5 bd
       0.11706886 0.20363942 0.1858207 -0.11979939
000150 34 c1 22 bd 50 e9 21 3e 9a f3 02 3e 06 7f 14 3e
       -0.039735034 0.15811658 0.12788239 0.1450158
000160 60 b1 b3 3d 60 9f 49 bd 24 fa c9 bd 68 0d 37 3d
       0.08774066 -0.049224257 -0.09862164 0.04469052
000170 60 4c b0 bc 60 90 f8 3b 78 b4 3a bd c0 82 35 3e
       -0.021520793 0.00758557 -0.045582265 0.17725658
000180 a6 46 30 be e7 df 00 be d4 7a 86 bd 4c 74 94 3d
       -0.1721445 -0.12585412 -0.06566396 0.07248744
000190 80 a5 c9 bb 83 51 f5 bd c0 eb 27 3b 44 1d cd 3d
       -0.0061537623 -0.11978438 0.0025622696 0.100153476
0001a0 7d 7d 50 be 88 3f 95 bc c0 62 a9 bb 58 1a 4b be
       -0.2036037 -0.01821877 -0.0051692426 -0.19834268
0001b0 76 ec 2d be 16 c9 26 3e dc 6e a6 3d 60 ff d6 3b
       -0.16984734 0.16287646 0.081266135 0.006561205
0001c0 10 c5 3c 3e 68 d5 2b 3e 5e d6 34 be 00 23 f8 bb
       0.18434548 0.16780627 -0.176599 -0.0075725317
0001d0 fc b0 22 bd 30 70 94 bd fa 5b d9 bd 28 63 b7 bc
       -0.039719567 -0.072479606 -0.10613246 -0.022386149
0001e0 6d 48 4f be de 23 1d 3e c4 ae 38 be 74 27 37 3e
       -0.20242472 0.15345713 -0.18035418 0.17886144
0001f0 3c cc 50 3e 8c b4 57 bd 14 8e 10 bd ba 7d 42 be
       0.20390409 -0.052662417 -0.035291746 -0.18993273
