results/ppo/MoveToBall/MoveToBall-323610.onnx (onnx, 72799 bytes, 6 tensors)

network_body._body_endoder.seq_layers.0.weight f4 [128, 6]
0	0x3e9229c6	0.28547496
1	0xbecbe038	-0.39819503
2	0x3ebf9cb6	0.37424248
3	0x3e6b8d54	0.23003131
4	0xbede3cb3	-0.43405685
5	0xbf0fa1fe	-0.56106555
6	0xbeb69f91	-0.35668615
7	0x3e40da2d	0.18833227
8	0x3ecabe82	0.3959847
9	0xbe16c59f	-0.14723824
10	0xbf40cb0d	-0.7530983
11	0x3edf0e66	0.43565673
12	0x3e185c73	0.14879017
13	0x3e87af3a	0.26500875
14	0x3e99d5cd	0.3004593
15	0x3f19f83c	0.601444
16	0x3e874779	0.26421717
17	0xbdb34117	-0.08752649
18	0xbe5860eb	-0.21130721
19	0xbe4de214	-0.20105773
20	0xbf29b035	-0.66284496
21	0x3ebed650	0.37272882
22	0xbe210b77	-0.1572703
23	0xbdfa82fe	-0.12232016
24	0x3fa3b151	1.2788488
25	0x3e8e4ca9	0.27792862
26	0x3e2908d8	0.1650728
27	0xbea5a5d5	-0.32353082
28	0xbe9ef161	-0.31043532
29	0x3efc0501	0.49222568
30	0xbcc2c951	-0.023777636
31	0x3e12684a	0.14297596
32	0x3e615242	0.22004035
33	0x3ec16e82	0.37779623
34	0x3db0733e	0.08615731
35	0xbeafe2e8	-0.34352803
36	0xbece8e36	-0.40342873
37	0xbe020bb4	-0.12699777
38	0x3cd4929b	0.025948813
39	0xbc282141	-0.010261835
40	0xbd8a9061	-0.06765819
41	0x3d5edeee	0.05441182
42	0xbfa36282	-1.2764437
43	0xbce94b5f	-0.028478323
44	0x3e910c51	0.2832971
45	0x3e65f258	0.22455728
46	0x3f0d321e	0.551546
47	0x3f0d11e4	0.55105424
48	0xbac1902a	-0.0014767696
49	0xbefb32ca	-0.49062186
50	0x3eaae2a1	0.3337603
51	0xbf1ae264	-0.60501695
52	0x3e83b510	0.25724077
53	0xbe5c281f	-0.2149968
54	0xbe1396a8	-0.1441294
55	0xbf24b6ee	-0.6434163
56	0x3e265ec0	0.16247082
57	0x3f1d60ee	0.6147603
58	0x3f0330fe	0.5124663
59	0x3e1fe00e	0.15612814
60	0x3e899dbc	0.26878154
61	0xbf8a6dc7	-1.0814751
62	0x3f8d3c04	1.103394
63	0xbf347d01	-0.7050324
64	0xbef8e8e2	-0.48615175
65	0xbda827c5	-0.082107104
66	0x3e95c7e7	0.29254076
67	0x3ea55e82	0.32298666
68	0xbedd9334	-0.4327637
69	0x3dfc14fc	0.1230869
70	0xbe14c149	-0.14526857
71	0x3e88d9c3	0.2672864
72	0xbf386111	-0.7202311
73	0x3e0e4fc1	0.13897611
74	0x3f07a56f	0.52986807
75	0x3e8dfcda	0.27731973
76	0xbe8999eb	-0.26875243
77	0x3e0f716a	0.14008108
78	0xbed4fd10	-0.4159932
79	0x3e82c1bc	0.25538433
80	0xbecdd78a	-0.40203506
81	0x3f06d797	0.52672714
82	0x3bf1a214	0.0073740575
83	0x3ce78bb8	0.028264865
84	0x3f48ae70	0.7839117
85	0xbe4963b2	-0.19666937
86	0x3df79093	0.12088122
87	0x3eff7aff	0.49898526
88	0xbe553d17	-0.20824085
89	0xbdbdac7d	-0.09261415
90	0xbd64a8cd	-0.055825043
91	0x3e49d5a6	0.19710407
92	0x3e03ebfe	0.12882993
93	0xbf6ead23	-0.93232936
94	0xbe4bb07b	-0.1989154
95	0x3c3bef0b	0.0114705665
96	0x3db0dc96	0.086358234
97	0x3dcb11d2	0.09915508
98	0xbc8cdc60	-0.017194927
99	0xbf2383b9	-0.6387287
100	0x3e8aa88b	0.27081713
101	0x3f3f6573	0.74764174
102	0x3e838aa7	0.2569172
103	0x3f047e66	0.5175537
104	0x3eaaf210	0.33387804
105	0x3e4d5992	0.200537
106	0x3dfdf483	0.124001525
107	0xbda9f066	-0.082978055
108	0xbeee8170	-0.46583128
109	0xbdcd8b95	-0.10036389
110	0x3e827eac	0.25487268
111	0x3f12f56a	0.5740572
112	0xbe792bdc	-0.24333137
113	0x3edb8b69	0.428798
114	0x3e7fc552	0.24977615
115	0x3e83c5f2	0.25736958
116	0xbe98498a	-0.29743606
117	0xbe770ff8	-0.24127185
118	0xbd9da685	-0.07697777
119	0xbf3ae6de	-0.73008525
120	0xbd3bdee1	-0.04586685
121	0x3f81b5d1	1.0133611
122	0x3f007051	0.5017138
123	0xbcb4ee3d	-0.022086257
124	0x3da66e2c	0.08126482
125	0xbe37f8ac	-0.17965955
126	0xbf0daffe	-0.5534667
127	0x3ec40a96	0.38289326
128	0xbc8dea06	-0.017323505
129	0x3f6c7670	0.9236822
130	0x3daca68a	0.08430202
131	0xbd57045d	-0.052494396
132	0xbed02afe	-0.406578
133	0x3e5d007a	0.21582213
134	0xbe35c234	-0.17749864
135	0xbbbecb4a	-0.005822574
136	0x3df8e00c	0.121521086
137	0xbdf7f752	-0.121077195
138	0xbe8a849c	-0.27054298
139	0xbedd8c01	-0.43270877
140	0x3e3289bb	0.17435353
141	0xbe18f37c	-0.14936632
142	0x3f22cf00	0.63597107
143	0xbdbcd16b	-0.09219631
144	0x3e8334fd	0.25626364
145	0x3f2a363c	0.66489005
146	0x3de91439	0.1138081
147	0xbdfb97fa	-0.122848466
148	0xbea58afc	-0.323326
149	0x3eb93b51	0.36178067
150	0x3f41ea51	0.75748163
151	0x3b943f92	0.0045241797
152	0x3e2b479b	0.16726534
153	0x3f17ed75	0.59346706
154	0xbc92ce7c	-0.017920725
155	0x3d585089	0.05281118
156	0x3d3bce1d	0.04585086
157	0xbe9b8773	-0.30376777
158	0x3d1410f7	0.03614899
159	0x3e13e5ec	0.14443177
160	0x3e1edf9f	0.15514992
161	0xbf2d2f6a	-0.67650473
162	0x3e8bddc2	0.27317625
163	0xbf0ad54e	-0.5423173
164	0x3d93fe70	0.072262645
165	0xbe78f9dd	-0.24314065
166	0x3f0373de	0.51348674
167	0x3ec3373f	0.38128087
168	0xbec0fad2	-0.3769136
169	0x3d8e0ec2	0.069364086
170	0xbe6fb996	-0.23410639
171	0xbeb39fd5	-0.3508288
172	0xbd9741b8	-0.07385582
173	0x3e67b9a5	0.22629412
174	0x3f759f12	0.9594585
175	0xbec0a01d	-0.37622157
176	0xbe0f587f	-0.13998602
177	0x3ddcb927	0.107775025
178	0xbe15d32a	-0.14631334
179	0xba399734	-0.0007079721
180	0xbc1ea344	-0.00968248
181	0xbdb0fb90	-0.08641732
182	0x3f90d944	1.1316304
183	0xbeb64d89	-0.3560603
184	0xbe968015	-0.29394594
185	0x3e857837	0.2606828
186	0xbf79dfd5	-0.97607166
187	0x3d1a28e8	0.037636667
188	0xbe895416	-0.26821965
189	0xbec9f42d	-0.39444104
190	0xbd9c89eb	-0.07643493
191	0xbccca0a9	-0.024978952
192	0xbf084146	-0.532246
193	0xbe620f89	-0.22076239
194	0x3e694edf	0.22783993
195	0x3f327e2c	0.69723773
196	0xbe73037d	-0.237318
197	0xbf30d1d3	-0.69070166
198	0x3e87b0b7	0.2650201
199	0xbec3bb6f	-0.38228938
200	0x3efc682f	0.49298236
201	0x3e60ef36	0.21966252
202	0x3e129eee	0.1431844
203	0xbf1a46f6	-0.6026453
204	0xbf0e5d42	-0.5561105
205	0x3ecfb3ae	0.40566772
206	0x3eabccb9	0.33554628
207	0x3e645142	0.22296622
208	0xbd82f628	-0.06394607
209	0xbde5bdf1	-0.11217869
210	0x3ef86dd4	0.48521292
211	0xbe39f413	-0.18159513
212	0xbf098959	-0.537252
213	0xbe963c79	-0.29343012
214	0x3f28c3f9	0.6592403
215	0xbd56b6f8	-0.052420586
216	0x3e8fd561	0.28092483
217	0x3e8859ea	0.266311
218	0x3eb64974	0.35602915
219	0xbdba2ea4	-0.09090927
220	0xbeacdfcc	-0.33764493
221	0x3c732058	0.014839254
222	0x3e4ed839	0.2019967
223	0xbf2833b1	-0.65703875
224	0x3e2a48f1	0.16629387
225	0x3e1d33ec	0.15351838
226	0x3eea6f81	0.45788196
227	0x3e280940	0.16409779
228	0x3bec5680	0.00721246
229	0x3e02a2e0	0.12757444
230	0x3e23e6f4	0.1600607
231	0x3d95ba96	0.07310979
232	0x3f171ace	0.59025276
233	0x3f44002c	0.7656276
234	0xbe4f705b	-0.20257704
235	0x3d8981f1	0.067142375
236	0x3ea44a81	0.32088092
237	0x3f4286f3	0.75987166
238	0xbdef1af3	-0.11675062
239	0xbe1600ad	-0.14648695
240	0x3e1e590b	0.15463655
241	0xbcef197b	-0.029186955
242	0x3d61b3e4	0.055103198
243	0x3f6ccbfd	0.9249876
244	0x3e8cbb36	0.2748658
245	0xbe7f25e7	-0.24916802
246	0xbec1fd8a	-0.37888747
247	0xbe751078	-0.23932064
248	0x3ef252ef	0.47328898
249	0x3ea68022	0.32519633
250	0x3dcbb519	0.09946651
251	0xbe0b62a9	-0.13611855
252	0xbf2b07f8	-0.66809034
253	0x3ee56d6e	0.4481005
254	0xbddf31f3	-0.10898199
255	0x3eed0617	0.4629371

network_body._body_endoder.seq_layers.0.bias f4 [128]
0	0xbce84e11	-0.028357537
1	0x3be2f331	0.0069259633
2	0xbbd83938	-0.006598618
3	0x3c36841a	0.011139894
4	0x3c948d1e	0.018133696
5	0x3c2d8276	0.010590186
6	0xbce37eea	-0.027770478
7	0x3d148216	0.036256872
8	0x3d1219d3	0.03566916
9	0x3cab6699	0.020922946
10	0x3bebffdd	0.007202132
11	0x3b890303	0.004181267
12	0x3cc7f8b3	0.024410581
13	0xbb5733f7	-0.003283737
14	0x3c892e66	0.016745757
15	0x3cc1b648	0.023646489
16	0x3ca7f24b	0.020501276
17	0xbbcc31f0	-0.006231539
18	0xbcb792a4	-0.02240879
19	0xbc211943	-0.009832683
20	0xbca3a847	-0.019977702
21	0x3d0f1ea7	0.03494134
22	0x3c50c650	0.012742594
23	0x3d3d0382	0.046145923
24	0x3a03ef2b	0.0005032892
25	0x3cb37419	0.021905946
26	0x3b434133	0.00297935
27	0x3d3e9581	0.046529297
28	0xbc8a0b3b	-0.016851058
29	0x3c249bb4	0.010046888
30	0xbc6dc900	-0.014513254
31	0x3b9b105b	0.0047321743
32	0x3d24191a	0.040063
33	0x3b4dad57	0.0031383836
34	0x3ccc17d8	0.024913713
35	0x3cadc470	0.021211833
36	0x3bc41607	0.005984071
37	0x3dbde1aa	0.09271558
38	0x3ba4048f	0.0050054262
39	0xbc975a6d	-0.018475736
40	0x3c869c74	0.016432025
41	0x3cadb011	0.021202119
42	0x3c1d2c94	0.009593148
43	0xbc98c40f	-0.018648176
44	0xbc584a5b	-0.0132013215
45	0x3c9db48d	0.019251132
46	0x3c559dc7	0.013038105
47	0x3c5a8cb0	0.013339207
48	0xbc5274c5	-0.012845223
49	0xbd817b11	-0.06322301
50	0x3cd884d8	0.026430532
51	0xbcb44886	-0.022007238
52	0xbd124883	-0.035713684
53	0x3c8ef4e9	0.017450767
54	0x3b7a3f8e	0.0038184854
55	0x3cc64f8d	0.024207855
56	0x3c918e05	0.017767916
57	0xbcaa0a8b	-0.02075698
58	0x3d3229dc	0.04349695
59	0xbbf2ea0d	-0.007413155
60	0x3d2002dd	0.03906523
61	0x3d5c9455	0.053852398
62	0xbd0ffcf2	-0.035153337
63	0x3d887f58	0.06664914
64	0x3d5628c9	0.05228499
65	0x3d3b4ae5	0.045725722
66	0x3c5d8201	0.013519765
67	0x3c400e7d	0.011722204
68	0xbbb36446	-0.0054746
69	0x3cba9441	0.022775771
70	0x3cd118c2	0.0255245
71	0x3cb2b10e	0.021812942
72	0xbc3b013f	-0.011413871
73	0x3b10d92b	0.0022102098
74	0x3cd31356	0.025766056
75	0xbc37b960	-0.01121363
76	0xbd0e8d0b	-0.034802478
77	0xbc8dd746	-0.017314564
78	0x3d166bc5	0.03672387
79	0x3d8ff6d7	0.07029503
80	0x3c346ac7	0.011011786
81	0xbd5cee23	-0.053938042
82	0x3c44dbab	0.012015264
83	0x3d31a386	0.04336884
84	0xbd632eb2	-0.055464454
85	0x3d704733	0.05866165
86	0xbd6fafe8	-0.058517367
87	0x3d93b962	0.07213093
88	0x3d6e09b9	0.05811474
89	0xbba077e1	-0.004897103
90	0xbd061c5b	-0.032741886
91	0xbcd70cce	-0.026251223
92	0xbc175cc4	-0.009238426
93	0xbbbac711	-0.0057
94	0xb944b915	-0.00018760965
95	0xbd7e9311	-0.062151972
96	0x3c73a671	0.014871226
97	0xbccc5977	-0.024945004
98	0x3d296d54	0.04136403
99	0xbae45bf3	-0.0017422423
100	0xbbb5ba38	-0.0055458806
101	0x3d25b4c3	0.04045559
102	0xbccae9d4	-0.024769701
103	0x3cc125d4	0.023577608
104	0x3c914052	0.017730866
105	0x3c9bc7ac	0.01901611
106	0x3ceb2250	0.028702885
107	0x3d339326	0.043841504
108	0x3cb21b63	0.021741575
109	0x3cce9adc	0.025220327
110	0x3d275112	0.0408488
111	0x3cc40bef	0.023931472
112	0xbb15b4df	-0.0022843403
113	0x3c9cca3f	0.019139407
114	0xbc3c01d0	-0.0114750415
115	0x3be8a39e	0.007099583
116	0xbd11bf42	-0.03558279
117	0xbd7970c3	-0.060898554
118	0x3b0a2238	0.0021077525
119	0x3b82d6cf	0.0039928923
120	0x3c9bbd70	0.01901123
121	0xbcafae73	-0.021445489
122	0x3d885cbb	0.06658312
123	0x3d14a609	0.036291156
124	0x3cfad0c4	0.030617125
125	0x3bd8da03	0.006617786
126	0x3d263463	0.040577304
127	0xbc94defe	-0.018172737

network_body._body_endoder.seq_layers.2.weight f4 [128, 128]
0	0x38a35df6	7.789947e-05
1	0xbe011149	-0.1260425
2	0xbdb7fe87	-0.08984094
3	0xbda8c1f9	-0.08240122
4	0x3d337283	0.04381038
5	0x3de8d74a	0.11369188
6	0xbdf631ab	-0.12021192
7	0x3e50a716	0.20376238
8	0xbe251a9d	-0.16123433
9	0xbde66dc8	-0.11251408
10	0xbd4c40f1	-0.04986662
11	0xbd3e1194	-0.046403483
12	0xbe08dd70	-0.13365722
13	0xbdc8c20a	-0.09802635
14	0xbd60f9e5	-0.054925818
15	0x3dc85d3d	0.09783409
16	0x3e8263eb	0.25466856
17	0x3e06a2e7	0.1314808
18	0xbe0b63a9	-0.13612236
19	0x3d177943	0.03698088
20	0xbe1ff8f2	-0.15622309
21	0x3e5c3c90	0.21507478
22	0xbb2dee95	-0.002653991
23	0x3e1d7314	0.1537593
24	0xbda61f6e	-0.081114635
25	0xbd2a6e98	-0.041609377
26	0xbc84d031	-0.016212555
27	0x3da69a1f	0.08134865
28	0x3d0c85b4	0.034307197
29	0xbda30073	-0.0795907
30	0xbd7f825b	-0.062380176
31	0xbce90c14	-0.028448142
32	0xbda6849e	-0.081307635
33	0x3d8d6300	0.069036484
34	0xbdf9bd77	-0.12194341
35	0xba9f7eb1	-0.0012168494
36	0xbe1e68dc	-0.15469688
37	0x3d185afa	0.037196137
38	0xbdbe819e	-0.09302066
39	0xbdb94ae1	-0.09047485
40	0xbd02217b	-0.03177021
41	0x3c434d9a	0.011920357
42	0xbc3ecbfa	-0.0116453115
43	0xbdb5190e	-0.088426694
44	0x3b023333	0.0019866943
45	0x3da27847	0.07933097
46	0xbd8e1323	-0.06937244
47	0xba67070f	-0.00088130025
48	0xbe33d93d	-0.17563339
49	0x3cb9a604	0.02266217
50	0xbda76145	-0.081728496
51	0xbc6c7f59	-0.014434659
52	0x3ddd645e	0.10810159
53	0xbe0ca6f7	-0.13735567
54	0xbd2e27e8	-0.042518526
55	0xbde7033b	-0.11279913
56	0x3d57a62b	0.052648704
57	0x3c8f95ed	0.017527545
58	0xbc1ee23e	-0.009697495
59	0xbd774d2e	-0.06037634
60	0x3c6a88e3	0.014314863
61	0x3dc638fe	0.09678839
62	0x3c0e1592	0.008672135
63	0xbdb1b238	-0.08676571
64	0xbdff2ee7	-0.12460118
65	0xbc16267e	-0.009164451
66	0xbd0c25d0	-0.03421575
67	0xbd4a3c50	-0.049373925
68	0x3e11dc8d	0.1424429
69	0x3c6145a8	0.0137495175
70	0x3deb6f32	0.11495818
71	0x3d97c144	0.07409909
72	0xbd611f8c	-0.054961726
73	0xbd179d46	-0.037015222
74	0xbcf5b3e7	-0.02999301
75	0xbd873338	-0.06601566
76	0xbd7026ea	-0.05863086
77	0xbddf0d19	-0.1089117
78	0x3dab7ebd	0.08373783
79	0x3e1002f6	0.1406363
80	0x3c6ba02e	0.0143814515
81	0xbd9c21c9	-0.076236315
82	0x3e2b4fd5	0.16729672
83	0x3d952448	0.07282311
84	0xbcc62be5	-0.024190852
85	0x3d8597b7	0.06523078
86	0xbb78c87e	-0.00379613
87	0xb99304a6	-0.00028041488
88	0xbd925258	-0.07144612
89	0xbe09efac	-0.13470334
90	0xbbbe481b	-0.0058069355
91	0x3ccc5115	0.024941007
92	0xbdc84927	-0.09779578
93	0xbd126b09	-0.035746608
94	0x3d751a81	0.05983973
95	0x3d852b4c	0.06502399
96	0xbe0b4f3d	-0.13604446
97	0x3e09b3bd	0.13447471
98	0xbd216ad1	-0.03940851
99	0xbc87b74f	-0.0165669
100	0xbd5f9dc1	-0.054593805
101	0x3c7d23f6	0.015450468
102	0xbe431eed	-0.19054766
103	0xbd8b7689	-0.06809718
104	0x3e2f9286	0.17145738
105	0xbc6f2e82	-0.014598491
106	0xbd224074	-0.03961225
107	0xbca4993f	-0.020092605
108	0x3e08315d	0.1330008
109	0x3dee4b2d	0.116354324
110	0xbad635dd	-0.0016342957
111	0x3e26da1c	0.1629414
112	0x3d14fc7b	0.036373597
113	0x3d24724e	0.040148072
114	0xbd0b3417	-0.033985224
115	0x3c086af8	0.008326285
116	0xbc5740c9	-0.013138005
117	0xbca4e0d5	-0.02012674
118	0x3c9e3ca1	0.01931602
119	0x3c2d0fdc	0.010562863
120	0x3dceafff	0.10092162
121	0xbe369cd4	-0.17833263
122	0xbd66fc0a	-0.056392707
123	0xbcd2e1a4	-0.02574236
124	0x3da7751b	0.08176633
125	0xbd98f036	-0.074676916
126	0x3df7c89c	0.1209881
127	0xbd582db5	-0.052777965
128	0xbae003fb	-0.001709103
129	0x3db338e3	0.08751085
130	0xbb828516	-0.0039831502
131	0x3bb5e965	0.0055515044
132	0xb9798740	-0.00023796875
133	0xbd3c5463	-0.045978915
134	0x3cd332cc	0.025781058
135	0xbd972292	-0.07379641
136	0xbd075a48	-0.033045083
137	0x3c866726	0.016406607
138	0x3c8838e6	0.016628694
139	0x3d08e468	0.03342095
140	0xbdc9942e	-0.09842716
141	0xbcfb9b17	-0.030713601
142	0xbcd2f4a0	-0.025751412
143	0x3d8597a4	0.06523064
144	0x3c1ac9c8	0.009447522
145	0x3e5bba13	0.214577
146	0xbe0065e6	-0.12538871
147	0x3bfa27ad	0.0076341243
148	0xbe659150	-0.22418714
149	0xbe58da70	-0.21177077
150	0xbcae4951	-0.021275194
151	0xbc5042bd	-0.012711224
152	0xbd1676c1	-0.036734346
153	0xbdbdc11d	-0.09265349
154	0x3d856995	0.06514279
155	0xbe1e14e2	-0.15437654
156	0xbd449648	-0.047994882
157	0x3ca2fe5d	0.01989668
158	0xbd3f187f	-0.04665422
159	0x3e2574ad	0.1615779
160	0xbc894c4e	-0.016760018
161	0xbd91bf17	-0.071165256
162	0x3dd4b569	0.10386164
163	0xbe033ea9	-0.12816872
164	0x3d59575c	0.053061828
165	0xbc0badfb	-0.008525367
166	0xbe65ae8d	-0.22429867
167	0xbb73e3c9	-0.0037214628
168	0xbdf31ff5	-0.1187133
169	0x3d0abd6f	0.033872064
170	0x3db4d18c	0.088290304
171	0xbd0bdc21	-0.03414548
172	0xbe5c6a7d	-0.21524997
173	0x3df025f8	0.11725992
174	0xbdac15f1	-0.084026225
175	0x3dc8671f	0.09785294
176	0x3e084358	0.1330694
177	0x3dd1f37c	0.10251519
178	0xbdca5bb1	-0.0988077
179	0x3dfb3856	0.122666046
180	0x3dd799d2	0.10527386
181	0xbda2d251	-0.07950271
182	0x3d854724	0.065077096
183	0x3cc8e856	0.024524849
184	0xbe33487d	-0.17508121
185	0xbdac0081	-0.083985336
186	0xbc5e544a	-0.013569901
187	0xbda10afb	-0.078634225
188	0xbba2c5f7	-0.004967447
189	0x3d008209	0.03137401
190	0xbd763dd0	-0.060117543
191	0x3d95fdf6	0.0732383
192	0x3cf26681	0.029589893
193	0xbe0ff83a	-0.14059535
194	0x3d430cce	0.047619633
195	0x3de33f1d	0.11096022
196	0x3d7f356a	0.0623068
197	0xbd88e386	-0.06684022
198	0x3dcbfb53	0.09960046
199	0xbe2d2e28	-0.16912138
200	0x3dde3e33	0.10851707
201	0x3dcd116c	0.100130886
202	0xbe1c61bd	-0.15271659
203	0xbcdff2df	-0.02733749
204	0x3da652d5	0.08121268
205	0x3d82933e	0.063757405
206	0x3bb997f9	0.0056638685
207	0xbd015bdf	-0.031581756
208	0xbcb13102	-0.021629814
209	0xbe2dfa35	-0.16989978
210	0x3d33ae3d	0.04386734
211	0xbda4f21d	-0.08053992
212	0xbdc27346	-0.09494643
213	0x3c0f5bec	0.008749943
214	0x3c8e9fa2	0.017410103
215	0xbe0dfbd8	-0.13865602
216	0x3d5dcddd	0.054151405
217	0x3dcc4f30	0.09976041
218	0xbd602343	-0.05472113
219	0x3c21ce1b	0.0098757995
220	0x3e32655a	0.17421475
221	0x3b5098bb	0.0031829316
222	0xbe0c24a6	-0.13685855
223	0xbe0fcfa7	-0.14044057
224	0x3dd93df7	0.10607522
225	0x3b4dc17e	0.0031395848
226	0x3df8ee10	0.12154782
227	0xbd02a41f	-0.0318948
228	0x3d3cecf8	0.04612443
229	0xbc201328	-0.009770192
230	0xbdd50177	-0.1040067
231	0xbdb2674e	-0.0871111
232	0xbdcf0993	-0.10109248
233	0xbc426072	-0.011863815
234	0xbd7da2c9	-0.061922822
235	0xbdd37ea6	-0.10326891
236	0x3d886305	0.066595115
237	0xbd9f74e1	-0.07785965
238	0x3dd98248	0.10620552
239	0xbdbc9535	-0.092081465
240	0x3e16681c	0.14688152
241	0x3d880779	0.0664205
242	0xbc5b083f	-0.013368665
243	0x3e0d5702	0.13802722
244	0x3c24d03c	0.010059413
245	0x3dd6e0e4	0.10492113
246	0x3d2bb3d2	0.041919537
247	0x3d8789e1	0.06618095
248	0xbe1952c1	-0.14972974
249	0xbc21ddff	-0.009879588
250	0xbe05a946	-0.13052854
251	0xbcdca464	-0.026933856
252	0x3d1cddc5	0.038297433
253	0x3d4b626e	0.049654417
254	0x3d8df407	0.0693131
255	0xbd83b8ca	-0.0643173

network_body._body_endoder.seq_layers.2.bias f4 [128]
0	0x3d162efa	0.036665894
1	0x3be4d50a	0.006983404
2	0x3c951e8e	0.018203046
3	0xbb531c4b	-0.003221291
4	0x3d17d31b	0.03706656
5	0x3b8bc9a9	0.004265983
6	0x3b861749	0.0040921313
7	0x3c5f89f4	0.01364373
8	0xbaacb2d3	-0.0013175852
9	0x3c589382	0.013218762
10	0xbbc34f86	-0.0059604077
11	0xb95aae38	-0.00020855002
12	0x3bbf353f	0.005835205
13	0x3c876490	0.016527444
14	0x3b202c9a	0.0024440647
15	0x39e6a95c	0.000439952
16	0x3bb574c0	0.0055375993
17	0xbc9910db	-0.018684795
18	0x3cddffd5	0.02709953
19	0xbb9a69ab	-0.0047123036
20	0x3cdcc883	0.02695108
21	0x3c660f65	0.014041756
22	0x3c0d2ec3	0.008617106
23	0x3b89be64	0.0042036045
24	0x3b2ccace	0.0026365998
25	0x3bd28a01	0.0064251428
26	0x3c084b06	0.008318668
27	0xbbcc4daa	-0.006234844
28	0xbb983362	-0.004644797
29	0x3ced0672	0.028933737
30	0x3ce330d9	0.027733253
31	0x3c26f09f	0.0101892045
32	0xbba80a04	-0.005128147
33	0x3c74a7cc	0.014932584
34	0x3bf87bb2	0.007583105
35	0x3c0b83fe	0.008515356
36	0x3b0e2db1	0.0021694715
37	0x3ca58d8c	0.020209096
38	0x3d0dc304	0.03460981
39	0x3c82b630	0.015956014
40	0xbb2e9ee5	-0.0026645001
41	0x3c90ad77	0.01766084
42	0x3d0ae129	0.033906136
43	0x3c751b9f	0.014960199
44	0x3baacc58	0.005212348
45	0x3cd1abc7	0.025594605
46	0x3c7568ad	0.01497857
47	0x3c060e8e	0.008182181
48	0xbae979e9	-0.0017812821
49	0x3c6faa46	0.014627999
50	0x3c7e94cc	0.015538406
51	0xbb9aa850	-0.0047197714
52	0xbb828f8b	-0.003984397
53	0x3cb73406	0.022363674
54	0x3cc67813	0.024227178
55	0x3d032f5f	0.0320276
56	0x3cbbff7b	0.022948971
57	0x3ca9d9fb	0.020733824
58	0x3c2d9f2a	0.01059703
59	0xbb885aaf	-0.004161201
60	0x3aa9e8e4	0.0012963084
61	0x3c953da2	0.018217865
62	0x3c1bb8e0	0.009504527
63	0x3c898b1f	0.01678997
64	0x3c997271	0.018731328
65	0xbb87f96e	-0.0041496074
66	0x3d0b03f1	0.033939306
67	0xbc953a3d	-0.018216247
68	0xbb144756	-0.0022625527
69	0x3cb78d42	0.022406224
70	0x3cadbbe8	0.021207765
71	0x3bd7e9d3	0.0065891533
72	0x3b92ce60	0.004480168
73	0x3d147cab	0.036251705
74	0x3c5e68de	0.013574807
75	0xbbc965ec	-0.0061461832
76	0x3c9100e6	0.017700624
77	0xbb9d3fcc	-0.004798865
78	0x3b9676a6	0.0045917807
79	0x3cb69a1a	0.022290278
80	0x3c671756	0.014104685
81	0xbb4772d5	-0.0030433435
82	0xb9c76d4d	-0.00038037673
83	0xbb403845	-0.0029330414
84	0x398f7706	0.00027363765
85	0xbba57c37	-0.005050208
86	0xbc317add	-0.010832516
87	0xbc057794	-0.008146185
88	0x3bde4072	0.006782585
89	0x3d0f1b06	0.03493788
90	0x3d1e4371	0.038638536
91	0x3bb066f9	0.005383369
92	0xbcafb147	-0.021446837
93	0xbc9f2f46	-0.019431721
94	0x3cac4e0f	0.021033315
95	0x3c629842	0.013830246
96	0xbb279849	-0.0025572947
97	0xbaa0f9e7	-0.0012281508
98	0x3d07b9fb	0.03313635
99	0xbbf4c2eb	-0.007469525
100	0xbaa37a93	-0.0012472443
101	0x3b06f687	0.002059372
102	0xbb88f891	-0.004180022
103	0x3be1e45a	0.0068936767
104	0x3c8ba181	0.017044785
105	0x382af688	4.076076e-05
106	0x3c226477	0.009911648
107	0x3c06d561	0.008229584
108	0x3808a471	3.2578075e-05
109	0x3b688435	0.0035479192
110	0x3cf79796	0.030223649
111	0xbba4001c	-0.005004896
112	0x3aa1e4ad	0.0012351476
113	0xbbc5f289	-0.0060408753
114	0x3d0110ac	0.03151004
115	0x3cc1cead	0.023658121
116	0x3d0c28fd	0.034218777
117	0x3c0cef0e	0.008601917
118	0x3c274bce	0.010210944
119	0x3c9d163e	0.019175645
120	0x3cd77275	0.026299695
121	0x3d69a0f5	0.057038266
122	0x3c7b983e	0.015356122
123	0x3c85bf25	0.016326496
124	0xbc031101	-0.0079996595
125	0x3c488685	0.012239103
126	0x3c9b7e66	0.01898117
127	0x3c63bf4d	0.01390059

action_model._discrete_distribution.branches.0.weight f4 [2, 128]
0	0xbd3a7794	-0.045524195
1	0xbc753ddf	-0.0149683645
2	0xbd497ab6	-0.049189292
3	0x3a998aff	0.0011714398
4	0xbccce3bf	-0.025010942
5	0x3cf8024f	0.030274538
6	0x3a94e496	0.0011359628
7	0x3d81222f	0.06305348
8	0x3d12aacb	0.035807412
9	0xbc552eee	-0.013011677
10	0x389e979e	7.562268e-05
11	0x3ce7b07d	0.028282398
12	0xbbed7d29	-0.0072475863
13	0xbd0f46d0	-0.03497964
14	0x3cb54c88	0.02213122
15	0xbc13a62d	-0.009011787
16	0x3ce083f3	0.027406668
17	0x3cdc03bf	0.026857255
18	0xbcfacb38	-0.03061448
19	0x3d085407	0.03328326
20	0x3d11b1c1	0.03556991
21	0xbc3e9480	-0.011632085
22	0x3d5fd2d0	0.054644406
23	0x3d54e3f0	0.05197519
24	0x3d2235ea	0.039602198
25	0x3bf99750	0.007616915
26	0xbc90efc7	-0.01769246
27	0x3c857faa	0.016296227
28	0xbaec0a91	-0.001800852
29	0xbd8c5468	-0.06852037
30	0xbcf885f3	-0.03033731
31	0xbc382747	-0.011239833
32	0x3c66e90d	0.01409365
33	0x3d320cef	0.043469366
34	0x3d1bcd2b	0.03803746
35	0xbccd27ef	-0.025043456
36	0xbbb85b54	-0.0056261215
37	0x3d828e60	0.06374812
38	0xbd51783c	-0.051140055
39	0xbc5e5471	-0.013569937
40	0x3c4ece48	0.0126224235
41	0xbd469e8d	-0.04849105
42	0x3d77a3ba	0.060458876
43	0xbc720fea	-0.014774302
44	0xbc803ee8	-0.015654996
45	0xbca46132	-0.020065878
46	0xbc8c05a9	-0.017092543
47	0x3d3e71ad	0.04649513
48	0x3d0c117e	0.03419637
49	0xbd0433a8	-0.032275826
50	0x3ba80744	0.0051278193
51	0x3cd66d45	0.02617515
52	0x3c5c10e6	0.013431763
53	0xbd202c45	-0.03910472
54	0xbd332777	-0.04373881
55	0xbd221210	-0.039568007
56	0xbd09d8d8	-0.033654064
57	0xbc91d812	-0.017803226
58	0xbd14da9b	-0.03634129
59	0x3c9cb6c3	0.019130116
60	0x3ccb63e2	0.024827901
61	0xbc804789	-0.01565911
62	0xbbc3c936	-0.005974914
63	0xbce01c5e	-0.027357277
64	0x3d797657	0.060903873
65	0xbb2d7cee	-0.002647217
66	0xbcd1fe2b	-0.025633892
67	0x3bf29ab6	0.007403697
68	0x3c0ef58a	0.008725533
69	0x3d584dde	0.052808635
70	0xbd0d01c0	-0.034425497
71	0x3d7f05ad	0.062261272
72	0x3a6c100a	0.00090050756
73	0xbcfaf70b	-0.030635377
74	0x3d2a1248	0.04152134
75	0x3d390225	0.04516806
76	0xbd04643b	-0.03232215
77	0x3a388ae4	0.0007039739
78	0x3d2dcb0b	0.042429965
79	0xbd0b8dff	-0.034070965
80	0xbc05d16f	-0.008167609
81	0x3b181d66	0.0023210882
82	0x3cb8c601	0.022555353
83	0x3c94afaf	0.018150179
84	0xba979626	-0.0011565133
85	0xbc0ba010	-0.008522049
86	0xbb1c2db0	-0.0023830943
87	0x3c7b654f	0.015343978
88	0x3cadd7ee	0.021221127
89	0xbd2510a9	-0.04029909
90	0xbd1df770	-0.038566053
91	0xbca3876e	-0.019962039
92	0x3ccd193c	0.025036447
93	0x3bbbddb8	0.005733218
94	0xbd499583	-0.04921485
95	0x3d1a7d6b	0.037717264
96	0x3ca7a172	0.020462725
97	0x3cbcb93f	0.023037551
98	0xbcdde8a6	-0.027088474
99	0x3c1953cc	0.009358358
100	0x3c8e8d70	0.017401427
101	0x3c82c67b	0.015963783
102	0x3c8bfa9c	0.017087273
103	0xbc14831a	-0.00906446
104	0xbccbf893	-0.024898803
105	0xba0eb8fb	-0.00054444344
106	0xbc876c1f	-0.016531048
107	0xbc835171	-0.016030045
108	0x3cefaa8a	0.029256124
109	0x3d17929d	0.037005056
110	0xbcc52bb0	-0.024068683
111	0x3bccf404	0.006254675
112	0x3d0b208d	0.03396659
113	0x3be2bb46	0.0069192974
114	0xbc6b828f	-0.014374389
115	0xbcb71ece	-0.022353556
116	0xbcf124d4	-0.029436506
117	0xba49888b	-0.0007687888
118	0xbc1e15f5	-0.00964879
119	0x3d24766c	0.040152
120	0xbd210e99	-0.039320562
121	0xbd209112	-0.03920085
122	0xbc066228	-0.008202113
123	0xbc79ee04	-0.015254501
124	0x3c0501a5	0.008118068
125	0xbccd7e4e	-0.02508464
126	0xbbb1c693	-0.005425283
127	0x3d4287ed	0.04749291
128	0x3d432561	0.04764307
129	0x3c379741	0.011205495
130	0x3c545ec1	0.012962044
131	0xbcadd4cd	-0.021219635
132	0x3cf53225	0.029931137
133	0xbd191a95	-0.037378866
134	0x3bc5fa78	0.006041821
135	0xbd8de936	-0.06929247
136	0xbce0aec2	-0.027427081
137	0xbbd010d3	-0.006349662
138	0xbb8f28db	-0.004368884
139	0xbd093c1e	-0.033504598
140	0x3cbd0c91	0.023077281
141	0x3cec98e2	0.028881494
142	0xbc827d0e	-0.015928771
143	0x3c9b36c3	0.01894701
144	0xbcf81595	-0.030283729
145	0xbbe24ac4	-0.0069058854
146	0x3d49b76f	0.0492472
147	0xbcef3cdd	-0.029203827
148	0xbd2fa036	-0.0428774
149	0x3bf99db2	0.0076176757
150	0xbd673d65	-0.056455035
151	0xbd0622ee	-0.032748155
152	0xbd4bb9f0	-0.04973787
153	0x3ca71a5d	0.020398313
154	0x3c9f3669	0.019435124
155	0xbc89d22a	-0.016823847
156	0xbbe00735	-0.0068367966
157	0x3d7da34c	0.06192331
158	0x3d411afe	0.047144882
159	0x3c97fa55	0.018551985
160	0xbd1c02fc	-0.038088784
161	0xbd22785b	-0.03966556
162	0xbd7b00a9	-0.061279926
163	0x3caa4d93	0.020788943
164	0x3c33ac00	0.010966301
165	0xbd596f17	-0.05308446
166	0x3d525f0c	0.051360175
167	0x3bc5d514	0.006037364
168	0xbc814eb5	-0.0157846
169	0x3d1951b4	0.037431434
170	0xbd3da921	-0.046303872
171	0x3c8a5d96	0.016890328
172	0x3bb3bed1	0.0054853936
173	0x3d104fed	0.035232473
174	0x3cd926bd	0.02650773
175	0xbd559a49	-0.05214909
176	0xbcd268ba	-0.025684703
177	0x3cd8f255	0.02648274
178	0x3c19e642	0.009393277
179	0xbc5df26e	-0.013546569
180	0xbc59d65b	-0.013295735
181	0x3d123a76	0.035700284
182	0x3d1979b7	0.037469592
183	0x3d35f84f	0.04442626
184	0x3cc73493	0.024317062
185	0x3b33c56f	0.0027430912
186	0x3cd44397	0.025911136
187	0xbc8642a9	-0.016389208
188	0xbcc90f4a	-0.024543423
189	0x3ca33d9b	0.019926837
190	0x3c6a3494	0.014294762
191	0x3ceb9eca	0.02876224
192	0xbd6dd4ef	-0.058064397
193	0x3c41eba1	0.011835963
194	0x3d02f8ba	0.031975485
195	0xbbfe825f	-0.0077670063
196	0x3b714d46	0.003681974
197	0xbd9b3c84	-0.07579902
198	0x3cf6c3ab	0.030122599
199	0xbcd74d1e	-0.02628189
200	0x3c9119c4	0.017712481
201	0x3d48db82	0.049037464
202	0xbd4dbc17	-0.050228205
203	0xbcbb7c59	-0.022886442
204	0x3cfde606	0.030993473
205	0xbbe7a1f1	-0.0070688655
206	0xbd37fec0	-0.044920683
207	0x3d86a9a1	0.06575323
208	0x3aa29b5d	0.0012405921
209	0xbb313d84	-0.0027044723
210	0xbcdf3ea7	-0.027251555
211	0xbd1cc728	-0.038275868
212	0x3bc5fc8d	0.0060420693
213	0xbcbbc280	-0.022919893
214	0xbb7ea99a	-0.0038858415
215	0xbb9a2bcd	-0.0047049285
216	0xbd141ef2	-0.036162324
217	0x3d2aaa24	0.041666165
218	0x3d22519e	0.039628617
219	0x3c1a1ed9	0.009406769
220	0xbc0a59ab	-0.00844423
221	0xbbbf77b5	-0.0058431276
222	0x3d2647c2	0.040595777
223	0xbc47ab8d	-0.012186897
224	0xbcb984c7	-0.022646321
225	0xbd004f14	-0.031325415
226	0x3d7925f9	0.06082723
227	0x3b88fd07	0.004180554
228	0xbcbcdd09	-0.023054617
229	0xbc845dd2	-0.016158018
230	0xbc5725be	-0.013131557
231	0x3cc5dfa5	0.024154494
232	0x3c9bca3c	0.019017331
233	0x3c8d404d	0.017242575
234	0x3c227946	0.009916609
235	0x3bd334b6	0.0064454926
236	0xbd21653c	-0.039403185
237	0xbd2002b1	-0.039065067
238	0x3cdf44c5	0.027254472
239	0xbb1f08d3	-0.0024266734
240	0xbd076285	-0.03305294
241	0xbbec412d	-0.007209918
242	0x3cad44ae	0.021150913
243	0x3c8b21cd	0.01698389
244	0x3d1cea88	0.038309604
245	0x3cae845f	0.021303354
246	0x3d13d2f1	0.03608984
247	0xbd24c319	-0.040225122
248	0x3cef43be	0.029207107
249	0x3d1a7c3d	0.03771614
250	0x3c96f1ec	0.018425904
251	0x3c9ec69b	0.019381812
252	0xbca1311a	-0.019676734
253	0x3cb43d00	0.022001743
254	0x3c8ca5f9	0.017168986
255	0xbd395ae7	-0.045252707

action_model._discrete_distribution.branches.0.bias f4 [2]
0	0xbc02abaf	-0.007975503
1	0x3c02abae	0.007975502
