results/ppo/MoveToBall/MoveToBall-323610.pt (torch, 437917 bytes, 33 tensors)

network_body._body_endoder.seq_layers.0.weight f4 [128, 6]
00000000: c629 923e 38e0 cbbe b69c bf3e 548d 6b3e
00000010: b33c debe fea1 0fbf 919f b6be 2dda 403e
00000020: 82be ca3e 9fc5 16be 0dcb 40bf 660e df3e
00000030: 735c 183e 3aaf 873e cdd5 993e 3cf8 193f
00000040: 7947 873e 1741 b3bd eb60 58be 14e2 4dbe
00000050: 35b0 29bf 50d6 be3e 770b 21be fe82 fabd
00000060: 51b1 a33f a94c 8e3e d808 293e d5a5 a5be
00000070: 61f1 9ebe 0105 fc3e 51c9 c2bc 4a68 123e
00000080: 4252 613e 826e c13e 3e73 b03d e8e2 afbe
00000090: 368e cebe b40b 02be 9b92 d43c 4121 28bc
000000a0: 6190 8abd eede 5e3d 8262 a3bf 5f4b e9bc
000000b0: 510c 913e 58f2 653e 1e32 0d3f e411 0d3f
000000c0: 2a90 c1ba ca32 fbbe a1e2 aa3e 64e2 1abf
000000d0: 10b5 833e 1f28 5cbe a896 13be eeb6 24bf
000000e0: c05e 263e ee60 1d3f fe30 033f 0ee0 1f3e
000000f0: bc9d 893e c76d 8abf 043c 8d3f 017d 34bf
00000100: e2e8 f8be c527 a8bd e7c7 953e 825e a53e
00000110: 3493 ddbe fc14 fc3d 49c1 14be c3d9 883e
00000120: 1161 38bf c14f 0e3e 6fa5 073f dafc 8d3e
00000130: eb99 89be 6a71 0f3e 10fd d4be bcc1 823e
00000140: 8ad7 cdbe 97d7 063f 14a2 f13b b88b e73c
00000150: 70ae 483f b263 49be 9390 f73d ff7a ff3e
00000160: 173d 55be 7dac bdbd cda8 64bd a6d5 493e
00000170: feeb 033e 23ad 6ebf 7bb0 4bbe 0bef 3b3c
00000180: 96dc b03d d211 cb3d 60dc 8cbc b983 23bf
00000190: 8ba8 8a3e 7365 3f3f a78a 833e 667e 043f
000001a0: 10f2 aa3e 9259 4d3e 83f4 fd3d 66f0 a9bd
000001b0: 7081 eebe 958b cdbd ac7e 823e 6af5 123f
000001c0: dc2b 79be 698b db3e 52c5 7f3e f2c5 833e
000001d0: 8a49 98be f80f 77be 85a6 9dbd dee6 3abf
000001e0: e1de 3bbd d1b5 813f 5170 003f 3dee b4bc
000001f0: 2c6e a63d acf8 37be feaf 0dbf 960a c43e
00000200: 06ea 8dbc 7076 6c3f 8aa6 ac3d 5d04 57bd
00000210: fe2a d0be 7a00 5d3e 34c2 35be 4acb bebb
00000220: 0ce0 f83d 52f7 f7bd 9c84 8abe 018c ddbe
00000230: bb89 323e 7cf3 18be 00cf 223f 6bd1 bcbd
00000240: fd34 833e 3c36 2a3f 3914 e93d fa97 fbbd
00000250: fc8a a5be 513b b93e 51ea 413f 923f 943b
00000260: 9b47 2b3e 75ed 173f 7cce 92bc 8950 583d
00000270: 1dce 3b3d 7387 9bbe f710 143d ece5 133e
00000280: 9fdf 1e3e 6a2f 2dbf c2dd 8b3e 4ed5 0abf
00000290: 70fe 933d ddf9 78be de73 033f 3f37 c33e
000002a0: d2fa c0be c20e 8e3d 96b9 6fbe d59f b3be
000002b0: b841 97bd a5b9 673e 129f 753f 1da0 c0be
000002c0: 7f58 0fbe 27b9 dc3d 2ad3 15be 3497 39ba
000002d0: 44a3 1ebc 90fb b0bd 44d9 903f 894d b6be
000002e0: 1580 96be 3778 853e d5df 79bf e828 1a3d
000002f0: 1654 89be 2df4 c9be eb89 9cbd a9a0 ccbc
00000300: 4641 08bf 890f 62be df4e 693e 2c7e 323f
00000310: 7d03 73be d3d1 30bf b7b0 873e 6fbb c3be
00000320: 2f68 fc3e 36ef 603e ee9e 123e f646 1abf
00000330: 425d 0ebf aeb3 cf3e b9cc ab3e 4251 643e
00000340: 28f6 82bd f1bd e5bd d46d f83e 13f4 39be
00000350: 5989 09bf 793c 96be f9c3 283f f8b6 56bd
00000360: 61d5 8f3e ea59 883e 7449 b63e a42e babd
00000370: ccdf acbe 5820 733c 39d8 4e3e b133 28bf
00000380: f148 2a3e ec33 1d3e 816f ea3e 4009 283e
00000390: 8056 ec3b e0a2 023e f4e6 233e 96ba 953d
000003a0: ce1a 173f 2c00 443f 5b70 4fbe f181 893d
000003b0: 814a a43e f386 423f f31a efbd ad00 16be
000003c0: 0b59 1e3e 7b19 efbc e4b3 613d fdcb 6c3f
000003d0: 36bb 8c3e e725 7fbe 8afd c1be 7810 75be
000003e0: ef52 f23e 2280 a63e 19b5 cb3d a962 0bbe
000003f0: f807 2bbf 6e6d e53e f331 dfbd 1706 ed3e
0.28547496 -0.39819503 0.37424248 0.23003131 -0.43405685 -0.56106555 -0.35668615 0.18833227
0.3959847 -0.14723824 -0.7530983 0.43565673 0.14879017 0.26500875 0.3004593 0.601444
0.26421717 -0.08752649 -0.21130721 -0.20105773 -0.66284496 0.37272882 -0.1572703 -0.12232016
1.2788488 0.27792862 0.1650728 -0.32353082 -0.31043532 0.49222568 -0.023777636 0.14297596
0.22004035 0.37779623 0.08615731 -0.34352803 -0.40342873 -0.12699777 0.025948813 -0.010261835
-0.06765819 0.05441182 -1.2764437 -0.028478323 0.2832971 0.22455728 0.551546 0.55105424
-0.0014767696 -0.49062186 0.3337603 -0.60501695 0.25724077 -0.2149968 -0.1441294 -0.6434163
0.16247082 0.6147603 0.5124663 0.15612814 0.26878154 -1.0814751 1.103394 -0.7050324
-0.48615175 -0.082107104 0.29254076 0.32298666 -0.4327637 0.1230869 -0.14526857 0.2672864
-0.7202311 0.13897611 0.52986807 0.27731973 -0.26875243 0.14008108 -0.4159932 0.25538433
-0.40203506 0.52672714 0.0073740575 0.028264865 0.7839117 -0.19666937 0.12088122 0.49898526
-0.20824085 -0.09261415 -0.055825043 0.19710407 0.12882993 -0.93232936 -0.1989154 0.0114705665
0.086358234 0.09915508 -0.017194927 -0.6387287 0.27081713 0.74764174 0.2569172 0.5175537
0.33387804 0.200537 0.124001525 -0.082978055 -0.46583128 -0.10036389 0.25487268 0.5740572
-0.24333137 0.428798 0.24977615 0.25736958 -0.29743606 -0.24127185 -0.07697777 -0.73008525
-0.04586685 1.0133611 0.5017138 -0.022086257 0.08126482 -0.17965955 -0.5534667 0.38289326
-0.017323505 0.9236822 0.08430202 -0.052494396 -0.406578 0.21582213 -0.17749864 -0.005822574
0.121521086 -0.121077195 -0.27054298 -0.43270877 0.17435353 -0.14936632 0.63597107 -0.09219631
0.25626364 0.66489005 0.1138081 -0.122848466 -0.323326 0.36178067 0.75748163 0.0045241797
0.16726534 0.59346706 -0.017920725 0.05281118 0.04585086 -0.30376777 0.03614899 0.14443177
0.15514992 -0.67650473 0.27317625 -0.5423173 0.072262645 -0.24314065 0.51348674 0.38128087
-0.3769136 0.069364086 -0.23410639 -0.3508288 -0.07385582 0.22629412 0.9594585 -0.37622157
-0.13998602 0.107775025 -0.14631334 -0.0007079721 -0.00968248 -0.08641732 1.1316304 -0.3560603
-0.29394594 0.2606828 -0.97607166 0.037636667 -0.26821965 -0.39444104 -0.07643493 -0.024978952
-0.532246 -0.22076239 0.22783993 0.69723773 -0.237318 -0.69070166 0.2650201 -0.38228938
0.49298236 0.21966252 0.1431844 -0.6026453 -0.5561105 0.40566772 0.33554628 0.22296622
-0.06394607 -0.11217869 0.48521292 -0.18159513 -0.537252 -0.29343012 0.6592403 -0.052420586
0.28092483 0.266311 0.35602915 -0.09090927 -0.33764493 0.014839254 0.2019967 -0.65703875
0.16629387 0.15351838 0.45788196 0.16409779 0.00721246 0.12757444 0.1600607 0.07310979
0.59025276 0.7656276 -0.20257704 0.067142375 0.32088092 0.75987166 -0.11675062 -0.14648695
0.15463655 -0.029186955 0.055103198 0.9249876 0.2748658 -0.24916802 -0.37888747 -0.23932064
0.47328898 0.32519633 0.09946651 -0.13611855 -0.66809034 0.4481005 -0.10898199 0.4629371

network_body._body_endoder.seq_layers.0.bias f4 [128]
00000000: 114e e8bc 31f3 e23b 3839 d8bb 1a84 363c
00000010: 1e8d 943c 7682 2d3c ea7e e3bc 1682 143d
00000020: d319 123d 9966 ab3c ddff eb3b 0303 893b
00000030: b3f8 c73c f733 57bb 662e 893c 48b6 c13c
00000040: 4bf2 a73c f031 ccbb a492 b7bc 4319 21bc
00000050: 47a8 a3bc a71e 0f3d 50c6 503c 8203 3d3d
00000060: 2bef 033a 1974 b33c 3341 433b 8195 3e3d
00000070: 3b0b 8abc b49b 243c 00c9 6dbc 5b10 9b3b
00000080: 1a19 243d 57ad 4d3b d817 cc3c 70c4 ad3c
00000090: 0716 c43b aae1 bd3d 8f04 a43b 6d5a 97bc
000000a0: 749c 863c 11b0 ad3c 942c 1d3c 0fc4 98bc
000000b0: 5b4a 58bc 8db4 9d3c c79d 553c b08c 5a3c
000000c0: c574 52bc 117b 81bd d884 d83c 8648 b4bc
000000d0: 8348 12bd e9f4 8e3c 8e3f 7a3b 8d4f c63c
000000e0: 058e 913c 8b0a aabc dc29 323d 0dea f2bb
000000f0: dd02 203d 5594 5c3d f2fc 0fbd 587f 883d
00000100: c928 563d e54a 3b3d 0182 5d3c 7d0e 403c
00000110: 4664 b3bb 4194 ba3c c218 d13c 0eb1 b23c
00000120: 3f01 3bbc 2bd9 103b 5613 d33c 60b9 37bc
00000130: 0b8d 0ebd 46d7 8dbc c56b 163d d7f6 8f3d
00000140: c76a 343c 23ee 5cbd abdb 443c 86a3 313d
00000150: b22e 63bd 3347 703d e8af 6fbd 62b9 933d
00000160: b909 6e3d e177 a0bb 5b1c 06bd ce0c d7bc
00000170: c45c 17bc 11c7 babb 15b9 44b9 1193 7ebd
00000180: 71a6 733c 7759 ccbc 546d 293d f35b e4ba
00000190: 38ba b5bb c3b4 253d d4e9 cabc d425 c13c
000001a0: 5240 913c acc7 9b3c 5022 eb3c 2693 333d
000001b0: 631b b23c dc9a ce3c 1251 273d ef0b c43c
000001c0: dfb4 15bb 3fca 9c3c d001 3cbc 9ea3 e83b
000001d0: 42bf 11bd c370 79bd 3822 0a3b cfd6 823b
000001e0: 70bd 9b3c 73ae afbc bb5c 883d 09a6 143d
000001f0: c4d0 fa3c 03da d83b 6334 263d fede 94bc
-0.028357537 0.0069259633 -0.006598618 0.011139894 0.018133696 0.010590186 -0.027770478 0.036256872
0.03566916 0.020922946 0.007202132 0.004181267 0.024410581 -0.003283737 0.016745757 0.023646489
0.020501276 -0.006231539 -0.02240879 -0.009832683 -0.019977702 0.03494134 0.012742594 0.046145923
0.0005032892 0.021905946 0.00297935 0.046529297 -0.016851058 0.010046888 -0.014513254 0.0047321743
0.040063 0.0031383836 0.024913713 0.021211833 0.005984071 0.09271558 0.0050054262 -0.018475736
0.016432025 0.021202119 0.009593148 -0.018648176 -0.0132013215 0.019251132 0.013038105 0.013339207
-0.012845223 -0.06322301 0.026430532 -0.022007238 -0.035713684 0.017450767 0.0038184854 0.024207855
0.017767916 -0.02075698 0.04349695 -0.007413155 0.03906523 0.053852398 -0.035153337 0.06664914
0.05228499 0.045725722 0.013519765 0.011722204 -0.0054746 0.022775771 0.0255245 0.021812942
-0.011413871 0.0022102098 0.025766056 -0.01121363 -0.034802478 -0.017314564 0.03672387 0.07029503
0.011011786 -0.053938042 0.012015264 0.04336884 -0.055464454 0.05866165 -0.058517367 0.07213093
0.05811474 -0.004897103 -0.032741886 -0.026251223 -0.009238426 -0.0057 -0.00018760965 -0.062151972
0.014871226 -0.024945004 0.04136403 -0.0017422423 -0.0055458806 0.04045559 -0.024769701 0.023577608
0.017730866 0.01901611 0.028702885 0.043841504 0.021741575 0.025220327 0.0408488 0.023931472
-0.0022843403 0.019139407 -0.0114750415 0.007099583 -0.03558279 -0.060898554 0.0021077525 0.0039928923
0.01901123 -0.021445489 0.06658312 0.036291156 0.030617125 0.006617786 0.040577304 -0.018172737

network_body._body_endoder.seq_layers.2.weight f4 [128, 128]
00000000: f65d a338 4911 01be 87fe b7bd f9c1 a8bd
00000010: 8372 333d 4ad7 e83d ab31 f6bd 16a7 503e
00000020: 9d1a 25be c86d e6bd f140 4cbd 9411 3ebd
00000030: 70dd 08be 0ac2 c8bd e5f9 60bd 3d5d c83d
00000040: eb63 823e e7a2 063e a963 0bbe 4379 173d
00000050: f2f8 1fbe 903c 5c3e 95ee 2dbb 1473 1d3e
00000060: 6e1f a6bd 986e 2abd 31d0 84bc 1f9a a63d
00000070: b485 0c3d 7300 a3bd 5b82 7fbd 140c e9bc
00000080: 9e84 a6bd 0063 8d3d 77bd f9bd b17e 9fba
00000090: dc68 1ebe fa5a 183d 9e81 bebd e14a b9bd
000000a0: 7b21 02bd 9a4d 433c facb 3ebc 0e19 b5bd
000000b0: 3333 023b 4778 a23d 2313 8ebd 0f07 67ba
000000c0: 3dd9 33be 04a6 b93c 4561 a7bd 597f 6cbc
000000d0: 5e64 dd3d f7a6 0cbe e827 2ebd 3b03 e7bd
000000e0: 2ba6 573d ed95 8f3c 3ee2 1ebc 2e4d 77bd
000000f0: e388 6a3c fe38 c63d 9215 0e3c 38b2 b1bd
00000100: e72e ffbd 7e26 16bc d025 0cbd 503c 4abd
00000110: 8ddc 113e a845 613c 326f eb3d 44c1 973d
00000120: 8c1f 61bd 469d 17bd e7b3 f5bc 3833 87bd
00000130: ea26 70bd 190d dfbd bd7e ab3d f602 103e
00000140: 2ea0 6b3c c921 9cbd d54f 2b3e 4824 953d
00000150: e52b c6bc b797 853d 7ec8 78bb a604 93b9
00000160: 5852 92bd acef 09be 1b48 bebb 1551 cc3c
00000170: 2749 c8bd 096b 12bd 811a 753d 4c2b 853d
00000180: 3d4f 0bbe bdb3 093e d16a 21bd 4fb7 87bc
00000190: c19d 5fbd f623 7d3c ed1e 43be 8976 8bbd
000001a0: 8692 2f3e 822e 6fbc 7440 22bd 3f99 a4bc
000001b0: 5d31 083e 2d4b ee3d dd35 d6ba 1cda 263e
000001c0: 7bfc 143d 4e72 243d 1734 0bbd f86a 083c
000001d0: c940 57bc d5e0 a4bc a13c 9e3c dc0f 2d3c
000001e0: ffaf ce3d d49c 36be 0afc 66bd a4e1 d2bc
000001f0: 1b75 a73d 36f0 98bd 9cc8 f73d b52d 58bd
00000200: fb03 e0ba e338 b33d 1685 82bb 65e9 b53b
00000210: 4087 79b9 6354 3cbd cc32 d33c 9222 97bd
00000220: 485a 07bd 2667 863c e638 883c 68e4 083d
00000230: 2e94 c9bd 179b fbbc a0f4 d2bc a497 853d
00000240: c8c9 1a3c 13ba 5b3e e665 00be ad27 fa3b
00000250: 5091 65be 70da 58be 5149 aebc bd42 50bc
00000260: c176 16bd 1dc1 bdbd 9569 853d e214 1ebe
00000270: 4896 44bd 5dfe a23c 7f18 3fbd ad74 253e
00000280: 4e4c 89bc 17bf 91bd 69b5 d43d a93e 03be
00000290: 5c57 593d fbad 0bbc 8dae 65be c9e3 73bb
000002a0: f51f f3bd 6fbd 0a3d 8cd1 b43d 21dc 0bbd
000002b0: 7d6a 5cbe f825 f03d f115 acbd 1f67 c83d
000002c0: 5843 083e 7cf3 d13d b15b cabd 5638 fb3d
000002d0: d299 d73d 51d2 a2bd 2447 853d 56e8 c83c
000002e0: 7d48 33be 8100 acbd 4a54 5ebc fb0a a1bd
000002f0: f7c5 a2bb 0982 003d d03d 76bd f6fd 953d
00000300: 8166 f23c 3af8 0fbe ce0c 433d 1d3f e33d
00000310: 6a35 7f3d 86e3 88bd 53fb cb3d 282e 2dbe
00000320: 333e de3d 6c11 cd3d bd61 1cbe dff2 dfbc
00000330: d552 a63d 3e93 823d f997 b93b df5b 01bd
00000340: 0231 b1bc 35fa 2dbe 3dae 333d 1df2 a4bd
00000350: 4673 c2bd ec5b 0f3c a29f 8e3c d8fb 0dbe
00000360: ddcd 5d3d 304f cc3d 4323 60bd 1bce 213c
00000370: 5a65 323e bb98 503b a624 0cbe a7cf 0fbe
00000380: f73d d93d 7ec1 4d3b 10ee f83d 1fa4 02bd
00000390: f8ec 3c3d 2813 20bc 7701 d5bd 4e67 b2bd
000003a0: 9309 cfbd 7260 42bc c9a2 7dbd a67e d3bd
000003b0: 0563 883d e174 9fbd 4882 d93d 3595 bcbd
000003c0: 1c68 163e 7907 883d 3f08 5bbc 0257 0d3e
000003d0: 3cd0 243c e4e0 d63d d2b3 2b3d e189 873d
000003e0: c152 19be ffdd 21bc 46a9 05be 64a4 dcbc
000003f0: c5dd 1c3d 6e62 4b3d 07f4 8d3d cab8 83bd
7.789947e-05 -0.1260425 -0.08984094 -0.08240122 0.04381038 0.11369188 -0.12021192 0.20376238
-0.16123433 -0.11251408 -0.04986662 -0.046403483 -0.13365722 -0.09802635 -0.054925818 0.09783409
0.25466856 0.1314808 -0.13612236 0.03698088 -0.15622309 0.21507478 -0.002653991 0.1537593
-0.081114635 -0.041609377 -0.016212555 0.08134865 0.034307197 -0.0795907 -0.062380176 -0.028448142
-0.081307635 0.069036484 -0.12194341 -0.0012168494 -0.15469688 0.037196137 -0.09302066 -0.09047485
-0.03177021 0.011920357 -0.0116453115 -0.088426694 0.0019866943 0.07933097 -0.06937244 -0.00088130025
-0.17563339 0.02266217 -0.081728496 -0.014434659 0.10810159 -0.13735567 -0.042518526 -0.11279913
0.052648704 0.017527545 -0.009697495 -0.06037634 0.014314863 0.09678839 0.008672135 -0.08676571
-0.12460118 -0.009164451 -0.03421575 -0.049373925 0.1424429 0.0137495175 0.11495818 0.07409909
-0.054961726 -0.037015222 -0.02999301 -0.06601566 -0.05863086 -0.1089117 0.08373783 0.1406363
0.0143814515 -0.076236315 0.16729672 0.07282311 -0.024190852 0.06523078 -0.00379613 -0.00028041488
-0.07144612 -0.13470334 -0.0058069355 0.024941007 -0.09779578 -0.035746608 0.05983973 0.06502399
-0.13604446 0.13447471 -0.03940851 -0.0165669 -0.054593805 0.015450468 -0.19054766 -0.06809718
0.17145738 -0.014598491 -0.03961225 -0.020092605 0.1330008 0.116354324 -0.0016342957 0.1629414
0.036373597 0.040148072 -0.033985224 0.008326285 -0.013138005 -0.02012674 0.01931602 0.010562863
0.10092162 -0.17833263 -0.056392707 -0.02574236 0.08176633 -0.074676916 0.1209881 -0.052777965
-0.001709103 0.08751085 -0.0039831502 0.0055515044 -0.00023796875 -0.045978915 0.025781058 -0.07379641
-0.033045083 0.016406607 0.016628694 0.03342095 -0.09842716 -0.030713601 -0.025751412 0.06523064
0.009447522 0.214577 -0.12538871 0.0076341243 -0.22418714 -0.21177077 -0.021275194 -0.012711224
-0.036734346 -0.09265349 0.06514279 -0.15437654 -0.047994882 0.01989668 -0.04665422 0.1615779
-0.016760018 -0.071165256 0.10386164 -0.12816872 0.053061828 -0.008525367 -0.22429867 -0.0037214628
-0.1187133 0.033872064 0.088290304 -0.03414548 -0.21524997 0.11725992 -0.084026225 0.09785294
0.1330694 0.10251519 -0.0988077 0.122666046 0.10527386 -0.07950271 0.065077096 0.024524849
-0.17508121 -0.083985336 -0.013569901 -0.078634225 -0.004967447 0.03137401 -0.060117543 0.0732383
0.029589893 -0.14059535 0.047619633 0.11096022 0.0623068 -0.06684022 0.09960046 -0.16912138
0.10851707 0.100130886 -0.15271659 -0.02733749 0.08121268 0.063757405 0.0056638685 -0.031581756
-0.021629814 -0.16989978 0.04386734 -0.08053992 -0.09494643 0.008749943 0.017410103 -0.13865602
0.054151405 0.09976041 -0.05472113 0.0098757995 0.17421475 0.0031829316 -0.13685855 -0.14044057
0.10607522 0.0031395848 0.12154782 -0.0318948 0.04612443 -0.009770192 -0.1040067 -0.0871111
-0.10109248 -0.011863815 -0.061922822 -0.10326891 0.066595115 -0.07785965 0.10620552 -0.092081465
0.14688152 0.0664205 -0.013368665 0.13802722 0.010059413 0.10492113 0.041919537 0.06618095
-0.14972974 -0.009879588 -0.13052854 -0.026933856 0.038297433 0.049654417 0.0693131 -0.0643173

network_body._body_endoder.seq_layers.2.bias f4 [128]
00000000: fa2e 163d 0ad5 e43b 8e1e 953c 4b1c 53bb
00000010: 1bd3 173d a9c9 8b3b 4917 863b f489 5f3c
00000020: d3b2 acba 8293 583c 864f c3bb 38ae 5ab9
00000030: 3f35 bf3b 9064 873c 9a2c 203b 5ca9 e639
00000040: c074 b53b db10 99bc d5ff dd3c ab69 9abb
00000050: 83c8 dc3c 650f 663c c32e 0d3c 64be 893b
00000060: ceca 2c3b 018a d23b 064b 083c aa4d ccbb
00000070: 6233 98bb 7206 ed3c d930 e33c 9ff0 263c
00000080: 040a a8bb cca7 743c b27b f83b fe83 0b3c
00000090: b12d 0e3b 8c8d a53c 04c3 0d3d 30b6 823c
000000a0: e59e 2ebb 77ad 903c 29e1 0a3d 9f1b 753c
000000b0: 58cc aa3b c7ab d13c ad68 753c 8e0e 063c
000000c0: e979 e9ba 46aa 6f3c cc94 7e3c 50a8 9abb
000000d0: 8b8f 82bb 0634 b73c 1378 c63c 5f2f 033d
000000e0: 7bff bb3c fbd9 a93c 2a9f 2d3c af5a 88bb
000000f0: e4e8 a93a a23d 953c e0b8 1b3c 1f8b 893c
00000100: 7172 993c 6ef9 87bb f103 0b3d 3d3a 95bc
00000110: 5647 14bb 428d b73c e8bb ad3c d3e9 d73b
00000120: 60ce 923b ab7c 143d de68 5e3c ec65 c9bb
00000130: e600 913c cc3f 9dbb a676 963b 1a9a b63c
00000140: 5617 673c d572 47bb 4d6d c7b9 4538 40bb
00000150: 0677 8f39 377c a5bb dd7a 31bc 9477 05bc
00000160: 7240 de3b 061b 0f3d 7143 1e3d f966 b03b
00000170: 47b1 afbc 462f 9fbc 0f4e ac3c 4298 623c
00000180: 4998 27bb e7f9 a0ba fbb9 073d ebc2 f4bb
00000190: 937a a3ba 87f6 063b 91f8 88bb 5ae4 e13b
000001a0: 81a1 8b3c 88f6 2a38 7764 223c 61d5 063c
000001b0: 71a4 0838 3584 683b 9697 f73c 1c00 a4bb
000001c0: ade4 a13a 89f2 c5bb ac10 013d adce c13c
000001d0: fd28 0c3d 0eef 0c3c ce4b 273c 3e16 9d3c
000001e0: 7572 d73c f5a0 693d 3e98 7b3c 25bf 853c
000001f0: 0111 03bc 8586 483c 667e 9b3c 4dbf 633c
0.036665894 0.006983404 0.018203046 -0.003221291 0.03706656 0.004265983 0.0040921313 0.01364373
-0.0013175852 0.013218762 -0.0059604077 -0.00020855002 0.005835205 0.016527444 0.0024440647 0.000439952
0.0055375993 -0.018684795 0.02709953 -0.0047123036 0.02695108 0.014041756 0.008617106 0.0042036045
0.0026365998 0.0064251428 0.008318668 -0.006234844 -0.004644797 0.028933737 0.027733253 0.0101892045
-0.005128147 0.014932584 0.007583105 0.008515356 0.0021694715 0.020209096 0.03460981 0.015956014
-0.0026645001 0.01766084 0.033906136 0.014960199 0.005212348 0.025594605 0.01497857 0.008182181
-0.0017812821 0.014627999 0.015538406 -0.0047197714 -0.003984397 0.022363674 0.024227178 0.0320276
0.022948971 0.020733824 0.01059703 -0.004161201 0.0012963084 0.018217865 0.009504527 0.01678997
0.018731328 -0.0041496074 0.033939306 -0.018216247 -0.0022625527 0.022406224 0.021207765 0.0065891533
0.004480168 0.036251705 0.013574807 -0.0061461832 0.017700624 -0.004798865 0.0045917807 0.022290278
0.014104685 -0.0030433435 -0.00038037673 -0.0029330414 0.00027363765 -0.005050208 -0.010832516 -0.008146185
0.006782585 0.03493788 0.038638536 0.005383369 -0.021446837 -0.019431721 0.021033315 0.013830246
-0.0025572947 -0.0012281508 0.03313635 -0.007469525 -0.0012472443 0.002059372 -0.004180022 0.0068936767
0.017044785 4.076076e-05 0.009911648 0.008229584 3.2578075e-05 0.0035479192 0.030223649 -0.005004896
0.0012351476 -0.0060408753 0.03151004 0.023658121 0.034218777 0.008601917 0.010210944 0.019175645
0.026299695 0.057038266 0.015356122 0.016326496 -0.0079996595 0.012239103 0.01898117 0.01390059

action_model._discrete_distribution.branches.0.weight f4 [2, 128]
00000000: 9477 3abd df3d 75bc b67a 49bd ff8a 993a
00000010: bfe3 ccbc 4f02 f83c 96e4 943a 2f22 813d
00000020: cbaa 123d ee2e 55bc 9e97 9e38 7db0 e73c
00000030: 297d edbb d046 0fbd 884c b53c 2da6 13bc
00000040: f383 e03c bf03 dc3c 38cb fabc 0754 083d
00000050: c1b1 113d 8094 3ebc d0d2 5f3d f0e3 543d
00000060: ea35 223d 5097 f93b c7ef 90bc aa7f 853c
00000070: 910a ecba 6854 8cbd f385 f8bc 4727 38bc
00000080: 0de9 663c ef0c 323d 2bcd 1b3d ef27 cdbc
00000090: 545b b8bb 608e 823d 3c78 51bd 7154 5ebc
000000a0: 48ce 4e3c 8d9e 46bd baa3 773d ea0f 72bc
000000b0: e83e 80bc 3261 a4bc a905 8cbc ad71 3e3d
000000c0: 7e11 0c3d a833 04bd 4407 a83b 456d d63c
000000d0: e610 5c3c 452c 20bd 7727 33bd 1012 22bd
000000e0: d8d8 09bd 12d8 91bc 9bda 14bd c3b6 9c3c
000000f0: e263 cb3c 8947 80bc 36c9 c3bb 5e1c e0bc
00000100: 5776 793d ee7c 2dbb 2bfe d1bc b69a f23b
00000110: 8af5 0e3c de4d 583d c001 0dbd ad05 7f3d
00000120: 0a10 6c3a 0bf7 fabc 4812 2a3d 2502 393d
00000130: 3b64 04bd e48a 383a 0bcb 2d3d ff8d 0bbd
00000140: 6fd1 05bc 661d 183b 01c6 b83c afaf 943c
00000150: 2696 97ba 10a0 0bbc b02d 1cbb 4f65 7b3c
00000160: eed7 ad3c a910 25bd 70f7 1dbd 6e87 a3bc
00000170: 3c19 cd3c b8dd bb3b 8395 49bd 6b7d 1a3d
00000180: 72a1 a73c 3fb9 bc3c a6e8 ddbc cc53 193c
00000190: 708d 8e3c 7bc6 823c 9cfa 8b3c 1a83 14bc
000001a0: 93f8 cbbc fbb8 0eba 1f6c 87bc 7151 83bc
000001b0: 8aaa ef3c 9d92 173d b02b c5bc 04f4 cc3b
000001c0: 8d20 0b3d 46bb e23b 8f82 6bbc ce1e b7bc
000001d0: d424 f1bc 8b88 49ba f515 1ebc 6c76 243d
000001e0: 990e 21bd 1291 20bd 2862 06bc 04ee 79bc
000001f0: a501 053c 4e7e cdbc 93c6 b1bb ed87 423d
00000200: 6125 433d 4197 373c c15e 543c cdd4 adbc
00000210: 2532 f53c 951a 19bd 78fa c53b 36e9 8dbd
00000220: c2ae e0bc d310 d0bb db28 8fbb 1e3c 09bd
00000230: 910c bd3c e298 ec3c 0e7d 82bc c336 9b3c
00000240: 9515 f8bc c44a e2bb 6fb7 493d dd3c efbc
00000250: 36a0 2fbd b29d f93b 653d 67bd ee22 06bd
00000260: f0b9 4bbd 5d1a a73c 6936 9f3c 2ad2 89bc
00000270: 3507 e0bb 4ca3 7d3d fe1a 413d 55fa 973c
00000280: fc02 1cbd 5b78 22bd a900 7bbd 934d aa3c
00000290: 00ac 333c 176f 59bd 0c5f 523d 14d5 c53b
000002a0: b54e 81bc b451 193d 21a9 3dbd 965d 8a3c
000002b0: d1be b33b ed4f 103d bd26 d93c 499a 55bd
000002c0: ba68 d2bc 55f2 d83c 42e6 193c 6ef2 5dbc
000002d0: 5bd6 59bc 763a 123d b779 193d 4ff8 353d
000002e0: 9334 c73c 6fc5 333b 9743 d43c a942 86bc
000002f0: 4a0f c9bc 9b3d a33c 9434 6a3c ca9e eb3c
00000300: efd4 6dbd a1eb 413c baf8 023d 5f82 febb
00000310: 464d 713b 843c 9bbd abc3 f63c 1e4d d7bc
00000320: c419 913c 82db 483d 17bc 4dbd 597c bbbc
00000330: 06e6 fd3c f1a1 e7bb c0fe 37bd a1a9 863d
00000340: 5d9b a23a 843d 31bb a73e dfbc 28c7 1cbd
00000350: 8dfc c53b 80c2 bbbc 9aa9 7ebb cd2b 9abb
00000360: f21e 14bd 24aa 2a3d 9e51 223d d91e 1a3c
00000370: ab59 0abc b577 bfbb c247 263d 8dab 47bc
00000380: c784 b9bc 144f 00bd f925 793d 07fd 883b
00000390: 09dd bcbc d25d 84bc be25 57bc a5df c53c
000003a0: 3cca 9b3c 4d40 8d3c 4679 223c b634 d33b
000003b0: 3c65 21bd b102 20bd c544 df3c d308 1fbb
000003c0: 8562 07bd 2d41 ecbb ae44 ad3c cd21 8b3c
000003d0: 88ea 1c3d 5f84 ae3c f1d2 133d 19c3 24bd
000003e0: be43 ef3c 3d7c 1a3d ecf1 963c 9bc6 9e3c
000003f0: 1a31 a1bc 003d b43c f9a5 8c3c e75a 39bd
-0.045524195 -0.0149683645 -0.049189292 0.0011714398 -0.025010942 0.030274538 0.0011359628 0.06305348
0.035807412 -0.013011677 7.562268e-05 0.028282398 -0.0072475863 -0.03497964 0.02213122 -0.009011787
0.027406668 0.026857255 -0.03061448 0.03328326 0.03556991 -0.011632085 0.054644406 0.05197519
0.039602198 0.007616915 -0.01769246 0.016296227 -0.001800852 -0.06852037 -0.03033731 -0.011239833
0.01409365 0.043469366 0.03803746 -0.025043456 -0.0056261215 0.06374812 -0.051140055 -0.013569937
0.0126224235 -0.04849105 0.060458876 -0.014774302 -0.015654996 -0.020065878 -0.017092543 0.04649513
0.03419637 -0.032275826 0.0051278193 0.02617515 0.013431763 -0.03910472 -0.04373881 -0.039568007
-0.033654064 -0.017803226 -0.03634129 0.019130116 0.024827901 -0.01565911 -0.005974914 -0.027357277
0.060903873 -0.002647217 -0.025633892 0.007403697 0.008725533 0.052808635 -0.034425497 0.062261272
0.00090050756 -0.030635377 0.04152134 0.04516806 -0.03232215 0.0007039739 0.042429965 -0.034070965
-0.008167609 0.0023210882 0.022555353 0.018150179 -0.0011565133 -0.008522049 -0.0023830943 0.015343978
0.021221127 -0.04029909 -0.038566053 -0.019962039 0.025036447 0.005733218 -0.04921485 0.037717264
0.020462725 0.023037551 -0.027088474 0.009358358 0.017401427 0.015963783 0.017087273 -0.00906446
-0.024898803 -0.00054444344 -0.016531048 -0.016030045 0.029256124 0.037005056 -0.024068683 0.006254675
0.03396659 0.0069192974 -0.014374389 -0.022353556 -0.029436506 -0.0007687888 -0.00964879 0.040152
-0.039320562 -0.03920085 -0.008202113 -0.015254501 0.008118068 -0.02508464 -0.005425283 0.04749291
0.04764307 0.011205495 0.012962044 -0.021219635 0.029931137 -0.037378866 0.006041821 -0.06929247
-0.027427081 -0.006349662 -0.004368884 -0.033504598 0.023077281 0.028881494 -0.015928771 0.01894701
-0.030283729 -0.0069058854 0.0492472 -0.029203827 -0.0428774 0.0076176757 -0.056455035 -0.032748155
-0.04973787 0.020398313 0.019435124 -0.016823847 -0.0068367966 0.06192331 0.047144882 0.018551985
-0.038088784 -0.03966556 -0.061279926 0.020788943 0.010966301 -0.05308446 0.051360175 0.006037364
-0.0157846 0.037431434 -0.046303872 0.016890328 0.0054853936 0.035232473 0.02650773 -0.05214909
-0.025684703 0.02648274 0.009393277 -0.013546569 -0.013295735 0.035700284 0.037469592 0.04442626
0.024317062 0.0027430912 0.025911136 -0.016389208 -0.024543423 0.019926837 0.014294762 0.02876224
-0.058064397 0.011835963 0.031975485 -0.0077670063 0.003681974 -0.07579902 0.030122599 -0.02628189
0.017712481 0.049037464 -0.050228205 -0.022886442 0.030993473 -0.0070688655 -0.044920683 0.06575323
0.0012405921 -0.0027044723 -0.027251555 -0.038275868 0.0060420693 -0.022919893 -0.0038858415 -0.0047049285
-0.036162324 0.041666165 0.039628617 0.009406769 -0.00844423 -0.0058431276 0.040595777 -0.012186897
-0.022646321 -0.031325415 0.06082723 0.004180554 -0.023054617 -0.016158018 -0.013131557 0.024154494
0.019017331 0.017242575 0.009916609 0.0064454926 -0.039403185 -0.039065067 0.027254472 -0.0024266734
-0.03305294 -0.007209918 0.021150913 0.01698389 0.038309604 0.021303354 0.03608984 -0.040225122
0.029207107 0.03771614 0.018425904 0.019381812 -0.019676734 0.022001743 0.017168986 -0.045252707

action_model._discrete_distribution.branches.0.bias f4 [2]
00000000: afab 02bc aeab 023c
-0.007975503 0.007975502

exp_avg f4 [128, 6]
00000000: ee41 c9b5 2e02 63b6 3817 feb2 6e84 f9b6
00000010: b210 1ab7 3817 feb2 1e01 0237 8dc3 5f37
00000020: dc21 2434 e14b 97b7 396d 05b7 dc21 2434
00000030: f0f8 d2b8 4c01 3eb9 862d 05b6 5c1d 5cb8
00000040: f2db 9eb9 862d 05b6 9f3e ad35 ddca b4b7
00000050: 10b9 da32 4b0a a4b7 a1cd ca36 10b9 da32
00000060: 8bc9 cdb8 8af8 63b9 8ee7 01b6 a243 5839
00000070: f650 1a39 8ee7 01b6 a8fd 41b9 9200 b5b9
00000080: 8eea 74b6 6749 1bb9 191e 22ba 8eea 74b6
00000090: 0d53 b836 1af0 2737 51b6 e833 ff71 5f35
000000a0: 1162 0a37 51b6 e833 5742 d5b9 a9f0 6dba
000000b0: 0e9f 06b7 b92f 62b9 970d a3ba 0e9f 06b7
000000c0: f318 ba38 aba3 3839 58f3 ea35 d451 96b9
000000d0: dd64 a038 58f3 ea35 53d1 a7b9 a8c2 2cba
000000e0: 43df d3b6 df49 28b9 588b 72ba 43df d3b6
000000f0: 0657 93b7 0a14 b2b7 c504 bab4 9bb2 2c38
00000100: 44cc b5b7 c504 bab4 4544 2938 1fd2 c538
00000110: 7fb3 5535 bdf8 9639 bc0a 743a 7fb3 5535
00000120: 6c76 bab7 a06d 41b8 5a69 ebb4 0551 bab6
00000130: a874 38b8 5a69 ebb4 f103 8738 cffa 2839
00000140: 6d75 aa35 5c53 8d38 db6e 113a 6d75 aa35
00000150: 82d4 9ab8 efb8 1db9 a779 c3b5 598a 6eb8
00000160: ee94 5236 a779 c3b5 b5fa ab38 f5cf 3539
00000170: 5320 d935 0996 06b9 274f 9f38 5320 d935
00000180: 7923 78b8 aa69 f0b8 aba3 9cb5 4518 f3b8
00000190: 072e 18ba aba3 9cb5 17c9 95b7 3ac4 18b8
000001a0: 591b bdb4 b5b7 5b39 0dd8 d939 591b bdb4
000001b0: 7140 f8b6 892b a7b7 e7b5 1cb4 d54f 85b6
000001c0: 2ab2 99b7 e7b5 1cb4 3e19 d037 3e85 3638
000001d0: 1a5d 0335 a70a 9f37 49ed 5039 1a5d 0335
000001e0: 9988 9a37 3972 b938 6f19 c334 59f1 2b39
000001f0: dd7b 8c3a 6f19 c334 c506 ecb8 b000 52b9
00000200: 47fe 14b6 e560 71b8 72ff 05b9 47fe 14b6
00000210: a743 6338 60aa 5539 5076 8f35 610e 12b9
00000220: ebcd 303a 5076 8f35 4ef7 0dba 0851 93ba
00000230: ed3b 33b7 8bb2 20b9 aef6 e9ba ed3b 33b7
00000240: e48d 22b8 4ca2 7e38 fd39 4db5 39b9 7b38
00000250: 5273 933a fd39 4db5 c08b 11b9 a25f 88b9
00000260: f2c0 37b6 a0ef b8b8 9387 d7b9 f2c0 37b6
00000270: 5499 a2b8 cb34 11b9 8a48 cdb5 d8c4 4cb8
00000280: 14a9 a2b9 8a48 cdb5 11ef 12ba ae22 97ba
00000290: 8c81 39b7 7699 e5b9 ae68 17bb 8c81 39b7
000002a0: 7a98 0138 7c91 8738 ce9d 2335 7cc4 9cb8
000002b0: 946a df38 ce9d 2335 0596 0c38 3865 1439
000002c0: 007e 3135 de7b 77b9 9f81 77b9 007e 3135
000002d0: 8cae 69b7 5926 18b8 6983 93b4 7396 8738
000002e0: f0bc 36b8 6983 93b4 ea3b adb7 dd82 9537
000002f0: d4b5 dab4 c216 47b9 0842 9838 d4b5 dab4
00000300: 5e54 16b7 e45a 9eb7 0bcb 3db4 6ba4 8bb6
00000310: c4a8 c9b7 0bcb 3db4 d0ab e4b8 b42e 40b9
00000320: a859 10b6 742b 90b8 fe2f ddb9 a859 10b6
00000330: 9d44 1a39 9e1f c739 17c4 4236 d0e3 dc39
00000340: 1a3d c93a 17c4 4236 552c 51b9 b9bc b6b9
00000350: c00a 84b6 38ec 90b9 111d aeba c00a 84b6
00000360: 5441 c5b8 fe77 2fb9 9709 f9b5 cb7e 3cb6
00000370: d4b3 2b3a 9709 f9b5 f1f3 1fba e4ae 93ba
00000380: 52f1 49b7 1cf0 93b9 8563 e0ba 52f1 49b7
00000390: c244 4eb9 fee2 9fb9 6035 82b6 0e8b 08b9
000003a0: 3687 39ba 6035 82b6 8e9c 4e38 22ae c938
000003b0: cc6c 8235 39d6 f337 7c99 8f39 cc6c 8235
000003c0: 10c2 6ab9 e921 ebb9 4f31 94b6 cf15 48b9
000003d0: aa78 43ba 4f31 94b6 885b 93b6 cab9 f9b6
000003e0: 7c0a bab3 fb3a 06b6 6b0e bdb7 7c0a bab3
000003f0: 05a6 7938 c4d4 1a39 b097 9d35 4df2 0239
-1.4994855e-06 -3.3826905e-06 -2.958005e-08 -7.436195e-06 -9.1830025e-06 -2.958005e-08 7.748864e-06 1.3337366e-05
1.5286008e-07 -1.8035937e-05 -7.952848e-06 1.5286008e-07 -0.000100599485 -0.00018120295 -1.9845043e-06 -5.247943e-05
-0.0003029998 -1.9845043e-06 1.290773e-06 -2.1552138e-05 2.5462697e-08 -1.9555117e-05 6.0440075e-06 2.5462697e-08
-9.812702e-05 -0.00021740995 -1.935728e-06 0.0002062456 0.00014716745 -1.935728e-06 -0.00018500409 -0.00034523435
-3.6495362e-06 -0.00014809296 -0.00061842945 -3.6495362e-06 5.4932957e-06 1.0009879e-05 1.0836505e-07 8.323986e-07
8.248274e-06 1.0836505e-07 -0.00040675953 -0.00090766937 -8.024055e-06 -0.00021570818 -0.0012439963 -8.024055e-06
8.873818e-05 0.00017608578 1.7505181e-06 -0.00028671196 7.648182e-05 1.7505181e-06 -0.0003200868 -0.00065902853
-6.314281e-06 -0.00016049248 -0.0009252331 -6.314281e-06 -1.7564289e-05 -2.1228585e-05 -3.464867e-07 4.1174335e-05
-2.1672e-05 -3.464867e-07 4.035632e-05 9.43283e-05 7.9609885e-07 0.00028795554 0.0009309461 7.9609885e-07
-2.2228072e-05 -4.6116882e-05 -4.3848814e-07 -5.552664e-06 -4.3977663e-05 -4.3848814e-07 6.438036e-05 0.00016115162
1.2700162e-06 6.738931e-05 0.000554783 1.2700162e-06 -7.382875e-05 -0.0001504158 -1.4564038e-06 -5.6872468e-05
3.1379127e-06 -1.4564038e-06 8.200613e-05 0.00017338975 1.6177167e-06 -0.00012835128 7.596454e-05 1.6177167e-06
-5.9160844e-05 -0.00011463773 -1.1670539e-06 -0.000115916635 -0.00058051985 -1.1670539e-06 -1.7855824e-05 -3.6422374e-05
-3.522389e-07 0.00020953904 0.00041550436 -3.522389e-07 -7.398478e-06 -1.9928224e-05 -1.4594808e-07 -3.9730025e-06
-1.8321985e-05 -1.4594808e-07 2.4807287e-05 4.3516273e-05 4.8936784e-07 1.8959237e-05 0.00019924821 4.8936784e-07
1.8421839e-05 8.842763e-05 3.6340086e-07 0.0001639774 0.0010718066 3.6340086e-07 -0.00011254618 -0.00020027417
-2.2201727e-06 -5.7549118e-05 -0.00012779029 -2.2201727e-06 5.4184024e-05 0.00020376733 1.0688764e-06 -0.00013929002
0.00067445514 1.0688764e-06 -0.00054155744 -0.0011239359 -1.0683184e-05 -0.00015325302 -0.0017850006 -1.0683184e-05
-3.8755956e-05 6.070947e-05 -7.6452835e-07 6.0015565e-05 0.0011249578 -7.6452835e-07 -0.00013880339 -0.00026011193
-2.7381434e-06 -8.818437e-05 -0.00041109006 -2.7381434e-06 -7.7533216e-05 -0.00013847945 -1.5294802e-06 -4.8820715e-05
-0.0003102502 -1.5294802e-06 -0.00056050817 -0.0011530721 -1.1057022e-05 -0.0004379262 -0.0023103165 -1.1057022e-05
3.0898e-05 6.4644e-05 6.095187e-07 -7.475258e-05 0.0001065332 6.095187e-07 3.3518318e-05 0.00014152087
6.612099e-07 -0.000236019 -0.00023604043 6.612099e-07 -1.3928522e-05 -3.6275338e-05 -2.7476497e-07 6.465325e-05
-4.3568143e-05 -2.7476497e-07 -2.0651107e-05 1.7823122e-05 -4.0737962e-07 -0.00018986597 7.260224e-05 -4.0737962e-07
-8.96034e-06 -1.8877392e-05 -1.7675863e-07 -4.1616636e-06 -2.4039655e-05 -1.7675863e-07 -0.0001090389 -0.00018327945
-2.150986e-06 -6.874549e-05 -0.00042188162 -2.150986e-06 0.00014712145 0.00037979794 2.9022392e-06 0.00042131403
0.0015353293 2.9022392e-06 -0.00019948308 -0.00034854354 -3.935158e-06 -0.00027641817 -0.0013283809 -3.935158e-06
-9.40586e-05 -0.00016734001 -1.8554737e-06 -2.8087986e-06 0.0006549929 -1.8554737e-06 -0.0006101719 -0.0011267331
-1.203672e-05 -0.0002821692 -0.0017119503 -1.203672e-05 -0.00019671305 -0.00030495966 -3.8805156e-06 -0.00013021773
-0.0007077338 -3.8805156e-06 4.926003e-05 9.616862e-05 9.717419e-07 2.9067613e-05 0.0002738944 9.717419e-07
-0.00022388273 -0.00044847958 -4.416484e-06 -0.0001908161 -0.000745664 -4.416484e-06 -4.391597e-06 -7.442407e-06
-8.663207e-08 -2.0001887e-06 -2.253727e-05 -8.663207e-08 5.9520844e-05 0.00014765846 1.1741558e-06 0.0001248803

exp_avg_sq f4 [128, 6]
00000000: e597 b030 0482 a731 61bd 0c2b 5c9d 3031
00000010: 103e ba31 61bd 0c2b 0055 0c31 ab70 1032
00000020: 56ae 5f2b 2cbe 6a32 b494 b031 56ae 5f2b
00000030: b5c8 b533 0c49 e434 55e0 102e ae6f 4b33
00000040: b683 3435 55e0 102e ae11 9432 ff3b 7d33
00000050: 7003 ec2c 89fa 0333 6e9b 8033 7003 ec2c
00000060: e004 1235 4f18 2236 ecbe 682f c390 d234
00000070: e429 0336 ecbe 682f efef 0c35 5055 2c36
00000080: 48a5 602f a103 6834 4be7 7d36 48a5 602f
00000090: 6906 282f 3287 eb2f 3de9 8529 3d85 1b30
000000a0: e180 a22f 3de9 8529 a5fa 2b35 9fda 7436
000000b0: f10f 892f 42f0 b034 18ea c436 f10f 892f
000000c0: 247e bf33 6d79 bc34 409d 182e bc23 2835
000000d0: 0e76 7134 409d 182e 9eab 0c34 01d6 1835
000000e0: 6d38 602e 9022 6b33 d228 5d35 6d38 602e
000000f0: 4e19 6731 c55d 3632 d02d b82b 9e7b 4d33
00000100: 92ef 0f32 d02d b82b 52c4 da35 1064 0237
00000110: c959 2e30 2132 b435 69d7 0337 c959 2e30
00000120: c10f 1b31 f52b 1d32 ac28 772b 979c d631
00000130: c8a7 4032 ac28 772b 6ff8 9e34 c136 c535
00000140: ad63 fd2e 4cc3 de33 22b7 ba35 ad63 fd2e
00000150: 93b6 0434 e3a1 e534 7c89 532e 389c 5833
00000160: 9f24 6734 7c89 532e f2bf f833 861a ee34
00000170: 123f 462e f09e ae34 cc41 8634 123f 462e
00000180: 8ee5 6135 1554 7936 6e08 b42f aa0b 1536
00000190: a09c 8a36 6e08 b42f 49f0 eb34 8221 fd35
000001a0: 4709 3c2f bcb4 4b35 8bc3 dd35 4709 3c2f
000001b0: f68f c330 4b51 ce31 85db 1b2b 1a60 c430
000001c0: 3dc8 e431 85db 1b2b b52d 6333 5fb2 8834
000001d0: fc0d b52d 8ba8 bd33 0b0d 8f34 fc0d b52d
000001e0: dccc 3636 3a05 4a37 afaf 9130 c7ae 1937
000001f0: b04e 5737 afaf 9130 76d2 c533 1bc4 da34
00000200: 95a8 1d2e 5a55 f332 7805 3235 95a8 1d2e
00000210: 50dc 4a35 e72f 7c36 8aac a12f 0a8b 8f36
00000220: 0bf9 8d36 8aac a12f 2e1a cf35 0d4b fd36
00000230: eb0d 2530 e9e0 4e36 7c22 3737 eb0d 2530
00000240: d588 6e36 abee 8d37 e51a be30 5a58 4a37
00000250: cb06 9537 e51a be30 6b78 2234 83b2 4035
00000260: f57b 812e 72b6 3a33 a806 8f35 f57b 812e
00000270: c60b 5733 ede9 5334 ac62 ab2d 8041 8532
00000280: 117b 7034 ac62 ab2d 446e 8c36 ad4d 9f37
00000290: a2d6 df30 04bd 2b37 ebcb d237 a2d6 df30
000002a0: 9299 1133 3bc8 2434 ee13 682d 7d53 8e34
000002b0: 5292 8834 ee13 682d fe6b 6834 ffe6 3535
000002c0: c63b b92e 63d5 6034 8bd1 0f35 c63b b92e
000002d0: 5035 7931 26fe 9132 909c c62b 1b1c 5933
000002e0: b214 a132 909c c62b 83c5 bc33 cb14 cf34
000002f0: ff71 162e 380b cb35 66c0 e534 ff71 162e
00000300: 998f b730 9a89 c931 ed4a 122b 5a34 8530
00000310: a015 1132 ed4a 122b 473b bb33 9e19 ab34
00000320: cd37 152e 4d96 ea32 7ef8 be34 cd37 152e
00000330: f24f 5736 27fe 8d37 fd98 ab30 593b b835
00000340: 9f24 9437 fd98 ab30 6a0a 2336 cf83 3a37
00000350: 4df0 8130 0e42 7d36 8f43 5537 4df0 8130
00000360: 76f9 dd35 c0f5 f436 41e8 3030 2041 e436
00000370: d737 e136 41e8 3030 0d8b 5335 51f3 5936
00000380: 0098 a82f 4244 dc34 7b43 ac36 0098 a82f
00000390: 5029 0835 050f 1836 7808 592f 18de 8734
000003a0: 8354 3e36 7808 592f 7145 4233 ad55 4a34
000003b0: 15d4 9a2d 7572 a732 9b63 4334 15d4 9a2d
000003c0: 1ce3 c134 c73b ef35 af85 1a2f 3e5d d333
000003d0: bcfb 2f36 af85 1a2f 3572 9930 1833 6631
000003e0: 7f95 f42a 7b46 6e30 ba44 8b31 7f95 f42a
000003f0: 2f9e b934 3636 fa35 8bee 132f 3ad7 0b34
1.2848856e-09 4.8751208e-09 5.000081e-13 2.570082e-09 5.420368e-09 5.000081e-13 2.0420998e-09 8.407521e-09
7.9467455e-13 1.3663833e-08 5.1391797e-09 7.9467455e-13 8.464978e-08 4.2521458e-07 3.2941056e-11 4.7366193e-08
6.724689e-07 3.2941056e-11 1.7237507e-08 5.896072e-08 6.707905e-12 3.0728675e-08 5.988737e-08 6.707905e-12
5.439633e-07 2.415403e-06 2.1168106e-10 3.9220876e-07 1.9544905e-06 2.1168106e-10 5.2503214e-07 2.5679656e-06
2.0431401e-10 2.1608004e-07 3.7834568e-06 2.0431401e-10 1.5281788e-10 4.2842313e-10 5.946847e-14 5.6578014e-10
2.9559202e-10 5.946847e-14 6.40672e-07 3.6486088e-06 2.4931482e-10 3.2957365e-07 5.8685073e-06 2.4931482e-10
8.9170754e-08 3.5106078e-07 3.4700465e-11 6.263688e-07 2.2487822e-07 3.4700465e-11 1.310095e-07 5.693583e-07
5.098182e-11 5.4746636e-08 8.2388317e-07 5.098182e-11 3.3629308e-09 1.0615115e-08 1.3086702e-12 4.784271e-08
8.3781675e-09 1.3086702e-12 1.6299402e-06 7.771901e-06 6.3428424e-10 1.3425635e-06 7.858363e-06 6.3428424e-10
2.2564424e-09 9.148597e-09 8.780847e-13 6.246022e-09 1.121402e-08 8.780847e-13 2.9610553e-07 1.4693579e-06
1.1522814e-10 1.0373205e-07 1.3911379e-06 1.1522814e-10 1.2359878e-07 4.2772362e-07 4.8097956e-11 5.04335e-08
2.1526874e-07 4.8097956e-11 1.15833146e-07 4.4350253e-07 4.5076005e-11 3.2525668e-07 2.5007319e-07 4.5076005e-11
8.415308e-07 3.7152834e-06 3.27478e-10 2.220952e-06 4.130954e-06 3.27478e-10 4.3946991e-07 1.8859721e-06
1.7101796e-10 7.5886396e-07 1.6522694e-06 1.7101796e-10 1.4229034e-09 6.004631e-09 5.5371707e-13 1.4288191e-09
6.658438e-09 5.5371707e-13 5.2894126e-08 2.5461756e-07 2.0583528e-11 8.831656e-08 2.6645316e-07 2.0583528e-11
2.7239357e-06 1.2041355e-05 1.0600071e-09 9.160204e-06 1.28333195e-05 1.0600071e-09 9.21181e-08 4.074835e-07
3.5847398e-11 2.8327737e-08 6.6318125e-07 3.5847398e-11 7.557146e-07 3.757881e-06 2.9408326e-10 4.2779184e-06
4.23112e-06 2.9408326e-10 1.5430321e-06 7.5487246e-06 6.004643e-10 3.0827307e-06 1.0915679e-05 6.004643e-10
3.554441e-06 1.6919648e-05 1.3831963e-09 1.2060709e-05 1.7765347e-05 1.3831963e-09 1.5131234e-07 7.178534e-07
5.88826e-11 4.3472433e-08 1.0656267e-06 5.88826e-11 5.0069296e-08 1.9736008e-07 1.9484268e-11 1.5513024e-08
2.2396513e-07 1.9484268e-11 4.1851617e-06 1.8990448e-05 1.6286388e-09 1.0236403e-05 2.5128908e-05 1.6286388e-09
3.3900115e-08 1.5346534e-07 1.31920985e-11 2.6510307e-07 2.5438436e-07 1.31920985e-11 2.1645971e-07 6.77639e-07
8.423444e-11 2.0939255e-07 5.3576576e-07 8.423444e-11 3.6264574e-09 1.6995795e-08 1.4112201e-12 5.054981e-08
1.8752278e-08 1.4112201e-12 8.7903594e-08 3.8571883e-07 3.42073e-11 1.5127944e-06 4.2794562e-07 3.42073e-11
1.3355815e-09 5.8655134e-09 5.19736e-13 9.691903e-10 8.445028e-09 5.19736e-13 8.7186486e-08 3.186987e-07
3.392824e-11 2.7309534e-08 3.557106e-07 3.392824e-11 3.208403e-06 1.6926859e-05 1.2485369e-09 1.3726341e-06
1.7660028e-05 1.2485369e-09 2.4294955e-06 1.1117153e-05 9.454283e-10 3.7738387e-06 1.2711519e-05 9.454283e-10
1.6538386e-06 7.3003757e-06 6.435848e-10 6.802511e-06 6.712023e-06 6.435848e-10 7.880597e-07 3.2477149e-06
3.0667024e-10 4.1027857e-07 5.133855e-06 3.0667024e-10 5.0724066e-07 2.2658508e-06 1.9739044e-10 2.5307304e-07
2.8361399e-06 1.9739044e-10 4.52323e-08 1.8843885e-07 1.7601956e-11 1.9493408e-08 1.8197026e-07 1.7601956e-11
3.6114295e-07 1.7824285e-06 1.4053712e-10 9.842414e-08 2.622356e-06 1.4053712e-10 1.1164675e-09 3.3498448e-09
4.344684e-13 8.6684054e-10 4.0532457e-09 4.344684e-13 3.457403e-07 1.8642229e-06 1.345432e-10 1.3023683e-07

exp_avg f4 [128]
00000000: a28d 8bb5 a14a b436 1e4a 92b8 6241 7035
00000010: a5b1 8eb8 ac83 06b9 8f9f 7f36 08e0 93b9
00000020: 830a 8138 3fbb 68b9 2d55 4cb7 8bbd ea37
00000030: 514b 81b7 a13d 3b38 61b8 56b8 bf80 6e38
00000040: 7e0f 2cb8 5fb9 4fb7 9923 acb6 014c 9037
00000050: fd4e 5637 7fa9 a3b8 2396 1d38 51e1 c4b9
00000060: 866e e1b7 3cd8 c9b8 7a7e 61b8 06c5 cbb9
00000070: 8bb9 b337 60f7 c237 4b09 22b7 493e 70b7
00000080: 907a d0b6 d38f 9eb8 e5f0 d538 b80a 11b9
00000090: 21c7 88b8 12d3 ddb9 1f07 0fb9 0444 0f38
000000a0: 54c8 22b9 725b 4cb6 9f1b 2d38 4d4b d138
000000b0: 404b d234 c46f a437 daea 9b38 cbd2 e638
000000c0: e495 8e38 afce 01b7 6f31 b0b8 d091 0cb6
000000d0: 3794 96b7 697a 81b7 4ff7 0fb7 6194 1cb8
000000e0: 271c 3db8 a865 6eb6 3bf3 0db9 b96d c637
000000f0: 9a74 8137 640c 66b8 5802 6cb7 5460 88b9
00000100: b9a2 91b7 4811 39b8 4a37 4735 eda4 5138
00000110: 7ad9 92b6 aa8d 5cb8 e7c3 a6b8 6907 41b9
00000120: 35e1 b338 22a5 4236 2f54 01b8 9890 a837
00000130: 5da1 fb37 cf6d 3f38 1527 96b8 e2e6 12ba
00000140: 5d67 b2b5 08bd 0338 0886 0eb9 5086 c6b6
00000150: 949a 5037 697f 90b8 6342 2f35 54cf 1eb9
00000160: 4b99 6ab7 c4f8 ee35 d455 8637 4bda 49b5
00000170: c8a4 b0b8 3b72 81b6 0cd5 beb5 6e3b ad36
00000180: 4fad 0eb8 29e9 1b37 fa7c 54b8 0c7f 88b6
00000190: d597 3c37 f5bb 10b8 a6b6 4938 a428 18b9
000001a0: ced4 a0b8 4858 15b8 39d7 b1b7 f900 dbb9
000001b0: eae9 21ba 8f02 a0b9 71f6 a3b8 67a5 fdb8
000001c0: ae5f 0139 c8bb 6838 925b d0b7 a8af 79b8
000001d0: b369 9537 a9b9 8b37 d264 e3b8 63b3 9336
000001e0: f932 0ab9 cd43 cd37 c314 8ab7 f5dd 6238
000001f0: 769f aab7 195d ccb8 a2b9 ffb8 458e 0737
-1.0397528e-06 5.373106e-06 -6.975628e-05 8.950211e-07 -6.8041765e-05 -0.00012828287 3.8090836e-06 -0.0002820494
6.153157e-05 -0.00022194999 -1.2179179e-05 2.7983237e-05 -1.541307e-05 4.464167e-05 -5.1193292e-05 5.6863526e-05
-4.1022424e-05 -1.23813215e-05 -5.1301436e-06 1.720153e-05 1.2773785e-05 -7.804017e-05 3.7571543e-05 -0.00037551907
-2.6873557e-05 -9.624704e-05 -5.376197e-05 -0.0003886597 2.1424863e-05 2.3241795e-05 -9.658116e-06 -1.4319617e-05
-6.213151e-06 -7.5608164e-05 0.000102015016 -0.0001383227 -6.522076e-05 -0.00042309664 -0.00013640196 3.41572e-05
-0.00015524152 -3.0451597e-06 4.127214e-05 9.9799225e-05 3.91703e-07 1.9602368e-05 7.4347205e-05 0.00011006518
6.799007e-05 -7.737121e-06 -8.401542e-05 -2.09465e-06 -1.7950411e-05 -1.5435e-05 -8.581045e-06 -3.7331487e-05
-4.508733e-05 -3.5523935e-06 -0.00013537418 2.3654533e-05 1.5432295e-05 -5.4847813e-05 -1.4067242e-05 -0.0002601171
-1.736112e-05 -4.412353e-05 7.4213733e-07 4.9983082e-05 -4.3764567e-06 -5.2584022e-05 -7.9519865e-05 -0.00018408675
8.577333e-05 2.9004373e-06 -3.08344e-05 2.0094492e-05 2.9996672e-05 4.5640216e-05 -7.159837e-05 -0.0005603862
-1.3292116e-06 3.1408883e-05 -0.00013592106 -5.916496e-06 1.2433757e-05 -6.890187e-05 6.5289186e-07 -0.0001514529
-1.3983178e-05 1.7804782e-06 1.6014012e-05 -7.5195993e-07 -8.423027e-05 -3.8577978e-06 -1.4218108e-06 5.1627203e-06
-3.4016844e-05 9.293007e-06 -5.0661132e-05 -4.067906e-06 1.1241024e-05 -3.4507324e-05 4.809224e-05 -0.0001451099
-7.6690325e-05 -3.5606587e-05 -2.1200265e-05 -0.0004177166 -0.00061765185 -0.00030519484 -7.818349e-05 -0.00012094789
0.00012338042 5.5487995e-05 -2.4838173e-05 -5.952982e-05 1.7811404e-05 1.6656546e-05 -0.00010842983 4.4018248e-06
-0.00013179694 2.4469477e-05 -1.646055e-05 5.4089312e-05 -2.0339834e-05 -9.744819e-05 -0.00012193924 8.079752e-06

exp_avg_sq f4 [128]
00000000: 00d1 2930 53f2 8630 b9ce 2e33 0163 0e32
00000010: 556a 8c34 4887 8734 9e93 a12e fd60 a534
00000020: d824 3833 9a45 8733 e13a de30 115f 5235
00000030: 521c 9530 a3de 1834 753d 7f33 1e34 6f33
00000040: 3d3a d934 5de2 6234 b80e 3c30 cf75 da32
00000050: f6c8 af35 f73a 3e33 5e13 c334 8727 4735
00000060: 5761 e535 373c 9c33 11cb ce32 a50a 0736
00000070: 2303 8c32 9180 df33 f0a4 ef30 e286 3533
00000080: 3c84 3030 ca0b 3433 9f0c cf35 9ec8 9c35
00000090: c574 5535 bf6c cb34 93ef 8234 d3d0 ba32
000000a0: 3a72 3a34 aa8e 1330 8a7e 3234 9950 da34
000000b0: 8606 f62f 50ea 7335 d5ac 5f33 fa25 5a34
000000c0: 91eb 0135 1a23 e930 6481 4f35 9716 ae2f
000000d0: 71c6 0f32 ef2d 7331 56a3 ee30 b5b9 0733
000000e0: 57d9 5d33 c8f1 6a31 121e 0133 fb80 a635
000000f0: c7ca 1832 53ab 5332 13e6 2a32 7341 1635
00000100: 8154 3431 2bb3 b633 bccc 0c34 1b00 8033
00000110: 8d39 3932 30ef 3732 e4a0 2234 4a71 7335
00000120: 4bfd 4435 2fe1 7d31 e172 1536 d052 e734
00000130: e1cc 9933 1bd9 fb34 5db9 b532 d1eb 2936
00000140: bddf d12f d173 cb32 0f35 c634 ccd6 e62f
00000150: 02df 0a31 be57 5933 84ff 5f31 1bd9 6434
00000160: eb22 b131 dfff 0e30 f730 aa31 e7a4 f330
00000170: 025a 0033 9c63 a432 e3dc 882e f91f 4e31
00000180: 6c36 bb34 8ed4 a833 3207 e233 abe0 6c31
00000190: 955c 8031 4727 d031 5627 b232 1355 6533
000001a0: 5284 7f34 2d37 b132 66b5 3b31 56bb 3f35
000001b0: 8047 c136 ab30 0436 f313 5933 fa35 1334
000001c0: d00d 7b34 e0e3 9d33 472d 1035 81ae 5c35
000001d0: 3e29 8030 6822 9730 37a9 8133 66c2 a534
000001e0: c186 e634 67f3 3332 5089 c231 46d0 9e32
000001f0: 1e50 1b35 66a4 6533 c05b 8734 244a 8930
6.177885e-10 9.818656e-10 4.0700545e-08 8.287999e-09 2.61544e-07 2.524414e-07 7.3476544e-11 3.0804213e-07
4.2874348e-08 6.299088e-08 1.616936e-09 7.8369436e-07 1.0849226e-09 1.4237098e-07 5.942771e-08 5.5693924e-08
4.0461774e-07 2.113024e-07 6.841492e-10 2.5432113e-08 1.3097003e-06 4.429145e-08 3.6335672e-07 7.4190797e-07
1.7090159e-06 7.275269e-08 2.40739e-08 2.0122764e-06 1.6299571e-08 1.0407633e-07 1.7436417e-09 4.226502e-08
6.4216343e-10 4.1920238e-08 1.5426375e-06 1.1681293e-06 7.9518605e-07 3.789082e-07 2.43887e-07 2.1748212e-08
1.7364155e-07 5.3681026e-10 1.6623576e-07 4.0664307e-07 4.4751775e-10 9.0865524e-07 5.2078423e-08 2.0316648e-07
4.839904e-07 1.6962958e-09 7.73018e-07 3.1666467e-10 8.368816e-09 3.5387264e-09 1.7363202e-09 3.1601036e-08
5.165324e-08 3.4188918e-09 3.0062502e-08 1.2405502e-06 8.893671e-09 1.2320771e-08 9.947615e-09 5.5974596e-07
2.6241482e-09 8.507626e-08 1.3112998e-07 5.960484e-08 1.0781503e-08 1.0706387e-08 1.5145957e-07 9.068941e-07
7.338428e-07 3.6944348e-09 2.2269599e-06 4.3087357e-07 7.161885e-08 4.6910358e-07 2.1155467e-08 2.5320226e-06
3.8175854e-10 2.3684978e-08 3.691898e-07 4.198938e-10 2.0208408e-09 5.060405e-08 3.2596015e-09 2.1313137e-07
5.1553477e-09 5.2022914e-10 4.953218e-09 1.7727445e-09 2.9884184e-08 1.913741e-08 6.223801e-11 2.999512e-09
3.487106e-07 7.861773e-08 1.0525254e-07 3.447023e-09 3.7358157e-09 6.058062e-09 2.0739815e-08 5.3395592e-08
2.3796864e-07 2.0630603e-08 2.7315195e-09 7.1425654e-07 5.760172e-06 1.9697861e-06 5.0542393e-08 1.3710078e-07
2.3381222e-07 7.3523324e-08 5.371007e-07 8.2210323e-07 9.324947e-10 1.0996475e-09 6.0378106e-08 3.0875088e-07
4.2938885e-07 1.0474515e-08 5.6617537e-09 1.8488333e-08 5.7858585e-07 5.3467737e-08 2.5212466e-07 9.989134e-10
