results/ppo/MoveToBall/MoveToBall-1344.onnx (onnx, 70239 bytes, 6 tensors)

network_body._body_endoder.seq_layers.0.weight f4 [128, 1]
00000000: 12f9 17bf a3d4 ebbf 3cd1 a13f 4971 d73b
00000010: d737 193f 8b08 89be 11b6 d0be b1fd 51bf
00000020: 58bc 443f 2025 143f 4e6c 2c3e 5fcc 9ebf
00000030: d15a 4a3e 8a70 24bf 86d5 bebe d4f3 acbf
00000040: 8ece 953e 48d0 97bf 61dc 653f 4a4b 8bbf
00000050: aa4c 5b3f b0d8 02be aa4a f03d 2c23 893e
00000060: d4ec d53e 494c cbbd 2f83 41c0 61c6 5dbc
00000070: 4a74 993e e99a d33f ea87 283f eb80 ad3f
00000080: 1942 aa3f c0bf a1bf 2505 e23f 40d0 19bf
00000090: 30b5 73bf dffd db3e 7e0f 8abe 719e 583e
000000a0: 9d3c f0bc 39c3 d7bf a20f ca3f 785b 7cbf
000000b0: 57b9 c6bf 1ce1 25c0 51f6 44bf c6f1 953e
000000c0: 433c 59be c055 8fbf 8ebd fd3f 8733 dbbf
000000d0: f899 23bf 41fc f3bf 4569 823f d75c 2abf
000000e0: f0dd 24c0 aaf2 30c0 d03c 513f bbac 83bf
000000f0: dc49 e5be 429c 5d3f 6023 3f3e 879a 3740
00000100: d007 c53e 539e 14be 386d 14c0 98a5 9cbe
00000110: 5201 bebf 6c25 4dbf 2f9c 4b3f b3ef 4e3e
00000120: 2baf eabf 1cc8 a8bf 3b8d 13bf 2053 97bf
00000130: a91f e03e 9b94 403f efff 873f 82ac 66bf
00000140: 6f98 a83e a36e e23e 9702 2b3f 501b 213f
00000150: 831c 7c3d dc77 af3f dd61 0a3e c12a 943e
00000160: a639 173f 7d79 70bf 59d1 e3ba d0d2 52bf
00000170: f2ce e43e e974 05be 077e dd3d 7aa2 0abf
00000180: ec73 ba3f 54de 0240 3512 0ebf 7989 a53f
00000190: f7e4 81bc 5f7b f93e 5aec 9abf d4ec 623f
000001a0: e7b1 bfbe f40b ffbe f701 b9be 35fc d1be
000001b0: 66f3 6440 52d1 ad3f a21f 0a3f ec93 d43d
000001c0: f02f 36bf 7727 2340 8d84 363f 324e 1ac0
000001d0: 9f2a cb3f 3bb9 ee3f 3dd3 24bf 4b74 44bf
000001e0: ada3 01bb a443 36bf 242a eabc 049e 623f
000001f0: 7bd4 2ebf aff1 8bbf d77c 6e3d 39de 72bf
-0.59364426 -1.8424267 1.2641978 0.006574784 0.5985083 -0.2676433 -0.40763906 -0.8202773
0.7684989 0.5786915 0.1683819 -1.2406119 0.19761206 -0.6423422 -0.3727228 -1.351191
0.2925915 -1.1860437 0.89789397 -1.0882351 0.85663855 -0.12777972 0.11732991 0.26784647
0.41782248 -0.099266596 -3.0236318 -0.013536067 0.29971534 1.653165 0.6583239 1.3554968
1.3301421 -1.2636642 1.765782 -0.6008339 -0.95198345 0.42967126 -0.26964945 0.2115419
-0.029325778 -1.6856452 1.5786021 -0.9857707 -1.5525311 -2.5918646 -0.7693835 0.2928602
-0.21214394 -1.1198044 1.9823472 -1.71251 -0.6390681 -1.9061357 1.0188376 -0.6654791
-2.576046 -2.764811 0.8173342 -1.0287088 -0.44782913 0.86566556 0.18665838 2.8688066
0.38482523 -0.14513521 -2.3191662 -0.30595088 -1.4844153 -0.80135226 0.7953519 0.20208625
-1.8334707 -1.3186069 -0.57637376 -1.1822243 0.43774155 0.75226754 1.062498 -0.90106976
0.32928798 0.44225034 0.66800827 0.629323 0.06155063 1.3708453 0.13513894 0.2893887
0.5907234 -0.93935376 -0.0017381116 -0.82352924 0.44689137 -0.13032879 0.108150534 -0.5415417
1.4566627 2.0448198 -0.5549653 1.2932578 -0.01585625 0.48726937 -1.2103379 0.8864262
-0.37440416 -0.49813807 -0.36134312 -0.4101273 3.5773559 1.3579504 0.5395452 0.10379776
-0.71166897 2.5492837 0.71296006 -2.4110227 1.5872382 1.8650278 -0.64384824 -0.7673995
-0.0019781396 -0.7119696 -0.028584547 0.8852236 -0.6829297 -1.0933131 0.058224525 -0.94870335

network_body._body_endoder.seq_layers.0.bias f4 [128]
00000000: 0000 0000 0000 0000 0000 0000 0000 0000
00000010: 0000 0000 0000 0000 0000 0000 0000 0000
00000020: 0000 0000 0000 0000 0000 0000 0000 0000
00000030: 0000 0000 0000 0000 0000 0000 0000 0000
00000040: 0000 0000 0000 0000 0000 0000 0000 0000
00000050: 0000 0000 0000 0000 0000 0000 0000 0000
00000060: 0000 0000 0000 0000 0000 0000 0000 0000
00000070: 0000 0000 0000 0000 0000 0000 0000 0000
00000080: 0000 0000 0000 0000 0000 0000 0000 0000
00000090: 0000 0000 0000 0000 0000 0000 0000 0000
000000a0: 0000 0000 0000 0000 0000 0000 0000 0000
000000b0: 0000 0000 0000 0000 0000 0000 0000 0000
000000c0: 0000 0000 0000 0000 0000 0000 0000 0000
000000d0: 0000 0000 0000 0000 0000 0000 0000 0000
000000e0: 0000 0000 0000 0000 0000 0000 0000 0000
000000f0: 0000 0000 0000 0000 0000 0000 0000 0000
00000100: 0000 0000 0000 0000 0000 0000 0000 0000
00000110: 0000 0000 0000 0000 0000 0000 0000 0000
00000120: 0000 0000 0000 0000 0000 0000 0000 0000
00000130: 0000 0000 0000 0000 0000 0000 0000 0000
00000140: 0000 0000 0000 0000 0000 0000 0000 0000
00000150: 0000 0000 0000 0000 0000 0000 0000 0000
00000160: 0000 0000 0000 0000 0000 0000 0000 0000
00000170: 0000 0000 0000 0000 0000 0000 0000 0000
00000180: 0000 0000 0000 0000 0000 0000 0000 0000
00000190: 0000 0000 0000 0000 0000 0000 0000 0000
000001a0: 0000 0000 0000 0000 0000 0000 0000 0000
000001b0: 0000 0000 0000 0000 0000 0000 0000 0000
000001c0: 0000 0000 0000 0000 0000 0000 0000 0000
000001d0: 0000 0000 0000 0000 0000 0000 0000 0000
000001e0: 0000 0000 0000 0000 0000 0000 0000 0000
000001f0: 0000 0000 0000 0000 0000 0000 0000 0000
0.0 0.0 0.0 0.0 0.0 0.0 0.0 0.0
0.0 0.0 0.0 0.0 0.0 0.0 0.0 0.0
0.0 0.0 0.0 0.0 0.0 0.0 0.0 0.0
0.0 0.0 0.0 0.0 0.0 0.0 0.0 0.0
0.0 0.0 0.0 0.0 0.0 0.0 0.0 0.0
0.0 0.0 0.0 0.0 0.0 0.0 0.0 0.0
0.0 0.0 0.0 0.0 0.0 0.0 0.0 0.0
0.0 0.0 0.0 0.0 0.0 0.0 0.0 0.0
0.0 0.0 0.0 0.0 0.0 0.0 0.0 0.0
0.0 0.0 0.0 0.0 0.0 0.0 0.0 0.0
0.0 0.0 0.0 0.0 0.0 0.0 0.0 0.0
0.0 0.0 0.0 0.0 0.0 0.0 0.0 0.0
0.0 0.0 0.0 0.0 0.0 0.0 0.0 0.0
0.0 0.0 0.0 0.0 0.0 0.0 0.0 0.0
0.0 0.0 0.0 0.0 0.0 0.0 0.0 0.0
0.0 0.0 0.0 0.0 0.0 0.0 0.0 0.0

network_body._body_endoder.seq_layers.2.weight f4 [128, 128]
00000000: fca0 bfbd be65 1a3e b554 5cbc 895b 40bc
00000010: a163 c93c d885 a33d ad62 b93d cfb2 d63c
00000020: 5b3a 9c3d 7464 9b3d 26e6 10be 64ca 813d
00000030: 2003 febd 05d5 f1bd adf4 0a3d 28cf d23b
00000040: 63bd 063d 5e47 b7bb c18d 3c3d 2bba 023d
00000050: f59d 393d 817f 12be 4d0d a63d 19a0 5ebd
00000060: dbf2 bcbd 5d4b 73bc ba21 7a3d 3800 ec3d
00000070: ed1b e33d 3dac 62bd b54f 11bc 7a59 773d
00000080: 888e afbd c392 2dbe 272e c7bc 952d 843b
00000090: 02ba 03bd c34d c3bd 1313 a53d e6c3 433d
000000a0: 1840 53be ecb7 06bd faeb 073e d02b c7bc
000000b0: 8779 9d3c 34b1 8bbe 7ae7 edbd ef47 fb3c
000000c0: 2159 5b3d 66cd 89bc edb3 10bd 2ddf c0bd
000000d0: 5f21 72bd fa92 83bd f566 383d 625d e63c
000000e0: c2ec ac3c 292d 9d3c 30c6 a43d d8fa 2bbc
000000f0: bbad 00bd 1530 83bd 7f0f 213e 25ec 91bc
00000100: 6bd8 493d 3649 32bd 749a 843c fd7a 793d
00000110: c198 bd3b da3c bcbd 53d1 b03d cd20 0cbe
00000120: ed0a 0b3c 1935 893d 227d 023e a8c2 a0bb
00000130: 83b0 db3d 70c3 50be 03f0 693c d3e1 11bd
00000140: bfe9 94bc 9315 193e 6f85 2bbd 67db c83d
00000150: c717 dfbd 80c7 05bd 1495 14bd e782 c43c
00000160: 35c3 933c 858a debd cfa9 48bc 1880 6239
00000170: aa20 6ebb d3b4 b5bc 58eb 2e3e 9481 8d3c
00000180: e24d 2e3e 267b 07bd 25f3 cf3d d567 923d
00000190: 3d97 0d3e 4193 e93d b94d 98bc f61c 40be
000001a0: 5ba0 123c 8db1 c93d c79d 18bd 2729 4ebc
000001b0: e846 30bd a4f2 d9bc 646e 863d 8510 7b3d
000001c0: 2644 b5bd b943 b63d ab22 d6bd cf88 26bd
000001d0: 1f1a 323d 8e07 e73b 4d7b 353d af82 4bbc
000001e0: 1ae3 a5bd 6efc 1fbd 2adb b23d 2cd0 193a
000001f0: fc8f f9bc 48ac 3abd 592d 9e3d 2c51 03be
00000200: 3d58 c4bd 5510 8e3d e3b5 c93d ced8 4dbe
00000210: 00d7 183e 77e9 eabd 18d7 353c 967e ed3d
00000220: fbba 2ebd 7061 81bd 6236 e4bd 3e01 2cbd
00000230: 4f6d 89bd b145 323d 026c da3d 85ab 10be
00000240: acf1 cc3b 0b12 70bc ae8a 013d e291 47bd
00000250: 9f47 8ebd ba30 1c3d 5427 013d e518 54bd
00000260: bb33 d33d 961a 55bd 3df1 febc 3b22 51bc
00000270: 6b39 70bd 6dc1 8fbd 9384 453d 9687 e9bc
00000280: b1b1 89bd 0daa 57bd 8532 493c 67b0 7f3e
00000290: d493 c5bd 783f 90bd bbf9 80bd b0e8 5e3e
000002a0: 82d9 a6bc 6534 303c cc07 d9bb 8f75 6cbc
000002b0: 5a33 fb3d b801 e13d a441 643d e871 84bd
000002c0: 66e7 5b3d bdc2 a6bd 333b 133e 22da 77bd
000002d0: 5996 18bd 2f8c eebc 90e5 8bbd 80ae 253e
000002e0: 8578 593e dafd ee3c 3411 fabd 713e 48bd
000002f0: f5ff d1bd 4221 b13d e765 6bbd c9d0 223d
00000300: 536e c8bc ade1 ffbd f779 c73d b1f1 c1bd
00000310: 2d1d 863d 1a3c a7bc d975 5e3c 153b 223d
00000320: e4f9 bbbc fb8d 4b3d 685b 06bd 34a4 b8bd
00000330: decd a9bc 816e fc39 6e6a aebb 70b8 963d
00000340: 462f 41bd 7b04 e73c d49e 293e 14ba 85bd
00000350: f2ae ecbd 621a 1ebe 2e53 0f3e 512c 97bc
00000360: 26b3 643c 17fa 21bd 86de b5bd c9e4 17bd
00000370: b30b e9bc 36fa 3abd 861e 75bb 5538 bb3c
00000380: ab6a dfbc 394b 063e b98a 9cba 96a3 f33d
00000390: 5003 a93d 3617 a43d e66a 1cbd 2932 3cbd
000003a0: 785e 063e 6cbb 043d da67 fbbc 094e cdbc
000003b0: 375c b53d d37f 923c 473f 25bd 1eb5 cb3c
000003c0: b7f9 eb3c e623 c3bd 3a2d da3d d99a 913d
000003d0: 9e38 e03d 39c3 46bc d4ab 4bbd 56ca 03bd
000003e0: 0136 6e3d de34 b23d 5ef8 29bb ca83 d7bd
000003f0: 8774 893d b7c2 5ebd 071a 07bc 1621 7c3d
-0.09356877 0.15077874 -0.01344793 -0.011740574 0.02458364 0.07984513 0.09052024 0.02620831
0.07628318 0.07587519 -0.14150295 0.06337431 -0.1240294 -0.118082084 0.033924747 0.0064333864
0.032895457 -0.0055932244 0.046033625 0.031915825 0.045316655 -0.14306451 0.08108006 -0.0543519
-0.092260085 -0.014849511 0.06106732 0.11523479 0.11089311 -0.05534004 -0.008869101 0.060388066
-0.085721076 -0.16950516 -0.024314 0.004033754 -0.032159813 -0.09536316 0.08060279 0.047794245
-0.20629919 -0.032890245 0.13273612 -0.024312884 0.019222988 -0.27283633 -0.11616416 0.030673949
0.053551797 -0.016821574 -0.03532784 -0.094175674 -0.059113856 -0.06424518 0.045020062 0.0281207
0.021108989 0.019186573 0.08045614 -0.0104968175 -0.031415682 -0.06405655 0.15728568 -0.017812798
0.049278658 -0.04352685 0.01618693 0.060908306 0.005786032 -0.09191294 0.086336754 -0.13684388
0.008486492 0.06699581 0.12743047 -0.0049060173 0.10727026 -0.20387053 0.014278415 -0.035615753
-0.018177865 0.14949636 -0.0418753 0.09807473 -0.10893207 -0.03266096 -0.036274984 0.0239882
0.018037418 -0.10866264 -0.012247517 0.00021600758 -0.0036335387 -0.02218095 0.17081964 0.017273702
0.17021897 -0.033076428 0.10153798 0.07148711 0.13827224 0.114050396 -0.018591749 -0.18761048
0.008949365 0.09848318 -0.037259843 -0.012583054 -0.04303637 -0.026604958 0.06564024 0.06129505
-0.08850889 0.08899636 -0.10455831 -0.040657815 0.043481942 0.007050461 0.044307042 -0.012421294
-0.08099957 -0.039059095 0.087332085 0.0005867507 -0.030464165 -0.045574456 0.07723493 -0.12823933
-0.095871426 0.06936709 0.09849145 -0.20102236 0.14925766 -0.11470311 0.011098646 0.1159641
-0.042658787 -0.06317413 -0.11143185 -0.041993372 -0.06710302 0.043523494 0.10665132 -0.1412793
0.0062543955 -0.014652739 0.031626396 -0.04872311 -0.069472544 0.038132407 0.031531647 -0.051781554
0.10312601 -0.052027307 -0.03112089 -0.012764509 -0.058648508 -0.07019315 0.048222136 -0.028507035
-0.06723345 -0.052652407 0.012280111 0.24969636 -0.096473366 -0.07043356 -0.06297632 0.2176845
-0.020367388 0.010754679 -0.006623244 -0.014432325 0.12265654 0.10986656 0.055726662 -0.064670384
0.053687476 -0.08142612 0.14378051 -0.060510762 -0.037252758 -0.02911958 -0.06830895 0.16179848
0.21237381 0.02917378 -0.122103125 -0.048887674 -0.10253898 0.086489215 -0.05747023 0.039749894
-0.02446667 -0.12494216 0.0974006 -0.09469927 0.065485336 -0.0204144 0.013577902 0.039607126
-0.022946306 0.04969595 -0.032802016 -0.09015694 -0.020728048 0.00048147517 -0.005322746 0.073593974
-0.047164224 0.028200379 0.16564494 -0.06529632 -0.11556806 -0.15439752 0.13996574 -0.018453749
0.013958728 -0.039545145 -0.088803336 -0.03708342 -0.028447961 -0.045648776 -0.0037402227 0.02285401
-0.027272543 0.13114633 -0.0011943198 0.11896436 0.08252585 0.0801224 -0.038187884 -0.045946274
0.13121974 0.032405302 -0.030689169 -0.025061624 0.08855479 0.017883217 -0.04034355 0.024866637
0.028805597 -0.095283315 0.106531575 0.07109613 0.10948299 -0.012131506 -0.049724415 -0.032175384
0.05815697 0.0870149 -0.0025935392 -0.10523184 0.06711679 -0.054384913 -0.0082459515 0.06155499

network_body._body_endoder.seq_layers.2.bias f4 [128]
00000000: 0000 0000 0000 0000 0000 0000 0000 0000
00000010: 0000 0000 0000 0000 0000 0000 0000 0000
00000020: 0000 0000 0000 0000 0000 0000 0000 0000
00000030: 0000 0000 0000 0000 0000 0000 0000 0000
00000040: 0000 0000 0000 0000 0000 0000 0000 0000
00000050: 0000 0000 0000 0000 0000 0000 0000 0000
00000060: 0000 0000 0000 0000 0000 0000 0000 0000
00000070: 0000 0000 0000 0000 0000 0000 0000 0000
00000080: 0000 0000 0000 0000 0000 0000 0000 0000
00000090: 0000 0000 0000 0000 0000 0000 0000 0000
000000a0: 0000 0000 0000 0000 0000 0000 0000 0000
000000b0: 0000 0000 0000 0000 0000 0000 0000 0000
000000c0: 0000 0000 0000 0000 0000 0000 0000 0000
000000d0: 0000 0000 0000 0000 0000 0000 0000 0000
000000e0: 0000 0000 0000 0000 0000 0000 0000 0000
000000f0: 0000 0000 0000 0000 0000 0000 0000 0000
00000100: 0000 0000 0000 0000 0000 0000 0000 0000
00000110: 0000 0000 0000 0000 0000 0000 0000 0000
00000120: 0000 0000 0000 0000 0000 0000 0000 0000
00000130: 0000 0000 0000 0000 0000 0000 0000 0000
00000140: 0000 0000 0000 0000 0000 0000 0000 0000
00000150: 0000 0000 0000 0000 0000 0000 0000 0000
00000160: 0000 0000 0000 0000 0000 0000 0000 0000
00000170: 0000 0000 0000 0000 0000 0000 0000 0000
00000180: 0000 0000 0000 0000 0000 0000 0000 0000
00000190: 0000 0000 0000 0000 0000 0000 0000 0000
000001a0: 0000 0000 0000 0000 0000 0000 0000 0000
000001b0: 0000 0000 0000 0000 0000 0000 0000 0000
000001c0: 0000 0000 0000 0000 0000 0000 0000 0000
000001d0: 0000 0000 0000 0000 0000 0000 0000 0000
000001e0: 0000 0000 0000 0000 0000 0000 0000 0000
000001f0: 0000 0000 0000 0000 0000 0000 0000 0000
0.0 0.0 0.0 0.0 0.0 0.0 0.0 0.0
0.0 0.0 0.0 0.0 0.0 0.0 0.0 0.0
0.0 0.0 0.0 0.0 0.0 0.0 0.0 0.0
0.0 0.0 0.0 0.0 0.0 0.0 0.0 0.0
0.0 0.0 0.0 0.0 0.0 0.0 0.0 0.0
0.0 0.0 0.0 0.0 0.0 0.0 0.0 0.0
0.0 0.0 0.0 0.0 0.0 0.0 0.0 0.0
0.0 0.0 0.0 0.0 0.0 0.0 0.0 0.0
0.0 0.0 0.0 0.0 0.0 0.0 0.0 0.0
0.0 0.0 0.0 0.0 0.0 0.0 0.0 0.0
0.0 0.0 0.0 0.0 0.0 0.0 0.0 0.0
0.0 0.0 0.0 0.0 0.0 0.0 0.0 0.0
0.0 0.0 0.0 0.0 0.0 0.0 0.0 0.0
0.0 0.0 0.0 0.0 0.0 0.0 0.0 0.0
0.0 0.0 0.0 0.0 0.0 0.0 0.0 0.0
0.0 0.0 0.0 0.0 0.0 0.0 0.0 0.0

action_model._discrete_distribution.branches.0.weight f4 [2, 128]
00000000: 316c 02bc 8329 0fbb c715 fcbb b3c0 1bbc
00000010: 64cc 023c a57b b8b9 c386 7fbb a16a 943b
00000020: 10aa 5bbc 07ca 46bb 87d1 273c 13fb 84bb
00000030: db04 b6bb ed80 9ebb 3923 043c 3360 91ba
00000040: 9b94 debb 8f82 73b9 b45d a83a c749 9c3b
00000050: 2212 0fbc 9f1e 2abc ebf2 bd3a 2d2d 36bb
00000060: 8346 f6bb ac44 c639 03b6 38bc adc2 e73a
00000070: 6b9b b83b 37e9 7c3c 5608 2abc cb51 a93b
00000080: 2903 af3b b8e7 3fbb a2f8 0c3c 27db a8bc
00000090: c3de 493c 7742 6dbb a37d 86bb 4471 25bc
000000a0: aa72 ff3b f883 80bc b8f0 da3b 3614 a637
000000b0: 21a2 243c 4d7f 4bbc ba0f 683b 7b15 42bc
000000c0: 7bd6 33b9 f363 813b 405b 7bbb f5af f239
000000d0: 095d 493a 6f8f acbb 9983 063b f906 8fbb
000000e0: a6c7 af3b 11f3 b2ba 6011 283b 4bd9 50bb
000000f0: 1557 50bb 00f8 4abc 0bc6 703c 92ab ce3a
00000100: 1863 4f3b d826 64bb ecd7 263b 1e20 8abb
00000110: 17da 963b 2087 6abb 8da0 08bc 2c19 373c
00000120: ad6f f83b bb9a 1d3b 2ad8 48bc d594 d63b
00000130: e181 803a 4b03 123c c027 4f3a cbbc 0e3c
00000140: c97f aa3c 38c0 b93b b3ee 10bc a2a0 d7bb
00000150: 8fbc a83b 2746 c0bb 0716 4bbc 08dd efbb
00000160: 83a6 d03a b30c 06bc 806d 8bbc 1c9a 253c
00000170: 4dbb d43a 6b44 083a 80ce f3b9 0543 9b3c
00000180: 1b70 433b e520 a3b9 1378 39bc 8782 5fbc
00000190: 5c93 aa3a 1bef cdbb 0fb1 db3a 25d0 89ba
000001a0: cfd6 c139 e8da 153c 67c5 39bc 1b64 d0ba
000001b0: 60f2 aabb 0630 8a3b 0de8 babc 3367 a43b
000001c0: 15d1 c63a 7de7 fa3b bf71 50ba bbb9 813c
000001d0: 5bf9 ae3b 5d60 f9b8 6300 cabb 6d36 62ba
000001e0: 1a02 9339 151d 65ba 2dca 7fbb 7147 223c
000001f0: c5b2 1a3c 801e 8f3c fe02 1bbb 0fc1 b23b
00000200: 8576 243b 9174 0f3c a4f6 cb3c b22f 24bb
00000210: 442f a9ba 3dc5 583c 870e c13b 8fe6 babb
00000220: 9355 f93a b452 2cbc 2b41 153b 91c9 3e3b
00000230: 15a4 d0bb 5f4e 233c 5faf e33a f05f d23a
00000240: c3e9 013c bf81 983b 08cb 173b 8851 edbc
00000250: 6f82 17bc f803 043c fee9 ab39 fb61 7bba
00000260: c9fe b2bb 46d5 11bb b0f6 f23b aba9 803b
00000270: 273e 2ebb a759 aeba d6b3 39bc f4ed b6bb
00000280: 539c 3bbc 30cd 51bb 4825 793c e85d f5bb
00000290: b307 6a3c 3379 19bc c411 b9b9 2289 613c
000002a0: ca0f a2bc b20e cdbb 73dd e8bb 6dae 573c
000002b0: 16fc 44bc b94e 0c3c 6bdc 8f3b f552 40bc
000002c0: 6373 253b 6ba8 e23b 57df fd3b 56f5 903b
000002d0: 63ec 12bc 4ad0 87bc e8ee 5bbc 0baf 303b
000002e0: a555 f639 4569 8ebb 3895 c93b 9e70 863b
000002f0: 1ab0 babb d534 d5bc 9fc2 29bc 07af 31b9
00000300: 47bf 853b 8071 2e3c 724c de3b 60e4 ea3b
00000310: 9f9a 2dbc a233 4cbb 20b3 fbbb 3a06 28bc
00000320: 8d90 49bb ab02 f3bb cd56 cdbb 53d9 c7b9
00000330: 9e40 2bbc 1812 03bc 4862 5cbc 9f55 9ebc
00000340: 80c2 75bb 3e36 033c 9725 ebbb 62dc 533c
00000350: 6fc7 70bc bae8 c53b 1b5b 1abc 9bee f03a
00000360: 4014 e83b 612e 90ba 33ec ee3b 87b3 7f3c
00000370: c6ab a13b d575 7d3c cfb6 14bc f351 6cbc
00000380: d9da 873b b265 903c f053 943b b887 6bbc
00000390: cbb1 09bc f7f8 e5bb 0f1b 053c c3c5 1539
000003a0: 3681 a5ba b224 39bc b1df 343a bd60 ba3c
000003b0: 2aa5 da3a 05ba 15bb 8bc2 fb3b 29d7 4abc
000003c0: c2ab 723b efe6 443c f73f 87bc 8d1b 4ebb
000003d0: 23d2 5cbc eaf1 ffbb df36 43bb 6f92 7eba
000003e0: ebac 073c 2f7b 71bc 0046 eb3b af8d 95bb
000003f0: df0c 963a f06b 263b 1a0c 41bb 1819 00bc
-0.007960365 -0.0021844811 -0.0076930257 -0.009506392 0.007983301 -0.00035187337 -0.0038990236 0.0045293127
-0.013407245 -0.003033282 0.010242826 -0.0040582507 -0.005554778 -0.0048371465 0.008065038 -0.0011091292
-0.0067926175 -0.00023222923 0.0012845309 0.004769537 -0.008732351 -0.010383277 0.0014491951 -0.0027797923
-0.00751573 0.00037816667 -0.011273864 0.0017681919 0.0056337616 0.015436462 -0.010377964 0.005167221
0.005340953 -0.0029282402 0.008604201 -0.020612312 0.012321177 -0.0036202946 -0.0041043325 -0.010097805
0.0077956514 -0.015687928 0.006681528 1.9798154e-05 0.01004842 -0.012420488 0.0035409764 -0.011845942
-0.0001715067 0.0039486825 -0.003835395 0.00046288935 0.0007681405 -0.005266122 0.0020525216 -0.004364845
0.005364376 -0.0013652762 0.0025645122 -0.0031867798 -0.0031790186 -0.012388229 0.014695655 0.0015767685
0.0031644758 -0.0034813192 0.002545829 -0.0042152544 0.004603635 -0.0035786107 -0.00833906 0.011175435
0.007581672 0.0024048525 -0.012258569 0.006548504 0.0009804332 0.008911918 0.00079023466 0.008712004
0.020812886 0.005668666 -0.008845973 -0.006580428 0.005149431 -0.005867738 -0.012395388 -0.00732005
0.0015918765 -0.008181739 -0.017019987 0.010107543 0.0016230136 0.00051981834 -0.00046502426 0.018952856
0.0029821459 -0.0003111429 -0.011320132 -0.01364196 0.0013013887 -0.006284607 0.0016761142 -0.0010514302
0.00036971873 0.00914643 -0.011338568 -0.0015898974 -0.0052168816 0.0042171506 -0.022815729 0.005017185
0.0015168512 0.00765699 -0.000795152 0.015835634 0.005339784 -0.00011891194 -0.006164597 -0.0008629326
0.0002803959 -0.00087399903 -0.0039030418 0.009904728 0.009442036 0.017470598 -0.0023652907 0.0054551433
0.0025095057 0.008755819 0.02489788 -0.0025052843 -0.0012907763 0.013230619 0.0058916244 -0.0057037543
0.0019022695 -0.010517765 0.002277444 0.0029111842 -0.0063672164 0.009967416 0.001737099 0.001605032
0.007929268 0.004654139 0.0023161788 -0.028969541 -0.009247406 0.008057587 0.0003279 -0.00095894904
-0.0054625017 -0.0022252365 0.0074146613 0.003926476 -0.0026587339 -0.0013301865 -0.01133438 -0.0055825654
-0.011450845 -0.003201317 0.015206642 -0.007488001 0.014284062 -0.009367275 -0.00035299186 0.013765605
-0.01978292 -0.0062578553 -0.007106477 0.013164145 -0.012022993 0.008563691 0.0043902895 -0.0117385285
0.0025245778 0.0069170496 0.0077475714 0.0044237776 -0.008967492 -0.016578812 -0.013423659 0.0026959802
0.00046984587 -0.004346045 0.0061518215 0.0041027805 -0.0056972625 -0.026026169 -0.010361343 -0.00016945238
0.00408164 0.010647178 0.0067840153 0.0071683377 -0.010595947 -0.0031158705 -0.0076812655 -0.010255391
-0.0030756325 -0.0074160895 -0.006266451 -0.00038118157 -0.010452418 -0.007999919 -0.013451166 -0.019327937
-0.0037499964 0.008008538 -0.007176112 0.012930961 -0.014695986 0.006039706 -0.009421135 0.0018381657
0.007082492 -0.001100015 0.0072913407 0.0156067675 0.004933807 0.015469988 -0.009076788 -0.014423835
0.0041459617 0.017626617 0.0045266077 -0.01437562 -0.008404206 -0.0070182043 0.008124127 0.0001428342
-0.0012627009 -0.011300253 0.00068997877 0.022751207 0.0016681303 -0.0022846472 0.0076831034 -0.0123804
0.0037028645 0.0120179495 -0.016509993 -0.0031449527 -0.013477835 -0.007810821 -0.0029787344 -0.00097111514
0.008280973 -0.014738842 0.0071799755 -0.004564009 0.0011447928 0.0025393926 -0.0029456676 -0.007818483

action_model._discrete_distribution.branches.0.bias f4 [2]
00000000: 0000 0000 0000 0000
0.0 0.0
