results/ppo/MoveToBall/MoveToBall-2112.pt (torch, 149101 bytes, 11 tensors)

network_body._body_endoder.seq_layers.0.weight f4 [128, 6]
0.19630924 -0.78140867 -0.2880215 0.96563 -0.41691688 0.07031453 0.028158696 -0.113446176
0.2919329 0.41558826 -0.12654775 0.5997176 -0.19472237 0.5080721 0.20957837 -0.4171154
0.18957199 0.037667125 -0.4562779 -0.17456856 -0.5896777 0.32263213 0.13051276 -0.5722195
0.44068202 -0.24741186 0.4760785 -0.7260913 0.20445944 0.47083533 -0.06006522 0.37526757
-0.76469415 0.49416536 -0.059762713 -0.6877906 0.42308715 -0.07432325 -0.3967871 0.27739397
0.25721136 0.5381167 0.247936 0.7197393 0.42774576 -0.15512736 0.4137436 0.019389395
-0.71986735 -0.043329835 0.11558371 0.3274789 -0.022526862 -0.37520328 0.40483087 -0.28296557
-0.12696978 0.11217606 -0.10892777 -0.2840921 -0.029929616 0.44991052 -0.0014515843 -0.003985604
0.466684 -0.043274008 -0.17787537 0.2956777 -0.3795696 -0.12068841 0.7768682 0.2595154
0.39046127 -0.2906878 -0.44929615 0.064368695 -0.57029414 0.022464013 -0.047415245 0.33106542
0.1002556 0.036548175 -0.108151264 -0.3616056 0.16260746 -0.028066183 -0.3657686 -0.90980875
0.114461645 -0.4247638 0.846281 0.0161033 0.23994955 0.03260791 -0.023523595 -0.05399499
0.006397739 0.23977219 0.22619134 -0.19191629 1.069862 0.07565581 0.2135181 0.20542729
0.2693019 0.042494092 0.6490312 0.41390973 -0.45646065 -0.21466374 0.06623371 -0.28978798
-0.30735818 -0.28454164 0.1757363 -0.36263517 -0.5124979 0.686113 0.39529735 0.32467133
-0.07689493 -0.1464154 1.1990669 -0.11075567 -0.2402624 0.32229835 -0.46498162 -0.41285348
-0.16643927 0.17601313 -0.1363848 -0.14115232 0.37811357 -0.4550787 0.29570082 0.2579561
-0.4779979 -0.065960504 0.5519304 -0.22589372 0.07972433 -0.40895864 -0.16852932 0.6124023
-0.023092898 -0.45031893 -0.32922873 0.46447626 -0.5477102 -0.17419012 0.8948118 -0.67249
-0.3652722 -0.77791554 -0.2151082 0.44666895 -0.71821433 -0.2090593 0.032324668 -0.38133737
-0.16819485 -0.27412027 -0.03198795 0.27462548 0.1829628 0.55007195 -0.7344091 -0.05951355
-0.16069691 -0.15989661 -0.74067235 0.41909057 -0.1586712 0.0261511 -0.56862706 -0.113273
0.0148919 -0.025561333 0.22328065 -0.3068419 0.2304125 0.3990582 -0.9651548 -0.44236475
-0.10765133 0.27167585 -0.35782307 0.001788531 -0.57095444 0.59346205 0.14147681 0.4945299
0.05644389 -0.24461484 -0.008238733 -0.79464394 -0.6353891 0.014104249 -0.17222731 0.32027692
0.12510742 0.36740944 0.14608903 0.0047148345 0.4572088 -0.28586274 -0.46892008 0.5827446
0.031389143 -0.404901 -0.36338145 0.3353038 -0.026660966 0.09661547 0.768714 0.054407682
-0.3695397 0.37410548 -0.13413282 -0.15402927 0.40475065 -0.08722656 0.05578134 0.38864744
-0.47694516 0.5562452 -0.25340104 -0.021107625 1.0784665 -0.07440646 -0.038206752 0.32488465
0.56122166 -0.20573506 -0.17037304 -0.26095954 -0.25927472 0.688786 -0.5933183 -0.27193108
-0.45741293 0.25957885 -0.45864278 0.09401428 0.2139945 -0.3621153 0.010692134 0.23483428
0.06014805 0.23380284 -0.32248142 -0.20217353 -0.47051194 -0.064786635 -0.64649147 -0.37875867
00000000: 4a05 493e 660a 48bf 8e77 93be 8733 773f
00000010: 2176 d5be 1001 903d 11ad e63c 7856 e8bd
00000020: 3b78 953e fcc7 d43e bc95 01be 1887 193f
00000030: 4d65 47be 0311 023f b69b 563e 2690 d5be
00000040: 291f 423e d848 1a3d 429d e9be 1ac2 32be
00000050: 1ef5 16bf 0a30 a53e 23a5 053e fa7c 12bf
00000060: 13a1 e13e 8959 7dbe 90c0 f33e 1fe1 39bf
00000070: d15d 513e 5411 f13e f306 76bd 1223 c03e
00000080: ffc2 43bf 3e03 fd3e bfc9 74bd 0b13 30bf
00000090: e19e d83e ca36 98bd ae27 cbbe 9506 8e3e
000000a0: 35b1 833e 04c2 093f efe2 7d3e d640 383f
000000b0: 7e01 db3e b5d9 1ebe 33d6 d33e 82d6 9e3c
000000c0: 3a49 38bf a07a 31bd 27b7 ec3d 50ab a73e
000000d0: 418a b8bc a51a c0be fe45 cf3e dde0 90be
000000e0: 5e04 02be 90bc e53d 8615 dfbd 8574 91be
000000f0: f42e f5bc ac5a e63e 1643 beba ab99 82bb
00000100: 35f1 ee3e 1640 31bd f624 36be 1163 973e
00000110: f256 c2be 7c2b f7bd d6e0 463f 34df 843e
00000120: 8aea c73e 08d5 94be 250a e6be bcd3 833d
00000130: ccfe 11bf 7306 b83c 7d36 42bd 6881 a93e
00000140: cf52 cd3d 8ab3 153d 697e ddbd 5f24 b9be
00000150: 9282 263e 0deb e5bc 0646 bbbe 3ae9 68bf
00000160: de6a ea3d a47a d9be dfa5 583f 11eb 833c
00000170: 56b5 753e df8f 053d 8eb4 c0bc da29 5dbd
00000180: 20a4 d13b d786 753e b49e 673e b485 44be
00000190: 3df1 883f 6ff1 9a3d 7da4 5a3e 885b 523e
000001a0: f0e1 893e 490e 2e3d e926 263f faeb d33e
000001b0: 36b5 e9be d0d0 5bbe 8aa5 873d 175f 94be
000001c0: 0d5e 9dbe 71af 91be 37f4 333e 51ab b9be
000001d0: 1033 03bf 1aa5 2f3f 6a64 ca3e 523b a63e
000001e0: 177b 9dbd ebed 15be 067b 993f ded3 e2bd
000001f0: 5907 76be 4a04 a53e 1212 eebe 8861 d3be
00000200: 0e6f 2abe c93c 343e 75a8 0bbe 3c8a 10be
00000210: 1a98 c13e 1300 e9be 1966 973e d212 843e
00000220: 24bc f4be 4d16 87bd 504b 0d3f af50 67be
00000230: 8246 a33d 0763 d1be f392 2cbe 66c6 1c3f
00000240: 512d bdbc 3490 e6be ab90 a8be d5cf ed3e
00000250: bc36 0cbf e55e 32be 6312 653f 4e28 2cbf
00000260: f504 bbbe 7925 47bf 5345 5cbe cbb1 e43e
00000270: e5dc 37bf a413 56be df66 043d a73e c3be
00000280: 453b 2cbe 7e59 8cbe cc05 03bd b69b 8c3e
00000290: 9a5a 3b3e 84d1 0c3f 3c02 3cbf 7bc4 73bd
000002a0: bb8d 24be f0bb 23be b49c 3dbf 0a93 d63e
000002b0: b47a 22be d53a d63c 8b91 11bf adfb e7bd
000002c0: 28fd 733c 0066 d1bc afa3 643e 621a 9dbe
000002d0: 41f1 6b3e 5b51 cc3e 6314 77bf a27d e2be
000002e0: 4d78 dcbd 1919 8b3e 9634 b7be 246d ea3a
000002f0: 122a 12bf 21ed 173f 4cdf 103e 0633 fd3e
00000300: b531 673d 507c 7abe c0fb 06bc c96d 4bbf
00000310: dca8 22bf 8215 673c 5b5c 30be 56fb a33e
00000320: 291c 003e 171d bc3e 5d98 153e e67e 9a3b
00000330: 4617 ea3e 9a5c 92be 4b16 f0be c02e 153f
00000340: e791 003d 2f4f cfbe 220d babe f1ac ab3e
00000350: 1968 dabc 55de c53d 71ca 443f 97da 5e3d
00000360: 4f34 bdbe c18a bf3e 1d5a 09be d9b9 1dbe
00000370: 7a3b cf3e d7a3 b2bd f97a 643d ccfc c63e
00000380: 2832 f4be 1666 0e3f c8bd 81be e6e9 acbc
00000390: 310b 8a3f 6a62 98bd af7e 1cbd 4857 a63e
000003a0: 39ac 0f3f 36ac 52be 4576 2ebe 7d9c 85be
000003b0: a8bf 84be 4754 303f b5e3 17bf 8d3a 8bbe
000003c0: 0732 eabe 85e7 843e 3ad3 eabe 8f8a c03d
000003d0: 6021 5b3e 2d67 b9be 0f2e 2f3c 6678 703e
000003e0: cd5d 763d 036a 6f3e 491c a5be 9406 4fbe
000003f0: f1e6 f0be dbae 84bd 7780 25bf a8ec c1be

network_body._body_endoder.seq_layers.0.bias f4 [128]
0.0 0.0 0.0 0.0 0.0 0.0 0.0 0.0
0.0 0.0 0.0 0.0 0.0 0.0 0.0 0.0
0.0 0.0 0.0 0.0 0.0 0.0 0.0 0.0
0.0 0.0 0.0 0.0 0.0 0.0 0.0 0.0
0.0 0.0 0.0 0.0 0.0 0.0 0.0 0.0
0.0 0.0 0.0 0.0 0.0 0.0 0.0 0.0
0.0 0.0 0.0 0.0 0.0 0.0 0.0 0.0
0.0 0.0 0.0 0.0 0.0 0.0 0.0 0.0
0.0 0.0 0.0 0.0 0.0 0.0 0.0 0.0
0.0 0.0 0.0 0.0 0.0 0.0 0.0 0.0
0.0 0.0 0.0 0.0 0.0 0.0 0.0 0.0
0.0 0.0 0.0 0.0 0.0 0.0 0.0 0.0
0.0 0.0 0.0 0.0 0.0 0.0 0.0 0.0
0.0 0.0 0.0 0.0 0.0 0.0 0.0 0.0
0.0 0.0 0.0 0.0 0.0 0.0 0.0 0.0
0.0 0.0 0.0 0.0 0.0 0.0 0.0 0.0
00000000: 0000 0000 0000 0000 0000 0000 0000 0000
00000010: 0000 0000 0000 0000 0000 0000 0000 0000
00000020: 0000 0000 0000 0000 0000 0000 0000 0000
00000030: 0000 0000 0000 0000 0000 0000 0000 0000
00000040: 0000 0000 0000 0000 0000 0000 0000 0000
00000050: 0000 0000 0000 0000 0000 0000 0000 0000
00000060: 0000 0000 0000 0000 0000 0000 0000 0000
00000070: 0000 0000 0000 0000 0000 0000 0000 0000
00000080: 0000 0000 0000 0000 0000 0000 0000 0000
00000090: 0000 0000 0000 0000 0000 0000 0000 0000
000000a0: 0000 0000 0000 0000 0000 0000 0000 0000
000000b0: 0000 0000 0000 0000 0000 0000 0000 0000
000000c0: 0000 0000 0000 0000 0000 0000 0000 0000
000000d0: 0000 0000 0000 0000 0000 0000 0000 0000
000000e0: 0000 0000 0000 0000 0000 0000 0000 0000
000000f0: 0000 0000 0000 0000 0000 0000 0000 0000
00000100: 0000 0000 0000 0000 0000 0000 0000 0000
00000110: 0000 0000 0000 0000 0000 0000 0000 0000
00000120: 0000 0000 0000 0000 0000 0000 0000 0000
00000130: 0000 0000 0000 0000 0000 0000 0000 0000
00000140: 0000 0000 0000 0000 0000 0000 0000 0000
00000150: 0000 0000 0000 0000 0000 0000 0000 0000
00000160: 0000 0000 0000 0000 0000 0000 0000 0000
00000170: 0000 0000 0000 0000 0000 0000 0000 0000
00000180: 0000 0000 0000 0000 0000 0000 0000 0000
00000190: 0000 0000 0000 0000 0000 0000 0000 0000
000001a0: 0000 0000 0000 0000 0000 0000 0000 0000
000001b0: 0000 0000 0000 0000 0000 0000 0000 0000
000001c0: 0000 0000 0000 0000 0000 0000 0000 0000
000001d0: 0000 0000 0000 0000 0000 0000 0000 0000
000001e0: 0000 0000 0000 0000 0000 0000 0000 0000
000001f0: 0000 0000 0000 0000 0000 0000 0000 0000

network_body._body_endoder.seq_layers.2.weight f4 [128, 128]
-0.09356877 0.15077874 -0.01344793 -0.011740574 0.02458364 0.07984513 0.09052024 0.02620831
0.07628318 0.07587519 -0.14150295 0.06337431 -0.1240294 -0.118082084 0.033924747 0.0064333864
0.032895457 -0.0055932244 0.046033625 0.031915825 0.045316655 -0.14306451 0.08108006 -0.0543519
-0.092260085 -0.014849511 0.06106732 0.11523479 0.11089311 -0.05534004 -0.008869101 0.060388066
-0.085721076 -0.16950516 -0.024314 0.004033754 -0.032159813 -0.09536316 0.08060279 0.047794245
-0.20629919 -0.032890245 0.13273612 -0.024312884 0.019222988 -0.27283633 -0.11616416 0.030673949
0.053551797 -0.016821574 -0.03532784 -0.094175674 -0.059113856 -0.06424518 0.045020062 0.0281207
0.021108989 0.019186573 0.08045614 -0.0104968175 -0.031415682 -0.06405655 0.15728568 -0.017812798
0.049278658 -0.04352685 0.01618693 0.060908306 0.005786032 -0.09191294 0.086336754 -0.13684388
0.008486492 0.06699581 0.12743047 -0.0049060173 0.10727026 -0.20387053 0.014278415 -0.035615753
-0.018177865 0.14949636 -0.0418753 0.09807473 -0.10893207 -0.03266096 -0.036274984 0.0239882
0.018037418 -0.10866264 -0.012247517 0.00021600758 -0.0036335387 -0.02218095 0.17081964 0.017273702
0.17021897 -0.033076428 0.10153798 0.07148711 0.13827224 0.114050396 -0.018591749 -0.18761048
0.008949365 0.09848318 -0.037259843 -0.012583054 -0.04303637 -0.026604958 0.06564024 0.06129505
-0.08850889 0.08899636 -0.10455831 -0.040657815 0.043481942 0.007050461 0.044307042 -0.012421294
-0.08099957 -0.039059095 0.087332085 0.0005867507 -0.030464165 -0.045574456 0.07723493 -0.12823933
-0.095871426 0.06936709 0.09849145 -0.20102236 0.14925766 -0.11470311 0.011098646 0.1159641
-0.042658787 -0.06317413 -0.11143185 -0.041993372 -0.06710302 0.043523494 0.10665132 -0.1412793
0.0062543955 -0.014652739 0.031626396 -0.04872311 -0.069472544 0.038132407 0.031531647 -0.051781554
0.10312601 -0.052027307 -0.03112089 -0.012764509 -0.058648508 -0.07019315 0.048222136 -0.028507035
-0.06723345 -0.052652407 0.012280111 0.24969636 -0.096473366 -0.07043356 -0.06297632 0.2176845
-0.020367388 0.010754679 -0.006623244 -0.014432325 0.12265654 0.10986656 0.055726662 -0.064670384
0.053687476 -0.08142612 0.14378051 -0.060510762 -0.037252758 -0.02911958 -0.06830895 0.16179848
0.21237381 0.02917378 -0.122103125 -0.048887674 -0.10253898 0.086489215 -0.05747023 0.039749894
-0.02446667 -0.12494216 0.0974006 -0.09469927 0.065485336 -0.0204144 0.013577902 0.039607126
-0.022946306 0.04969595 -0.032802016 -0.09015694 -0.020728048 0.00048147517 -0.005322746 0.073593974
-0.047164224 0.028200379 0.16564494 -0.06529632 -0.11556806 -0.15439752 0.13996574 -0.018453749
0.013958728 -0.039545145 -0.088803336 -0.03708342 -0.028447961 -0.045648776 -0.0037402227 0.02285401
-0.027272543 0.13114633 -0.0011943198 0.11896436 0.08252585 0.0801224 -0.038187884 -0.045946274
0.13121974 0.032405302 -0.030689169 -0.025061624 0.08855479 0.017883217 -0.04034355 0.024866637
0.028805597 -0.095283315 0.106531575 0.07109613 0.10948299 -0.012131506 -0.049724415 -0.032175384
0.05815697 0.0870149 -0.0025935392 -0.10523184 0.06711679 -0.054384913 -0.0082459515 0.06155499
00000000: fca0 bfbd be65 1a3e b554 5cbc 895b 40bc
00000010: a163 c93c d885 a33d ad62 b93d cfb2 d63c
00000020: 5b3a 9c3d 7464 9b3d 26e6 10be 64ca 813d
00000030: 2003 febd 05d5 f1bd adf4 0a3d 28cf d23b
00000040: 63bd 063d 5e47 b7bb c18d 3c3d 2bba 023d
00000050: f59d 393d 817f 12be 4d0d a63d 19a0 5ebd
00000060: dbf2 bcbd 5d4b 73bc ba21 7a3d 3800 ec3d
00000070: ed1b e33d 3dac 62bd b54f 11bc 7a59 773d
00000080: 888e afbd c392 2dbe 272e c7bc 952d 843b
00000090: 02ba 03bd c34d c3bd 1313 a53d e6c3 433d
000000a0: 1840 53be ecb7 06bd faeb 073e d02b c7bc
000000b0: 8779 9d3c 34b1 8bbe 7ae7 edbd ef47 fb3c
000000c0: 2159 5b3d 66cd 89bc edb3 10bd 2ddf c0bd
000000d0: 5f21 72bd fa92 83bd f566 383d 625d e63c
000000e0: c2ec ac3c 292d 9d3c 30c6 a43d d8fa 2bbc
000000f0: bbad 00bd 1530 83bd 7f0f 213e 25ec 91bc
00000100: 6bd8 493d 3649 32bd 749a 843c fd7a 793d
00000110: c198 bd3b da3c bcbd 53d1 b03d cd20 0cbe
00000120: ed0a 0b3c 1935 893d 227d 023e a8c2 a0bb
00000130: 83b0 db3d 70c3 50be 03f0 693c d3e1 11bd
00000140: bfe9 94bc 9315 193e 6f85 2bbd 67db c83d
00000150: c717 dfbd 80c7 05bd 1495 14bd e782 c43c
00000160: 35c3 933c 858a debd cfa9 48bc 1880 6239
00000170: aa20 6ebb d3b4 b5bc 58eb 2e3e 9481 8d3c
00000180: e24d 2e3e 267b 07bd 25f3 cf3d d567 923d
00000190: 3d97 0d3e 4193 e93d b94d 98bc f61c 40be
000001a0: 5ba0 123c 8db1 c93d c79d 18bd 2729 4ebc
000001b0: e846 30bd a4f2 d9bc 646e 863d 8510 7b3d
000001c0: 2644 b5bd b943 b63d ab22 d6bd cf88 26bd
000001d0: 1f1a 323d 8e07 e73b 4d7b 353d af82 4bbc
000001e0: 1ae3 a5bd 6efc 1fbd 2adb b23d 2cd0 193a
000001f0: fc8f f9bc 48ac 3abd 592d 9e3d 2c51 03be
00000200: 3d58 c4bd 5510 8e3d e3b5 c93d ced8 4dbe
00000210: 00d7 183e 77e9 eabd 18d7 353c 967e ed3d
00000220: fbba 2ebd 7061 81bd 6236 e4bd 3e01 2cbd
00000230: 4f6d 89bd b145 323d 026c da3d 85ab 10be
00000240: acf1 cc3b 0b12 70bc ae8a 013d e291 47bd
00000250: 9f47 8ebd ba30 1c3d 5427 013d e518 54bd
00000260: bb33 d33d 961a 55bd 3df1 febc 3b22 51bc
00000270: 6b39 70bd 6dc1 8fbd 9384 453d 9687 e9bc
00000280: b1b1 89bd 0daa 57bd 8532 493c 67b0 7f3e
00000290: d493 c5bd 783f 90bd bbf9 80bd b0e8 5e3e
000002a0: 82d9 a6bc 6534 303c cc07 d9bb 8f75 6cbc
000002b0: 5a33 fb3d b801 e13d a441 643d e871 84bd
000002c0: 66e7 5b3d bdc2 a6bd 333b 133e 22da 77bd
000002d0: 5996 18bd 2f8c eebc 90e5 8bbd 80ae 253e
000002e0: 8578 593e dafd ee3c 3411 fabd 713e 48bd
000002f0: f5ff d1bd 4221 b13d e765 6bbd c9d0 223d
00000300: 536e c8bc ade1 ffbd f779 c73d b1f1 c1bd
00000310: 2d1d 863d 1a3c a7bc d975 5e3c 153b 223d
00000320: e4f9 bbbc fb8d 4b3d 685b 06bd 34a4 b8bd
00000330: decd a9bc 816e fc39 6e6a aebb 70b8 963d
00000340: 462f 41bd 7b04 e73c d49e 293e 14ba 85bd
00000350: f2ae ecbd 621a 1ebe 2e53 0f3e 512c 97bc
00000360: 26b3 643c 17fa 21bd 86de b5bd c9e4 17bd
00000370: b30b e9bc 36fa 3abd 861e 75bb 5538 bb3c
00000380: ab6a dfbc 394b 063e b98a 9cba 96a3 f33d
00000390: 5003 a93d 3617 a43d e66a 1cbd 2932 3cbd
000003a0: 785e 063e 6cbb 043d da67 fbbc 094e cdbc
000003b0: 375c b53d d37f 923c 473f 25bd 1eb5 cb3c
000003c0: b7f9 eb3c e623 c3bd 3a2d da3d d99a 913d
000003d0: 9e38 e03d 39c3 46bc d4ab 4bbd 56ca 03bd
000003e0: 0136 6e3d de34 b23d 5ef8 29bb ca83 d7bd
000003f0: 8774 893d b7c2 5ebd 071a 07bc 1621 7c3d

network_body._body_endoder.seq_layers.2.bias f4 [128]
0.0 0.0 0.0 0.0 0.0 0.0 0.0 0.0
0.0 0.0 0.0 0.0 0.0 0.0 0.0 0.0
0.0 0.0 0.0 0.0 0.0 0.0 0.0 0.0
0.0 0.0 0.0 0.0 0.0 0.0 0.0 0.0
0.0 0.0 0.0 0.0 0.0 0.0 0.0 0.0
0.0 0.0 0.0 0.0 0.0 0.0 0.0 0.0
0.0 0.0 0.0 0.0 0.0 0.0 0.0 0.0
0.0 0.0 0.0 0.0 0.0 0.0 0.0 0.0
0.0 0.0 0.0 0.0 0.0 0.0 0.0 0.0
0.0 0.0 0.0 0.0 0.0 0.0 0.0 0.0
0.0 0.0 0.0 0.0 0.0 0.0 0.0 0.0
0.0 0.0 0.0 0.0 0.0 0.0 0.0 0.0
0.0 0.0 0.0 0.0 0.0 0.0 0.0 0.0
0.0 0.0 0.0 0.0 0.0 0.0 0.0 0.0
0.0 0.0 0.0 0.0 0.0 0.0 0.0 0.0
0.0 0.0 0.0 0.0 0.0 0.0 0.0 0.0
00000000: 0000 0000 0000 0000 0000 0000 0000 0000
00000010: 0000 0000 0000 0000 0000 0000 0000 0000
00000020: 0000 0000 0000 0000 0000 0000 0000 0000
00000030: 0000 0000 0000 0000 0000 0000 0000 0000
00000040: 0000 0000 0000 0000 0000 0000 0000 0000
00000050: 0000 0000 0000 0000 0000 0000 0000 0000
00000060: 0000 0000 0000 0000 0000 0000 0000 0000
00000070: 0000 0000 0000 0000 0000 0000 0000 0000
00000080: 0000 0000 0000 0000 0000 0000 0000 0000
00000090: 0000 0000 0000 0000 0000 0000 0000 0000
000000a0: 0000 0000 0000 0000 0000 0000 0000 0000
000000b0: 0000 0000 0000 0000 0000 0000 0000 0000
000000c0: 0000 0000 0000 0000 0000 0000 0000 0000
000000d0: 0000 0000 0000 0000 0000 0000 0000 0000
000000e0: 0000 0000 0000 0000 0000 0000 0000 0000
000000f0: 0000 0000 0000 0000 0000 0000 0000 0000
00000100: 0000 0000 0000 0000 0000 0000 0000 0000
00000110: 0000 0000 0000 0000 0000 0000 0000 0000
00000120: 0000 0000 0000 0000 0000 0000 0000 0000
00000130: 0000 0000 0000 0000 0000 0000 0000 0000
00000140: 0000 0000 0000 0000 0000 0000 0000 0000
00000150: 0000 0000 0000 0000 0000 0000 0000 0000
00000160: 0000 0000 0000 0000 0000 0000 0000 0000
00000170: 0000 0000 0000 0000 0000 0000 0000 0000
00000180: 0000 0000 0000 0000 0000 0000 0000 0000
00000190: 0000 0000 0000 0000 0000 0000 0000 0000
000001a0: 0000 0000 0000 0000 0000 0000 0000 0000
000001b0: 0000 0000 0000 0000 0000 0000 0000 0000
000001c0: 0000 0000 0000 0000 0000 0000 0000 0000
000001d0: 0000 0000 0000 0000 0000 0000 0000 0000
000001e0: 0000 0000 0000 0000 0000 0000 0000 0000
000001f0: 0000 0000 0000 0000 0000 0000 0000 0000

action_model._discrete_distribution.branches.0.weight f4 [2, 128]
-0.007960365 -0.0021844811 -0.0076930257 -0.009506392 0.007983301 -0.00035187337 -0.0038990236 0.0045293127
-0.013407245 -0.003033282 0.010242826 -0.0040582507 -0.005554778 -0.0048371465 0.008065038 -0.0011091292
-0.0067926175 -0.00023222923 0.0012845309 0.004769537 -0.008732351 -0.010383277 0.0014491951 -0.0027797923
-0.00751573 0.00037816667 -0.011273864 0.0017681919 0.0056337616 0.015436462 -0.010377964 0.005167221
0.005340953 -0.0029282402 0.008604201 -0.020612312 0.012321177 -0.0036202946 -0.0041043325 -0.010097805
0.0077956514 -0.015687928 0.006681528 1.9798154e-05 0.01004842 -0.012420488 0.0035409764 -0.011845942
-0.0001715067 0.0039486825 -0.003835395 0.00046288935 0.0007681405 -0.005266122 0.0020525216 -0.004364845
0.005364376 -0.0013652762 0.0025645122 -0.0031867798 -0.0031790186 -0.012388229 0.014695655 0.0015767685
0.0031644758 -0.0034813192 0.002545829 -0.0042152544 0.004603635 -0.0035786107 -0.00833906 0.011175435
0.007581672 0.0024048525 -0.012258569 0.006548504 0.0009804332 0.008911918 0.00079023466 0.008712004
0.020812886 0.005668666 -0.008845973 -0.006580428 0.005149431 -0.005867738 -0.012395388 -0.00732005
0.0015918765 -0.008181739 -0.017019987 0.010107543 0.0016230136 0.00051981834 -0.00046502426 0.018952856
0.0029821459 -0.0003111429 -0.011320132 -0.01364196 0.0013013887 -0.006284607 0.0016761142 -0.0010514302
0.00036971873 0.00914643 -0.011338568 -0.0015898974 -0.0052168816 0.0042171506 -0.022815729 0.005017185
0.0015168512 0.00765699 -0.000795152 0.015835634 0.005339784 -0.00011891194 -0.006164597 -0.0008629326
0.0002803959 -0.00087399903 -0.0039030418 0.009904728 0.009442036 0.017470598 -0.0023652907 0.0054551433
0.0025095057 0.008755819 0.02489788 -0.0025052843 -0.0012907763 0.013230619 0.0058916244 -0.0057037543
0.0019022695 -0.010517765 0.002277444 0.0029111842 -0.0063672164 0.009967416 0.001737099 0.001605032
0.007929268 0.004654139 0.0023161788 -0.028969541 -0.009247406 0.008057587 0.0003279 -0.00095894904
-0.0054625017 -0.0022252365 0.0074146613 0.003926476 -0.0026587339 -0.0013301865 -0.01133438 -0.0055825654
-0.011450845 -0.003201317 0.015206642 -0.007488001 0.014284062 -0.009367275 -0.00035299186 0.013765605
-0.01978292 -0.0062578553 -0.007106477 0.013164145 -0.012022993 0.008563691 0.0043902895 -0.0117385285
0.0025245778 0.0069170496 0.0077475714 0.0044237776 -0.008967492 -0.016578812 -0.013423659 0.0026959802
0.00046984587 -0.004346045 0.0061518215 0.0041027805 -0.0056972625 -0.026026169 -0.010361343 -0.00016945238
0.00408164 0.010647178 0.0067840153 0.0071683377 -0.010595947 -0.0031158705 -0.0076812655 -0.010255391
-0.0030756325 -0.0074160895 -0.006266451 -0.00038118157 -0.010452418 -0.007999919 -0.013451166 -0.019327937
-0.0037499964 0.008008538 -0.007176112 0.012930961 -0.014695986 0.006039706 -0.009421135 0.0018381657
0.007082492 -0.001100015 0.0072913407 0.0156067675 0.004933807 0.015469988 -0.009076788 -0.014423835
0.0041459617 0.017626617 0.0045266077 -0.01437562 -0.008404206 -0.0070182043 0.008124127 0.0001428342
-0.0012627009 -0.011300253 0.00068997877 0.022751207 0.0016681303 -0.0022846472 0.0076831034 -0.0123804
0.0037028645 0.0120179495 -0.016509993 -0.0031449527 -0.013477835 -0.007810821 -0.0029787344 -0.00097111514
0.008280973 -0.014738842 0.0071799755 -0.004564009 0.0011447928 0.0025393926 -0.0029456676 -0.007818483
00000000: 316c 02bc 8329 0fbb c715 fcbb b3c0 1bbc
00000010: 64cc 023c a57b b8b9 c386 7fbb a16a 943b
00000020: 10aa 5bbc 07ca 46bb 87d1 273c 13fb 84bb
00000030: db04 b6bb ed80 9ebb 3923 043c 3360 91ba
00000040: 9b94 debb 8f82 73b9 b45d a83a c749 9c3b
00000050: 2212 0fbc 9f1e 2abc ebf2 bd3a 2d2d 36bb
00000060: 8346 f6bb ac44 c639 03b6 38bc adc2 e73a
00000070: 6b9b b83b 37e9 7c3c 5608 2abc cb51 a93b
00000080: 2903 af3b b8e7 3fbb a2f8 0c3c 27db a8bc
00000090: c3de 493c 7742 6dbb a37d 86bb 4471 25bc
000000a0: aa72 ff3b f883 80bc b8f0 da3b 3614 a637
000000b0: 21a2 243c 4d7f 4bbc ba0f 683b 7b15 42bc
000000c0: 7bd6 33b9 f363 813b 405b 7bbb f5af f239
000000d0: 095d 493a 6f8f acbb 9983 063b f906 8fbb
000000e0: a6c7 af3b 11f3 b2ba 6011 283b 4bd9 50bb
000000f0: 1557 50bb 00f8 4abc 0bc6 703c 92ab ce3a
00000100: 1863 4f3b d826 64bb ecd7 263b 1e20 8abb
00000110: 17da 963b 2087 6abb 8da0 08bc 2c19 373c
00000120: ad6f f83b bb9a 1d3b 2ad8 48bc d594 d63b
00000130: e181 803a 4b03 123c c027 4f3a cbbc 0e3c
00000140: c97f aa3c 38c0 b93b b3ee 10bc a2a0 d7bb
00000150: 8fbc a83b 2746 c0bb 0716 4bbc 08dd efbb
00000160: 83a6 d03a b30c 06bc 806d 8bbc 1c9a 253c
00000170: 4dbb d43a 6b44 083a 80ce f3b9 0543 9b3c
00000180: 1b70 433b e520 a3b9 1378 39bc 8782 5fbc
00000190: 5c93 aa3a 1bef cdbb 0fb1 db3a 25d0 89ba
000001a0: cfd6 c139 e8da 153c 67c5 39bc 1b64 d0ba
000001b0: 60f2 aabb 0630 8a3b 0de8 babc 3367 a43b
000001c0: 15d1 c63a 7de7 fa3b bf71 50ba bbb9 813c
000001d0: 5bf9 ae3b 5d60 f9b8 6300 cabb 6d36 62ba
000001e0: 1a02 9339 151d 65ba 2dca 7fbb 7147 223c
000001f0: c5b2 1a3c 801e 8f3c fe02 1bbb 0fc1 b23b
00000200: 8576 243b 9174 0f3c a4f6 cb3c b22f 24bb
00000210: 442f a9ba 3dc5 583c 870e c13b 8fe6 babb
00000220: 9355 f93a b452 2cbc 2b41 153b 91c9 3e3b
00000230: 15a4 d0bb 5f4e 233c 5faf e33a f05f d23a
00000240: c3e9 013c bf81 983b 08cb 173b 8851 edbc
00000250: 6f82 17bc f803 043c fee9 ab39 fb61 7bba
00000260: c9fe b2bb 46d5 11bb b0f6 f23b aba9 803b
00000270: 273e 2ebb a759 aeba d6b3 39bc f4ed b6bb
00000280: 539c 3bbc 30cd 51bb 4825 793c e85d f5bb
00000290: b307 6a3c 3379 19bc c411 b9b9 2289 613c
000002a0: ca0f a2bc b20e cdbb 73dd e8bb 6dae 573c
000002b0: 16fc 44bc b94e 0c3c 6bdc 8f3b f552 40bc
000002c0: 6373 253b 6ba8 e23b 57df fd3b 56f5 903b
000002d0: 63ec 12bc 4ad0 87bc e8ee 5bbc 0baf 303b
000002e0: a555 f639 4569 8ebb 3895 c93b 9e70 863b
000002f0: 1ab0 babb d534 d5bc 9fc2 29bc 07af 31b9
00000300: 47bf 853b 8071 2e3c 724c de3b 60e4 ea3b
00000310: 9f9a 2dbc a233 4cbb 20b3 fbbb 3a06 28bc
00000320: 8d90 49bb ab02 f3bb cd56 cdbb 53d9 c7b9
00000330: 9e40 2bbc 1812 03bc 4862 5cbc 9f55 9ebc
00000340: 80c2 75bb 3e36 033c 9725 ebbb 62dc 533c
00000350: 6fc7 70bc bae8 c53b 1b5b 1abc 9bee f03a
00000360: 4014 e83b 612e 90ba 33ec ee3b 87b3 7f3c
00000370: c6ab a13b d575 7d3c cfb6 14bc f351 6cbc
00000380: d9da 873b b265 903c f053 943b b887 6bbc
00000390: cbb1 09bc f7f8 e5bb 0f1b 053c c3c5 1539
000003a0: 3681 a5ba b224 39bc b1df 343a bd60 ba3c
000003b0: 2aa5 da3a 05ba 15bb 8bc2 fb3b 29d7 4abc
000003c0: c2ab 723b efe6 443c f73f 87bc 8d1b 4ebb
000003d0: 23d2 5cbc eaf1 ffbb df36 43bb 6f92 7eba
000003e0: ebac 073c 2f7b 71bc 0046 eb3b af8d 95bb
000003f0: df0c 963a f06b 263b 1a0c 41bb 1819 00bc

action_model._discrete_distribution.branches.0.bias f4 [2]
0.0 0.0
00000000: 0000 0000 0000 0000

network_body._body_endoder.seq_layers.0.weight f4 [128, 6]
-0.41205335 0.22457322 0.37809265 -0.06640616 0.19228229 0.17621785 -0.11206318 0.22887689
0.36771843 0.07624309 0.057400733 0.45903352 -0.088764444 0.75073177 -0.3780531 0.3886944
-0.116686895 0.027186971 0.27695495 0.29114276 -0.7143383 -0.17492042 0.19201525 -0.25844073
-0.2384165 0.28841436 0.1175711 0.33041617 0.5655964 -0.34497383 0.6078966 -0.7599432
-0.17230922 0.24099071 0.11825544 0.14384022 -0.5488605 0.6563931 -0.3171562 0.28996944
-0.06302448 0.19480222 -0.2317553 0.3969873 -0.4728353 -0.16394237 0.3102992 0.16247477
0.06097272 -0.28788254 -0.24380575 0.3730452 -0.013707345 -0.6391922 -0.491111 -0.44343784
-0.035223257 1.0004507 -0.33627155 -0.22490136 0.37850702 -0.22901277 0.77577066 0.13276488
-0.037438404 0.63771397 0.0504657 -0.012911296 -0.61264676 0.18958192 1.2727377 0.026119446
-0.49275288 -0.46118334 -0.42899165 0.3068815 0.7061754 0.38426167 0.014557979 0.4654916
0.6562804 0.54937875 0.28830472 0.4613208 -0.17831495 0.02964157 0.39409027 -0.6892047
-0.39813268 -0.36682978 -0.0109313745 -0.52461994 -0.057308722 0.2308972 1.0850414 -0.030436294
-0.8168684 0.45333812 0.31743565 0.7109551 0.28485397 -0.30064747 -0.5165183 -0.70748746
-0.1618645 -0.39953506 -0.29295576 -0.3298663 -0.23531152 -0.21904479 -0.2275857 0.0054144436
0.50818074 0.20558448 0.41513833 -0.13672775 0.20541553 -0.98836946 0.18995714 -0.18751448
0.04990309 -0.34848493 0.6460166 -0.073759526 0.48303798 -0.0079738 -0.20686868 0.18190682
-0.13392575 -0.7535944 -0.07456976 0.19366725 -0.098617315 0.05569835 0.37466678 0.44482967
-0.2564768 -0.40867338 0.23036595 -0.22472051 0.1345319 0.15620309 -0.25374153 -0.050693173
-0.21891831 0.09479948 -0.5648205 0.071834415 -0.7352326 0.27276745 -0.007985838 -0.0063890396
0.24710138 0.036936525 0.19722219 0.50847965 0.39529938 0.2830481 -0.37705523 -0.83428067
0.7307707 -0.15342546 0.3163464 0.25904864 0.29477075 -0.3367798 -0.3124257 -0.43266127
-0.5474157 -0.36669388 0.038746536 0.35913387 0.20220022 -0.062345367 -0.38289002 -0.49130255
-0.22207697 0.3838935 -0.4288401 -0.15512331 -0.026411567 -0.07956997 0.12123873 -0.40105242
-0.3753844 -0.49490786 -0.43249974 0.1454293 0.36871907 0.15043584 -0.1764498 -0.4434476
-0.7433281 -0.15068415 0.04104177 -0.5734578 0.18858151 -0.1033094 0.54202497 0.22279675
0.31942758 -0.5378591 0.40854332 0.64318687 0.11372294 -0.109675385 0.41067514 -0.8603149
-0.31722245 -0.03674495 0.61118066 -0.46392018 -0.1772734 0.24612986 0.45712584 -0.40960124
0.04261491 0.59669185 -0.14864014 -0.13893159 -0.44369307 -0.076329306 0.9344499 0.2977494
0.077492185 0.25484914 0.25948393 -0.12148527 -0.7312039 -0.052188247 -0.003865067 -0.21812825
-0.053711403 0.26219898 0.18528716 0.1896869 0.2778544 0.37293148 -0.28994638 0.13302259
-0.90925795 -0.4429613 -0.13323924 0.28235358 -0.22776496 -0.8239688 0.024841916 -0.14977247
0.21880902 -0.4706402 0.057219222 0.018702516 0.10225185 -0.08076856 -0.66460353 -0.4276475
00000000: a8f8 d2be 86f6 653e 5c95 c13e f4ff 87bd
00000010: a6e5 443e 7472 343e 6181 e5bd b45e 6a3e
00000020: 9745 bc3e 5625 9c3d 081d 6b3d 7106 eb3e
00000030: 22ca b5bd f52f 403f 2d90 c1be f402 c73e
00000040: 8af9 eebd 36b7 de3c 0acd 8d3e aa10 953e
00000050: e0de 36bf 571e 33be a59f 443e 5852 84be
00000060: 7423 74be 0cab 933e 1ec9 f03d 4f2c a93e
00000070: edca 103f 69a0 b0be 1d9f 1b3f a38b 42bf
00000080: d471 30be 45c6 763e e82f f23d da4a 133e
00000090: 1f82 0cbf 6109 283f 4c62 a2be e076 943e
000000a0: fb12 81bd 3c7a 473e 4351 6dbe eb41 cb3e
000000b0: 7817 f2be 82e0 27be 89df 9e3e c95f 263e
000000c0: 88be 793d 5765 93be 37a8 79be c8ff be3e
000000d0: c694 60bc 1aa2 23bf e772 fbbe 490a e3be
000000e0: 4346 10bd c50e 803f c92b acbe 8b4c 66be
000000f0: accb c13e 5382 6abe e898 463f 84f3 073e
00000100: 0359 19bd 3941 233f 1fb5 4e3d e789 53bc
00000110: 6bd6 1cbf c321 423e 12e9 a23f 73f8 d53c
00000120: 1b4a fcbe 3920 ecbe cba4 dbbe 921f 9d3e
00000130: e9c7 343f f2bd c43e 9784 6e3c ea54 ee3e
00000140: fe01 283f 16a4 0c3f ad9c 933e 3d32 ec3e
00000150: 3298 36be e1d2 f23c 33c6 c93e b86f 30bf
00000160: 0cd8 cbbe 1dd1 bbbe 8219 33bc 7e4d 06bf
00000170: 8dbc 6abd 5170 6c3e a3e2 8a3f 8955 f9bc
00000180: 4a1e 51bf ef1b e83e ed86 a23e 2701 363f
00000190: 61d8 913e 77ee 99be 8b3a 04bf e61d 35bf
000001a0: cfbf 25be dc8f ccbe 4cfe 95be 3ce4 a8be
000001b0: 81f5 70be 474d 60be 3a0c 69be a56b b13b
000001c0: 2218 023f bd84 523e 038d d43e 5c02 0cbe
000001d0: 7358 523e c805 7dbf 2084 423e cc03 40be
000001e0: 2f67 4c3d 9e6c b2be 5861 253f 3c0f 97bd
000001f0: c150 f73e 8ba4 02bc 62d5 53be c845 3a3e
00000200: d523 09be 90eb 40bf 08b8 98bd b550 463e
00000210: e0f7 c9bd f423 643d 53d4 bf3e b7c0 e33e
00000220: ed50 83be a33d d1be 0de5 6b3e 221d 66be
00000230: bbc2 093e b4f3 1f3e 69ea 81be a5a3 4fbd
00000240: 1f2c 60be 3b26 c23d 1498 10bf ec1d 933d
00000250: 3438 3cbf 2da8 8b3e 08d7 02bc 265b d1bb
00000260: 2508 7d3e c14a 173d 9df4 493e b92b 023f
00000270: ae64 ca3e aeeb 903e 620d c1be 6b93 55bf
00000280: ca13 3b3f 901b 1dbe 28f8 a13e 06a2 843e
00000290: 31ec 963e 676e acbe 43f6 9fbe c785 ddbe
000002a0: 6f23 0cbf 4dbf bbbe b0b4 1e3d 65e0 b73e
000002b0: 930d 4f3e db5d 7fbd 290a c4be 028c fbbe
000002c0: 2568 63be b08d c43e ee90 dbbe a5d8 1ebe
000002d0: 125d d8bc 95f5 a2bd 034c f83d be56 cdbe
000002e0: 6232 c0be 9064 fdbe 9b70 ddbe 6beb 143e
000002f0: bfc8 bc3e da0b 1a3e 42af 34be 900b e3be
00000300: c04a 3ebf f24c 1abe 6a1b 283d 21ce 12bf
00000310: 831b 413e e193 d3bd 26c2 0a3f d524 643e
00000320: 038c a33e 22b1 09bf 972c d13e e5a7 243f
00000330: 93e7 e83d 7d9d e0bd 0344 d23e 993d 5cbf
00000340: fb6a a2be df81 16bd 5676 1c3f f286 edbe
00000350: 2887 35be 7709 7c3e 660c ea3e 41b7 d1be
00000360: f98c 2e3d ccc0 183f 1f35 18be 1544 0ebe
00000370: bd2b e3be 8a52 9cbd 1c38 6f3f 9c72 983e
00000380: 39b4 9e3d 967b 823e 14db 843e 45cd f8bd
00000390: 2e30 3bbf 58c3 55bd 104d 7dbb 035d 5fbe
000003a0: 7d00 5cbd f23e 863e ebbb 3d3e 483d 423e
000003b0: ef42 8e3e e0f0 be3e da73 94be 1337 083e
000003c0: 21c5 68bf d3cb e2be de6f 08be a690 903e
000003d0: 383b 69be 9fef 52bf 4681 cb3c f45d 19be
000003e0: 790f 603e c1f7 f0be b45e 6a3d 0536 993c
000003f0: 6b69 d13d fd69 a5bd 7523 2abf 9df4 dabe

network_body._body_endoder.seq_layers.0.bias f4 [128]
0.0 0.0 0.0 0.0 0.0 0.0 0.0 0.0
0.0 0.0 0.0 0.0 0.0 0.0 0.0 0.0
0.0 0.0 0.0 0.0 0.0 0.0 0.0 0.0
0.0 0.0 0.0 0.0 0.0 0.0 0.0 0.0
0.0 0.0 0.0 0.0 0.0 0.0 0.0 0.0
0.0 0.0 0.0 0.0 0.0 0.0 0.0 0.0
0.0 0.0 0.0 0.0 0.0 0.0 0.0 0.0
0.0 0.0 0.0 0.0 0.0 0.0 0.0 0.0
0.0 0.0 0.0 0.0 0.0 0.0 0.0 0.0
0.0 0.0 0.0 0.0 0.0 0.0 0.0 0.0
0.0 0.0 0.0 0.0 0.0 0.0 0.0 0.0
0.0 0.0 0.0 0.0 0.0 0.0 0.0 0.0
0.0 0.0 0.0 0.0 0.0 0.0 0.0 0.0
0.0 0.0 0.0 0.0 0.0 0.0 0.0 0.0
0.0 0.0 0.0 0.0 0.0 0.0 0.0 0.0
0.0 0.0 0.0 0.0 0.0 0.0 0.0 0.0
00000000: 0000 0000 0000 0000 0000 0000 0000 0000
00000010: 0000 0000 0000 0000 0000 0000 0000 0000
00000020: 0000 0000 0000 0000 0000 0000 0000 0000
00000030: 0000 0000 0000 0000 0000 0000 0000 0000
00000040: 0000 0000 0000 0000 0000 0000 0000 0000
00000050: 0000 0000 0000 0000 0000 0000 0000 0000
00000060: 0000 0000 0000 0000 0000 0000 0000 0000
00000070: 0000 0000 0000 0000 0000 0000 0000 0000
00000080: 0000 0000 0000 0000 0000 0000 0000 0000
00000090: 0000 0000 0000 0000 0000 0000 0000 0000
000000a0: 0000 0000 0000 0000 0000 0000 0000 0000
000000b0: 0000 0000 0000 0000 0000 0000 0000 0000
000000c0: 0000 0000 0000 0000 0000 0000 0000 0000
000000d0: 0000 0000 0000 0000 0000 0000 0000 0000
000000e0: 0000 0000 0000 0000 0000 0000 0000 0000
000000f0: 0000 0000 0000 0000 0000 0000 0000 0000
00000100: 0000 0000 0000 0000 0000 0000 0000 0000
00000110: 0000 0000 0000 0000 0000 0000 0000 0000
00000120: 0000 0000 0000 0000 0000 0000 0000 0000
00000130: 0000 0000 0000 0000 0000 0000 0000 0000
00000140: 0000 0000 0000 0000 0000 0000 0000 0000
00000150: 0000 0000 0000 0000 0000 0000 0000 0000
00000160: 0000 0000 0000 0000 0000 0000 0000 0000
00000170: 0000 0000 0000 0000 0000 0000 0000 0000
00000180: 0000 0000 0000 0000 0000 0000 0000 0000
00000190: 0000 0000 0000 0000 0000 0000 0000 0000
000001a0: 0000 0000 0000 0000 0000 0000 0000 0000
000001b0: 0000 0000 0000 0000 0000 0000 0000 0000
000001c0: 0000 0000 0000 0000 0000 0000 0000 0000
000001d0: 0000 0000 0000 0000 0000 0000 0000 0000
000001e0: 0000 0000 0000 0000 0000 0000 0000 0000
000001f0: 0000 0000 0000 0000 0000 0000 0000 0000

network_body._body_endoder.seq_layers.2.weight f4 [128, 128]
-0.0022697116 -0.010490488 0.047092974 -0.0033816397 0.12368347 -0.11722474 0.085871965 -0.06757808
0.04165028 0.051304925 0.033478424 0.031082634 0.05484573 0.05932331 0.08170164 -0.16660175
-0.1519722 -0.072017886 0.05751089 -0.050241455 -0.10104382 0.009439773 -0.10912162 -0.020452399
-0.058685582 -0.13598701 -0.038282067 0.091335244 0.020775149 0.04406344 0.07979258 0.10594468
0.04114019 -0.11715613 0.06840293 -0.075732954 0.08098996 -0.09039936 0.10012098 -0.054295707
0.13588224 0.044218775 0.03588403 0.05507611 0.09050546 -0.038352408 0.11157207 -0.11051418
-0.06233583 -0.008963455 -0.04747581 0.01771803 -0.035895903 0.06993194 -0.062593326 0.021996567
-0.08131844 -0.04690907 0.06881175 0.13137071 0.008503633 -0.035342637 -0.076827794 0.115367934
0.07984428 0.038563363 0.04202625 -0.058692727 0.112060346 0.07942978 0.006408014 0.04659752
-0.0396803 -0.06809952 -0.0145657435 0.052751604 -0.109999135 -0.11966396 -0.02662517 0.09966641
0.058934074 0.042030353 0.05352646 0.027860425 -0.044243857 -0.04853281 0.13060594 -0.028352754
-0.021708056 -0.03449012 0.071489684 -0.11523525 0.031261876 0.04910772 0.06633978 0.009645243
-0.049566522 0.011657333 0.14844093 0.06521557 -0.138993 -0.13305603 -0.17777784 0.10305496
-0.098316364 -0.025027398 0.017180707 0.032353077 -0.03669436 0.07865665 -0.09877474 0.1186597
0.03273371 0.05694575 -0.0048553646 0.017463362 0.0062823286 -0.024921866 -0.106677346 0.13187775
0.019010631 0.040112585 -0.012187912 -0.06390363 -0.007500693 0.0731841 0.026807353 0.09091137
-0.09795594 -0.15650287 0.01404811 -0.09144079 -0.030410782 0.039070625 -0.052812982 0.0144911455
-0.07567684 -0.074939735 0.02731702 -0.043035645 0.01047737 -0.0058231433 -0.1400012 -0.1911757
-0.057721615 0.018173816 0.019102259 -0.24767815 0.009456 0.029264435 -0.0068314145 0.051133968
-0.008325611 0.077448405 -0.053538088 0.0319748 0.10183389 0.01968491 -0.123035185 0.096243136
0.053341705 -0.05215577 -0.08450006 -0.04830497 -0.03284558 -0.05441127 0.08709097 0.025643514
0.033042416 0.04219709 -0.1307931 0.10235306 -0.018206542 -0.0039226804 0.08494328 0.050237924
0.135396 0.010549044 0.096510276 0.020992877 -0.07306958 0.03719588 0.024517292 -0.039353833
-0.111905195 -0.27475932 -0.14599875 0.055115998 -0.25172296 -0.062049713 0.013186288 -0.13303436
0.075437084 -0.120028555 0.013502827 -0.027934536 0.015699873 -0.10744015 0.0473916 -0.072729826
0.051495936 0.07383446 -0.23411025 -0.035862904 -0.1318663 0.11199093 0.14522117 0.032826237
-0.1271247 -0.3301075 -0.029796949 -0.062379654 -0.103595614 0.060261384 0.043087956 0.0036989872
-0.013655961 -0.16553594 0.09541277 -0.08630385 0.057900287 -0.07669034 -0.0094909975 0.06019518
0.02139694 0.0029098506 -0.08876136 0.049395546 0.044094447 -0.05408208 0.0799269 0.102602795
-0.04179505 0.1852236 0.0707574 -0.055522062 -0.04416344 0.053716563 0.062074274 0.034142923
-0.049936023 -0.014340685 -0.037558768 0.050397582 -0.040914807 -0.045429986 -0.011235066 0.09693913
0.029441804 -0.06456085 0.015941463 -0.057147052 -0.16467085 -0.013925641 -0.020910822 0.072321
00000000: 71bf 14bb 4ce0 2bbc 90e4 403d 809e 5dbb
00000010: c24d fd3d 8613 f0bd a4dd af3d 6066 8abd
00000020: 7c99 2a3d 1d25 523d ac20 093d 02a1 fe3c
00000030: eba5 603d 00fd 723d 3053 a73d a699 2abe
00000040: 9a9e 1bbe 1d7e 93bd 8a90 6b3d fcc9 4dbd
00000050: 10f0 cebd 47a9 1a3c 287b dfbd ca8b a7bc
00000060: 4b60 70bd 2e40 0bbe a8cd 1cbd f90d bb3d
00000070: a530 aa3c de7b 343d 4b6a a33d 86f9 d83d
00000080: 9e82 283d 8eef efbd d616 8c3d e119 9bbd
00000090: 10de a53d 4d23 b9bd 3a0c cd3d 2d65 5ebd
000000a0: b724 0b3e bf1e 353d 22fb 123d 7d97 613d
000000b0: ed5a b93d 6a17 1dbd e67f e43d 4255 e2bd
000000c0: db53 7fbd 75db 12bc ff75 42bd 6725 913c
000000d0: 9507 13bd 7a38 8f3d ee30 80bd 2532 b43c
000000e0: 488a a6bd ba23 40bd 2ded 8c3d 0b86 063e
000000f0: d252 0b3c 71c3 10bd e457 9dbd 0646 ec3d
00000100: 6685 a33d 9ef4 1d3d b823 2c3d c967 70bd
00000110: e57f e53d 15ac a23d 51fa d13b 0bdd 3e3d
00000120: cf87 22bd c377 8bbd 28a5 6ebc 1112 583d
00000130: 3a47 e1bd 6112 f5bd 071d dabc e71d cc3d
00000140: db64 713d 0528 2c3d 903e 5b3d 8c3b e43c
00000150: 0c39 35bd 57ca 46bd 90bd 053e 0944 e8bc
00000160: 18d5 b1bc 8345 0dbd 2f69 923d 7500 ecbd
00000170: 740c 003d 2d25 493d 27dd 873d 1507 1e3c
00000180: 4406 4bbd 66fe 3e3c e600 183e be8f 853d
00000190: 2e54 0ebe d73f 08be 650b 36be 7b0e d33d
000001a0: 175a c9bd 4206 cdbc 8ebe 8c3c a984 043d
000001b0: d34c 16bd bd16 a13d 694a cabd db03 f33d
000001c0: c813 063d f23f 693d c019 9fbb 530f 8f3c
000001d0: fedb cd3b f128 ccbc a779 dabd f60a 073e
000001e0: 2fbc 9b3c 184d 243d cfaf 47bc e8df 82bd
000001f0: 60c8 f5bb 8ce1 953d 189b db3c be2f ba3d
00000200: 209d c8bd 4a42 20be 0b2a 663c 4f45 bbbd
00000210: 0820 f9bc 8508 203d 6d52 58bd 456c 6d3c
00000220: 76fc 9abd 017a 99bd f1c7 df3c 2546 30bd
00000230: 46a9 2b3c 11d0 bebb 795c 0fbe 90c3 43be
00000240: 806d 6cbd 41e1 943c 577c 9c3c 579f 7dbe
00000250: 57ed 1a3c f8bb ef3c 0fda dfbb da71 513d
00000260: 2568 08bc 459d 9e3d c14a 5bbd 02f8 023d
00000270: 498e d03d 4042 a13c dff9 fbbd 1f1b c53d
00000280: d57c 5a3d 4aa1 55bd 5e0e adbd 6fdb 45bd
00000290: 1689 06bd 5ade 5ebd c05c b23d 5912 d23c
000002a0: 7c57 073d dbd6 2c3d a0ee 05be 7b9e d13d
000002b0: e325 95bc d489 80bb bef6 ad3d 48c6 4d3d
000002c0: 40a5 0a3e e6d5 2c3c 2ea7 c53d 41f9 ab3c
000002d0: 81a5 95bd b55a 183d 7dd8 c83c 7c31 21bd
000002e0: 8d2e e5bd 41ad 8cbe b280 15be 50c1 613d
000002f0: d5e1 80be d727 7ebd 4d0b 583c 293a 08be
00000300: c27e 9a3d 88d1 f5bd f63a 5d3c f8d6 e4bc
00000310: 059d 803c 9509 dcbd b21d 423d 60f3 94bd
00000320: 67ed 523d 8536 973d 99ba 6fbe fbe4 12bd
00000330: f607 07be 805b e53d dcb4 143e ce74 063d
00000340: fa2c 02be da03 a9be bb18 f4bc cf81 7fbd
00000350: f029 d4bd a4d4 763d ff7c 303d b56a 723b
00000360: 40bd 5fbc 4182 29be c567 c33d 13c0 b0bd
00000370: da28 6d3d d30f 9dbd 2180 1bbc 398f 763d
00000380: a348 af3c 31b3 3e3b 84c8 b5bd fc52 4a3d
00000390: 619c 343d 2c85 5dbd b7b0 a33d 6a21 d23d
000003a0: 4931 2bbd 41ab 3d3e 41e9 903d 1a6b 63bd
000003b0: b9e4 34bd e605 5c3d 9841 7e3d 73d9 0b3d
000003c0: b789 4cbd 31f5 6abc 39d7 19bd b26d 4e3d
000003d0: 4996 27bd cb14 3abd 4813 38bc 0688 c63d
000003e0: f02f f13c 7b38 84bd ac97 823c 0713 6abd
000003f0: 7a9f 28be 5f28 64bc 2c4d abbc 081d 943d

network_body._body_endoder.seq_layers.2.bias f4 [128]
0.0 0.0 0.0 0.0 0.0 0.0 0.0 0.0
0.0 0.0 0.0 0.0 0.0 0.0 0.0 0.0
0.0 0.0 0.0 0.0 0.0 0.0 0.0 0.0
0.0 0.0 0.0 0.0 0.0 0.0 0.0 0.0
0.0 0.0 0.0 0.0 0.0 0.0 0.0 0.0
0.0 0.0 0.0 0.0 0.0 0.0 0.0 0.0
0.0 0.0 0.0 0.0 0.0 0.0 0.0 0.0
0.0 0.0 0.0 0.0 0.0 0.0 0.0 0.0
0.0 0.0 0.0 0.0 0.0 0.0 0.0 0.0
0.0 0.0 0.0 0.0 0.0 0.0 0.0 0.0
0.0 0.0 0.0 0.0 0.0 0.0 0.0 0.0
0.0 0.0 0.0 0.0 0.0 0.0 0.0 0.0
0.0 0.0 0.0 0.0 0.0 0.0 0.0 0.0
0.0 0.0 0.0 0.0 0.0 0.0 0.0 0.0
0.0 0.0 0.0 0.0 0.0 0.0 0.0 0.0
0.0 0.0 0.0 0.0 0.0 0.0 0.0 0.0
00000000: 0000 0000 0000 0000 0000 0000 0000 0000
00000010: 0000 0000 0000 0000 0000 0000 0000 0000
00000020: 0000 0000 0000 0000 0000 0000 0000 0000
00000030: 0000 0000 0000 0000 0000 0000 0000 0000
00000040: 0000 0000 0000 0000 0000 0000 0000 0000
00000050: 0000 0000 0000 0000 0000 0000 0000 0000
00000060: 0000 0000 0000 0000 0000 0000 0000 0000
00000070: 0000 0000 0000 0000 0000 0000 0000 0000
00000080: 0000 0000 0000 0000 0000 0000 0000 0000
00000090: 0000 0000 0000 0000 0000 0000 0000 0000
000000a0: 0000 0000 0000 0000 0000 0000 0000 0000
000000b0: 0000 0000 0000 0000 0000 0000 0000 0000
000000c0: 0000 0000 0000 0000 0000 0000 0000 0000
000000d0: 0000 0000 0000 0000 0000 0000 0000 0000
000000e0: 0000 0000 0000 0000 0000 0000 0000 0000
000000f0: 0000 0000 0000 0000 0000 0000 0000 0000
00000100: 0000 0000 0000 0000 0000 0000 0000 0000
00000110: 0000 0000 0000 0000 0000 0000 0000 0000
00000120: 0000 0000 0000 0000 0000 0000 0000 0000
00000130: 0000 0000 0000 0000 0000 0000 0000 0000
00000140: 0000 0000 0000 0000 0000 0000 0000 0000
00000150: 0000 0000 0000 0000 0000 0000 0000 0000
00000160: 0000 0000 0000 0000 0000 0000 0000 0000
00000170: 0000 0000 0000 0000 0000 0000 0000 0000
00000180: 0000 0000 0000 0000 0000 0000 0000 0000
00000190: 0000 0000 0000 0000 0000 0000 0000 0000
000001a0: 0000 0000 0000 0000 0000 0000 0000 0000
000001b0: 0000 0000 0000 0000 0000 0000 0000 0000
000001c0: 0000 0000 0000 0000 0000 0000 0000 0000
000001d0: 0000 0000 0000 0000 0000 0000 0000 0000
000001e0: 0000 0000 0000 0000 0000 0000 0000 0000
000001f0: 0000 0000 0000 0000 0000 0000 0000 0000

value_heads.value_heads.extrinsic.weight f4 [1, 128]
0.0915795 -0.12441201 0.08616063 -0.18825279 0.13892108 0.2045835 -0.13045642 -0.07933214
-0.09808356 -0.038896114 -0.1593004 -0.1775113 0.08810893 -0.08267945 -0.03439714 0.19398758
-0.081894755 -0.09296108 -0.21547447 -0.017323032 0.07289389 0.08812809 -0.003819272 -0.013960555
0.059847116 -0.12459693 -0.06460005 -0.1781928 -0.11408171 0.07577756 0.13726279 0.05076596
0.09170285 -0.20517424 0.15171507 -0.12350856 -0.035732895 0.18277457 0.1390943 0.028802633
-0.098614 0.1932514 0.19507626 0.18849763 -0.011636898 0.05065441 -0.04751031 -0.15541224
0.020668298 0.12164912 0.17724001 0.1944333 0.07494858 0.17213592 0.042185307 0.20800254
-0.15909863 0.177315 0.079782754 -0.09025663 0.2142418 -0.1344091 0.08449063 -0.14222467
0.12841552 -0.114107475 0.14429069 -0.06430808 -0.059852496 0.007733807 -0.07402757 -0.10902145
-0.0014837384 0.10016665 0.09753746 0.064320505 -0.13085495 0.06680882 -0.11853752 0.12670249
-0.09699287 0.00140661 -0.098686755 -0.103946425 -0.11033656 -0.101483956 -0.007843792 -0.07799658
-0.142849 0.13626298 0.0012270361 -0.03306976 0.058344394 -0.100563765 0.09751916 -0.039402947
-0.042403564 0.00731048 -0.046746567 -0.1303468 -0.032720327 -0.051516652 -0.18490985 -0.16615626
0.07188833 -0.021449476 0.1379559 0.20216265 -0.021499693 0.06805998 -0.09251078 -0.07369898
0.18207398 -0.14602122 0.029171586 0.18554226 0.18876326 0.17911935 -0.11235191 -0.03884825
-0.08348082 -0.044138253 0.16931549 0.014839768 0.15659547 -0.16453989 0.17776349 -0.0190572
00000000: 088e bb3d b9cb febd fc74 b03d 57c5 40be
00000010: 5441 0e3e 567e 513e 5e96 05be e478 a2bd
00000020: 09e0 c8bd 8851 1fbd a51f 23be 86c5 35be
00000030: 7472 b43d d853 a9bd 04e4 0cbd aea4 463e
00000040: 70b8 a7bd 6162 bebd 57a5 5cbe 08e9 8dbc
00000050: 6449 953d 807c b43d c04c 7abb d0ba 64bc
00000060: 4022 753d ad2c ffbd 084d 84bd 2c78 36be
00000070: aca3 e9bd 4431 9b3d 9e8e 0c3e f8ef 4f3d
00000080: b4ce bb3d 3219 52be 325b 1b3e 0ef2 fcbd
00000090: a85c 12bd 4229 3b3e bc6e 0e3e 80f3 eb3c
000000a0: 23f6 c9bd b2e3 453e 12c2 473e 8605 413e
000000b0: b0a8 3ebc 007b 4f3d 2c9a 42bd 6324 1fbe
000000c0: 9050 a93c 2c23 f93d 687e 353e 8619 473e
000000d0: a47e 993d 6644 303e 80ca 2c3d 9efe 543e
000000e0: c0ea 22be 1092 353e 2465 a33d 78d8 b8bd
000000f0: 3462 5b3e 8aa2 09be 6c09 ad3d 58a3 11be
00000100: 5c7f 033e 2eb1 e9bd f0c0 133e f4b3 83bd
00000110: e427 75bd e06b fd3b c49b 97bd a346 dfbd
00000120: 007a c2ba 2c24 cd3d b8c1 c73d 78ba 833d
00000130: d7fe 05be 10d3 883d cdc3 f2bd 4cbe 013e
00000140: 33a4 c6bd 005e b83a 481c cabd dde1 d4bd
00000150: 22f8 e1bd d2d6 cfbd 4083 00bc acbc 9fbd
00000160: 0247 12be 8688 0b3e 80d4 a03a 2874 07bd
00000170: 88fa 6e3d 60f4 cdbd 20b8 c73d fc64 21bd
00000180: 5caf 2dbd c08c ef3b 5479 3fbd a279 05be
00000190: c005 06bd 2003 53bd 0259 3dbe de24 2abe
000001a0: 303a 933d d0b6 afbc 5044 0d3e ba03 4f3e
000001b0: 2020 b0bc 0863 8b3d 4b76 bdbd 7eef 96bd
000001c0: 9a71 3a3e 9686 15be 40f9 ee3c cafe 3d3e
000001d0: 284b 413e 106b 373e c218 e6bd 581f 1fbd
000001e0: fef7 aabd 50ca 34bd 0a61 2d3e 8022 733c
000001f0: 905a 203e 257d 28be a207 363e d81d 9cbc
