results/CanStop/MoveToBall/checkpoint.pt (torch, 439453 bytes, 33 tensors)

network_body._body_endoder.seq_layers.0.weight f4 [128, 6]
0	0x3ee4e715	0.44707552
1	0x3d7019b3	0.05861826
2	0x3da16d55	0.078821816
3	0x3eb889d2	0.3604265
4	0xbea4f309	-0.3221667
5	0x3e393cb3	0.18089561
6	0xbe31aaee	-0.17350361
7	0xbe8ed24e	-0.27894825
8	0x3d1a63b6	0.037692748
9	0x3dc1cc6c	0.094628185
10	0xbe978854	-0.29596198
11	0x3f0d98aa	0.5531107
12	0x3eb6a7e9	0.3567498
13	0xbf642741	-0.89122397
14	0xbf1498cd	-0.58045655
15	0xbeb31924	-0.34980118
16	0xbedc92bf	-0.43080708
17	0xbeb30db1	-0.34971383
18	0xbba99daf	-0.005176268
19	0x3e56e018	0.20983922
20	0xbe502c88	-0.20329487
21	0x3dcfd3c8	0.10147816
22	0x3f020a8a	0.5079733
23	0x3ee0671a	0.4382866
24	0x3e82c717	0.25542518
25	0xbd89b13b	-0.06723257
26	0x3f3f7505	0.7478793
27	0x3eb8e352	0.36110932
28	0x3f031b48	0.512135
29	0xbd2407d6	-0.040046535
30	0x3e889b73	0.26681098
31	0xbf42bd6b	-0.7607028
32	0xbe550e59	-0.20806254
33	0x3efdf237	0.49598858
34	0xbe65eaaa	-0.22452798
35	0xbea51d4f	-0.32248923
36	0xbe39113a	-0.18072978
37	0x3ebec53f	0.37259862
38	0xbf12c5a8	-0.5733285
39	0xbf1df346	-0.6169933
40	0xbbd8631c	-0.0066036116
41	0xbf1fb449	-0.6238447
42	0x3f9390d5	1.1528574
43	0xbf042705	-0.5162204
44	0x3dcb144b	0.0991598
45	0x3eafc0ec	0.34326875
46	0x3f34477b	0.7042157
47	0x39c0af42	0.0003675167
48	0x3eee8125	0.46582904
49	0xbd55e172	-0.052216955
50	0x3cafb917	0.021450562
51	0xbc140d67	-0.0090363985
52	0x3d11760b	0.035512965
53	0x3eca3d5f	0.39499947
54	0x3e963ac9	0.29341725
55	0x3d758bbe	0.05994772
56	0xbf59f364	-0.8513701
57	0xbeb3c98d	-0.3511471
58	0x3f434f80	0.7629318
59	0xbf556d37	-0.83369774
60	0xbe8b6d7c	-0.27231967
61	0x3e438582	0.19093898
62	0xbd458184	-0.04821922
63	0xbe8e5853	-0.2780176
64	0xbb91661c	-0.004437221
65	0x3ecb3c52	0.39694458
66	0x3d2df000	0.04246521
67	0xbdb5e9b1	-0.08882464
68	0x3f068a91	0.52555186
69	0x3e5d9a19	0.21640815
70	0x3db38afa	0.08766742
71	0x3ef4d575	0.47819105
72	0xbf3b3e8c	-0.73142314
73	0x3c45be7e	0.012069343
74	0xbe858b80	-0.26082993
75	0xbcc63f35	-0.024200061
76	0x3e06d5ee	0.13167545
77	0x3f19095a	0.59779894
78	0x3ecbd557	0.39811203
79	0x3e485ba2	0.19566205
80	0xbec2d835	-0.38055578
81	0x3c97ed07	0.01854564
82	0x3e2b5981	0.16733362
83	0x3dbc996e	0.09208952
84	0x3e9a478b	0.30132708
85	0x3f2101ae	0.6289319
86	0xbcd04e89	-0.025428073
87	0xbeba5d76	-0.3639943
88	0xbe843416	-0.25820988
89	0xbf42b4ba	-0.76057017
90	0x3df083f0	0.11743915
91	0xbe08591f	-0.13315247
92	0x3e67fef2	0.22655848
93	0x3e5aac71	0.21354844
94	0x3e1f79f4	0.15573865
95	0xbecd801e	-0.40136808
96	0x3e8863a1	0.2663851
97	0x3eb6e6b8	0.357229
98	0xbe480ffd	-0.19537349
99	0x3da70920	0.08156037
100	0x3db2061f	0.08692574
101	0xbdf7952b	-0.120889984
102	0x3eb5b650	0.35490656
103	0xbe56efa7	-0.20989858
104	0xbde8b732	-0.11363067
105	0x3d9bb755	0.07603327
106	0x3d547a47	0.051874425
107	0x3d3b1be1	0.045680884
108	0xbe9e50d5	-0.30921045
109	0x3e142d2f	0.14470361
110	0xbebff4b8	-0.37491393
111	0xbe0b5d20	-0.13609743
112	0xbeca8be2	-0.39559847
113	0x3d1512e1	0.036394957
114	0xbdf56c27	-0.11983519
115	0x3e637f9f	0.22216652
116	0x3e6e89f4	0.23294812
117	0x3f4b9b09	0.7953344
118	0xbf030a30	-0.5118742
119	0x3e4ca364	0.19984204
120	0xbf019143	-0.50612277
121	0xbf0fe3b6	-0.56206834
122	0xbe35526d	-0.17707224
123	0xbe6e60a4	-0.23279053
124	0xbdd360af	-0.10321175
125	0x3e852ef1	0.26012376
126	0x3d7fc391	0.062442366
127	0x3c5d9931	0.013525293
128	0x3eb14319	0.34621504
129	0xbe197acc	-0.1498825
130	0xbeac59f9	-0.33662394
131	0xbe91dcc2	-0.28488737
132	0x3edcd00f	0.43127486
133	0xbed16d49	-0.4090369
134	0x3e32d87e	0.17465398
135	0x3e4ff915	0.20309861
136	0x3e7eda16	0.2488788
137	0x3e061e11	0.13097407
138	0xbf28efab	-0.65990704
139	0xbe88bb36	-0.2670533
140	0x3e6139f7	0.21994768
141	0xbee60fa2	-0.44933802
142	0xbd2e8177	-0.042603936
143	0xbf2df5e9	-0.67953354
144	0x3f1aa3fa	0.6040646
145	0xbe78bfa1	-0.2429185
146	0xbebcdc2a	-0.36886722
147	0xbf438617	-0.7637648
148	0xbc12ed12	-0.008967655
149	0x3ca3c616	0.019991916
150	0xbd3e4c05	-0.046459217
151	0x3eac0726	0.33599204
152	0xbc2ee80e	-0.010675443
153	0xbdfb2830	-0.122635245
154	0x3eed65de	0.4636678
155	0x3f327f65	0.6972564
156	0x3e61c955	0.22049458
157	0x3cd67c63	0.02618236
158	0x3ea3c1cd	0.31983796
159	0x3f2110d0	0.6291628
160	0x3d1b24f0	0.037877023
161	0xbebb65e5	-0.36601177
162	0x3eed47cb	0.46343836
163	0xbea91c82	-0.33029562
164	0xbf43a49e	-0.7642306
165	0xbe9f5f39	-0.31127337
166	0x3e249e4a	0.16076007
167	0x3e1e453f	0.15456103
168	0x3f232fe6	0.6374496
169	0x3e9aa5a6	0.30204505
170	0xbf2cb8e2	-0.6746961
171	0xbeb5b27c	-0.35487735
172	0x3e9c064f	0.30473563
173	0xbf4e6e58	-0.8063712
174	0x3d91bc2c	0.07115969
175	0x3e555b6d	0.20835657
176	0x3e5ac80f	0.21365379
177	0x3e05fdbf	0.13085078
178	0xbd676a02	-0.05649758
179	0x3e6fe5d0	0.2342751
180	0x3ec5c53e	0.38627046
181	0x3f13122b	0.574496
182	0x3f3daf68	0.74095774
183	0xbe0f80c8	-0.1401397
184	0xbe834c8a	-0.25644332
185	0x3dfa1e10	0.12212765
186	0xbf21a55e	-0.63142955
187	0xbeec4687	-0.46147558
188	0x3efbab60	0.49154186
189	0xbf09eb5d	-0.5387476
190	0xbe8ba560	-0.2727461
191	0xbedb8db2	-0.42881542
192	0x3ead296b	0.33820662
193	0x3ebd51b6	0.36976403
194	0x3d8f26f4	0.069898516
195	0x3eb7c7a3	0.35894498
196	0x3f4e58f7	0.806045
197	0xbe653783	-0.22384457
198	0x3ec20550	0.37894678
199	0x3dc9ee0f	0.09859859
200	0x3ef64e76	0.48106736
201	0xbda8db94	-0.08245006
202	0xbd55847e	-0.052128308
203	0x3f81a66c	1.0128913
204	0xbd0ae6f3	-0.033911657
205	0xbee9cacf	-0.45662543
206	0x3f4ce93d	0.80043393
207	0x3db6a9cb	0.08919104
208	0x3ecb19b4	0.39668047
209	0xbd66770f	-0.056265887
210	0xbe4bcf6a	-0.19903341
211	0x3e8f09e8	0.27937245
212	0x3f0bedae	0.54659545
213	0xbeae30c7	-0.3402159
214	0x3f6e97af	0.932002
215	0x3f1be738	0.60899687
216	0xbf391761	-0.723013
217	0x3ef33454	0.4750086
218	0xbd8f353b	-0.06992575
219	0xbcfe763a	-0.031062234
220	0xbef8bf9e	-0.48583692
221	0x3ef803db	0.4844044
222	0xbe581fd0	-0.21105886
223	0x3ee58f61	0.44835952
224	0x3f1d77b9	0.6151081
225	0x3ec2e9a4	0.3806888
226	0xbe2c8fba	-0.16851702
227	0xbd768111	-0.06018168
228	0x3e16db94	0.147322
229	0x3f35d31d	0.7102526
230	0xbee8586c	-0.4537996
231	0x3f4a9459	0.7913261
232	0xbe4a258e	-0.19740888
233	0xbece8808	-0.4033816
234	0xbe980813	-0.2969366
235	0x3ed8c53f	0.42337987
236	0xbe898b2d	-0.26863995
237	0xbe7113a1	-0.23542644
238	0x3d7ec40e	0.06219869
239	0x3ef0f29f	0.47060105
240	0xbe9f5b5a	-0.31124383
241	0x3eb4b8c9	0.3529723
242	0xbee9d972	-0.4567371
243	0x3ea4c652	0.32182556
244	0xbf53802e	-0.8261746
245	0x3f1435ae	0.5789441
246	0x3f146a76	0.57974946
247	0x3e15e08c	0.14636439
248	0xbe96ec17	-0.29476997
249	0x3dae59d4	0.08513227
250	0xbd5c78d3	-0.053826164
251	0xbf9868ca	-1.1906979
252	0x3f4e0f7e	0.8049239
253	0xbf3b726a	-0.73221457
254	0x3e080259	0.13282146
255	0x3e05b685	0.13057907

network_body._body_endoder.seq_layers.0.bias f4 [128]
0	0x3d1e2f57	0.038619366
1	0xbc9955ac	-0.01871761
2	0xbce51a1e	-0.027966555
3	0x3d8b0e54	0.06789842
4	0xbc0fe65b	-0.008782948
5	0x3b232796	0.0024895421
6	0x3c867650	0.016413838
7	0x3b9addf0	0.004726164
8	0x3cb184c3	0.021669751
9	0x3b20286b	0.0024438153
10	0x3bb9d54c	0.005671179
11	0x3b1c56e1	0.0023855495
12	0xbcbbb962	-0.022915546
13	0x3d1d55e2	0.038411982
14	0x3c2c03db	0.010498966
15	0x3cc5d8fc	0.024151318
16	0x3b3def1b	0.002898163
17	0x3d2d4c6e	0.042309217
18	0x3b058f38	0.0020379554
19	0x3cc74cd2	0.024328623
20	0x3bffaed0	0.0078028217
21	0xbc8bc493	-0.017061507
22	0x3d0f9124	0.035050526
23	0x3c62b8c4	0.013837997
24	0x390a0d37	0.00013165628
25	0x3bd3a1e8	0.0064585097
26	0x3d8a38cd	0.06749115
27	0x3ce3c17f	0.027802227
28	0x3d0cd664	0.034384146
29	0x3cd7b987	0.026333584
30	0x3c2d7e30	0.0105891675
31	0x3cd5c162	0.026093189
32	0xbc26369b	-0.010144855
33	0x3cf9ef46	0.030509602
34	0x3dbdd794	0.09269634
35	0x3c9572b5	0.018243173
36	0x3cd05689	0.025431888
37	0x3c9f830a	0.019471664
38	0x3d382970	0.044961393
39	0x3c096730	0.008386418
40	0x3c42f7c6	0.011899894
41	0xbc4963a2	-0.012291821
42	0x3d24f34b	0.040271085
43	0x3d935f66	0.0719593
44	0x3d82e739	0.063917585
45	0xbc2ebce1	-0.010665149
46	0x3dada4f9	0.08478732
47	0xbcfd54f4	-0.030924298
48	0x3bfc4b79	0.0076994267
49	0xb9f2d77a	-0.0004631838
50	0x3ca18f25	0.019721577
51	0x3b87f513	0.004149088
52	0xbc595489	-0.013264784
53	0x3beaebde	0.007169231
54	0x3d059af6	0.032618485
55	0x3d2b147d	0.041767586
56	0x3d053fc3	0.03253151
57	0x3c4a5c04	0.01235104
58	0xbba1c2f1	-0.004936569
59	0xbcd360c5	-0.02580298
60	0x3d262976	0.040566884
61	0x3d1bf15d	0.03807198
62	0x3cc5116b	0.024056157
63	0x3ce37fb3	0.027770853
64	0x3d6a8b46	0.057261728
65	0x3cb3c6f7	0.02194546
66	0x3b6995c7	0.0035642253
67	0x3b48c1ac	0.0030633016
68	0x3c12a43a	0.0089502875
69	0x3c9c7177	0.019097073
70	0x3c7662a6	0.015038168
71	0x3cbacf63	0.022803968
72	0xbc48c4e7	-0.012253976
73	0x3d40b917	0.047051515
74	0x3ce7b829	0.028286057
75	0xbd0f59bb	-0.034997683
76	0x3c59be13	0.013289946
77	0xbac45c49	-0.0014981116
78	0x3c98db71	0.018659325
79	0x3c604f50	0.013690785
80	0x3c2f36c4	0.0106942095
81	0x3c6143b0	0.013749048
82	0xbba71615	-0.005099068
83	0xbcf5edcb	-0.030020615
84	0x3cae5f27	0.021285607
85	0x3cc814a6	0.024423908
86	0x3cad4e54	0.021155514
87	0xbd590e99	-0.052992437
88	0xbbb7184e	-0.005587614
89	0x3bc2f367	0.005949426
90	0x3cc29d96	0.023756783
91	0xbd09d3e2	-0.033649333
92	0x3d075f9e	0.033050172
93	0x3c8415b3	0.016123628
94	0x394fe7d5	0.00019827423
95	0x3c746ef7	0.014919034
96	0x3cdfe70a	0.027331848
97	0x3ca34eba	0.019935
98	0x3c0abd61	0.008468003
99	0x3d8c70f5	0.06857482
100	0x3d07ba6f	0.03313678
101	0x3d0df56a	0.034657873
102	0x3d45eaf3	0.04831977
103	0x3b0cca7a	0.002148299
104	0xbd2b6741	-0.041846517
105	0xbbaef687	-0.005339447
106	0x3c64e78f	0.0139712235
107	0xba622023	-0.00086260046
108	0x3b862e98	0.00409491
109	0xbd34c665	-0.044134516
110	0x3c95f8b8	0.018307075
111	0x3d841890	0.064499974
112	0x3be8c69e	0.007103755
113	0x3cd50bd4	0.026006617
114	0x3d1b7042	0.037948854
115	0x3d2f2e66	0.04276886
116	0x3d174672	0.036932416
117	0xbca6c97c	-0.020359747
118	0x3cad6888	0.021168008
119	0xbc87e54e	-0.016588833
120	0x3aeca818	0.0018055467
121	0x3c77b89b	0.015119697
122	0x3db0fe2e	0.08642231
123	0x3d6a051e	0.057133786
124	0x3d338754	0.04383023
125	0x3c5f4957	0.013628325
126	0x3c3bcdad	0.011462611
127	0x3b2ff471	0.002684858

network_body._body_endoder.seq_layers.2.weight f4 [128, 128]
0	0xbded3229	-0.11581833
1	0xbe184a14	-0.14872009
2	0xbcb3d6ed	-0.02195307
3	0x3cab064e	0.02087703
4	0x3d937b44	0.072012454
5	0xbc6d72aa	-0.01449267
6	0x3bbdcd9e	0.0057923337
7	0x3e311c2b	0.17295901
8	0x3e05b539	0.13057412
9	0xb9f093d6	-0.00045886514
10	0xbd2f4a92	-0.042795725
11	0xbcd4fde1	-0.025999965
12	0x3df82dee	0.121181354
13	0x3d946676	0.072461054
14	0xbd2af38f	-0.04173618
15	0x3e36e98c	0.17862529
16	0xbdf1264a	-0.11774881
17	0x3dc32a1d	0.09529517
18	0x3d2c0a2f	0.0420019
19	0xbe0e0bb5	-0.13871653
20	0x3c590ebd	0.013248143
21	0x3dbf3e65	0.09338073
22	0x3e667953	0.22507219
23	0x3dc889f8	0.097919405
24	0x3e93df0e	0.28881115
25	0x3e0117aa	0.12606683
26	0x3bd92940	0.006627232
27	0x3d839206	0.06424336
28	0xbd86091c	-0.06544706
29	0xbe2bcbc8	-0.16776955
30	0xbe0c695f	-0.13712071
31	0xbdc91065	-0.0981758
32	0x3dd706b2	0.10499324
33	0xbb75ee3d	-0.0037526034
34	0x3d8796c0	0.0662055
35	0xbd67807c	-0.056519017
36	0x3d348cac	0.044079468
37	0x3dc171d6	0.094455406
38	0x3d3b1dca	0.045682706
39	0xbca59326	-0.020211767
40	0x3d705fd4	0.05868514
41	0x3d8109f6	0.06300728
42	0xbcc048eb	-0.02347227
43	0xbc88e6c9	-0.01671161
44	0x3e06e948	0.13174927
45	0x3d6016c3	0.054709207
46	0x3d692b60	0.05692613
47	0x3ca5c59f	0.020235835
48	0x3d621e36	0.055204593
49	0xbe0006a7	-0.12502538
50	0x3d1c5bb0	0.038173378
51	0xbdcc75d9	-0.09983415
52	0x3d1d0366	0.03833332
53	0xbc6102ba	-0.01373356
54	0x3e09bc9c	0.13450855
55	0xbc768941	-0.015047372
56	0x3d8d693f	0.0690484
57	0xbdb27957	-0.0871455
58	0x3de9c05c	0.11413643
59	0xbaf0938f	-0.0018354523
60	0x3e02cd54	0.12773639
61	0x3e3ab405	0.18232735
62	0xbded3509	-0.11582381
63	0x3dd2d92f	0.10295331
64	0xbd9496b7	-0.07255309
65	0xbd14e7cc	-0.03635387
66	0xbd35a346	-0.044345163
67	0xbd6ec49a	-0.058292963
68	0xbdf9ce2f	-0.121975295
69	0x3e0274df	0.12739895
70	0xbcb551e8	-0.022133783
71	0x3d3443c3	0.044009935
72	0x3e40166b	0.18758552
73	0xbd54078d	-0.051765013
74	0xbd2fd0ea	-0.042923845
75	0x3dc308be	0.09523152
76	0xbdd65f2d	-0.10467372
77	0x3d4bdd2b	0.04977147
78	0xbda982a1	-0.082768686
79	0xbde6f644	-0.1127744
80	0x3d39adb0	0.045331657
81	0x3e2016dc	0.1563372
82	0xbdf7c144	-0.12097409
83	0x3de30070	0.11084068
84	0x3d473cc0	0.04864192
85	0x3d3d2385	0.046176452
86	0x3d96e20d	0.073673345
87	0xbd867119	-0.065645404
88	0x3e353f3a	0.176999
89	0x3d359891	0.04433495
90	0xbcf8a8ce	-0.03035393
91	0xbdb874a0	-0.090066195
92	0x3db0c857	0.08631962
93	0x3e3be90a	0.18350616
94	0xbddfbf8f	-0.10925209
95	0x3c969d25	0.01838548
96	0x3e2c7376	0.1684092
97	0xb9a87c76	-0.00032136188
98	0x3d830f6a	0.063994244
99	0x3e35a67f	0.17739294
100	0xbe014d26	-0.12627086
101	0xbe06c0ad	-0.13159437
102	0x3e613ee0	0.21996641
103	0x3cdc42d2	0.026887331
104	0xbdab049f	-0.08350491
105	0x3daaa112	0.08331503
106	0x3d77159b	0.06032334
107	0xbe06ccad	-0.13164015
108	0xbdb8c4a9	-0.09021885
109	0x3d4fb040	0.050705194
110	0xbc82186c	-0.015880786
111	0x3dd145fc	0.102184266
112	0xbda24deb	-0.07925018
113	0x3ca5a890	0.020221978
114	0x3e6ef892	0.2333701
115	0xbb9bb4b6	-0.004751767
116	0x3d48aef7	0.048994984
117	0xbd06d5f1	-0.032918874
118	0xbc39c955	-0.011339505
119	0x3c2be0a5	0.010490571
120	0x3aeee822	0.001822714
121	0x3d1a004c	0.03759794
122	0xbcccb6bb	-0.024989476
123	0xbe02113e	-0.1270189
124	0x3deebd5f	0.116572134
125	0x3dc5723a	0.096409276
126	0x3e0ec52b	0.13942401
127	0xbdff6359	-0.12470121
128	0x3e2b23ba	0.16712847
129	0x3d27dfb0	0.04098481
130	0x3d3c70e9	0.046006117
131	0xbd9a5fe2	-0.075378194
132	0xbc36e308	-0.011162527
133	0xbcd82eb3	-0.026389455
134	0xbcfa221b	-0.03053384
135	0x3cc29492	0.023752484
136	0x3dbbd261	0.09170986
137	0x3d5072c5	0.050890703
138	0xbcb6c1e9	-0.02230926
139	0x3dfe3f14	0.12414375
140	0xbe18a39e	-0.14906165
141	0x3d519f84	0.051177517
142	0xbd5a70dd	-0.05333029
143	0x3ce587e2	0.028018896
144	0xbd8614df	-0.065469496
145	0xbe49ec1e	-0.19718978
146	0x3ccd9c8d	0.025099063
147	0xbd911900	-0.070848465
148	0x3e261d96	0.16222224
149	0x3d852069	0.06500322
150	0xbdb643f5	-0.088996805
151	0xbe51dddb	-0.20494787
152	0x3b6b7835	0.0035929803
153	0xbd4ce245	-0.050020475
154	0x3d5ced6d	0.053937364
155	0x3c03230c	0.008003961
156	0xbbf6bff6	-0.0075302077
157	0x3d98098a	0.074236944
158	0x3d67daf6	0.0566053
159	0xbdad882b	-0.084732376
160	0xbd495259	-0.0491508
161	0xbab8f58a	-0.0014111262
162	0xbdc79f99	-0.09747238
163	0x3c554ad8	0.013018332
164	0x3e0d32f4	0.13788968
165	0x3d82a5a1	0.063792475
166	0xbd1277b0	-0.035758674
167	0x3d70020d	0.058595706
168	0x3d309855	0.043114025
169	0xbda25a55	-0.07927386
170	0xbeb93bda	-0.36178476
171	0xbdd005df	-0.1015737
172	0x3cb5b04d	0.022178793
173	0xbdacfe88	-0.084469855
174	0x3d485a39	0.048914168
175	0x3deb2132	0.11480941
176	0xbe13ff20	-0.14452791
177	0x3cd19e47	0.025588168
178	0xbd0e67df	-0.034767028
179	0x3e0c65a6	0.13710651
180	0xbd2eba4f	-0.042658146
181	0x3b21b6f8	0.0024675708
182	0xbd84138c	-0.06449041
183	0xbce76d44	-0.028250344
184	0x3df564b5	0.11982099
185	0xbcf89504	-0.030344494
186	0x3dfe28e7	0.12410145
187	0x3bef344c	0.0072999354
188	0x3cd6d0e6	0.026222657
189	0x3e32e14c	0.17468756
190	0x3d3ebda8	0.04656759
191	0xbdbe2cc0	-0.09285879
192	0xbd671f9e	-0.056426637
193	0xbd0210e0	-0.031754375
194	0xbd58185d	-0.05275761
195	0xbd812571	-0.063059695
196	0xbcd708f9	-0.026249396
197	0xbd402f83	-0.04692031
198	0x3dfaf32e	0.12253414
199	0x3d39c469	0.045353327
200	0x3d567f11	0.052367274
201	0x3af8a0b3	0.001896879
202	0x3d0cb728	0.03435436
203	0x3e1e0496	0.15431437
204	0x3e592380	0.21204948
205	0xbdaca05b	-0.08429023
206	0x3d85c9b0	0.065326095
207	0x3ca09ae1	0.019605102
208	0xbd5d3da2	-0.054013856
209	0x3d99320c	0.07480249
210	0x3d9e01b5	0.07715169
211	0xbdbe142d	-0.09281192
212	0x3c8818d3	0.0166134
213	0x3dd22477	0.10260861
214	0x3e3f05e1	0.18654586
215	0x3d63cb44	0.05561377
216	0xbdd96870	-0.10615623
217	0xbd5250d8	-0.05134663
218	0x3d997a85	0.07494072
219	0x3daf9c60	0.08574748
220	0x3dc5c4f2	0.09656705
221	0xbc17d914	-0.009268064
222	0xbe781a92	-0.24228886
223	0xbd8f3313	-0.069921635
224	0xbda8d50d	-0.08243761
225	0xbdcc2aef	-0.099691264
226	0x39c5d906	0.00037736463
227	0x3d8a9f26	0.067686364
228	0xbdb98290	-0.09058106
229	0x3d0ed6b2	0.03487272
230	0xbe9cd313	-0.30629787
231	0xbd7cd0c2	-0.061722524
232	0xbe3b8957	-0.1831411
233	0x3d9764f0	0.07392299
234	0xbd9bc2a3	-0.076054834
235	0xbd3e8310	-0.04651171
236	0x3d998b9c	0.074973315
237	0xbe20b5a2	-0.15694287
238	0x3c931992	0.017956529
239	0xbb2edd05	-0.002668203
240	0x3e2a77df	0.1664729
241	0x3d6195ea	0.05507461
242	0xbc9f9d21	-0.019484105
243	0x3c927a72	0.017880652
244	0xbd1f7277	-0.03892752
245	0xbe19eb7f	-0.15031241
246	0x3dcd0b22	0.10011889
247	0xbbbcb575	-0.005758936
248	0x3e12e09f	0.14343499
249	0x3b93d650	0.004511632
250	0xbd32e74e	-0.04367762
251	0x3dbb36b1	0.09141291
252	0x3e239d76	0.15978035
253	0xbd77cddc	-0.060499057
254	0xbcd9ad20	-0.02657181
255	0xbcc94dd0	-0.024573237

network_body._body_endoder.seq_layers.2.bias f4 [128]
0	0x3c7ebbb8	0.015547685
1	0x3bd8740b	0.0066056303
2	0x3c80ca37	0.015721424
3	0x3c1a6ada	0.009424889
4	0xb99cbea9	-0.00029896692
5	0x3c967b7d	0.01836943
6	0x3c93b69a	0.018031407
7	0xbc05d7a4	-0.0081690885
8	0xbac74cbf	-0.0015205367
9	0xbb1cc56f	-0.002392139
10	0x3cc0c8fc	0.023533337
11	0x3d45efcd	0.048324395
12	0x3b4b7709	0.0031046292
13	0x3ccedc6b	0.025251588
14	0x3d0ba46f	0.034092363
15	0x3cc59a70	0.024121493
16	0x3c6cc9f7	0.014452449
17	0x3c81a875	0.015827397
18	0x3c9c104f	0.019050745
19	0x3ccdc05b	0.025116136
20	0x3c9ea692	0.019366536
21	0x3ca70659	0.020388769
22	0x3bb54d02	0.0055328617
23	0xbb9ce210	-0.004787691
24	0xbc9b3c22	-0.018949572
25	0x3a8e675f	0.0010864547
26	0xbbcfe2ea	-0.006344189
27	0xbbd0d312	-0.006372818
28	0x3d344bd8	0.044017643
29	0x3c3ff05c	0.011715021
30	0xbbe4ace4	-0.006978618
31	0x3c7e221b	0.015511061
32	0x3c295a0a	0.010336408
33	0x3c6b69ca	0.014368484
34	0xbbd7764c	-0.0065753814
35	0x3be283af	0.0069126706
36	0x3cb07cde	0.021543916
37	0x3c92f30b	0.017938158
38	0xbc07e3d6	-0.008294066
39	0x3c5f2ebc	0.013621982
40	0x3afdbcc0	0.001935862
41	0x3c5c0de7	0.013431049
42	0x3c81c34b	0.015840193
43	0x3b13afa2	0.0022535105
44	0xb9733bb1	-0.00023196523
45	0x3c60e998	0.013727568
46	0x3d2f89eb	0.04285614
47	0x3cc074d4	0.023493208
48	0x3b971e01	0.004611731
49	0xbbf73da1	-0.0075451885
50	0x3c82dcfb	0.015974512
51	0xbc4b9cea	-0.012427548
52	0xbb0a42b7	-0.0021096894
53	0x3ce835f9	0.028346049
54	0xbc193663	-0.009351346
55	0x3b3cac7d	0.0028789334
56	0x3c770a68	0.015078165
57	0x3bee90d8	0.0072804503
58	0x3c8c3218	0.01711373
59	0xbad61105	-0.0016331977
60	0x3bc5beba	0.0060346993
61	0xbb1c4f6b	-0.0023851048
62	0x3cbc2b63	0.022969907
63	0xbc524d37	-0.012835792
64	0x3c93f29e	0.018060025
65	0x3cdba236	0.026810747
66	0x3cf3b698	0.029750153
67	0x3ca63653	0.020289576
68	0x3cf88eb7	0.03034149
69	0x3bb15e2f	0.005412839
70	0x3cc26215	0.02372841
71	0x3cdde0d6	0.02708475
72	0x3a09057c	0.00052269525
73	0x3bd700c2	0.0065613696
74	0x3bf4edef	0.007474653
75	0x3ccaeda2	0.024771515
76	0x3d047e55	0.032347042
77	0x3bc9b260	0.006155297
78	0x3cdedd4e	0.027205136
79	0x3ba66bbe	0.005078762
80	0x3c3f8bc8	0.011691041
81	0x3c435588	0.011922248
82	0x3d520370	0.05127281
83	0x3c6c358e	0.014417065
84	0x3cd1de91	0.025618823
85	0xbbb32a53	-0.005467692
86	0x3b5c562a	0.0033620694
87	0x3c5a9ac2	0.013342561
88	0x3d5ef741	0.05443502
89	0xbc29f24d	-0.01037271
90	0x3cf5d87a	0.03001045
91	0x3c993d07	0.018705858
92	0x3c471930	0.012152001
93	0x3d166888	0.036720783
94	0x3d048bc1	0.032359842
95	0xbbea42e5	-0.0071490877
96	0xbc2cc3e6	-0.010544753
97	0x3c96285f	0.018329797
98	0x3d3e7d08	0.046505958
99	0x3c596592	0.013268845
100	0x3d0756ed	0.033041883
101	0x3ba77d86	0.005111399
102	0xbb35c3f9	-0.0027735217
103	0x3c0618a7	0.0081845885
104	0x3c7508f6	0.01495575
105	0x3b6a6209	0.0035764
106	0xbbf61b02	-0.007510544
107	0x3cfe97dc	0.031078272
108	0x3c54e17c	0.012993213
109	0x3c172c74	0.009226907
110	0x3ccefb5e	0.025266346
111	0x3c6c1476	0.014409175
112	0x3c8a2e58	0.016867802
113	0x3c464f16	0.0121038165
114	0xbbd01d5c	-0.006351156
115	0xbb8bd1b9	-0.0042669442
116	0x3cc0344a	0.023462433
117	0x3d56c534	0.05243416
118	0xbc1be4f8	-0.00951504
119	0x3c12c58a	0.00895823
120	0xbc29f843	-0.010374132
121	0x3b9ddee4	0.0048178304
122	0x3cdb0d83	0.026739841
123	0x3c758fa9	0.0149878645
124	0x3d16fcb8	0.036862105
125	0x3d1ef5be	0.038808577
126	0x3c5c1aff	0.013434171
127	0x3ca9aee9	0.020713286

action_model._discrete_distribution.branches.0.weight f4 [3, 128]
0	0xba6a3911	-0.0008934895
1	0xbc78983e	-0.015173016
2	0xbc967f9b	-0.018371394
3	0x3c9248bc	0.017856948
4	0xbb11d3c6	-0.002225147
5	0xbc109177	-0.008823744
6	0x3c80e993	0.015736377
7	0x3c502949	0.012705156
8	0x3ca0e34a	0.01963963
9	0x3c02daea	0.0079867635
10	0xbc25ab3b	-0.010111625
11	0xbc2523a6	-0.0100793
12	0x3bf2a72c	0.0074051823
13	0xbba0bfcf	-0.004905678
14	0xbc5357bb	-0.012899335
15	0xbd208f31	-0.039199058
16	0xbc7a72f4	-0.015286196
17	0x3baeb187	0.0053312215
18	0xbd204b31	-0.039134208
19	0xbc282a15	-0.010263939
20	0xbc425816	-0.011861822
21	0xbcd4cfaf	-0.025977938
22	0x3c357a1a	0.011076475
23	0x3cc0b39a	0.02352314
24	0x3caa4afe	0.020787712
25	0xbc55433a	-0.013016516
26	0x3c381b66	0.011237001
27	0x3c35443c	0.011063632
28	0xbd033548	-0.032033235
29	0xbc783f3a	-0.015151793
30	0x3c91444f	0.017732767
31	0xbbbace6b	-0.0057008765
32	0xbca0891e	-0.019596633
33	0x3b77bd09	0.0037801883
34	0x3c841d21	0.016127171
35	0x3a800c53	0.0009769298
36	0x3b2ce3f4	0.0026380988
37	0x3c0e17ca	0.008672664
38	0x3c43b94e	0.011946036
39	0x3bf864b4	0.007580364
40	0x3c86d059	0.01645677
41	0x3bd9d280	0.006647408
42	0x3a814892	0.0009863547
43	0x3c3c0e41	0.011478008
44	0x3c567d68	0.013091423
45	0xbb1d442a	-0.0023996928
46	0xbcaa8e8a	-0.020819921
47	0xbc98fadd	-0.018674308
48	0x3bcd837f	0.006271779
49	0xba99ad2c	-0.0011724583
50	0xbca4290b	-0.020039102
51	0x3b9a4fde	0.004709228
52	0x3c914af8	0.017735943
53	0xbcb5bcda	-0.022184778
54	0x3c5843ea	0.013199786
55	0xbc969e80	-0.018386126
56	0x3b5d5e32	0.0033778069
57	0xbc1c0857	-0.009523473
58	0xba8b612f	-0.0010633821
59	0x3c4d9304	0.012547258
60	0xbbcd9972	-0.0062743956
61	0x3b1f5177	0.0024310031
62	0x3b4e69bc	0.0031496128
63	0x3bb9e247	0.0056727263
64	0xbca773fb	-0.020441046
65	0x3c2346ec	0.00996564
66	0xbc11c478	-0.008896939
67	0xba16b2ed	-0.0005748708
68	0xbc59cac6	-0.013292974
69	0x3cc7fbe3	0.024412101
70	0xbd01b3a2	-0.03166545
71	0x3c30ca61	0.010790438
72	0x3c2d4503	0.010575536
73	0x3bbf7e13	0.0058438866
74	0xbcb68909	-0.02228214
75	0xbd06b8e4	-0.03289117
76	0xbd25eadb	-0.04050718
77	0xbc381036	-0.011234334
78	0xbcac252d	-0.02101382
79	0x3a10dabc	0.0005525758
80	0xbc87dc24	-0.016584463
81	0xbc2511bc	-0.010075029
82	0xbd4f97fd	-0.050682057
83	0xbc80c639	-0.01571952
84	0xbc675e4b	-0.014121602
85	0x3ceac6f7	0.028659327
86	0xba137dbe	-0.0005626342
87	0xbc9df3dc	-0.01928132
88	0xbc363687	-0.011121399
89	0x3c14858e	0.009065045
90	0xbd04fcb6	-0.032467566
91	0xbc884005	-0.01663209
92	0xbc8a435b	-0.01687782
93	0xbd3116b8	-0.043234557
94	0xbc4e76c3	-0.012601557
95	0x3c8f8583	0.017519718
96	0x3bf689af	0.0075237374
97	0xbcc9b08a	-0.024620313
98	0xbd2647bf	-0.040595766
99	0xbc327cba	-0.010893995
100	0x3b3a944a	0.0028469735
101	0xbc4ea32c	-0.012612145
102	0xbc0c7a3b	-0.008574064
103	0xbb43791b	-0.0029826823
104	0xbb94241f	-0.0045209075
105	0xbbbab446	-0.00569776
106	0x3cc7b0ff	0.02437639
107	0xbd100620	-0.03516209
108	0x3c29bfee	0.010360701
109	0x3baebe0f	0.0053327153
110	0xbce96eff	-0.02849531
111	0xbb2ed977	-0.0026679912
112	0x3b89a2e5	0.0042003267
113	0xbcaf5bdd	-0.021406109
114	0x3b1a4bb0	0.0023543648
115	0x3c810441	0.015749099
116	0xbce046ed	-0.02737757
117	0x3ba91d33	0.0051609515
118	0x3cab922f	0.02094373
119	0xbbfd0120	-0.0077210814
120	0xbc07caa0	-0.008288056
121	0x3b75115e	0.0037394385
122	0xbcd4f684	-0.025996454
123	0xbc23a625	-0.009988342
124	0xba0c3d40	-0.0005349703
125	0xbd27baea	-0.04094974
126	0xbcbd2ef0	-0.02309367
127	0x3a83a333	0.0010043144
128	0x3d01da11	0.031702105
129	0xbcbaa5fc	-0.022784226
130	0xbd952f8a	-0.07284458
131	0xbd162c53	-0.036663365
132	0xbcb54198	-0.022126004
133	0x3d48494b	0.048898023
134	0x3c9aaa2a	0.018879969
135	0xbc727fbd	-0.014800963
136	0xbd0dc473	-0.034611177
137	0xbc834d70	-0.016028136
138	0x3d4690f9	0.0484781
139	0x3c937900	0.018002033
140	0xbd1efbeb	-0.038814466
141	0x3d502391	0.05081517
142	0xbd9e2995	-0.07722775
143	0xbd3db457	-0.046314564
144	0x3cf1babb	0.029507985
145	0xbd843722	-0.06455828
146	0xbc0736cd	-0.008252812
147	0x3d846b50	0.06465781
148	0xbd33d28b	-0.04390196
149	0x3d5cf739	0.053946707
150	0x3c97d583	0.018534428
151	0xbcdcdd86	-0.0269611
152	0xbbf95617	-0.0076091397
153	0xbc405e70	-0.011741266
154	0xbc029dcf	-0.007972195
155	0xbc98c81b	-0.018650105
156	0xbd6ecaf9	-0.05829904
157	0xbd1255d6	-0.03572639
158	0xbd24b4ec	-0.040211603
159	0x3d422623	0.04739965
160	0xbd6e7971	-0.058221284
161	0x3d2ad048	0.04170254
162	0xbcc30b96	-0.023809236
163	0xbceb749b	-0.028742125
164	0x3d116857	0.035499897
165	0xbce50797	-0.02795772
166	0xbc6d58fc	-0.014486548
167	0x3d233297	0.039843168
168	0xbd18523b	-0.037187796
169	0xb9d477e5	-0.0004052512
170	0x3baa58d7	0.005198579
171	0xbd41281e	-0.0471574
172	0xbc9eed89	-0.019400375
173	0x3c47318b	0.012157808
174	0x3d8f93c3	0.07010605
175	0xbcf0bf22	-0.029388014
176	0xbaabc188	-0.0013103941
177	0xbc8075b7	-0.01568113
178	0x3ce77d58	0.02825801
179	0xbcb472a1	-0.022027316
180	0xbce505db	-0.027956894
181	0xbd83f00c	-0.0644227
182	0xbd355693	-0.044272017
183	0xbcb4c275	-0.02206538
184	0xbd87fc96	-0.06639974
185	0x3cc0986a	0.023510177
186	0x3d35ea0e	0.044412665
187	0xbd08520c	-0.03328137
188	0xbcb5a247	-0.022172106
189	0xbd008af2	-0.03138251
190	0x3d1b8c37	0.037975516
191	0xbc9324b6	-0.017961841
192	0x3c9a9d18	0.018873736
193	0x3d0e4205	0.03473093
194	0x3d97d984	0.07414535
195	0x3c108dd5	0.008822878
196	0xbd15799a	-0.03649292
197	0x3affa3ec	0.0019503809
198	0xbd94d20d	-0.072666265
199	0x3cc1826d	0.023621762
200	0xbceccafb	-0.028905382
201	0x3c1fd210	0.009754673
202	0x3bd3e8d0	0.0064669624
203	0x3d438c5a	0.04774127
204	0xbd4a32c6	-0.049364828
205	0x3bd92f04	0.006627919
206	0xbd5b650d	-0.053563166
207	0x3c072b99	0.008250141
208	0x3c5a55a3	0.013326081
209	0xbc9157c5	-0.017742047
210	0xbd63b140	-0.05558896
211	0xbd110916	-0.035409056
212	0x3d5ba058	0.053619713
213	0xbb7a9704	-0.0038236985
214	0x3c5a6542	0.013329806
215	0x3cea8f98	0.028632924
216	0x3d6d98b9	0.058006976
217	0xbc0b77d9	-0.008512461
218	0xbd62b27d	-0.055346
219	0xbd58e31c	-0.052950963
220	0x3bc66b9c	0.0060553085
221	0xbd551ad2	-0.05202753
222	0x3d716a35	0.058939178
223	0xbc204220	-0.00978139
224	0xbc4d1e2a	-0.012519399
225	0x3d0243a1	0.031802777
226	0xbd90691a	-0.070512965
227	0xbbf769dc	-0.007550461
228	0xbd25472c	-0.040351078
229	0x3bac5fd7	0.0052604484
230	0xbce1d10a	-0.027565498
231	0xbd3be63f	-0.045873877
232	0x3ca7077d	0.020389313
233	0xbc87a8f2	-0.016560052
234	0xbb7ee69a	-0.0038894773
235	0xbd5f2819	-0.0544816
236	0x3c2db6c0	0.010602653
237	0x3caee4bb	0.021349302
238	0xbd5bdba8	-0.053676277
239	0x3d326865	0.04355659
240	0xbcc7ea62	-0.024403755
241	0xbc92e50c	-0.017931484
242	0xbc8ba346	-0.017045628
243	0xbcd64cd2	-0.026159678
244	0x3d5bd8d7	0.05367359
245	0x3d8102dd	0.06299374
246	0xbba350fc	-0.0049840193
247	0xbd0d729a	-0.03453312
248	0xbc6e358e	-0.014539136
249	0x3bf39744	0.0074338038
250	0xbce0eb66	-0.027455997
251	0xbc895ba5	-0.016767332
252	0x3cd7dcb6	0.02635036
253	0xbd55e013	-0.052215647
254	0xbc3a6ec6	-0.0113789495
255	0xbce3d905	-0.027813444

action_model._discrete_distribution.branches.0.bias f4 [3]
0	0xbc3e8644	-0.011628691
1	0x3c6aaf3c	0.014324006
2	0xbb41b398	-0.002955651

exp_avg f4 [128, 6]
0	0x3a025d92	0.00049730495
1	0xb999a3c7	-0.00029304458
2	0x37249696	9.810223e-06
3	0x392928a2	0.00016132233
4	0x397a5437	0.0002387323
5	0x37249696	9.810223e-06
6	0x3844ee7a	4.695214e-05
7	0x38b0f098	8.437148e-05
8	0x3578a0fc	9.262146e-07
9	0xb8f17455	-0.00011513444
10	0x38ac1797	8.205993e-05
11	0x3578a0fc	9.262146e-07
12	0xb810bbee	-3.45073e-05
13	0xb82784cc	-3.993958e-05
14	0xb536ba94	-6.807179e-07
15	0x38be8e92	9.086462e-05
16	0xb803d2d2	-3.1429176e-05
17	0xb536ba94	-6.807179e-07
18	0xb9960b13	-0.0002861848
19	0xb97e3b3e	-0.00024245397
20	0xb6bd6e81	-5.6455033e-06
21	0xb8ed1803	-0.00011305513
22	0xb9a3676b	-0.00031166835
23	0xb6bd6e81	-5.6455033e-06
24	0x3971ab23	0.00023047304
25	0x3b2d5c6b	0.002645279
26	0x36988e19	4.5464953e-06
27	0xba9bc358	-0.0011883778
28	0x3b168ce8	0.002297217
29	0x36988e19	4.5464953e-06
30	0x3914b7aa	0.000141828
31	0x392aa814	0.00016275077
32	0x363bc1fd	2.7978087e-06
33	0x37192a57	9.129369e-06
34	0x39504442	0.00019861854
35	0x363bc1fd	2.7978087e-06
36	0xba88b278	-0.0010429164
37	0xbb55d679	-0.0032629056
38	0xb7ac94fe	-2.0573378e-05
39	0x3b047161	0.002020918
40	0xbb576a0d	-0.0032869608
41	0xb7ac94fe	-2.0573378e-05
42	0x3a387ccc	0.0007037639
43	0x3b974273	0.0046160757
44	0x3768eb07	1.3882999e-05
45	0xbb34a2ff	-0.0027562974
46	0x3b8afc8c	0.0042415317
47	0x3768eb07	1.3882999e-05
48	0x3929ee31	0.00016205829
49	0x3a794ea0	0.0009510312
50	0x36568a1f	3.1968882e-06
51	0xbacda7dc	-0.0015690285
52	0x3a630eac	0.0008661549
53	0x36568a1f	3.1968882e-06
54	0x38d32ec7	0.00010069977
55	0x3ace8bac	0.0015758178
56	0x36054f74	1.9864792e-06
57	0xba8af8ca	-0.0010602709
58	0x3aa93a73	0.0012911096
59	0x36054f74	1.9864792e-06
60	0xba54ed95	-0.00081225607
61	0xbb295bcd	-0.002584207
62	0xb7866989	-1.6023188e-05
63	0x3af7b1e0	0.0018897615
64	0xbb2b0809	-0.0026097319
65	0xb7866989	-1.6023188e-05
66	0xb8be852a	-9.08471e-05
67	0x3a4e5260	0.0007870551
68	0xb5f088cc	-1.7921207e-06
69	0xb9e10597	-0.0004291951
70	0x3a0d54e9	0.0005391376
71	0xb5f088cc	-1.7921207e-06
72	0xb8691f19	-5.558049e-05
73	0xb9922d67	-0.00027881117
74	0xb59328d7	-1.096424e-06
75	0x39cd656a	0.00039176206
76	0xb990bf84	-0.0002760851
77	0xb59328d7	-1.096424e-06
78	0x38b24fd1	8.5025684e-05
79	0x397ac79d	0.0002391622
80	0x35e11f08	1.6772838e-06
81	0xba85d8b2	-0.0010211675
82	0x39829a6e	0.0002491059
83	0x35e11f08	1.6772838e-06
84	0xba85c318	-0.0010205237
85	0xbb83c2a0	-0.004021004
86	0xb7a8e061	-2.0131645e-05
87	0x3b24ab01	0.002512634
88	0xbb78ea38	-0.0037981402
89	0xb7a8e061	-2.0131645e-05
90	0xb90179fc	-0.00012347841
91	0x3ae66b93	0.0017579667
92	0xb623773f	-2.4358303e-06
93	0xba8082f3	-0.0009804651
94	0x3aa7dd93	0.0012807123
95	0xb623773f	-2.4358303e-06
96	0xba32cef8	-0.0006821002
97	0xbb46eb8d	-0.0030352802
98	0xb761bf84	-1.3455636e-05
99	0x3b05176e	0.0020308155
100	0xbb3334a9	-0.002734462
101	0xb761bf84	-1.3455636e-05
102	0x37cad3e3	2.4178944e-05
103	0x3b0241fa	0.001987575
104	0x3500098c	4.769761e-07
105	0xbb04c964	-0.002026164
106	0x3ad01373	0.0015874937
107	0x3500098c	4.769761e-07
108	0xb9050845	-0.00012686949
109	0xb98807b0	-0.0002594567
110	0xb627f487	-2.5027273e-06
111	0x3a5979c5	0.0008296038
112	0xb922b915	-0.00015518472
113	0xb627f487	-2.5027273e-06
114	0x3a1ec28f	0.0006056213
115	0x3a214229	0.0006151521
116	0x37486fcd	1.194696e-05
117	0x38d2b639	0.00010047522
118	0x3a861b68	0.0010231556
119	0x37486fcd	1.194696e-05
120	0xb6cc483e	-6.088084e-06
121	0x344f2103	1.9290387e-07
122	0xb400f45b	-1.2009825e-07
123	0x3835130b	4.3171498e-05
124	0x374465b3	1.1706189e-05
125	0xb400f45b	-1.2009825e-07
126	0xb8a05c48	-7.646583e-05
127	0xb8eb2bee	-0.00011213856
128	0xb5ca7514	-1.5084247e-06
129	0x399206a4	0.00027852238
130	0xb8b8342e	-8.783523e-05
131	0xb5ca7514	-1.5084247e-06
132	0xb9e9e5e9	-0.0004461252
133	0x3ad5a5f0	0.0016300064
134	0xb713a654	-8.800609e-06
135	0xbac4d253	-0.0015016295
136	0x3a7b6364	0.00095897005
137	0xb713a654	-8.800609e-06
138	0x39a53063	0.00031507303
139	0x3a005e65	0.00048968784
140	0x36d08dac	6.215376e-06
141	0xbacab895	-0.0015466387
142	0x39e2a81f	0.0004323134
143	0x36d08dac	6.215376e-06
144	0x3a30af40	0.00067399815
145	0x3afafa40	0.0019148067
146	0x375f1111	1.3295809e-05
147	0xbb19a131	-0.0023442025
148	0x3aff6b31	0.0019486902
149	0x375f1111	1.3295809e-05
150	0xb9a392af	-0.0003119907
151	0xb9d43ff4	-0.0004048344
152	0xb6ce835f	-6.154572e-06
153	0x3a30de80	0.0006747022
154	0xb9f637b4	-0.00046962278
155	0xb6ce835f	-6.154572e-06
156	0xb99e57ab	-0.00030201426
157	0xb95bd40e	-0.00020964464
158	0xb6c7e8d6	-5.957768e-06
159	0xb8cc117d	-9.7307355e-05
160	0xb9a4b822	-0.00031417707
161	0xb6c7e8d6	-5.957768e-06
162	0x39f830d0	0.00047338614
163	0x3b09f176	0.0021048463
164	0x371cac06	9.338377e-06
165	0xbb1c7049	-0.0023870638
166	0x3b001b6c	0.0019547595
167	0x371cac06	9.338377e-06
168	0xb9eae63d	-0.000448035
169	0xba436345	-0.0007453452
170	0xb7144827	-8.838287e-06
171	0x39fd4584	0.00048307714
172	0xba4cc006	-0.0007810596
173	0xb7144827	-8.838287e-06
174	0xba2f451a	-0.0006686017
175	0xbb346002	-0.0027523045
176	0xb75d47e1	-1.3189362e-05
177	0x3a89c44e	0.0010510774
178	0xbb21d727	-0.0024694891
179	0xb75d47e1	-1.3189362e-05
180	0xbaa2d33a	-0.001242257
181	0xbba9b429	-0.0051789475
182	0xb7cd91a6	-2.4505727e-05
183	0x3b7762f3	0.0037748187
184	0xbb9b6499	-0.004742217
185	0xb7cd91a6	-2.4505727e-05
186	0x38b70b6a	8.728246e-05
187	0x392aa5f4	0.00016274286
188	0x35e718aa	1.7218019e-06
189	0xba00f78d	-0.00049197004
190	0x38e6212a	0.00010973432
191	0x35e718aa	1.7218019e-06
192	0xba0dfaa6	-0.00054160727
193	0xbaa451f8	-0.0012536636
194	0xb7334027	-1.0684168e-05
195	0x3abfe41f	0.0014640129
196	0xbab1c412	-0.0013562462
197	0xb7334027	-1.0684168e-05
198	0xb9e298a3	-0.00043219802
199	0xbac465a8	-0.0014983909
200	0xb70f0a5d	-8.525877e-06
201	0x3a4baa08	0.0007769172
202	0xbab5133a	-0.0013814934
203	0xb70f0a5d	-8.525877e-06
204	0xb8f31da3	-0.00011592663
205	0x3af4661b	0.0018646152
206	0xb61977f3	-2.2868596e-06
207	0xbae7b4fc	-0.0017677839
208	0x3aba9ade	0.0014236828
209	0xb61977f3	-2.2868596e-06
210	0xb8a4fea9	-7.8675635e-05
211	0x3a08b3ae	0.00052147626
212	0xb5d04ef3	-1.5520185e-06
213	0xba2f69a6	-0.0006691463
214	0x39dfa506	0.00042656827
215	0xb5d04ef3	-1.5520185e-06
216	0xb82a1b3e	-4.055653e-05
217	0xb8c15ed6	-9.220622e-05
218	0xb556c300	-8.0004975e-07
219	0x393a3183	0.00017756787
220	0xb8582403	-5.153195e-05
221	0xb556c300	-8.0004975e-07
222	0xba061571	-0.00051148894
223	0xbb5ae324	-0.0033399547
224	0xb7294855	-1.0090026e-05
225	0x3a0d9a82	0.00054017466
226	0xbb375bf2	-0.0027978388
227	0xb7294855	-1.0090026e-05
228	0xb9fc841d	-0.00048163618
229	0xbb603324	-0.003421017
230	0xb71f6708	-9.501127e-06
231	0x3a701b56	0.0009159347
232	0xbb389194	-0.0028162943
233	0xb71f6708	-9.501127e-06
234	0xbaacd917	-0.0013187256
235	0xbb8af1ee	-0.004240266
236	0xb7da3917	-2.601421e-05
237	0x3b3f0cd2	0.0029151929
238	0xbb87a335	-0.004139329
239	0xb7da3917	-2.601421e-05
240	0x388711f6	6.440647e-05
241	0x39049c6c	0.00012646773
242	0x35aa8727	1.2705322e-06
243	0xb916ba85	-0.00014374599
244	0x38e7c257	0.00011051137
245	0x35aa8727	1.2705322e-06
246	0xb6b6b0db	-5.4446114e-06
247	0xba124855	-0.00055802363
248	0xb3e6a581	-1.07403146e-07
249	0x387bd25d	6.003898e-05
250	0xb9e37619	-0.00043384804
251	0xb3e6a581	-1.07403146e-07
252	0x39cc1586	0.00038925948
253	0x3b96c93a	0.004601625
254	0x3700d45f	7.678841e-06
255	0xbb7e6ac2	-0.0038820957

exp_avg_sq f4 [128, 6]
0	0x365a049d	3.2487217e-06
1	0x37267017	9.920469e-06
2	0x30adc101	1.2642262e-09
3	0x35ac902f	1.2856962e-06
4	0x37083d1c	8.12046e-06
5	0x30adc101	1.2642262e-09
6	0x31ad3f8d	5.0421876e-09
7	0x32bf7d07	2.2292182e-08
8	0x2c0a12e3	1.9621464e-12
9	0x32ccd073	2.3843517e-08
10	0x33027cf4	3.0381628e-08
11	0x2c0a12e3	1.9621464e-12
12	0x322a13fb	9.899845e-09
13	0x32d89433	2.5213103e-08
14	0x2c878c0e	3.85248e-12
15	0x33c18431	9.011308e-08
16	0x32cf7ae1	2.415385e-08
17	0x2c878c0e	3.85248e-12
18	0x341ef73d	1.4804841e-07
19	0x35072e31	5.0358636e-07
20	0x2e7d61de	5.7612463e-11
21	0x3499dc33	2.8658687e-07
22	0x353f9222	7.1365696e-07
23	0x2e7d61de	5.7612463e-11
24	0x36d87c64	6.4517826e-06
25	0x381997d3	3.661944e-05
26	0x312c8871	2.5106852e-09
27	0x36ae85cb	5.2011796e-06
28	0x382e6780	4.1581225e-05
29	0x312c8871	2.5106852e-09
30	0x32fc8f2d	2.940177e-08
31	0x335cf786	5.1447863e-08
32	0x2d494848	1.1441577e-11
33	0x32cd309b	2.3887244e-08
34	0x33780dd9	5.7754594e-08
35	0x2d494848	1.1441577e-11
36	0x3659b9f7	3.2443766e-06
37	0x37a5218e	1.9685158e-05
38	0x30ad8582	1.2625352e-09
39	0x36e2a5f6	6.7546453e-06
40	0x37be1116	2.2657721e-05
41	0x30ad8582	1.2625352e-09
42	0x378ff066	1.7158873e-05
43	0x38c15a28	9.21975e-05
44	0x31e56e2d	6.6773027e-09
45	0x37a235b8	1.933692e-05
46	0x38db1c23	0.00010447975
47	0x31e56e2d	6.6773027e-09
48	0x35715c3c	8.9913715e-07
49	0x368f7d9e	4.276356e-06
50	0x2fc05b6f	3.4989564e-10
51	0x366f4417	3.5653409e-06
52	0x36b56b27	5.4066945e-06
53	0x2fc05b6f	3.4989564e-10
54	0x362bdce6	2.5609565e-06
55	0x37483156	1.1932416e-05
56	0x3088f849	9.965869e-10
57	0x35d48ba0	1.5835867e-06
58	0x374559dc	1.1763037e-05
59	0x3088f849	9.965869e-10
60	0x361c42fc	2.3284802e-06
61	0x3765f5c3	1.37066845e-05
62	0x3079126e	9.061186e-10
63	0x36dca016	6.5751474e-06
64	0x37835dec	1.5660153e-05
65	0x3079126e	9.061186e-10
66	0x3555c8cb	7.9640876e-07
67	0x368cc682	4.1954345e-06
68	0x2faa6137	3.0991895e-10
69	0x34b63264	3.3936806e-07
70	0x369a6b95	4.602082e-06
71	0x2faa6137	3.0991895e-10
72	0x33bb59f0	8.7242256e-08
73	0x350d5962	5.265666e-07
74	0x2e155042	3.394996e-11
75	0x34bf008c	3.557692e-07
76	0x354f757f	7.728449e-07
77	0x2e155042	3.394996e-11
78	0x3455a772	1.9898087e-07
79	0x3565d582	8.561984e-07
80	0x2eaa46ae	7.74326e-11
81	0x35dc2ca7	1.6404273e-06
82	0x3595b9e7	1.115547e-06
83	0x2eaa46ae	7.74326e-11
84	0x37029c26	7.78496e-06
85	0x38331346	4.2694875e-05
86	0x31502f46	3.0294856e-09
87	0x37398f43	1.1060215e-05
88	0x3840e91b	4.5993464e-05
89	0x31502f46	3.0294856e-09
90	0x368921a0	4.0868326e-06
91	0x37ba0ce2	2.2178927e-05
92	0x30da945c	1.5903754e-09
93	0x3601af4d	1.9324536e-06
94	0x37d0d56e	2.4894918e-05
95	0x30da945c	1.5903754e-09
96	0x36b25695	5.314893e-06
97	0x37f0be29	2.869878e-05
98	0x310e215a	2.0682678e-09
99	0x36d41bee	6.321344e-06
100	0x37fea73e	3.0357038e-05
101	0x310e215a	2.0682678e-09
102	0x36a7c4f2	4.9999153e-06
103	0x37b3a7f9	2.1416681e-05
104	0x3105b506	1.9456947e-09
105	0x36afdb51	5.240938e-06
106	0x37c47fc9	2.3424525e-05
107	0x3105b506	1.9456947e-09
108	0x338b519e	6.487538e-08
109	0x347e195f	2.3664823e-07
110	0x2dde10f0	2.5246e-11
111	0x35854d5c	9.931787e-07
112	0x33eb0580	1.0944041e-07
113	0x2dde10f0	2.5246e-11
114	0x35911523	1.0809493e-06
115	0x361b87ce	2.3175849e-06
116	0x2fe740d1	4.206471e-10
117	0x350c1b00	5.2193354e-07
118	0x35e48823	1.7026945e-06
119	0x2fe740d1	4.206471e-10
120	0x30887a18	9.930003e-10
121	0x3193b218	4.29851e-09
122	0x2ad98952	3.8642229e-13
123	0x32282631	9.787571e-09
124	0x31af0065	5.093215e-09
125	0x2ad98952	3.8642229e-13
126	0x32e67bf7	2.6831897e-08
127	0x3368903c	5.414789e-08
128	0x2d37b06b	1.0441518e-11
129	0x33d305eb	9.8265296e-08
130	0x32d17f4d	2.4388692e-08
131	0x2d37b06b	1.0441518e-11
132	0x36d2044e	6.258989e-06
133	0x37e978e1	2.7832053e-05
134	0x31276090	2.4356588e-09
135	0x364c2574	3.042017e-06
136	0x38049b60	3.1615957e-05
137	0x31276090	2.4356588e-09
138	0x34812c8d	2.4060537e-07
139	0x358916d5	1.021394e-06
140	0x2ecde555	9.363058e-11
141	0x368ef516	4.2604615e-06
142	0x35a5d804	1.2356327e-06
143	0x2ecde555	9.363058e-11
144	0x36128ed0	2.1838823e-06
145	0x3714a965	8.860928e-06
146	0x30699ac2	8.498483e-10
147	0x3717ee72	9.055819e-06
148	0x370dc285	8.449545e-06
149	0x30699ac2	8.498483e-10
150	0x3419fd2e	1.4341342e-07
151	0x350061b8	4.7825915e-07
152	0x2e7572f9	5.5808667e-11
153	0x3588d358	1.0194299e-06
154	0x34e5a89b	4.277725e-07
155	0x2e7572f9	5.5808667e-11
156	0x3432b817	1.6644513e-07
157	0x35359db0	6.765722e-07
158	0x2e8e6f0b	6.4771376e-11
159	0x3387eb25	6.3292e-08
160	0x354d25a0	7.64232e-07
161	0x2e8e6f0b	6.4771376e-11
162	0x362bce35	2.5601014e-06
163	0x373163f4	1.0573294e-05
164	0x3088ec86	9.962526e-10
165	0x36d3653c	6.3000753e-06
166	0x373d8175	1.1295419e-05
167	0x3088ec86	9.962526e-10
168	0x343d5e09	1.7636206e-07
169	0x35482fc6	7.4575325e-07
170	0x2e96eb91	6.863055e-11
171	0x3591281d	1.0815016e-06
172	0x354f6d80	7.727285e-07
173	0x2e96eb91	6.863055e-11
174	0x368f71da	4.274986e-06
175	0x37c82449	2.3858755e-05
176	0x30e4a487	1.6635945e-09
177	0x363b57c3	2.7916255e-06
178	0x37c854df	2.388138e-05
179	0x30e4a487	1.6635945e-09
180	0x3766eb8e	1.3763913e-05
181	0x389cae13	7.4710835e-05
182	0x31b80969	5.3561746e-09
183	0x37afd3d5	2.0960268e-05
184	0x38a78ba3	7.98919e-05
185	0x31b80969	5.3561746e-09
186	0x32b71002	2.1311283e-08
187	0x33b09050	8.221889e-08
188	0x2d11e53d	8.293197e-12
189	0x34e3f557	4.2460553e-07
190	0x33747fb8	5.6926837e-08
191	0x2d11e53d	8.293197e-12
192	0x355ea256	8.2937675e-07
193	0x3683214b	3.90798e-06
194	0x2fb16ecb	3.2274836e-10
195	0x36b6d253	5.4485076e-06
196	0x369bbbf1	4.6412392e-06
197	0x2fb16ecb	3.2274836e-10
198	0x358b71e5	1.0389455e-06
199	0x36a1ffa4	4.8279344e-06
200	0x2fde4471	4.0430195e-10
201	0x35887a71	1.0168425e-06
202	0x36950cd0	4.4420376e-06
203	0x2fde4471	4.0430195e-10
204	0x36900b45	4.2928464e-06
205	0x37b84e06	2.1970842e-05
206	0x30e59906	1.6705435e-09
207	0x3664eea4	3.4113555e-06
208	0x37e3cd33	2.7156062e-05
209	0x30e59906	1.6705435e-09
210	0x351e9435	5.9075256e-07
211	0x363e4eec	2.8358145e-06
212	0x2f7cc3f7	2.2988887e-10
213	0x35814a16	9.632811e-07
214	0x365bd785	3.2758992e-06
215	0x2f7cc3f7	2.2988887e-10
216	0x31b2ebf6	5.2073075e-09
217	0x32b322cc	2.0854166e-08
218	0x2c0e9867	2.0264014e-12
219	0x3361cfd8	5.2575928e-08
220	0x3267dd0c	1.349623e-08
221	0x2c0e9867	2.0264014e-12
222	0x3711300a	8.6538585e-06
223	0x38621d96	5.3910153e-05
224	0x31676bb2	3.3676142e-09
225	0x365db27a	3.3035453e-06
226	0x386a92b3	5.592657e-05
227	0x31676bb2	3.3676142e-09
228	0x3721f5f7	9.653616e-06
229	0x38512079	4.9859726e-05
230	0x318113f4	3.7566625e-09
231	0x36602f6b	3.3406202e-06
232	0x384d2866	4.8913433e-05
233	0x318113f4	3.7566625e-09
234	0x36d498be	6.335874e-06
235	0x382416cc	3.912188e-05
236	0x31296edc	2.4655753e-09
237	0x3761d196	1.3459843e-05
238	0x383b1c6b	4.461074e-05
239	0x31296edc	2.4655753e-09
240	0x320fcd26	8.370341e-09
241	0x3306347c	3.124704e-08
242	0x2c6535f3	3.2572805e-12
243	0x32fe9b25	2.9640043e-08
244	0x33100a9c	3.3537262e-08
245	0x2c6535f3	3.2572805e-12
246	0x34a5b8c3	3.0868077e-07
247	0x35da36d4	1.6258223e-06
248	0x2f04134a	1.2012183e-10
249	0x34977579	2.8211414e-07
250	0x35d9e4f7	1.6234397e-06
251	0x2f04134a	1.2012183e-10
252	0x37a79d65	1.9981244e-05
253	0x38cc6701	9.746664e-05
254	0x32059580	7.775611e-09
255	0x37af3375	2.0885587e-05

exp_avg f4 [128]
0	0x39b4cadb	0.00034483414
1	0x38088db1	3.2556887e-05
2	0xb7c8b80c	-2.3927561e-05
3	0xb95014ea	-0.00019844217
4	0x3927930d	0.00015981142
5	0x38ce3e39	9.834435e-05
6	0xba3d92b9	-0.0007231641
7	0x39ffd96e	0.00048799388
8	0x38eba95a	0.000112372174
9	0x38926f64	6.9825706e-05
10	0xba13a541	-0.000563223
11	0xb8841b8d	-6.299382e-05
12	0xb821a5d6	-3.8539838e-05
13	0x387748f1	5.895732e-05
14	0xba3980b9	-0.0007076371
15	0xb8b38f46	-8.562072e-05
16	0xb9f7f942	-0.00047297223
17	0x378ca458	1.6765829e-05
18	0xb8b87da3	-8.7972054e-05
19	0x39dc2b93	0.00041994135
20	0xb68da68a	-4.221515e-06
21	0xb85e63c8	-5.3021853e-05
22	0xb9a22fae	-0.00030934572
23	0x39651606	0.00021847346
24	0x39f50734	0.00046735408
25	0xb962d84e	-0.0002163362
26	0xb95b9756	-0.00020941845
27	0x39ac18c8	0.0003282486
28	0xb9a2e16c	-0.00031067
29	0xb9f31102	-0.00046361244
30	0xba61ceca	-0.0008613883
31	0x387dd92d	6.052216e-05
32	0xb9c4e5f5	-0.00037555365
33	0xb99d1f85	-0.00029968857
34	0xb8a893ea	-8.0384154e-05
35	0xb864d116	-5.4554162e-05
36	0xb7ebe7d3	-2.8122135e-05
37	0xb9b9f2e8	-0.0003546693
38	0xb9af1890	-0.00033396902
39	0xba6fb527	-0.000914412
40	0x383b511d	4.4659817e-05
41	0xb67d5afe	-3.7752902e-06
42	0x398d8361	0.000269915
43	0x38465998	4.729032e-05
44	0x393151d8	0.00016910525
45	0x34aa201b	3.1688327e-07
46	0xb99436cc	-0.00028269587
47	0xb8db7dd0	-0.00010466168
48	0x3965b8b1	0.00021907945
49	0x37153f5b	8.895843e-06
50	0xbaac8294	-0.0013161474
51	0x38e3abbf	0.00010856194
52	0x38a28c21	7.750863e-05
53	0x3660121b	3.338914e-06
54	0xb90d2195	-0.00013459318
55	0xb9b8a042	-0.00035214616
56	0x391a18a5	0.00014695765
57	0x37878e65	1.6159562e-05
58	0xb9fa9ce6	-0.00047800614
59	0xb7265583	-9.914281e-06
60	0xb8a57683	-7.889888e-05
61	0xb9a1906f	-0.00030815924
62	0x38351dfe	4.3181695e-05
63	0xb9124e97	-0.00013952922
64	0xb9d794b4	-0.00041118788
65	0x3969049a	0.00022222326
66	0xb8637884	-5.4233256e-05
67	0x3a039a51	0.00050202484
68	0x39cd7eff	0.00039195266
69	0xb98113db	-0.0002461959
70	0x3851ac01	4.9989674e-05
71	0x3902dde0	0.00012480421
72	0x37b8505f	2.1971935e-05
73	0xba8cc592	-0.0010740033
74	0xb9bbcd22	-0.00035820255
75	0xb901780d	-0.00012347121
76	0xba42ee12	-0.0007435988
77	0x387cedac	6.030283e-05
78	0xb887f97f	-6.483774e-05
79	0xb8c84a20	-9.55055e-05
80	0x38ad0dd1	8.251856e-05
81	0x39dc5d2e	0.00042031094
82	0xb729c292	-1.0118487e-05
83	0x3662b8df	3.3784233e-06
84	0x387d789a	6.043222e-05
85	0x38ae02fc	8.2975224e-05
86	0xba42b9d4	-0.0007428203
87	0x3773bb62	1.4527557e-05
88	0x39c3021d	0.00037194873
89	0xb956b9a6	-0.0002047779
90	0xb835da16	-4.335687e-05
91	0x38809f6f	6.1332124e-05
92	0xb9d4994b	-0.00040550003
93	0x38c9ab16	9.616294e-05
94	0x38317d19	4.2316595e-05
95	0x38ceb8fd	9.857302e-05
96	0x39d66012	0.0004088884
97	0x3a0775f0	0.00051674154
98	0x3a1e924b	0.0006049021
99	0x3a336eb5	0.0006844805
100	0x3a4e2cd1	0.00078649545
101	0xb8e155ae	-0.00010744795
102	0x38e78069	0.000110388566
103	0xb6ee09a3	-7.0940746e-06
104	0x38409fdb	4.5925244e-05
105	0xb7a148ca	-1.922659e-05
106	0xb8625993	-5.396602e-05
107	0xb9fe69b1	-0.00048525402
108	0xba1715d9	-0.00057634484
109	0xb7fe3696	-3.0304578e-05
110	0xb96480aa	-0.00021791706
111	0x39257270	0.00015778258
112	0xb9393588	-0.00017662917
113	0x3825aaa0	3.9497972e-05
114	0x3a39dee5	0.0007090404
115	0xb9b3809e	-0.00034237368
116	0x3939bcf6	0.00017713368
117	0x37303105	1.0501831e-05
118	0x3729b203	1.0114632e-05
119	0x37288969	1.0045574e-05
120	0x39a118a8	0.00030726683
121	0xba86a888	-0.0010273615
122	0xb8be857c	-9.0847694e-05
123	0xb9e2b659	-0.0004324194
124	0x37516a31	1.2482095e-05
125	0xb9a80fa9	-0.00032055125
126	0xb8e341a3	-0.00010836429
127	0x39631ca6	0.0002165908

exp_avg_sq f4 [128]
0	0x35d1a6af	1.5620225e-06
1	0x3126997f	2.4243432e-09
2	0x31a38d08	4.7599578e-09
3	0x3398dd83	7.118344e-08
4	0x36502d90	3.1020936e-06
5	0x3272ddf6	1.4136722e-08
6	0x35d15ee2	1.5599328e-06
7	0x370a6a4a	8.250188e-06
8	0x34e818f3	4.323152e-07
9	0x35a54480	1.2313394e-06
10	0x359643c7	1.1195597e-06
11	0x34cd9472	3.8292234e-07
12	0x3334295b	4.194713e-08
13	0x33cd7462	9.567226e-08
14	0x367b3201	3.743102e-06
15	0x3603de69	1.964998e-06
16	0x362b7e78	2.55546e-06
17	0x362154b1	2.4040166e-06
18	0x3305f8e6	3.1192847e-08
19	0x350b83c9	5.197331e-07
20	0x30033d48	4.774461e-10
21	0x325da382	1.290107e-08
22	0x3649f500	3.0093943e-06
23	0x33f86eee	1.1568578e-07
24	0x358ceef3	1.0500356e-06
25	0x33941449	6.895477e-08
26	0x33abdc40	8.002871e-08
27	0x35a53640	1.2309247e-06
28	0x33b619a7	8.4797016e-08
29	0x3609f098	2.0554635e-06
30	0x36de0ef2	6.6178554e-06
31	0x3230098c	1.0246719e-08
32	0x34d61715	3.98774e-07
33	0x350617f5	4.995375e-07
34	0x360a841a	2.0640496e-06
35	0x34987e44	2.8404077e-07
36	0x312c0e24	2.5037332e-09
37	0x368b9da6	4.1608755e-06
38	0x369bbec4	4.641568e-06
39	0x364c7009	3.0463582e-06
40	0x318a485e	4.024556e-09
41	0x341f5c9f	1.4841724e-07
42	0x37212ea1	9.607204e-06
43	0x32533b49	1.2295296e-08
44	0x3378a1d2	5.7889174e-08
45	0x309874d3	1.1092659e-09
46	0x3678a61a	3.7051564e-06
47	0x3429df3a	1.5820561e-07
48	0x3634a99a	2.6920811e-06
49	0x30e107ce	1.6373123e-09
50	0x36983827	4.53649e-06
51	0x33ed8af7	1.106145e-07
52	0x31df02ed	6.490487e-09
53	0x32df6a30	2.6008905e-08
54	0x33ed3357	1.1045511e-07
55	0x359a8b02	1.1514351e-06
56	0x3372e7db	5.6555887e-08
57	0x35c8ba2f	1.4955348e-06
58	0x3548eb63	7.484834e-07
59	0x3135030a	2.6340694e-09
60	0x35b81dfd	1.3717796e-06
61	0x34e1839f	4.2005283e-07
62	0x334e889e	4.8087365e-08
63	0x3566fd03	8.604986e-07
64	0x35761ca7	9.1683836e-07
65	0x354f36b0	7.719309e-07
66	0x334444e8	4.5697476e-08
67	0x368d4c25	4.210992e-06
68	0x36147dd4	2.212696e-06
69	0x35d859a8	1.6119347e-06
70	0x320481a8	7.712892e-09
71	0x33eebca9	1.1117056e-07
72	0x310214fe	1.8929422e-09
73	0x3727ede7	1.0009367e-05
74	0x3555667f	7.9497835e-07
75	0x340e0493	1.3226445e-07
76	0x3602dc31	1.9499678e-06
77	0x344add23	1.8893165e-07
78	0x33d69846	9.99285e-08
79	0x33912da6	6.760392e-08
80	0x349312ef	2.739466e-07
81	0x34c594e0	3.680243e-07
82	0x312d4cc8	2.5218458e-09
83	0x310c365e	2.0403585e-09
84	0x33b0d065	8.2335454e-08
85	0x33747bbd	5.6923216e-08
86	0x36736970	3.6271194e-06
87	0x30f93bbf	1.8134115e-09
88	0x362bada5	2.558206e-06
89	0x3407f9f9	1.2663794e-07
90	0x35756825	9.142116e-07
91	0x33311f09	4.123925e-08
92	0x35d0d878	1.5560208e-06
93	0x356f0aa5	8.904993e-07
94	0x32bfb367	2.231691e-08
95	0x33be9c93	8.876045e-08
96	0x3622637b	2.4197786e-06
97	0x36b66ce0	5.4366974e-06
98	0x36d48097	6.333062e-06
99	0x36c6c59f	5.923866e-06
100	0x35eaeca2	1.7503228e-06
101	0x333ffca4	4.470043e-08
102	0x3410fffc	1.3504172e-07
103	0x342e4620	1.6230524e-07
104	0x311077d0	2.1022863e-09
105	0x31cd46b5	5.9743237e-09
106	0x31d9d2e6	6.3395076e-09
107	0x3540bd83	7.180135e-07
108	0x36738d6d	3.6292142e-06
109	0x33ad1bfe	8.061032e-08
110	0x35124504	5.448967e-07
111	0x33b0ecd8	8.23872e-08
112	0x358bd78a	1.0419037e-06
113	0x338a9a8e	6.454239e-08
114	0x366bafa2	3.511996e-06
115	0x36221b6e	2.4155847e-06
116	0x33ec7fca	1.1012851e-07
117	0x33b02dc8	8.203966e-08
118	0x322f3332	1.0197981e-08
119	0x30287a2f	6.129168e-10
120	0x368a9066	4.1295307e-06
121	0x366ed37e	3.5587868e-06
122	0x3299f261	1.7921765e-08
123	0x35cb88b6	1.5164467e-06
124	0x33e64656	1.07230036e-07
125	0x3404e3eb	1.2376374e-07
126	0x34ac7a95	3.2126687e-07
127	0x344726cb	1.8547432e-07
