results/CanStop/MoveToBall/MoveToBall-333405.pt (torch, 439453 bytes, 33 tensors)

network_body._body_endoder.seq_layers.0.weight f4 [128, 6]
0.44346428 0.052450623 0.07521176 0.3575444 -0.32127514 0.17728566 -0.16691852 -0.27575123
0.044227585 0.094710164 -0.29412478 0.5596458 0.3629521 -0.8866056 -0.5742885 -0.35202608
-0.42833632 -0.34354588 -0.016102144 0.20444183 -0.21420792 0.09881767 0.5024015 0.4273734
0.2553239 -0.064615496 0.74777776 0.35729268 0.5108896 -0.040147964 0.27564323 -0.7562481
-0.19926275 0.49864176 -0.21882795 -0.3136894 -0.18277304 0.3686752 -0.5753714 -0.61536145
-0.0077435276 -0.6258876 1.1527954 -0.5137212 0.09909676 0.34187996 0.70283365 0.0003044656
0.46229368 -0.05200533 0.017917296 -0.010199537 0.033348117 0.39146602 0.29389527 0.06321789
-0.8508928 -0.3531426 0.7609345 -0.8332204 -0.27415556 0.18709077 -0.050054453 -0.27690813
-0.0054799076 0.3951093 0.03945027 -0.08796538 0.5225392 0.20992309 0.082056575 0.47517896
-0.7283857 0.0118660005 -0.25779784 -0.022098975 0.13243404 0.6008317 0.39130056 0.1925462
-0.38735977 0.018656984 0.16506447 0.085285395 0.29916608 0.6249275 -0.02758888 -0.3630208
-0.25821614 -0.7627314 0.11470312 -0.13272949 0.2238232 0.20755234 0.15098323 -0.40410355
0.26470113 0.3538334 -0.19705682 0.08304796 0.087813154 -0.122573495 0.35301107 -0.20852564
-0.115525484 0.07433847 0.047835194 0.04378598 -0.30916998 0.14322953 -0.37487322 -0.1354634
-0.3961717 0.036435746 -0.1256313 0.2124675 0.2271551 0.7889692 -0.51248115 0.19404902
-0.5052222 -0.55981326 -0.17618825 -0.2318389 -0.10139682 0.26100793 0.06859895 0.021733468
0.3523528 -0.14801362 -0.32858402 -0.27874961 0.42649052 -0.41065127 0.16987073 0.19727184
0.24123472 0.12619083 -0.6614655 -0.26828164 0.21838973 -0.44865924 -0.043048806 -0.6810913
0.6055197 -0.2395415 -0.36741257 -0.7639195 -0.007396523 0.021446565 -0.05023179 0.33467555
-0.014443142 -0.124304295 0.4607338 0.69348896 0.20659596 0.018634913 0.30595553 0.61776835
0.029887084 -0.3798942 0.46285093 -0.32806963 -0.764818 -0.31249315 0.15892677 0.15397367
0.62882066 0.29647574 -0.6833155 -0.35473007 0.29906204 -0.81499064 0.06735992 0.20412137
0.20985487 0.13227774 -0.056071248 0.23047619 0.38449505 0.5707373 0.73918283 -0.13897263
-0.25600746 0.1203525 -0.6335136 -0.4630324 0.48946455 -0.5395586 -0.27427718 -0.43089274
0.33703372 0.3679958 0.0687263 0.35818616 0.80597806 -0.22501682 0.37380412 0.09303527
0.475928 -0.08348679 -0.05224335 1.0077506 -0.041354347 -0.46075603 0.79299337 0.08211432
0.38823667 -0.06370621 -0.20123978 0.28150886 0.5443911 -0.34132835 0.9309006 0.6067925
-0.7312834 0.46512637 -0.07813348 -0.030273627 -0.49561223 0.47619706 -0.21376835 0.44486424
0.6123987 0.38354275 -0.16736731 -0.06289078 0.14401264 0.70613116 -0.4571085 0.7931331
-0.19616573 -0.40669048 -0.29851875 0.4204001 -0.27022204 -0.2335219 0.062415197 0.46901897
-0.31515783 0.3496139 -0.46062836 0.3178615 -0.8304281 0.5750536 0.5782381 0.14260526
-0.2962794 0.085835315 -0.05178242 -1.1922085 0.80104977 -0.7334908 0.12894788 0.12726745
00000000: c00d e33e 77d6 563d a008 9a3d 0f10 b73e
00000010: 2d7e a4be 5f8a 353e b0ec 2abe 442f 8dbe
00000020: fc27 353d 67f7 c13d 8697 96be f244 0f3f
00000030: dcd4 b93e 96f8 62bf 9204 13bf c33c b4be
00000040: e64e dbbe 3fe5 afbe a5e8 83bc 3359 513e
00000050: 5259 5bbe eb60 ca3d 629d 003f b0d0 da3e
00000060: d0b9 823e 2155 84bd 5d6e 3f3f 11ef b63e
00000070: a9c9 023f 3172 24bd 1c21 8d3e 7a99 41bf
00000080: 890b 4cbe f94d ff3e 6f14 60be e69b a0be
00000090: db28 3bbe ffc2 bc3e 8a4b 13bf 5488 1dbf
000000a0: 6bbd fdbb 2b3a 20bf cd8e 933f 3c83 03bf
000000b0: 3ef3 ca3d e40a af3e e8ec 333f aea0 9f39
000000c0: c2b1 ec3e 8a03 55bd 4bc7 923c f51b 27bc
000000d0: 0998 083d 3c6e c83e 7179 963e 6278 813d
000000e0: 1cd4 59bf 1bcf b4be 9acc 423f ef4d 55bf
000000f0: 1e5e 8cbe b994 3f3e e605 4dbd e7c6 8dbe
00000100: cc90 b3bb c44b ca3e 9b96 213d 3127 b4bd
00000110: 21c5 053f 14f6 563e 470d a83d a84a f33e
00000120: 7c77 3abf 9d69 423c 14fe 83be e908 b5bc
00000130: ca9c 073e 1bd0 193f 8c58 c83e d52a 453e
00000140: 0554 c6be 88d6 983c a906 293e 1caa ae3d
00000150: 4c2c 993e 40fb 1f3f 1302 e2bc dddd b9be
00000160: e834 84be 5d42 43bf 78e9 ea3d 3dea 07be
00000170: e931 653e 9a88 543e 599b 1a3e a9e6 cebe
00000180: e886 873e a729 b53e 43c9 49be 0d15 aa3d
00000190: 62d7 b33d d007 fbbd debd b43e bf87 55be
000001a0: a098 ecbd c53e 983d d6ee 433d ee58 333d
000001b0: 874b 9ebe c3aa 123e 62ef bfbe ebb6 0abe
000001c0: 04d7 cabe a63d 153d 7ea5 00be 1591 593e
000001d0: 599b 683e e3f9 493f f731 03bf c9b4 463e
000001e0: 3e56 01bf ec4f 0fbf b16a 34be 2d67 6dbe
000001f0: 23a9 cfbd d5a2 853e 9b7d 8c3d 630a b23c
00000200: 9667 b43e e290 17be 2a3c a8be 45b8 8ebe
00000210: f75c da3e e240 d2be 98f2 2d3e a101 4a3e
00000220: 3c06 773e 2b38 013e ce55 29bf 365c 89be
00000230: 8fa1 5f3e aab6 e5be f253 30bd 005c 2ebf
00000240: 5703 1b3f 5e4a 75be 801d bcbe 3a90 43bf
00000250: 885e f2bb b5b0 af3c d9bf 4dbd 985a ab3e
00000260: eea2 6cbc 4093 febd 4de5 eb3e 7e88 313f
00000270: e48d 533e 3fa8 983c 34a6 9c3e 1126 1e3f
00000280: c2d5 f43c 7e81 c2be ccfa ec3e bef8 a7be
00000290: 1dcb 43bf 1aff 9fbe b3bd 223e 46ab 1d3e
000002a0: 64fa 203f abcb 973e c4ed 2ebf 2e9f b5be
000002b0: a91e 993e 3aa3 50bf fff3 893d 3105 513e
000002c0: 32e4 563e d173 073e f7aa 65bd f301 6c3e
000002d0: 89dc c43e d71b 123f 163b 3d3f d74e 0ebe
000002e0: 6913 83be 5f7b f63d f32d 22bf 9512 edbe
000002f0: 199b fa3e 8320 0abf 0f6e 8cbe f99d dcbe
00000300: af8f ac3e f269 bc3e 60c0 8c3d 2d64 b73e
00000310: 9454 4e3f cf6a 66be 4163 bf3e 4789 be3d
00000320: d6ac f33e 1ffb aabd 1ffd 55bd f9fd 803f
00000330: 2d63 29bd 37e8 ebbe 9d01 4b3f 8d2b a83d
00000340: f5c6 c63e 6778 82bd cd11 4ebe ee21 903e
00000350: 375d 0b3f 97c2 aebe 804f 6e3f c156 1b3f
00000360: 6435 3bbf 0b25 ee3e 7204 a0bd 6600 f8bc
00000370: e3c0 fdbe 1ad0 f33e 17e6 5abe 3fc5 e33e
00000380: 29c6 1c3f b75f c43e 5662 2bbe e2cc 80bd
00000390: 0d78 133e 03c5 343f 200a eabe c50a 4b3f
000003a0: abdf 48be bc39 d0be 73d7 98be af3e d73e
000003b0: 8b5a 8abe 5d20 6fbe 14a7 7f3d 4123 f03e
000003c0: 5e5c a1be 9800 b33e 7bd7 ebbe bebe a23e
000003d0: f096 54bf b636 133f 6a07 143f 1d07 123e
000003e0: efb1 97be 6dca af3d ce19 54bd 4a9a 98bf
000003f0: 9911 4d3f 0ec6 3bbf ea0a 043e 6652 023e

network_body._body_endoder.seq_layers.0.bias f4 [128]
0.035008322 -0.012133039 -0.021764478 0.05697269 -0.008884412 0.011321249 0.014370519 0.0046630995
0.01813466 0.0029219475 0.003835262 -0.00062933017 -0.019878494 0.031600732 0.00833776 0.02141523
0.0012143885 0.040413793 0.0020785795 0.018532464 0.008703559 -0.010905159 0.030266264 0.012278739
0.001586805 0.0026859706 0.05359271 0.027214726 0.025755517 0.022533888 0.008813761 0.02400941
-0.011317658 0.025366938 0.08525366 0.016036717 0.017161984 0.01676211 0.04165215 0.0068037887
0.007986041 -0.013802784 0.03639704 0.06742691 0.06173862 -0.009864141 0.07741463 -0.028719198
0.006844498 0.0060297213 0.01714912 0.0053140842 -0.010236808 0.009093321 0.02344256 0.035800412
0.028394677 0.010419716 -0.007367138 -0.021708414 0.037181575 0.029554868 0.025340058 0.02367495
0.048958067 0.02019538 0.007189398 0.0027827858 0.008247924 0.016371882 0.018752426 0.020596586
-0.0075416476 0.043342356 0.022569459 -0.03074077 0.0121661695 -0.0015057573 0.013542466 0.01216173
0.008891939 0.0134548545 0.002795363 -0.029889168 0.0194053 0.02392446 0.018403776 -0.05104348
-0.0055024573 0.003377498 0.021547098 -0.033953074 0.027949704 0.015754014 0.0030115156 0.016602501
0.025800927 0.018372875 0.008071369 0.06307816 0.031035295 0.02725721 0.0457948 -0.001263251
-0.03548932 0.0030555404 0.012436184 -0.0019637977 0.002241679 -0.0397341 0.014031076 0.06020841
0.0041620466 0.02659266 0.03450911 0.039120108 0.03534815 -0.016569981 0.023610597 -0.015780667
0.001515812 0.012931771 0.077093534 0.052215964 0.03771769 0.009113011 0.006477652 0.004243463
00000000: e364 0f3d a7c9 46bc 6b4b b2bc 325c 693d
00000010: ed8f 11bc c37c 393c 5372 6b3c eacc 983b
00000020: 238f 943c 257e 3f3b 0559 7b3b a2f9 24ba
00000030: 39d8 a2bc c56f 013d 1a9b 083c fe6e af3c
00000040: 1e2c 9f3a ef88 253d c738 083b 65d1 973c
00000050: 5f99 0e3c 8dab 32bc f5f0 f73c c42c 493c
00000060: 57fc cf3a 1c07 303b 0884 5b3d 6bf1 de3c
00000070: 3cfd d23c fd98 b83c 9867 103c 62af c43c
00000080: b36d 39bc 53ce cf3c 7999 ae3d 6f5f 833c
00000090: 4a97 8c3c b150 893c 729b 2a3d 51f2 de3b
000000a0: e2d7 023c 1225 62bc 1015 153d 1f17 8a3d
000000b0: a3e1 7c3d 359d 21bc 908b 9e3d 8644 ebbc
000000c0: d047 e03b f894 c53b 507c 8c3c c521 ae3b
000000d0: 49b8 27bc 27fc 143c 9d0a c03c 74a3 123d
000000e0: f49b e83c 75b7 2a3c 0868 f1bb d8d5 b1bc
000000f0: b54b 183d 0d1d f23c f495 cf3c f8f1 c13c
00000100: 4188 483d c870 a53c 0b95 eb3b 665f 363b
00000110: 4d22 073c 531e 863c b09e 993c 2cba a83c
00000120: ed1f f7bb c187 313d 96e3 b83c 11d4 fbbc
00000130: 9d54 473c d55c c5ba 38e1 5d3c fe41 473c
00000140: 7faf 113c c071 5c3c 6932 373b 21da f4bc
00000150: ddf7 9e3c 3bfd c33c 84c3 963c f812 51bd
00000160: f54d b4bb 0359 5d3b 8a83 b03c 6112 0bbd
00000170: c7f6 e43c 900e 813c d95c 453b f801 883c
00000180: 775c d33c b682 963c c63d 043c 1f2f 813d
00000190: bb3d fe3c 834a df3c 5493 3b3d ab93 a5ba
000001a0: 405d 11bd 763f 483b 23c1 4b3c 0fb3 00bb
000001b0: 22e9 123b 39c0 22bd 99e2 653c 189d 763d
000001c0: c761 883b dad8 d93c 6d59 0d3d 683c 203d
000001d0: 39c9 103d c5bd 87bc 036b c13c 7546 81bc
000001e0: 36ae c63a c7df 533c 37e3 9d3d 68e0 553d
000001f0: dd7d 1a3d bd4e 153c 7c42 d43b bf0c 8b3b

network_body._body_endoder.seq_layers.2.weight f4 [128, 128]
-0.114009365 -0.14607053 -0.017517142 0.019870462 0.06916751 -0.010397095 0.0072577205 0.16824439
0.12770103 -0.0015217304 -0.040809188 -0.031885978 0.12344291 0.07181721 -0.039495714 0.17090988
-0.11747811 0.08418198 0.04437759 -0.1315196 0.016977835 0.09517791 0.21142164 0.0990872
0.28805697 0.12584084 0.00206512 0.06167651 -0.065782644 -0.16637857 -0.13480635 -0.09513928
0.10386438 -0.0038633714 0.05420519 -0.05714318 0.04743153 0.09779318 0.04648055 -0.01833826
0.062395316 0.062416773 -0.03504181 -0.016675679 0.13709271 0.05744516 0.06735025 0.01989929
0.049366426 -0.12241275 0.0412565 -0.100393735 0.039234277 -0.013600326 0.13329257 -0.014356044
0.06912557 -0.0929721 0.114071354 0.0001325268 0.12266898 0.1795334 -0.11708964 0.10143683
-0.07448465 -0.037806254 -0.045203608 -0.05983866 -0.1251296 0.12730366 -0.016930504 0.04373769
0.19052765 -0.043490965 -0.043620717 0.09539171 -0.10235147 0.049525727 -0.083175875 -0.11301271
0.04485901 0.15725997 -0.116654865 0.11496824 0.04733116 0.046752598 0.07515427 -0.061788682
0.17441711 0.04278066 -0.03512252 -0.09050181 0.08602573 0.1800912 -0.1074699 0.017646654
0.16619828 -0.006097603 0.060982212 0.17241615 -0.12234928 -0.13227025 0.22083987 0.023558682
-0.08083051 0.083354115 0.06261073 -0.13050172 -0.08811543 0.051376186 -0.017172763 0.103311785
-0.079333894 0.022442997 0.22965114 -0.016724812 0.049251672 -0.032519218 -0.0035727206 0.016950289
-0.0008747881 0.04107694 -0.027199106 -0.11702715 0.11959903 0.0959417 0.13617152 -0.12441961
0.15985915 0.044303417 0.049024604 -0.07558558 -0.009773833 -0.024286633 -0.032903627 0.025684804
0.08973778 0.0506288 -0.024418524 0.12909007 -0.14498308 0.04944909 -0.057716794 0.033872247
-0.06781843 -0.19267824 0.027631503 -0.076982625 0.16474476 0.06625896 -0.07856109 -0.20260888
0.0030263271 -0.050950233 0.054613855 0.008724163 -0.0093256645 0.0701998 0.051611815 -0.082897775
-0.049748402 -0.0051849056 -0.08380913 0.0126592135 0.13928951 0.059357464 -0.039109617 0.056054685
0.045831043 -0.08283733 -0.35189545 -0.097387925 0.021477701 -0.07907474 0.036327414 0.1140333
-0.14032038 0.029520757 -0.03840955 0.13807094 -0.04120806 0.003935249 -0.064464405 -0.033741314
0.12205704 -0.025909344 0.12218487 0.011880994 0.028195744 0.17436625 0.046256267 -0.09494724
-0.059397597 -0.03298608 -0.05321305 -0.06162266 -0.025869567 -0.048768084 0.12395965 0.047867883
0.055521395 -0.006933869 0.033460483 0.15387139 0.2097934 -0.08225138 0.06539527 0.018820938
-0.05579217 0.0745961 0.080183275 -0.08954896 0.01796922 0.10366704 0.1828522 0.060925912
-0.104115 -0.052410446 0.07598404 0.08435719 0.09584175 -0.006636733 -0.23912425 -0.06981826
-0.08234837 -0.09457277 0.002564929 0.07386148 -0.097864896 0.034898195 -0.30351523 -0.06149733
-0.18136387 0.07663945 -0.07556707 -0.046945985 0.06999711 -0.15485352 0.013136301 0.00047318026
0.16469784 0.059306797 -0.014350576 0.023047758 -0.03535179 -0.15143749 0.10084944 -0.0023887781
0.14479318 0.0014167462 -0.039300717 0.081639 0.15544721 -0.061391022 -0.02710772 -0.022024183
00000000: be7d e9bd 8393 15be 1c80 8fbc 61c7 a23c
00000010: b2a7 8d3d 9458 2abc 2cd2 ed3b 4248 2c3e
00000020: 0fc4 023e cd74 c7ba 8927 27bd df9a 02bd
00000030: a3cf fc3d e714 933d 42c6 21bd 0003 2f3e
00000040: 5d98 f0bd 9a67 ac3d 47c5 353d 13ad 06be
00000050: 1a15 8b3c a3ec c23d ea7e 583e 3bee ca3d
00000060: 347c 933e 6cdc 003e f756 073b 82a0 7c3d
00000070: 0db9 86bd 255f 2abe ad0a 0abe 62d8 c2bd
00000080: d9b6 d43d 9e30 7dbb 4306 5e3d f80e 6abd
00000090: 9047 423d ca47 c83d 6462 3e3d 1e3a 96bc
000000a0: 3b92 7f3d bba8 7f3d 0088 0fbd 6f9b 88bc
000000b0: 0862 0c3e 9e4b 6b3d eeee 893d d603 a33c
000000c0: 7334 4a3d 89b3 fabd 93fc 283d 3b9b cdbd
000000d0: 1fb4 203d e7d3 5ebc d97d 083e 9d35 6bbc
000000e0: b591 8d3d 2868 bebd 3e9e e93d e4f6 0a39
000000f0: e039 fb3d 9bd7 373e b1cc efbd 1dbe cf3d
00000100: 688b 98bd bbda 1abd 6b27 39bd 6219 75bd
00000110: f921 00be e45b 023e d7b1 8abc 4b26 333d
00000120: ae19 433e 9523 32bd a3ab 32bd bb5c c33d
00000130: a69d d1bd 7ddb 4a3d 1d58 aabd 3573 e7bd
00000140: 15be 373d c208 213e bfe8 eebd 7874 eb3d
00000150: 52de 413d a77f 3f3d 7bea 993d 2116 7dbd
00000160: 669a 323e c63a 2f3d a2dc 0fbd 0359 b9bd
00000170: 422e b03d d469 383e 2e19 dcbd b78f 903c
00000180: e22f 2a3e 67ce c7bb 7cc8 793d dc8d 303e
00000190: 4292 fabd da71 07be d923 623e 23fe c03c
000001a0: 778a a5bd 90b5 aa3d 0e3a 803d 3ea2 05be
000001b0: dd75 b4bd d66f 523d e5ad 8cbc 2195 d33d
000001c0: cf79 a2bd 60da b73c ab29 6b3e 7902 89bc
000001d0: 1fbc 493d df32 05bd 4e24 6abb 55db 8a3c
000001e0: 0952 65ba 4b40 283d a9d0 debc eeab efbd
000001f0: 56f0 f43d 157d c43d 8c70 0b3e b5cf febd
00000200: 1eb2 233e 8077 353d 06ce 483d 9dcc 9abd
00000210: 6d22 20bc c3f4 c6bc f4c5 06bd f068 d23c
00000220: 71c8 b73d 2560 4f3d 5b09 c8bc 3030 043e
00000230: 7276 14be 218b 4a3d 7268 6cbd a0bd 0a3d
00000240: 64e4 8abd 724d 45be 765b e23c 11a9 9dbd
00000250: dab2 283e c7b2 873d a3e4 a0bd b478 4fbe
00000260: 5855 463b 31b1 50bd c7b2 5f3d cbef 0e3c
00000270: acca 18bc eac4 8f3d e966 533d 4fc6 a9bd
00000280: fbc4 4bbd 24e6 a9bb 1fa4 abbd 9768 4f3c
00000290: e9a1 0e3e d020 733d 6831 20bd 9999 653d
000002a0: 55b9 3b3d 9ea6 a9bd a42b b4be 5273 c7bd
000002b0: 01f2 af3c f0f1 a1bd 0ecc 143d 4a8a e93d
000002c0: 25b0 0fbe 84d5 f13c 5553 1dbd 7862 0d3e
000002d0: c8c9 28bd 43f3 803b ea05 84bd 5534 0abd
000002e0: 0bf9 f93d d53f d4bc 103c fa3d 80a8 423c
000002f0: c3fa e63c 118d 323e 3677 3d3d b373 c2bd
00000300: e54a 73bd 691c 07bd edf5 59bd 0b68 7cbd
00000310: 6aec d3bc 0bc1 47bd 8fde fd3d 1d11 443d
00000320: 676a 633d 8235 e3bb dc0d 093d 7690 1d3e
00000330: 15d4 563e 6973 a8bd f5ed 853d 5e2e 9a3c
00000340: 5586 64bd d7c5 983d 2137 a43d 7265 b7bd
00000350: 3034 933c 634f d43d 9b3d 3b3e 738d 793d
00000360: 3f3a d5bd 56ac 56bd 859d 9b3d 76c3 ac3d
00000370: ae48 c43d f478 d9bb fddc 74be e0fc 8ebd
00000380: 43a6 a8bd 5eaf c1bd 5e18 283b b044 973d
00000390: 646d c8bd 69f1 0e3d 5966 9bbe a0e4 7bbd
000003a0: 73b7 39be 25f5 9c3d e8c2 9abd 6f4a 40bd
000003b0: a55a 8f3d ec91 1ebe a439 573c 2e15 f839
000003c0: 8da6 283e afeb 723d ae1e 6bbc a7ce bc3c
000003d0: 0acd 10bd 6e12 1bbe 278a ce3d 0c8d 1cbb
000003e0: aa44 143e 1db2 b93a caf9 20bd 5932 a73d
000003f0: 8e2d 1f3e 2775 7bbd 0211 debc 0f6c b4bc

network_body._body_endoder.seq_layers.2.bias f4 [128]
0.013589753 0.0038881935 0.0120477 0.010874149 -0.0014934463 0.014845671 0.017793627 -0.007882713
-0.000564904 -0.0030607232 0.021086508 0.0460471 0.002257975 0.02334295 0.030925326 0.020459365
0.0102769425 0.01440973 0.014352654 0.022130817 0.01757139 0.017294133 0.0045652078 -0.0035875302
-0.01327811 -0.00096194784 -0.0026368846 -0.0026912359 0.04168725 0.009011493 -0.0038426474 0.01331904
0.009154649 0.013286516 -0.0061661424 0.0059018796 0.020205038 0.016983887 -0.007098562 0.012722158
0.0004735129 0.016123664 0.014602601 0.0041367076 -0.0005469549 0.012160807 0.040234894 0.019773392
0.0066352137 -0.007913349 0.012121405 -0.01118455 0.0014067481 0.026201265 -0.0077767083 0.00029277295
0.013895164 0.0049538766 0.015609456 -0.0026219953 0.004436968 -0.0027736994 0.020990204 -0.010765199
0.013477194 0.024957221 0.027249007 0.016481804 0.026368046 0.010953083 0.021973528 0.025606053
0.0012048826 0.006743499 0.0026992855 0.020543862 0.028385647 0.0033159982 0.023562191 0.00067991414
0.007196519 0.009398273 0.04763812 0.011935078 0.02270333 -0.002965018 0.0022737936 0.010384614
0.05130872 -0.0064831967 0.026358517 0.017112337 0.006736536 0.033097945 0.030041132 -0.0025884507
-0.008901435 0.014778517 0.04308923 0.008288517 0.029170165 0.0016525637 -0.0038561919 0.006754324
0.01101634 0.0013985327 -0.014727364 0.028346965 0.012605053 0.0070082494 0.022826798 0.012420378
0.01118904 0.008291206 -0.00022937212 -0.0027593428 0.018350907 0.049768846 -0.0032198825 0.007166585
-0.010729479 0.005254811 0.022125516 0.010148663 0.03419308 0.03504395 0.009466948 0.017641092
00000000: 8ea7 5e3c 10d1 7e3b b763 453c 7d29 323c
00000010: bebf c3ba 423b 733c f1c3 913c 7f26 01bc
00000020: 1116 14ba 6a96 48bb 9dbd ac3c e29b 3c3d
00000030: 89fa 133b b739 bf3c 1c57 fd3c 669a a73c
00000040: 9f60 283c ca16 6c3c 6527 6b3c b04b b53c
00000050: e0f1 8f3c 6dac 8d3c bd97 953b c51c 6bbb
00000060: 6e8c 59bc 3a2b 7cba 95cf 2cbb 725f 30bb
00000070: 40c0 2a3d f1a4 133c edd4 7bbb 1a38 5a3c
00000080: 62fd 153c b0af 593c 5a0d cabb 8e64 c13b
00000090: 0985 a53c cb21 8b3c 0e9b e8bb 9970 503c
000000a0: d341 f839 c615 843c bf3f 6f3c 388d 873b
000000b0: 8661 0fba 1f3e 473c 58cd 243d cffb a13c
000000c0: 356c d93b fea6 01bc dc98 463c 673f 37bc
000000d0: a262 b83a 09a4 d63c c2d3 febb 527f 9939
000000e0: 8ba8 633c 2154 a23b cebe 7f3c c8d5 2bbb
000000f0: fc63 913b f4c6 35bb a6f3 ab3c 8460 30bc
00000100: 73cf 5c3c 1673 cc3c 4f39 df3c d904 873c
00000110: cd01 d83c 8f74 333c d401 b43c c9c3 d13c
00000120: 27ed 9d3a 92f8 dc3b 7fe6 303b 9a4b a83c
00000130: 0489 e83c 3851 593b 7f05 c13c 443c 323a
00000140: c7d0 eb3b 37fb 193c 3020 433d 588b 433c
00000150: 55fc b93c bf50 42bb ed03 153b 3a24 2a3c
00000160: 1829 523d ff70 d4bb d1ed d73c 2c2f 8c3c
00000170: 29be dc3b b691 073d d218 f63c ffa2 29bb
00000180: 53d7 11bc 9821 723c 557e 303d 8fcc 073c
00000190: 45f6 ee3c d69a d83a 2ab8 7cbb 6053 dd3b
000001a0: e17d 343c f84e b73a 0b4b 71bc e537 e83c
000001b0: 6d85 4e3c 75a5 e53b 44ff ba3c d77e 4b3c
000001c0: 3c52 373c d7d7 073c 9c83 70b9 17d6 34bb
000001d0: a454 963c 6bda 4b3d aa04 53bb acd5 ea3b
000001e0: b2ca 2fbc 8d30 ac3b 9240 b53c 9446 263c
000001f0: 0b0e 0c3d 3f8a 0f3d 421b 1b3c 0d84 903c

action_model._discrete_distribution.branches.0.weight f4 [3, 128]
0.0006113808 -0.014117247 -0.015465748 0.018638361 0.0011280944 -0.0048103803 0.015323888 0.0066208635
0.014240592 0.008285207 -0.0083509125 -0.0077983257 0.012231292 -0.0021818804 -0.005620527 -0.03404473
-0.013334843 0.009605141 -0.0353466 -0.006528219 -0.009868409 -0.02356404 0.01072797 0.018640766
0.015820462 -0.011511534 0.011760008 0.012789989 -0.026245097 -0.013645728 0.012649584 -0.00022304969
-0.016871335 0.005367203 0.009099993 0.0024006302 0.0032544716 0.0065437835 0.012080544 0.009330031
0.014249721 0.007127968 -0.0012457557 0.0064351424 0.013185801 -0.00059341855 -0.016475936 -0.010754539
0.004063708 -8.440807e-05 -0.018630238 0.0021256865 0.019026116 -0.019536806 0.0067977095 -0.01653148
0.0016984332 -0.006115151 0.0011713839 0.011717262 -0.005257477 0.0027932099 0.0047524488 0.0061825304
-0.015455798 0.013186741 -0.0036223682 -0.00012775896 -0.0042845793 0.02251681 -0.027328093 0.011357468
0.011207551 0.0071311113 -0.019775938 -0.02683865 -0.0326004 -0.010263851 -0.012903715 0.0040257103
-0.01483038 -0.008669456 -0.044204574 -0.015303884 -0.012804927 0.028847523 -0.00092126837 -0.017321004
-0.005777764 0.010266704 -0.026004866 -0.013932441 -0.013343465 -0.04022579 -0.010411743 0.016460203
0.0014300937 -0.023006763 -0.0337474 -0.007990088 0.008995711 -0.011510184 -0.007916954 -0.0016760743
-0.0019599062 -0.0060389754 0.016436698 -0.029966375 0.00900803 0.008189894 -0.02516728 -0.00014108275
0.0042912615 -0.018927457 -0.0013346022 0.014162951 -0.021617014 0.011797772 0.019849753 -0.005928639
-0.008048135 0.004507503 -0.018521942 -0.007881782 0.00069758424 -0.03234886 -0.020133978 0.005446419
0.028938256 -0.01948169 -0.06273091 -0.033529248 -0.020120535 0.042288937 0.018367035 -0.010432183
-0.029976606 -0.013715709 0.04414255 0.015243575 -0.030156959 0.044964418 -0.06826525 -0.040953178
0.02505083 -0.057800632 -0.0069380417 0.05775936 -0.039474856 0.04879986 0.013788578 -0.022642002
-0.004855995 -0.010498159 -0.0069621047 -0.018002857 -0.052380133 -0.02990735 -0.036739673 0.039010543
-0.054967403 0.036985774 -0.01862423 -0.025629045 0.032495484 -0.022437645 -0.012703346 0.033965457
-0.027189124 -0.0020009296 0.0059687137 -0.043355174 -0.016477 0.010490244 0.06310759 -0.023575466
-0.0005027106 -0.013992161 0.021827444 -0.018206542 -0.027831838 -0.059858195 -0.03918766 -0.019313278
-0.061085235 0.017731758 0.038450524 -0.026146537 -0.019301236 -0.028910143 0.034779765 -0.017276308
0.013927251 0.03128316 0.06605262 0.008373205 -0.029510507 0.0021648002 -0.06801773 0.022580191
-0.026522562 0.008499447 0.0032691085 0.04083586 -0.043284666 0.0067474945 -0.045909047 0.004885216
0.0111116 -0.01437981 -0.05017944 -0.031006083 0.04938614 -0.0034355614 0.01029526 0.02527399
0.0494962 -0.008687023 -0.047644183 -0.04892154 0.004842695 -0.045937687 0.053508963 -0.0077798394
-0.00850005 0.027772432 -0.06343012 -0.004174377 -0.03150126 0.0059302216 -0.025770731 -0.0421667
0.017916776 -0.013292701 0.0016273607 -0.049411662 0.010866478 0.016524864 -0.048940662 0.03789126
-0.014326293 -0.0150452545 -0.014905299 -0.022709155 0.04202443 0.05316321 -0.0046157045 -0.03086535
-0.013171894 0.006699777 -0.021811642 -0.011085016 0.024452284 -0.047030147 -0.007842845 -0.023164116
00000000: 1245 203a 074c 67bc 0c64 7dbc 7aaf 983c
00000010: 91dc 933a 65a0 9dbb 0b11 7b3c d4f3 d83b
00000020: 5f51 693c adbe 073c 44d2 08bc 1989 ffbb
00000030: c265 483c e1fd 0ebb 662c b8bb 7d72 0bbd
00000040: 637a 5abc e25e 1d3c 99c7 10bd acea d5bb
00000050: 1baf 21bc 6009 c1bc 5ec4 2f3c 85b4 983c
00000060: ea99 813c e09a 3cbc 0cad 403c 1a8d 513c
00000070: f5ff d6bc 5592 5fbc 3340 4f3c 72e2 69b9
00000080: c135 8abc 5ddf af3b 2318 153c e453 1d3b
00000090: f948 553b 3c6d d63b 79ed 453c fddc 183c
000000a0: a977 693c bb91 e93b a048 a3ba e3dd d23b
000000b0: 4209 583c a58f 1bba 8bf8 86bc ce33 30bc
000000c0: da28 853b 3d04 b1b8 719e 98bc 1a4f 0b3b
000000d0: a8dc 9b3c a70b a0bc 52bf de3b 076d 87bc
000000e0: f69d de3a 9b61 c8bb 1f89 993a c2f9 3f3c
000000f0: ea46 acbb 490e 373b 6eba 9b3b d396 ca3b
00000100: 513a 7dbc 330d 583c 4165 6dbb 09f7 05b9
00000110: a865 8cbb 2c75 b83c 2adf dfbc ac14 3a3c
00000120: e09f 373c 19ac e93b 2601 a2bc bbdc dbbc
00000130: ff87 05bd b629 28bc 1a6a 53bc 1bea 833b
00000140: 1ffb 72bc 550a 0ebc db0f 35bd 24bd 7abc
00000150: c2cb 51bc a451 ec3c 4681 71ba c7e4 8dbc
00000160: 6653 bdbb ad35 283c 2808 d5bc e544 64bc
00000170: 8c9e 5abc ccc3 24bd 0496 2abc 8cd7 863c
00000180: fb71 bb3a ae78 bcbc b73a 0abd dce8 02bc
00000190: bf62 133c 3695 3cbc 1db6 01bc b9af dbba
000001a0: c571 00bb 99e2 c5bb 41a6 863c 0b7c f5bc
000001b0: 6b96 133c e82e 063c 9d2b cebc 9def 13b9
000001c0: b69d 8c3b c10d 9bbc d2ed aeba b90b 683c
000001d0: 2a16 b1bc 714b 413c f39b a23c 0745 c2bb
000001e0: 53dc 03bc adb3 933b 54bb 97bc 9722 01bc
000001f0: 16de 363a 3d80 04bd 03f0 a4bc e077 b23b
00000200: ec0f ed3c 1198 9fbc 1079 80bd f755 09bd
00000210: d2d3 a4bc 2a37 2d3d 7776 963c bfeb 2abc
00000220: 8091 f5bc dab7 60bc d2ce 343d 30c0 793c
00000230: ba0b f7bc 9c2c 383d a7ce 8bbd 85be 27bd
00000240: 6637 cd3c 5bc0 6cbd 8358 e3bb 1495 6c3d
00000250: 63b0 21bd 5de2 473d 7de9 613c b87b b9bc
00000260: 0a1f 9fbb 7800 2cbc 5e22 e4bb ba7a 93bc
00000270: 8d8c 56bd 4200 f5bc 577c 16bd 85c9 1f3d
00000280: 8025 61bd 657e 173d d791 98bc 01f4 d1bc
00000290: fc19 053d 27cf b7bc b221 50bc 5d1f 0b3d
000002a0: babb debc 0722 03bb 3395 c33b 3295 31bd
000002b0: c6fa 86bc 46df 2b3c 8d3e 813d 5621 c1bc
000002c0: 56c8 03ba 603f 65bc 78cf b23c e325 95bc
000002d0: 98ff e3bc de2d 75bd 3d83 20bd e136 9ebc
000002e0: 8334 7abd 3142 913c 4c7e 1d3d 4331 d6bc
000002f0: a01d 9ebc f7d4 ecbc 3a75 0e3d 0b87 8dbc
00000300: 202f 643c c522 003d 9946 873d c42f 093c
00000310: 05c0 f1bc 52df 0d3b e14c 8bbd 18fa b83c
00000320: d845 d9bc 4441 0b3c 8a3e 563b 8143 273d
00000330: 434b 31bd 161a dd3b 200b 3cbd 2914 a03b
00000340: 6e0d 363c 4b99 6bbc f588 4dbd 7800 febc
00000350: 1f49 4a3d 2827 61bb 73ad 283c 660b cf3c
00000360: 87bc 4a3d 0454 0ebc 8c26 43bd f461 48bd
00000370: 78af 9e3b 2829 3cbd 372c 5b3d 06ee febb
00000380: cb43 0bbc 0383 e33c a7e7 81bd 36c9 88bb
00000390: 7707 01bd 4e52 c23b 241d d3bc fdb6 2cbd
000003a0: 34c6 923c a1c9 59bc 2a4d d53a e263 4abd
000003b0: 5009 323c 275f 873c 0176 48bd de33 1b3d
000003c0: d4b8 6abc 5f80 76bc 5b35 74bc 8d08 babc
000003d0: cf21 2c3d abc1 593d 563f 97bb 55d9 fcbc
000003e0: edce 57bc ce89 db3b 54ae b2bc ed9d 35bc
000003f0: 2850 c83c afa2 40bd 477f 00bc acc2 bdbc

action_model._discrete_distribution.branches.0.bias f4 [3]
-0.006771675 0.011386373 -0.00425812
00000000: ede4 ddbb e98d 3a3c b387 8bbb

exp_avg f4 [128, 6]
-0.00014106263 -0.0013196958 -2.7827105e-06 -0.00039971495 -0.00068067847 -2.7827105e-06 7.240403e-06 1.6621872e-05
1.4282986e-07 -2.8703369e-05 2.1055937e-05 1.4282986e-07 2.0336125e-05 3.373249e-05 4.0116637e-07 -1.34574475e-05
2.5349294e-05 4.0116637e-07 -3.2238528e-05 -2.0158848e-05 -6.3596207e-07 -5.825918e-05 -1.276893e-05 -6.3596207e-07
0.00035050936 0.0018149219 6.914422e-06 0.0003965894 0.0011374558 6.914422e-06 3.0115347e-05 5.8283422e-05
5.9407853e-07 7.4337613e-06 5.4509565e-05 5.9407853e-07 -0.0002559989 -0.0011176321 -5.050036e-06 -8.9024325e-05
-0.00092490803 -5.050036e-06 0.00032628837 0.0025017348 6.4366186e-06 0.000737596 0.0014855037 6.4366186e-06
-1.2771744e-05 0.0002514338 -2.5194342e-07 1.0177125e-05 0.00016192807 -2.5194342e-07 0.00010665415 0.0011249637
2.1039443e-06 0.00021796276 0.0005833502 2.1039443e-06 -0.00016417351 -0.00081169594 -3.238613e-06 -0.00019746566
-0.0006232665 -3.238613e-06 8.9994704e-05 0.000581562 1.7753047e-06 0.000106954016 0.00031630843 1.7753047e-06
-1.8854507e-05 -8.081785e-05 -3.71939e-07 1.939381e-05 -8.728219e-05 -3.71939e-07 -3.216956e-05 -8.820078e-05
-6.3460215e-07 -0.0001080634 -4.0723673e-05 -6.3460215e-07 -0.0003920169 -0.0019555562 -7.733233e-06 -0.0004478253
-0.0013451922 -7.733233e-06 0.00013997401 0.0012622246 2.7612377e-06 0.00018946714 0.00065265415 2.7612377e-06
-0.00025618874 -0.0015689733 -5.053781e-06 -0.00032495306 -0.0009341002 -5.053781e-06 -6.0098904e-05 0.0009280295
-1.185557e-06 0.00019774139 0.00038887383 -1.185557e-06 8.20517e-06 8.776994e-06 1.6186156e-07 0.00010711569
2.2769216e-05 1.6186156e-07 -0.00033187252 -0.0010351953 -6.546777e-06 -0.00032596817 -0.0006278591 -6.546777e-06
2.9856221e-06 5.0874146e-06 5.8896678e-08 8.769623e-06 9.35168e-06 5.8896678e-08 -3.151742e-05 -2.321605e-06
-6.2173706e-07 5.751643e-05 -5.6672734e-06 -6.2173706e-07 -0.00012519576 0.0009257028 -2.4697083e-06 7.9390025e-05
0.00019902179 -2.4697083e-06 -3.5103385e-05 -0.00013946697 -6.9247596e-07 -0.00017816697 -0.00010650277 -6.9247596e-07
-0.00022676247 -6.970748e-05 -4.4732938e-06 -3.152391e-05 -0.000118387325 -4.4732938e-06 4.1109346e-05 0.00016082621
8.1095476e-07 -1.08826425e-05 9.21812e-05 8.1095476e-07 -9.78689e-05 -0.00020461345 -1.930638e-06 -3.3362747e-05
-0.00017533035 -1.930638e-06 -0.00022219737 0.00022773603 -4.383239e-06 -9.390004e-05 -3.0346e-05 -4.383239e-06
-8.249045e-05 -0.00011747502 -1.6272716e-06 -8.620522e-05 -0.00010318274 -1.6272716e-06 -0.00034846432 -0.0017278332
-6.8740815e-06 -0.00045860533 -0.0010405869 -6.8740815e-06 -0.00046745877 -0.0025240483 -9.221454e-06 -0.000519867
-0.0016387887 -9.221454e-06 3.165472e-05 3.6801106e-05 6.2444565e-07 -0.00017583997 3.1135416e-05 6.2444565e-07
4.978783e-05 -0.0001126947 9.821528e-07 -0.00019647212 -3.7425663e-05 9.821528e-07 -4.066509e-05 -0.0005882702
-8.0219246e-07 -0.00018550068 -0.0003013135 -8.0219246e-07 -0.00025395709 0.00034133415 -5.009753e-06 -0.00011547597
-0.00015822632 -5.009753e-06 7.7083714e-05 0.0004790927 1.5206135e-06 3.8029546e-05 0.00037878333 1.5206135e-06
-8.839952e-06 -3.2482185e-05 -1.7438387e-07 1.1977027e-05 -1.7968076e-05 -1.7438387e-07 -0.0006951932 -0.0028976223
-1.3713917e-05 -0.0006548548 -0.0017863711 -1.3713917e-05 -0.00039322118 -0.002490893 -7.756983e-06 -0.00037925676
-0.001325457 -7.756983e-06 -0.00036383705 -0.0016378296 -7.1773375e-06 -0.0002938198 -0.0011412299 -7.1773375e-06
-7.193239e-06 -1.301545e-05 -1.4189936e-07 -3.791085e-05 -1.6832588e-05 -1.4189936e-07 -6.8396024e-05 -0.00042514835
-1.349234e-06 -6.423368e-05 -0.00024629873 -1.349234e-06 -0.00032253217 0.0012903056 -6.362522e-06 0.00022072638
00000000: 36ea 13b9 a5f9 acba 9abe 3ab6 d590 d1b9
00000010: 8f6f 32ba 9abe 3ab6 97f2 f236 336f 8b37
00000020: c65c 1934 04c8 f0b7 48a1 b037 c65c 1934
00000030: 7f97 aa37 fc7b 0d38 e35f d734 4cc7 61b7
00000040: 32a5 d437 e35f d734 db37 07b8 cc1a a9b7
00000050: fbb6 2ab5 515b 74b8 233a 56b7 fbb6 2ab5
00000060: 92c4 b739 ace2 ed3a 6f02 e836 54ed cf39
00000070: af16 953a 6f02 e836 37a0 fc37 5975 7438
00000080: c478 1f35 866f f936 33a1 6438 c478 1f35
00000090: 9737 86b9 837d 92ba 7b73 a9b6 92b2 bab8
000000a0: 8775 72ba 7b73 a9b6 af11 ab39 25f4 233b
000000b0: 22fa d736 3b5b 413a 3cb5 c23a 22fa d736
000000c0: 3946 56b7 e0d2 8339 d742 87b4 6bbe 2a37
000000d0: 3ccb 2939 d742 87b4 83ab df38 8573 933a
000000e0: 7d31 0d36 ef8c 6439 f8eb 183a 7d31 0d36
000000f0: fe25 2cb9 fec7 54ba f356 59b6 c90e 4fb9
00000100: b562 23ba f356 59b6 8abb bc38 f773 183a
00000110: 0147 ee35 804c e038 33d6 a539 0147 ee35
00000120: bf29 9eb7 c17c a9b8 e8ae c7b4 e4af a237
00000130: 450b b7b8 e8ae c7b4 cded 06b8 6ff8 b8b8
00000140: 8759 2ab5 19a0 e2b8 b6ce 2ab8 8759 2ab5
00000150: 9e87 cdb9 ca28 00bb fcbd 01b7 18ca eab9
00000160: 2951 b0ba fcbd 01b7 fdc5 1239 3b71 a53a
00000170: b44d 3936 b3ab 4639 e116 2b3a b44d 3936
00000180: 1251 86b9 02a6 cdba a693 a9b6 765e aab9
00000190: 67de 74ba a693 a9b6 b512 7cb8 0147 733a
000001a0: 6e1f 9fb5 cd58 4f39 c3e1 cb39 6e1f 9fb5
000001b0: f0a8 0937 e740 1337 2bcc 2d34 4ca3 e038
000001c0: 8500 bf37 2bcc 2d34 2dff adb9 64af 87ba
000001d0: 63ac dbb6 b5e6 aab9 e996 24ba 63ac dbb6
000001e0: 995c 4836 8fb4 aa36 95f5 7c33 3e21 1337
000001f0: 29e5 1c37 95f5 7c33 9231 04b8 dfcc 1bb6
00000200: 72e5 26b5 cc3d 7138 8229 beb6 72e5 26b5
00000210: fb46 03b9 ddaa 723a 44bd 25b6 327e a638
00000220: 81b0 5039 44bd 25b6 f93b 13b8 e13d 12b9
00000230: 96e2 39b5 55d2 3ab9 3d5a dfb8 96e2 39b5
00000240: 16c7 6db9 eb2f 92b8 4d19 96b6 8a38 04b8
00000250: b646 f8b8 4d19 96b6 d36c 2c38 75a3 2839
00000260: 63b0 5935 9894 36b7 6851 c138 63b0 5935
00000270: f73e cdb8 818d 56b9 1c90 01b6 faee 0bb8
00000280: e2d8 37b9 1c90 01b6 a7fd 68b9 6dcc 6e39
00000290: bc13 93b6 33ec c4b8 8a8f feb7 bc13 93b6
000002a0: b9fe acb8 ec5c f6b8 a068 dab5 13c9 b4b8
000002b0: d063 d8b8 a068 dab5 17b2 b6b9 7678 e2ba
000002c0: e9a7 e6b6 f770 f0b9 4d64 88ba e9a7 e6b6
000002d0: 4115 f5b9 816a 25bb d8b5 1ab7 af47 08ba
000002e0: a0cc d6ba d8b5 1ab7 ffc4 0438 e35a 1a38
000002f0: 949f 2735 af61 38b9 6697 0238 949f 2735
00000300: 47d3 5038 8256 ecb8 83d2 8335 1504 4eb9
00000310: 80f9 1cb8 83d2 8335 cf8f 2ab8 2536 1aba
00000320: 3f56 57b5 f682 42b9 9df9 9db9 3f56 57b5
00000330: 8b25 85b9 18f5 b239 7319 a8b6 b02b f2b8
00000340: 8ee9 25b9 7319 a8b6 01a8 a138 bc2e fb39
00000350: e217 cc35 ea81 1f38 7097 c639 e217 cc35
00000360: 4e4f 14b7 7b3d 08b8 463e 3bb4 f0f0 4837
00000370: 26ba 96b7 463e 3bb4 a03d 36ba 09e6 3dbb
00000380: d314 66b7 90aa 2bba ab24 eaba d314 66b7
00000390: 4129 ceb9 403e 23bb fd23 02b7 fbd6 c6b9
000003a0: f5ba adba fd23 02b7 62c1 beb9 71ac d6ba
000003b0: dcd4 f0b6 d30b 9ab9 5295 95ba dcd4 f0b6
000003c0: 745d f1b6 ef5c 5ab7 005d 18b4 7702 1fb8
000003d0: b533 8db7 005d 18b4 d66f 8fb8 72e6 deb9
000003e0: 5417 b5b5 32b5 86b8 a821 81b9 5417 b5b5
000003f0: 8919 a9b9 791f a93a a67d d5b6 c972 6739

exp_avg_sq f4 [128, 6]
1.3615949e-06 4.3668942e-06 5.298586e-10 5.8263913e-07 3.5705111e-06 5.298586e-10 2.0864823e-09 1.014331e-08
8.119461e-13 9.48504e-09 1.3634287e-08 8.119461e-13 3.10891e-09 1.0153265e-08 1.2098182e-12 3.155328e-08
9.968403e-09 1.2098182e-12 1.0484169e-07 4.290302e-07 4.079868e-11 2.043784e-07 6.232547e-07 4.079868e-11
2.8779548e-06 1.6361591e-05 1.1199442e-09 2.4721705e-06 1.9122974e-05 1.1199442e-09 8.029444e-09 1.8789905e-08
3.124623e-12 8.3387715e-09 2.257038e-08 3.124623e-12 1.139244e-06 7.1121253e-06 4.4333165e-10 2.621167e-06
7.986581e-06 4.4333165e-10 7.3628034e-06 4.067537e-05 2.8652072e-09 8.524755e-06 4.6988123e-05 2.8652072e-09
4.570097e-07 2.340318e-06 1.7784325e-10 1.6653788e-06 2.9301393e-06 1.7784325e-10 1.0966378e-06 5.1048523e-06
4.267519e-10 6.956465e-07 4.967869e-06 4.267519e-10 8.621663e-07 5.215744e-06 3.3550837e-10 2.8284414e-06
5.7025677e-06 3.3550837e-10 1.2781751e-07 6.198891e-07 4.9739653e-11 6.2963906e-08 7.049862e-07 4.9739653e-11
4.7183686e-08 2.8904094e-07 1.836134e-11 1.7809013e-07 4.344699e-07 1.836134e-11 1.2660446e-07 6.2455115e-07
4.926756e-11 8.7551103e-07 8.182928e-07 4.926756e-11 2.8782597e-06 1.6157173e-05 1.1200624e-09 4.8081833e-06
1.7241942e-05 1.1200624e-09 1.177354e-06 6.1660085e-06 4.5816229e-10 5.932652e-07 7.2123175e-06 4.5816229e-10
2.2693937e-06 1.2373703e-05 8.831251e-10 3.031986e-06 1.32092755e-05 8.831251e-10 1.4351032e-06 6.247226e-06
5.58464e-10 1.5441825e-06 6.927473e-06 5.58464e-10 3.3933095e-08 1.5995077e-07 1.3204911e-11 5.1031265e-07
6.219857e-08 1.3204911e-11 2.8405017e-07 6.242786e-07 1.10536906e-10 1.45911e-07 4.296655e-07 1.10536906e-10
3.5615086e-10 1.4568192e-09 1.3859455e-13 2.7277036e-09 1.9918418e-09 1.3859455e-13 1.3003468e-08 3.155402e-08
5.060246e-12 2.931718e-08 1.1780631e-08 5.060246e-12 1.4013867e-06 6.0035745e-06 5.4534394e-10 7.2047703e-07
7.1575982e-06 5.4534394e-10 1.3213375e-07 6.6010904e-07 5.1419285e-11 2.410387e-06 7.604763e-07 5.1419285e-11
1.2357712e-06 5.547374e-06 4.80895e-10 5.003688e-06 4.798129e-06 4.80895e-10 8.428353e-08 3.403056e-07
3.279859e-11 4.871876e-07 3.3245846e-07 3.279859e-11 1.0281235e-07 4.6634622e-07 4.0008982e-11 4.23018e-08
4.4734324e-07 4.0008982e-11 9.4426207e-07 4.0998843e-06 3.6745534e-10 2.446635e-06 4.2511865e-06 3.6745534e-10
1.2596013e-07 6.123273e-07 4.9016846e-11 7.2067434e-07 6.068516e-07 4.9016846e-11 1.8213962e-06 1.0350325e-05
7.087891e-10 1.3112684e-06 1.0240297e-05 7.087891e-10 5.095526e-06 2.8183511e-05 1.982902e-09 8.768045e-06
2.9718987e-05 1.982902e-09 1.3701471e-08 6.126471e-08 5.3318717e-12 2.7785754e-07 4.246824e-08 5.3318717e-12
5.515199e-07 2.7426427e-06 2.1462157e-10 3.6705526e-06 3.1196664e-06 2.1462157e-10 3.3430516e-07 1.5374919e-06
1.300934e-10 3.5565228e-07 1.2947816e-06 1.300934e-10 9.848352e-07 4.7027884e-06 3.8324463e-10 8.367066e-07
6.3254174e-06 3.8324463e-10 3.200178e-07 1.5582024e-06 1.2453352e-10 5.9548523e-07 1.8828974e-06 1.2453352e-10
2.0097193e-09 1.0504967e-08 7.8207254e-13 1.9266668e-08 6.618713e-09 7.8207254e-13 3.823012e-06 2.374152e-05
1.4877095e-09 1.527311e-06 2.520623e-05 1.4877095e-09 4.174973e-06 2.1321588e-05 1.6246736e-09 1.5460384e-06
2.0816711e-05 1.6246736e-09 2.4829058e-06 1.5671687e-05 9.66213e-10 5.68935e-06 1.7538903e-05 9.66213e-10
3.1116794e-09 1.4829134e-08 1.2108966e-12 1.3245661e-08 1.44045735e-08 1.2108966e-12 8.7782475e-08 4.420177e-07
3.416019e-11 2.1508494e-07 4.5392554e-07 3.416019e-11 5.6139497e-06 2.7091315e-05 2.1846454e-09 6.1063365e-06
00000000: 0bc0 b635 5687 9236 7ca5 1130 a866 1c35
00000010: ea9c 6f36 7ca5 1130 c961 0f31 c042 2e32
00000020: e28a 642b a6f3 2232 3a3c 6a32 e28a 642b
00000030: 86a4 5531 886e 2e32 4b44 aa2b 3385 0733
00000040: 8041 2b32 4b44 aa2b 5425 e133 7655 e634
00000050: 3b6f 332e 1b73 5b34 bd4d 2735 3b6f 332e
00000060: e322 4136 4040 8937 89ec 9930 91e7 2536
00000070: 466a a037 89ec 9930 def1 0932 7067 a132
00000080: 34e0 5b2c 4e42 0f32 cae0 c132 34e0 5b2c
00000090: 20e8 9835 b1a4 ee36 62b9 f32f 4ee7 2f36
000000a0: 1bfe 0537 62b9 f32f 000e f736 d99a 2a38
000000b0: 42e5 4431 8b05 0f37 1d15 4538 42e5 4431
000000c0: ef5a f534 5b0e 1d36 6d8a 432f fb85 df35
000000d0: 69a3 4436 6d8a 432f 3030 9335 594a ab36
000000e0: fe9b ea2f 77bc 3a35 abb1 a636 fe9b ea2f
000000f0: 9e6f 6735 e602 af36 9b72 b82f 41d0 3d36
00000100: af58 bf36 9b72 b82f 363e 0934 7466 2635
00000110: dfc1 5a2e c636 8733 483e 3d35 dfc1 5a2e
00000120: 03a7 4a33 7c2d 9b34 1082 a12d 0b39 3f34
00000130: 1741 e934 1082 a12d c5f0 0734 d4a6 2735
00000140: 57ae 582e a904 6b35 a7a8 5b35 57ae 582e
00000150: 2028 4136 4489 8737 b1f0 9930 fb55 a136
00000160: caa2 9037 b1f0 9930 9305 9e35 9ce5 ce36
00000170: 9ce0 fb2f e040 1f35 5601 f236 9ce0 fb2f
00000180: e34b 1836 a698 4f37 67c0 7230 1f79 4b36
00000190: 689d 5d37 67c0 7230 c59d c035 439f d136
000001a0: 6982 1930 b541 cf35 8a72 e836 6982 1930
000001b0: d5bd 1133 efbe 2b34 a24d 682d 6bfc 0835
000001c0: 0792 8533 a24d 682d 8f7f 9834 1994 2735
000001d0: bf12 f32e b6ab 1c34 c7ac e634 bf12 f32e
000001e0: c7cb c32f 4539 c830 290b 1c2a 4572 3b31
000001f0: dae0 0831 290b 1c2a db65 5f32 0386 0733
00000200: a50a b22c 29d5 fb32 c363 4a32 a50a b22c
00000210: 4817 bc35 5072 c936 2be7 1530 ce66 4135
00000220: 4d2b f036 2be7 1530 a6e0 0d34 5932 3135
00000230: f824 622e 22c2 2136 8923 4c35 f824 622e
00000240: c6dc a535 9423 ba36 fa2f 0430 5ae5 a736
00000250: 9dff a036 fa2f 0430 5cff b433 3fb3 b634
00000260: ee3f 102e 47c7 0235 be7c b234 ee3f 102e
00000270: b0c9 dc33 235e fa34 1cf6 2f2e 52af 3533
00000280: 632a f034 1cf6 2f2e 3279 7d35 bd91 8936
00000290: be02 ca2f df30 2436 6aa5 8e36 be02 ca2f
000002a0: a83f 0734 d05e 2435 1094 572e 5d74 4135
000002b0: 86e6 2235 1094 572e b276 f435 4fa6 2d37
000002c0: 99d4 4230 d7fe af35 becd 2b37 99d4 4230
000002d0: 3cfa aa36 a16b ec37 9543 0831 771a 1337
000002e0: 0a4d f937 9543 0831 b563 6b32 a190 8333
000002f0: 3b99 bb2c 732c 9534 5366 3633 3b99 bb2c
00000300: 290c 1435 3e0e 3836 9afa 6b2f 9d53 7636
00000310: 765b 5136 9afa 6b2f 8d7a b334 d25b ce35
00000320: 090a 0f2f 7af0 be34 5bc8 ad35 090a 0f2f
00000330: ae2e 8435 a5cc 9d36 e3b0 d22f 0a9a 6035
00000340: ec3e d436 e3b0 d22f e9ce ab34 6d23 d135
00000350: 12ed 082f 6fd9 1f35 ddb7 fc35 12ed 082f
00000360: 5b1b 0a31 5579 3432 4422 5c2b da7f a532
00000370: d16a e331 4422 5c2b 6c47 8036 8728 c737
00000380: 2078 cc30 02fe cc35 f771 d337 2078 cc30
00000390: bf16 8c36 c3db b237 1f4b df30 7a81 cf35
000003a0: 8c9f ae37 1f4b df30 ff9f 2636 b176 8337
000003b0: 99cb 8430 25e7 be36 8220 9337 99cb 8430
000003c0: 3ed5 5531 39c3 7e32 266b aa2b 088f 6332
000003d0: fc77 7732 266b aa2b ed82 bc33 734e ed34
000003e0: f43c 162e 19f2 6634 0db3 f334 f43c 162e
000003f0: 765f bc36 2842 e337 b020 1631 08e5 cc36

exp_avg f4 [128]
-9.781366e-05 5.0205385e-06 1.4101189e-05 -2.235438e-05 0.00024304517 2.0882155e-05 -0.00017751122 0.00022625031
-8.8559755e-06 7.395461e-05 -0.000113838825 6.240282e-05 -1.3073832e-05 -2.2306576e-05 -0.0002718269 9.70588e-05
-0.00017764287 -4.167296e-05 5.6894924e-06 -0.00023012237 2.0702478e-06 -2.185436e-05 -8.68114e-05 -2.434087e-05
-0.00015723844 2.8505441e-05 -6.7862864e-05 -0.00015407299 -5.7199388e-05 -0.0002416273 -0.00032413844 2.194957e-05
3.4523095e-05 -2.8197417e-05 -0.00017609539 5.3450265e-05 -6.1296782e-06 -0.0004820508 -0.0002726618 -0.0002522868
-4.987835e-06 -4.74262e-05 -0.00022364559 -4.3924552e-05 1.8764345e-05 -5.887387e-06 -0.00048746227 2.8588074e-05
0.0001325556 4.7904796e-06 -0.00043673435 -7.947498e-05 7.3875863e-06 -1.6843223e-05 -3.666239e-05 -0.00013699669
-3.7343867e-05 0.00019833079 3.027007e-06 -1.4311026e-05 9.897573e-05 -8.6562264e-05 -2.0722657e-05 -0.0001309553
-0.00016825079 -5.284871e-05 -2.7269929e-05 0.0002698556 6.3864805e-05 -9.551388e-05 1.4038625e-05 -9.409339e-05
-1.1992468e-06 -0.0006731027 -2.616478e-06 1.6731596e-05 -0.00013982727 -0.00013442978 -9.6242235e-05 3.640476e-05
5.1282077e-06 5.6197478e-06 4.4966164e-06 -5.6269105e-06 -8.1554615e-05 -1.4952299e-05 -0.0002188889 -8.267874e-06
0.00015406816 1.7728675e-05 0.00014074122 8.369756e-06 -0.00019471109 0.00014195127 -3.030738e-05 -6.894132e-05
-9.3465256e-05 9.86997e-05 0.00022526375 -0.00029516456 -0.0002796761 3.7898553e-05 -0.00010365253 1.4709467e-05
7.902817e-06 -2.364352e-05 1.6603259e-06 -2.707674e-05 -0.00016136892 -1.5416186e-05 -2.5100837e-05 -5.8240825e-05
-0.00010274465 -5.7353067e-05 -5.784989e-05 -0.00019546816 -6.237894e-05 -4.3367132e-07 -4.1862163e-06 3.2502583e-06
0.00020085067 -0.0003345483 -6.80191e-05 -0.00024806574 -1.9158682e-05 -5.285797e-05 -8.112433e-05 -7.225846e-05
00000000: 4f21 cdb8 1976 a836 2594 6c37 aa85 bbb7
00000010: f1d9 7e39 162c af37 4e22 3ab9 9b3d 6d39
00000020: 2094 14b7 1418 9b38 c1bc eeb8 42de 8238
00000030: ae57 5bb7 021f bbb7 fd83 8eb9 0c8c cb38
00000040: a545 3ab9 00ca 2eb8 5ee8 be36 014d 71b9
00000050: 96ee 0a36 e153 b7b7 840e b6b8 9f2f ccb7
00000060: 5fe0 24b9 f81e ef37 9951 8eb8 a78e 21b9
00000070: 60e9 6fb8 565d 7db9 20f1 a9b9 5820 b837
00000080: e4cc 1038 7e89 ecb7 3fa6 38b9 c92f 6038
00000090: 89ad cdb6 c3bb fcb9 0cf4 8eb9 5c45 84b9
000000a0: 2d5d a7b6 7feb 46b8 6882 6ab9 a13b 38b8
000000b0: 2068 9d37 458c c5b6 1492 ffb9 6cd0 ef37
000000c0: 9ffe 0a39 e8bd a036 7ef9 e4b9 ceab a6b8
000000d0: e2e2 f736 8c4a 8db7 f1c5 19b8 c5a6 0fb9
000000e0: aca1 1cb8 04f7 4f39 9623 4b36 6319 70b7
000000f0: 3191 cf38 c388 b5b8 91d5 adb7 0c51 09b9
00000100: 7a6c 30b9 dfa9 5db8 bac1 e4b7 687b 8d39
00000110: 28ef 8538 a04e c8b8 6f87 6b37 0154 c5b8
00000120: cef5 a0b5 2873 30ba c096 2fb6 d45a 8c37
00000130: 999e 12b9 b8f5 0cb9 a8d5 c9b8 50b1 1838
00000140: f812 ac36 4491 bc36 a4e1 9636 cbce bcb6
00000150: 4d08 abb8 a3db 7ab7 8b85 65b9 40b6 0ab7
00000160: 5b8d 2139 0ab8 9437 ef93 1339 d46b 0c37
00000170: 5c2b 4cb9 c1d8 1439 9a3c feb7 9794 90b8
00000180: c702 c4b8 fffc ce38 c734 6c39 51c0 9ab9
00000190: 7ea1 92b9 43f5 1e38 0760 d9b8 aec8 7637
000001a0: 5796 0437 1356 c6b7 5dd8 de35 db22 e3b7
000001b0: 2435 29b9 0252 81b7 a38f d2b7 9c47 74b8
000001c0: 9d78 d7b8 638e 70b8 d9a3 72b8 96f6 4cb9
000001d0: 70d1 82b8 55d3 e8b4 5377 8cb6 031f 5a36
000001e0: 719b 5239 5066 afb9 7aa5 8eb8 d20e 82b9
000001f0: f5b6 a0b7 d0b3 5db8 4b21 aab8 7789 97b8

exp_avg_sq f4 [128]
6.546704e-07 1.003205e-09 1.4948001e-09 5.0409128e-08 1.3837546e-06 3.860647e-09 5.477612e-07 3.5401242e-06
2.1973538e-07 5.272764e-07 4.1453941e-07 6.1456156e-08 2.2686459e-08 6.087287e-08 1.3839011e-06 5.660854e-07
1.0911504e-06 6.900136e-07 1.6315417e-08 1.3657466e-07 1.7124131e-10 6.2522147e-09 6.738029e-07 6.353142e-08
5.9417255e-07 4.052451e-08 4.943335e-08 4.540117e-07 6.056308e-08 8.757484e-07 2.4499868e-06 6.5878316e-09
2.651769e-07 1.6073766e-07 4.7352015e-07 1.5386824e-07 9.662955e-10 1.8381478e-06 2.0073755e-06 1.1938113e-06
1.4961313e-09 4.220684e-08 2.6992532e-06 5.171781e-09 1.8248594e-08 6.243708e-10 1.0347871e-06 9.8740415e-08
9.683301e-07 6.904736e-10 1.8273394e-06 4.4468948e-08 2.4483826e-09 1.2891424e-08 5.2991126e-08 3.5248107e-07
2.1543224e-08 5.190859e-07 3.6110023e-07 1.4435605e-09 5.14045e-07 2.709933e-07 2.1152564e-08 4.594894e-07
4.358766e-07 3.853795e-07 2.0038277e-08 2.1268895e-06 9.4253676e-07 6.038717e-07 2.5701847e-09 5.350592e-08
7.881145e-10 3.6542817e-06 3.854735e-07 6.180656e-08 9.1853354e-07 7.698385e-08 4.8454567e-08 4.6672696e-08
1.8591048e-07 2.0809043e-07 6.826282e-10 1.9721154e-09 2.4037055e-08 2.221777e-08 1.4846078e-06 1.0530663e-09
1.122543e-06 7.27734e-08 2.919668e-07 4.6580208e-08 7.8624294e-07 3.6158858e-07 1.1649283e-08 3.46912e-08
1.0556115e-06 1.9004013e-06 2.699913e-06 2.0419714e-06 6.999911e-07 3.3650885e-08 5.0071197e-08 6.206784e-08
9.457918e-10 2.5038407e-09 3.483782e-09 3.74528e-07 1.4552661e-06 4.2626354e-08 2.6528207e-07 3.5344943e-08
4.2326383e-07 2.7216496e-08 1.1517928e-06 6.7573876e-07 5.4760275e-08 4.91543e-08 2.8744755e-09 6.342987e-10
1.7687855e-06 1.3402293e-06 4.472094e-09 3.5461835e-07 2.1782864e-08 5.8838854e-08 2.0971332e-07 8.1290814e-08
00000000: 9bbc 2f35 23e1 8930 9a71 cd30 6c81 5833
00000010: 72b9 b935 9ca6 8431 dd09 1335 df92 6d36
00000020: 67f0 6b34 298a 0d35 dd8d de34 e1f9 8333
00000030: 0de0 c232 37b9 8233 7bbe b935 18f5 1735
00000040: a473 9235 6039 3935 fb25 8c32 5ba5 1234
00000050: 2548 3c2f 10d3 d631 62df 3435 c46e 8833
00000060: 3a7f 1f35 2c0d 2e33 8b50 5433 e5be f334
00000070: e80e 8233 f914 6b35 746a 2436 2e5b e231
00000080: a35d 8e34 3b97 2c34 1d38 fe34 fb36 2534
00000090: 80ce 8430 47b6 f635 73b6 0636 0b3b a035
000000a0: 71a0 cd30 e946 3533 d124 3536 77b3 b131
000000b0: 15c1 9c32 30a0 2b30 04e3 8a35 1e0b d433
000000c0: 92f7 8135 c3cb 3d30 e742 f535 20fe 3e33
000000d0: 6740 2831 1579 5d32 5c98 6333 a13c bd34
000000e0: 0d0e b932 5057 0b35 3ddd c134 c566 c630
000000f0: e7fc 0935 097d 9134 fbb2 b532 beaf f634
00000100: 6c02 ea34 28e6 ce34 a320 ac32 afbb 0e36
00000110: a202 7d35 bf19 2235 2b9f 3031 62ce 6533
00000120: a1a2 5830 153c 7536 13f3 ce34 84ba 8433
00000130: 2591 7635 5252 a533 5c1c 5033 2c75 4833
00000140: af9e 4734 766f 5f34 b0a3 3b30 d285 0731
00000150: 0b7a ce32 65d9 be32 bc42 c735 7abb 9030
00000160: 49aa 9635 9a47 9c33 9dbf 9c34 7b0f 4833
00000170: 340e 5335 5b20 c234 1722 4832 61ff 1433
00000180: 89ae 8d35 4b11 ff35 2730 3536 cd08 0936
00000190: 06e7 3b35 8a87 1033 dd0d 5733 284a 8533
000001a0: 17fd 8130 0810 2c31 5767 6f31 bd12 c934
000001b0: 9052 c335 2c14 3733 176c 8e34 2dce 1733
000001c0: f03c e334 b5c9 e932 4d97 9a35 6a64 3535
000001d0: 8f31 6b33 b91d 5333 4f88 4531 ce5a 2e30
000001e0: 0267 ed35 eee1 b335 f4a8 9931 6062 be34
000001f0: 061d bb32 01b6 7c33 8f2d 6134 1992 ae33
