Assets/Prefabs/DemoRuns/MoveToBall-312068.onnx (onnx, 73315 bytes, 6 tensors)

network_body._body_endoder.seq_layers.0.weight f4 [128, 6]
-0.40784952 0.24560556 -0.4792581 -0.6499172 -0.36655933 -0.7191928 -0.21474145 0.20883344
-0.47224844 -0.4517894 -0.19948667 0.43111742 -0.2534397 -0.15193954 -0.07955058 -0.0060590208
-0.7604182 0.85821486 -0.28815624 -0.6080824 -0.13366765 0.7906691 0.4101148 0.22450347
0.24533229 -0.032679737 0.27714884 -0.7294364 -0.64344656 0.18136688 -0.22870673 1.1625215
0.037127763 0.19220042 0.2858518 -0.39164156 0.1592879 0.04890048 0.3810359 -0.35121658
-0.44638395 -0.13105443 -0.20485713 -0.016141208 0.36372793 -0.26506925 0.33105063 0.21799684
0.76366735 -0.21266225 0.30636993 -0.16531096 0.2345354 -0.10365868 -0.17224431 -0.42891538
0.37154013 0.08220974 -0.23646092 0.9858975 -0.13719895 -0.4326956 -0.23192862 0.8535851
-0.9555787 -0.2083793 -0.29032725 -0.048887465 -0.5411088 -0.32069245 -0.49074322 0.52255756
-0.94565606 -0.025232855 0.3170549 0.19916399 0.31580445 -0.018329734 -0.07762769 0.32298306
0.64272934 0.1650564 -0.027316725 -0.106836885 -0.3604459 -0.66951036 -0.18528222 0.100386634
0.16479346 0.15632652 -0.20091042 0.23125792 -0.88097924 0.34808624 -0.29681188 0.102409
0.33121178 -0.6048678 -0.46565118 0.002910745 0.35308135 0.43445253 0.1964009 0.2528892
-0.40704983 0.27086478 -0.09741973 -0.5910086 -0.3968442 0.6461651 0.064277954 -0.35976642
0.06824267 -0.37630308 0.34539455 -0.35009938 -0.40648657 0.30388057 0.34533003 0.13892895
0.3602942 -0.33985546 -0.14450748 0.16942188 0.3015484 -0.08767834 -0.049304955 -0.03329381
0.46561453 1.0186063 -0.37904707 -0.1967219 0.13528089 -0.08535732 0.49150276 -0.46642154
0.13772486 -0.062238876 -0.49559188 0.20433204 0.0041219094 -0.1911668 -0.69071 0.10255959
0.2593938 0.17151992 0.20574015 0.528984 -0.20803685 -0.048714068 -0.12079075 0.5253993
-0.56027406 -0.14674301 1.0869588 0.10883763 -0.39906406 -0.35588783 -0.303751 -0.60756075
0.21844494 -0.44668674 0.24545306 -0.24511406 -0.26528975 0.15916197 0.55984664 -0.26117948
0.062871 0.0753363 0.32333052 -0.030723162 0.34101784 0.77503747 -0.68838614 -0.13352834
-0.19916464 0.09425072 0.039801266 0.60325193 0.7653342 -0.43299866 0.28576028 -0.2968859
0.36952737 -0.0088821715 0.10056862 0.0918991 -1.1682042 -0.4789066 -0.3487845 0.22102344
-0.2838121 0.01914406 0.505326 0.06825362 0.85202473 -1.2719283 0.11743457 0.7122439
0.14901151 -0.1261075 0.9502821 -0.1325173 -0.08987331 -0.6263851 -0.696264 -0.26098323
0.8962313 -0.1446071 -0.08226964 -0.29282835 0.42571142 -0.69061023 -0.3358037 0.63597226
-0.65999293 0.5364048 -0.26236072 -0.27429363 -0.09111554 0.30987406 0.04436502 -0.42333472
-0.35386708 -0.020593707 -0.19816573 -0.49116775 -0.29745468 0.09995753 0.87363225 0.5973924
0.1731443 0.20052563 -0.14225389 0.12094621 -0.4942905 0.32614917 -0.16829011 0.74162287
0.02298345 -0.6576004 -0.14500679 0.058941305 0.14982103 -0.042547733 0.13782632 -0.49027112
-0.29663432 -0.47397706 0.37360242 -0.07935952 0.72884303 -0.6123855 -0.3728306 0.37996447
00000000: a7d1 d0be 0680 7b3e 5161 f5be f960 26bf
00000010: aaad bbbe 051d 38bf 2fe5 5bbe 6fd8 553e
00000020: 8cca f1be f150 e7be 3c46 4cbe 6cbb dc3e
00000030: d9c2 81be 0a96 1bbe 6aeb a2bd c08a c6bb
00000040: c4aa 42bf f8b3 5b3f 3789 93be 4aab 1bbf
00000050: 2ce0 08be 4a69 4a3f 91fa d13e 3de4 653e
00000060: 6338 7b3e 30db 05bd 74e6 8d3e 58bc 3abf
00000070: eab8 24bf 3db8 393e 1932 6abe 81cd 943f
00000080: 4813 183d 30d0 443e 2b5b 923e 3e85 c8be
00000090: 5e1c 233e df4b 483d 2317 c33e a9d2 b3be
000000a0: 708c e4be 2233 06be 11c6 51be 913a 84bc
000000b0: 8c3a ba3e 28b7 87be 787f a93e 903a 5f3e
000000c0: b47f 433f 22c4 59be 85dc 9c3e 4747 29be
000000d0: 0c2a 703e 014b d4bd d060 30be cc9a dbbe
000000e0: 823a be3e 955d a83d d022 72be c763 7c3f
000000f0: e27d 0cbe 478a ddbe b27e 6dbe 8e84 5a3f
00000100: cea0 74bf 6261 55be c6a5 94be 393e 48bd
00000110: 1b86 0abf cd31 a4be b242 fbbe 55c6 053f
00000120: 8416 72bf 22b5 cebc 0555 a23e a5f1 4b3e
00000130: 1fb1 a13e 3d28 96bc 44fb 9ebd 095e a53e
00000140: e989 243f 8b04 293e 53c7 dfbc 4ccd dabd
00000150: 5d8c b8be 0865 2bbf 9fba 3dbe 8297 cd3d
00000160: 9ebf 283e 0f14 203e 76bb 4dbe e0ce 6c3e
00000170: db87 61bf 5c38 b23e baf7 97be cfbb d13d
00000180: 9794 a93e 9ed8 1abf d569 eebe 33c2 3e3b
00000190: 14c7 b43e 9070 de3e 511d 493e b17a 813e
000001a0: d668 d0be caae 8a3e ff83 c7bd 574c 17bf
000001b0: 2a2f cbbe 136b 253f 29a4 833d 4e33 b8be
000001c0: d0c2 8b3d ccaa c0be 8ed7 b03e 3a40 b3be
000001d0: 021f d0be 3c96 9b3e 19cf b03e 6443 0e3e
000001e0: 7b78 b83e 8901 aebe c5f9 13be ee7c 2d3e
000001f0: 8d64 9a3e b490 b3bd fef3 49bd 175f 08bd
00000200: 0765 ee3e b161 823f 7512 c2be 7771 49be
00000210: 1387 0a3e d2cf aebd 40a6 fb3e cece eebe
00000220: bf07 0d3e 31ee 7ebd 38be fdbe 6b3c 513e
00000230: 1511 873b 3bc1 43be 5fd2 30bf c30a d23d
00000240: 44cf 843e eba2 2f3e 8cad 523e 7f6b 073f
00000250: 9d07 55be 6788 47bd 2461 f7bd 9280 063f
00000260: 1f6e 0fbf cd43 16be 7721 8b3f 43e6 de3d
00000270: 2052 ccbe ee36 b6be 4085 9bbe 1a89 1bbf
00000280: 08b0 5f3e 20b4 e4be 0c58 7b3e 2eff 7abe
00000290: 0fd4 87be 5bfb 223e 1c52 0f3f 51b9 85be
000002a0: 83c2 803d eb49 9a3d 948b a53e 24af fbbc
000002b0: e499 ae3e db68 463f 133a 30bf a7bb 08be
000002c0: d1f1 4bbe 8606 c13d a706 233d b86e 1a3f
000002d0: f1ec 433f 00b2 ddbe 2c4f 923e 6e01 98be
000002e0: b132 bd3e 8786 11bc ecf6 cd3d 9835 bc3d
000002f0: b787 95bf 3f33 f5be e293 b2be f853 623e
00000300: d24f 91be 01d4 9c3c 0b5d 013f 8ec8 8b3d
00000310: 4b1e 5a3f 8cce a2bf 8981 f03d 9e55 363f
00000320: 7996 183e 5322 01be b045 733f 9db2 07be
00000330: 7f0f b8bd c65a 20bf 5c3e 32bf 989f 85be
00000340: 6a6f 653f e213 14be fc7c a8bd 99ed 95be
00000350: d9f6 d93e d5cb 30bf 76ee abbe 14cf 223f
00000360: 4cf5 28bf d351 093f 2554 86be 3770 8cbe
00000370: c99a babd d0a7 9e3e 18b8 353d 54bf d8be
00000380: 112e b5be 22b4 a8bc f5eb 4abe 577a fbbe
00000390: fb4b 98be 89b6 cc3d 5da6 5f3f b5ee 183f
000003a0: bd4c 313e 9756 4d3e 01ab 11be a6b2 f73d
000003b0: a513 fdbe 06fd a63e 3e54 2cbe ffda 3d3f
000003c0: ca47 bc3c 8058 28bf a97c 14be 706c 713d
000003d0: af6a 193e 8846 2ebd 5822 0d3e d104 fbbe
000003e0: 74e0 97be 1fad f2be d148 bf3e 3e87 a2bd
000003f0: 7595 3a3f 4cc5 1cbf a7e3 bebe b48a c23e

network_body._body_endoder.seq_layers.0.bias f4 [128]
0.020229066 -0.01253578 0.007867466 0.11654985 0.024203386 -0.034493208 0.026661836 0.05082369
-0.0062696245 -0.0035136486 -0.007596851 0.03956121 0.012366804 0.016574616 -0.033962775 0.05192344
0.10842057 0.0069659567 -0.02348504 0.05989185 0.06590829 0.043312192 0.02218115 0.028710926
-0.0069673443 0.022471892 0.045495328 -0.010935245 0.02876901 -0.017178176 0.050600354 0.0018526539
0.0035423527 0.07327859 0.054996554 0.036024045 0.021180209 -0.066901036 0.011115417 0.0126264235
0.03784149 0.040351592 0.028457714 -0.004898618 -0.017341817 -0.03150902 -0.017132416 0.018274484
-0.0056555336 0.03813502 0.040819664 0.06908898 -0.055257414 0.0048164357 0.00326777 0.051783185
0.003907805 0.020473544 0.027299555 0.0024296674 0.002385465 0.010848026 0.068876736 0.037449695
0.02665918 -0.00053786853 -0.017699815 0.0015860971 0.04012482 0.03775355 -0.06543749 0.033995055
-0.012187758 0.03514953 0.019927608 0.026738696 0.060290366 0.06296441 0.024113096 0.00997607
0.050714962 -0.0014865174 0.035919044 0.027337838 0.0016252038 0.039808776 -0.019517405 0.036094114
0.020375408 0.048375607 0.07420914 0.04211432 0.019080712 0.107063755 0.043672346 0.050301738
0.014356599 0.013995432 -0.05087474 0.000550302 0.06537416 0.0045967363 0.023098433 0.0017161234
0.019698618 0.019224264 -0.0045002266 0.019498138 -0.00032650575 -0.06809193 0.047199536 0.035195522
0.014458285 -0.048860483 0.052596863 0.007933893 0.0048022415 -0.026438935 0.0028210073 -0.0005841872
0.032871414 0.07530349 -0.019848395 0.0077563366 0.0389567 0.018067848 -0.001893708 0.025046762
00000000: 6db7 a53c df62 4dbc 8be6 003c b0b1 ee3d
00000010: 2e46 c63c c048 0dbd ec69 da3c 802c 503d
00000020: 6c71 cdbb 3e45 66bb 01ef f8bb ef0a 223d
00000030: 239e 4a3c 7dc7 873c 8d1c 0bbd acad 543d
00000040: 9b0b de3d ae42 e43b b363 c0bc 2851 753d
00000050: edfa 863d 2068 313d 3eb5 b53c 2d33 eb3c
00000060: 524e e4bb f916 b83c 4f59 3a3d be29 33bc
00000070: fdac eb3c 3fb9 8cbc 5142 4f3d c0d4 f23a
00000080: d126 683b 1613 963d 1144 613d f38d 133d
00000090: 1e82 ad3c 6903 89bd 701d 363c 0fdf 4e3c
000000a0: aeff 1a3d b647 253d 2720 e93c 9684 a0bb
000000b0: 6d10 8ebc 9a0f 01bd 4859 8cbc 5fb4 953c
000000c0: 0e52 b9bb 7733 1c3d 8532 273d 867e 8d3d
000000d0: 9955 62bd 31d3 9d3b 1528 563b 9b1a 543d
000000e0: 0b0d 803b 22b8 a73c 51a3 df3c 0e3b 1f3b
000000f0: 7655 1c3b ebbb 313c 3f0f 8d3d da64 193d
00000100: 5a64 da3c bfff 0cba 34ff 90bc 96e4 cf3a
00000110: ec59 243d 77a3 1a3d 1704 86bd 663e 0b3d
00000120: 2aaf 47bc f4f8 0f3d 393f a33c 1c0b db3c
00000130: 08f3 763d 7cf3 803d d488 c53c ac72 233c
00000140: 7eba 4f3d 3fd7 c2ba d91f 133d 9af3 df3c
00000150: ca04 d53a 870e 233d f7e2 9fbc 6cd7 133d
00000160: 54ea a63c 8025 463d f6fa 973d 1180 2c3d
00000170: 274f 9c3c 3e44 db3d c6e1 323d 3209 4e3d
00000180: f137 6b3c 194d 653c 0862 50bd 2442 103a
00000190: e3e2 853d 38a0 963b ed38 bd3c 8cef e03a
000001a0: ff5e a13c 347c 9d3c a376 93bb 8fba 9f3c
000001b0: dc2e abb9 c873 8bbd 4d54 413d 2e29 103d
000001c0: 71e2 6c3c ee21 48bd cf6f 573d 29fd 013c
000001d0: 1f5c 9d3b 7796 d8bc a6e0 383b 2424 19ba
000001e0: 2da4 063d b738 9a3d 1a99 a2bc de28 fe3b
000001f0: 1091 1f3d 0603 943c 4c36 f8ba de2e cd3c

network_body._body_endoder.seq_layers.2.weight f4 [128, 128]
0.011549086 -0.13953207 0.10331397 -0.12289394 0.09134691 0.027450552 0.09033647 0.004275485
0.06391666 -0.023494445 -0.036822207 0.057934564 -0.04809728 -0.05459109 -0.084961765 -0.028976992
-0.10424091 0.21881104 0.104265496 0.006045697 -0.111260645 0.22148275 -0.04200499 0.038975023
0.15140457 0.07242282 0.033189084 0.05474029 -0.07295533 0.04589312 0.06129129 -0.0034869576
0.011919939 0.16314214 -0.072949834 0.029520474 0.14759697 0.057876263 -0.07806969 -0.031244434
-0.06267796 -0.24234144 -0.1015529 -0.19451001 -0.0332817 -0.0118387025 -0.08196221 0.0817544
-0.09396716 -0.020249227 -0.046785276 0.03765829 0.021769563 0.06828108 0.07881644 -0.046878736
0.19177464 -0.10451864 0.068357214 -0.069167286 -0.032659963 0.15282637 0.021350723 0.060072925
0.0008035839 0.008553108 0.105296835 0.027400726 -0.148217 -0.079792336 0.013591842 -0.087827794
0.061195526 0.063155584 0.17615499 -0.002361116 0.2294052 0.0648841 -0.0583367 0.07814209
0.020248732 -0.07541429 0.022995729 -0.07828475 -0.12296478 -0.048316028 -0.011842465 -0.059285082
-0.11997814 -0.048150953 -0.13160303 0.014501013 0.09795275 0.0021037709 0.055629887 0.010130726
0.0033055188 -0.0627048 0.006280844 0.02235372 -0.051598016 0.008136583 -0.09088797 0.045724366
-0.027206883 -0.041184876 -0.026178973 0.04226679 -0.12545595 0.060572267 0.048272755 -0.023941103
0.119581446 0.025560144 0.0633911 -0.015895031 0.092018664 0.04201666 -0.19799826 -0.08385312
-0.037560318 -0.058783006 0.04331414 0.08046585 -0.12031038 0.097696856 0.01893901 0.19768633
0.01309029 0.098280825 0.056525514 -0.020601425 0.12123734 -0.020561736 0.068127796 -0.030825255
0.12282482 0.16662078 -0.03668758 -0.056499917 -0.103262685 -0.07954895 0.0070112664 0.020560313
-0.1300498 0.011099462 0.042924155 0.017454915 -0.20341845 -0.009002398 0.11752473 0.043864157
-0.039915286 0.09143886 0.03356443 0.035853423 0.08187321 0.093026474 -0.035679407 0.13072595
-0.13102674 -0.08791452 0.021484584 -0.08777439 0.06574524 -0.08689724 -0.030860214 -0.009312762
-0.18810694 -0.03501293 -0.118738376 -0.11355945 0.053241316 -0.05787692 -0.046132803 -0.18707578
0.15025751 0.069924906 -0.17079501 -0.017421374 -0.01793373 -0.049916465 0.06899094 -0.05747873
-0.0071512843 -0.072563864 -0.0069297743 0.012400439 0.0390509 -0.010251877 -0.33786443 0.03246148
0.09535174 0.04595789 -0.069364965 0.108544126 -0.18092799 -0.18864964 -0.07906708 -0.13821226
0.12217037 -0.2440677 -0.029260851 -0.111439414 0.035825938 0.10879018 -0.16510499 -0.0036299876
0.0025940642 -0.043237004 0.011974555 0.0039253877 0.07895984 -0.03624618 -0.041228976 -0.030191353
-0.013958588 -0.10025032 -0.08715567 -0.029113831 -0.07150817 0.1452059 -0.024198607 0.16455723
0.07239487 -0.023888607 0.08174906 0.040539745 0.07031816 -0.08805408 -0.09603567 -0.082082406
0.02038507 0.16227145 -0.06361548 0.08624032 0.038838647 0.032850575 -0.043926686 -0.010339143
-0.041371513 0.0005229501 -0.048588563 0.07835686 0.071429834 -0.058671404 -0.10512418 -0.15884684
0.066408455 -0.017632416 -0.12834084 0.06806574 -0.014198332 -0.012709572 0.0014352563 0.17702882
00000000: 6138 3d3c 7fe1 0ebe 4696 d33d d1af fbbd
00000010: 1714 bb3d fbdf e03c 5402 b93d 5e19 8c3b
00000020: bde6 823d 6c77 c0bc e2d2 16bd cb4c 6d3d
00000030: a701 45bd e89a 5fbd 6f00 aebd 2861 edbc
00000040: 427c d5bd 0010 603e 2689 d53d fb1a c63b
00000050: 9fdc e3bd 60cc 623e 6d0d 2cbd 46a4 1f3d
00000060: cd09 1b3e 6a52 943d 47f1 073d 5b37 603d
00000070: 9b69 95bd 6dfa 3b3d 930c 7b3d 7185 64bb
00000080: d94b 433c bc0e 273e b966 95bd ecd4 f13c
00000090: a923 173e a90f 6d3d 00e3 9fbd 54f4 ffbc
000000a0: 4d5d 80bd 5b28 78be f8fa cfbd a22d 47be
000000b0: 6452 08bd 1ef7 41bc cedb a7bd da6e a73d
000000c0: db71 c0bd b5e1 a5bc eba1 3fbd 943f 1a3d
000000d0: 1556 b23c f3d6 8b3d 846a a13d eb03 40bd
000000e0: 9260 443e de0d d6bd defe 8b3d 94a7 8dbd
000000f0: 74c6 05bd 847e 1c3e b6e7 ae3c 070f 763d
00000100: 9aa7 523a 5622 0c3c dea5 d73d 7d77 e03c
00000110: 32c6 17be 2a6a a3bd 51b0 5e3c 0fdf b3bd
00000120: 29a8 7a3d b757 813d f961 343e f4bc 1abb
00000130: 32e9 6a3e f4e1 843d 77f2 6ebd f608 a03d
00000140: abe0 a53c cf72 9abd 8a61 bc3c c153 a0bd
00000150: f5d4 fbbd 07e7 45bd e606 42bc ead4 72bd
00000160: 19b7 f5bd ef39 45bd f2c2 06be a895 6d3c
00000170: 749b c83d 6bdf 093b 2adc 633d 58fb 253c
00000180: 67a1 583b 606b 80bd 8acf cd3b 261f b73c
00000190: 7158 53bd 4d4f 053c 7923 babd 7949 3b3d
000001a0: f8e0 debc 79b1 28bd 4975 d6bc f11f 2d3d
000001b0: 8677 00be a01a 783d a7b9 453d 2220 c4bc
000001c0: 1ee7 f43d 8263 d13c 31d3 813d 4c36 82bc
000001d0: 4874 bc3d a919 2c3d 0ec0 4abe 2fbb abbd
000001e0: d9d8 19bd 73c6 70bd 2b6a 313d 48cb a43d
000001f0: 4a65 f6bd 4a15 c83d fc25 9b3c 496e 4a3e
00000200: a878 563c 7547 c93d 4c87 673d 52c4 a8bc
00000210: 484b f83d 1671 a8bc 9686 8b3d 3f85 fcbc
00000220: 948b fb3d a39e 2a3e b745 16bd 756c 67bd
00000230: 637b d3bd 8fea a2bd c4be e53b 1a6e a83c
00000240: c62b 05be 85da 353c 3dd1 2f3d 9cfd 8e3c
00000250: ed4c 50be cb7e 13bc ceb0 f03d e7aa 333d
00000260: 367e 23bd 4c44 bb3d db7a 093d 0adb 123d
00000270: 24ad a73d aa84 be3d 9224 12bd 06dd 053e
00000280: e02b 06be 870c b4bd 7000 b03c 0fc3 b3bd
00000290: 71a5 863d 2ef7 b1bd 8fce fcbc 8e94 18bc
000002a0: 1b9f 40be b869 0fbd 1b2d f3bd db91 e8bd
000002b0: 9113 5a3d 5910 6dbd c0f5 3cbd cb90 3fbe
000002c0: 1bdd 193e ca34 8f3d e3e4 2ebe 45b7 8ebc
000002d0: c2e9 92bc 3575 4cbd 1f4b 8d3d d16e 6bbd
000002e0: 5255 eabb 5d9c 94bd 2913 e3bb 362b 4b3c
000002f0: d6f3 1f3d 7df7 27bc 91fc acbe 54f6 043d
00000300: c647 c33d 573e 3c3d 380f 8ebd 624c de3d
00000310: 3045 39be 5f2d 41be eced a1bd 8487 0dbe
00000320: 7534 fa3d e2ec 79be 74b4 efbc 593a e4bd
00000330: 38be 123d 63cd de3d 4811 29be 16e5 6dbb
00000340: 2d01 2a3b 4919 31bd ed30 443c 8aa0 803b
00000350: b2b5 a13d e076 14bd b7df 28bd db53 f7bc
00000360: 90b2 64bc 0a50 cdbd ac7e b2bd 2180 eebc
00000370: e072 92bd dbb0 143e 283c c6bc b181 283e
00000380: c343 943d 0ab2 c3bc 0d6c a73d 010d 263d
00000390: f802 903d b355 b4bd 59ae c4bd d21a a8bd
000003a0: 97fe a63c 7d2a 263e d548 82bd c49e b03d
000003b0: 4615 1f3d 538e 063d 78ec 33bd 8265 29bc
000003c0: 2d75 29bd 9616 093a cd04 47bd 9079 a03d
000003d0: ce49 923d 6d51 70bd 594b d7bd bfa8 22be
000003e0: 2801 883d db71 90bc c86b 03be 0d66 8b3d
000003f0: 1fa0 68bc cf3b 50bc 361f bc3a 0b47 353e

network_body._body_endoder.seq_layers.2.bias f4 [128]
-0.004427711 0.025932165 0.0060913838 0.014671112 -0.010682 -0.0009817609 0.0016490469 -0.008573057
0.000763889 -0.011572611 0.04232244 -0.029349498 0.001994698 0.005663128 0.0045726863 0.030901037
-0.005652874 0.045821406 0.020408586 0.0131030865 0.007613057 -0.015399232 0.013687733 0.021979202
0.025079602 0.06329091 0.019836973 0.025380373 0.012480336 -0.009927949 0.00037149957 0.020803941
0.02474239 -0.0074641923 -0.009650288 0.0126180705 0.026451986 0.029190436 0.0094847055 0.010259282
-0.010179727 0.033795193 0.0047876607 -0.0036023452 -0.008398997 0.0034150863 0.0055445815 -0.030910524
0.030405117 0.02168926 0.00084490207 0.043701023 -0.0005576373 0.051558968 0.019722575 0.02009585
0.025439883 -0.011102789 0.036885 -0.007214651 0.052813552 0.018964509 0.014042834 0.05556018
-0.0055506006 -0.014699286 0.026087074 0.07381462 0.05791724 6.485263e-05 0.004124091 0.008846314
0.006149732 0.010811617 0.0020729702 0.012483845 0.056398116 0.0086440295 0.028309397 0.037160877
0.048058763 0.008793511 0.0022116583 0.0013109744 0.008822426 0.0053204163 -0.02644221 0.013198509
0.04397641 0.037647016 0.0016550309 0.030293485 0.0077009224 0.008529733 0.00012288734 0.025907086
0.022885298 0.014870686 0.044357795 -0.0016107708 0.015317714 0.0031679575 0.055912647 0.023584256
0.02209498 0.011273041 -0.008268177 -0.0017119416 0.033382062 -0.008821185 0.04745825 -0.008021435
0.0028121606 0.037781127 0.034763996 -0.01177531 0.018303672 -0.0031638313 0.01173218 0.019235054
0.020969855 0.0006146384 0.024600904 -0.005269446 0.020440193 0.044272617 0.021904761 0.019319823
00000000: 5516 91bb b16f d43c 3b9a c73b 1b5f 703c
00000010: 8e03 2fbc 6eae 80ba d524 d83a 0276 0cbc
00000020: b93f 483a 0c9b 3dbc 4b5a 2d3d 5c6e f0bc
00000030: 7bb9 023b c391 b93b 79d6 953b 2c24 fd3c
00000040: be3b b9bb 3aaf 3b3d e82f a73c 54ae 563c
00000050: f376 f93b 0f4d 7cbc 8342 603c ba0d b43c
00000060: bd73 cd3c aa9e 813d 2681 a23c 80ea cf3c
00000070: 537a 4c3c d6a8 22bc d4c5 c239 076d aa3c
00000080: 8db0 ca3c 2f96 f4bb 3e1c 1ebc 06bc 4e3c
00000090: d6b1 d83c c820 ef3c bd65 1b3c 8c16 283c
000000a0: dfc8 26bc d46c 0a3d cfe1 9c3b 5315 6cbb
000000b0: f29b 09bc a4cf 5f3b 52af b53b 1138 fdbc
000000c0: 2714 f93c adad b13c 6b7c 5d3a d8ff 323d
000000d0: 682e 12ba 7f2f 533d 3d91 a13c 0da0 a43c
000000e0: 4d67 d03c 79e8 35bc ba14 173d e168 ecbb
000000f0: 0653 583d 755b 9b3c ea13 663c 1293 633d
00000100: d0e1 b5bb 46d5 70bc 8fb4 d53c 1f2c 973d
00000110: a13a 6d3d 7e01 8838 6223 873b 21f0 103c
00000120: b183 c93b 3523 313c abda 073b 0b89 4c3c
00000130: b601 673d b09f 0d3c 1ce9 e73c 0136 183d
00000140: 44d9 443d a912 103c 78f1 103b 00d5 ab3a
00000150: f08b 103c e356 ae3b 559d d8bc 8f3e 583c
00000160: 9c20 343d c233 1a3d 9fed d83a 0b2a f83c
00000170: 0558 fc3b 4bc0 0b3c 52db 0039 193b d43c
00000180: f379 bb3c 2ea4 733c 85b0 353d 8020 d3ba
00000190: 26f7 7a3c 829d 4f3b a904 653d c533 c13c
000001a0: 8800 b53c 90b2 383c 3f77 07bc 3a63 e0ba
000001b0: a1bb 083d bb86 10bc 9563 423d 566c 03bc
000001c0: 3a4c 383b 62c0 1a3d b164 0e3d 3bed 40bc
000001d0: 95f1 953c 4858 4fbb 5438 403c d592 9d3c
000001e0: f9c8 ab3c af1f 213a d687 c93c 51ab acbb
000001f0: 3172 a73c 3457 353d 9d71 b33c 9b44 9e3c

action_model._discrete_distribution.branches.0.weight f4 [3, 128]
0.007964082 0.013443229 -0.027793586 -0.020984227 0.009961071 0.008107319 0.0038559763 0.004486129
0.012736178 -0.0068529085 -0.0076014716 -0.023422277 -0.0076334085 0.0060936757 -0.015209601 -0.0066961874
0.00055243383 0.011646938 -0.019826304 -0.019623207 0.017866077 0.004558198 0.017302427 -0.02563613
0.014923011 -0.017489629 -0.014264633 -0.02623978 -0.00830412 -0.005767534 -0.015788488 -0.0050246543
-0.0035261773 -0.0078098094 -0.005468798 0.016613431 0.014948255 -0.004551422 -0.0020662833 0.005575156
0.007342432 0.002906614 -0.021661596 -0.016741563 0.0068341056 0.0030814726 0.02445177 0.0018465329
-0.0031981026 -0.0067848917 0.027993701 -0.0020677506 0.005364501 0.0072283014 -0.0026595583 0.005267854
-0.013353497 -0.008862004 -0.0020275258 -0.0038626187 -0.0038364388 -0.0019092067 -0.007280657 0.015647063
0.0045995745 0.014782059 0.003146917 0.0033628943 0.0057683275 0.024972513 0.0029763533 0.02648156
0.017650617 -0.0036458222 0.013127095 -0.021239642 -0.008782096 -0.018068366 -0.009173748 0.015321239
0.016112745 0.004850231 -0.03803849 -0.0022879906 -0.011638986 0.0055123954 -0.01150229 0.019141944
0.00552059 -0.0072383466 -0.019499037 -0.014297506 -0.029919764 -0.012015446 0.0025991714 0.008268307
-0.010611873 -0.015561793 -0.0017852815 0.01273917 8.5554806e-05 0.0073343734 -0.024170578 0.015214449
-0.007690373 -0.004352359 -0.005476878 -0.0030511077 -0.01718782 0.0021875321 -0.019488852 -0.0071564508
0.012513729 -0.017063465 -0.0016391657 0.008588449 0.008884831 0.020532483 -0.010002215 0.010117585
-0.0057913368 0.021112608 -0.0015165103 0.006490118 0.006656393 -0.0019149516 0.01631125 0.024307594
-0.03429695 0.018766131 -0.055682484 -0.06004833 -0.035466395 0.00804474 -0.05486062 -0.004794666
-0.042882238 -0.028152768 0.06728315 -0.03134614 -0.051028844 -0.064259015 -0.0034960127 0.049087353
-0.02708956 0.028013367 0.034326695 0.019757237 -0.029656375 -0.0037672026 -0.062623516 -0.073803745
0.0013928581 0.06235986 0.035210427 0.03346076 -0.05256275 -0.023180045 -0.019994818 -0.070619166
0.026305947 -0.0007018397 -0.013864764 0.006864388 0.014740831 0.027029756 -0.06814228 0.002141642
-0.0078889225 0.04040048 -0.052957237 -0.0023858978 -0.027785387 -0.05791967 -0.06740572 -0.0024205658
0.03420074 0.030595567 0.0035264122 0.03715013 -0.045783255 0.04823621 0.006163453 0.012104796
0.04018949 -0.011730077 0.04989343 -0.033965364 0.043704666 0.020827865 -0.07795172 0.030143794
-0.025444644 0.00019535658 0.0058277883 0.04326655 0.02240049 -0.011958541 -0.0582465 -0.04636313
0.007416627 -0.049726363 -0.03490882 -0.048225958 0.056882598 -0.07265447 0.027721506 0.03842074
0.031712558 0.02516682 -0.0012673273 -0.06871198 -0.06662391 0.008028213 0.0005217616 -0.0021980682
0.024546076 0.023284163 0.005981359 0.052909426 -0.0603686 -0.05647684 -0.052661505 0.017890127
0.0056373226 -0.08981588 0.041967012 -0.034682352 -0.07536776 -0.067340665 0.058587417 0.0058738515
0.036585815 0.025846189 -0.036732618 -0.01625768 0.049548533 -0.0026459144 0.07978997 -0.03095506
-0.027954394 0.053463213 0.04166885 -0.0064844233 0.018657127 -0.04429138 -0.07421294 -0.0024754154
0.020755455 -0.047499534 0.030097615 -0.0023106935 -0.07931906 0.02965872 0.025375312 0.0120481355
00000000: c87b 023c fd40 5c3c 60af e3bc 1de7 abbc
00000010: c333 233c 8fd4 043c 8cb4 7c3b 6100 933b
00000020: 67ab 503c 5d8e e0bb c415 f9bb 13e0 bfbc
00000030: ac21 fabb 75ad c73b b131 79bc b16b dbbb
00000040: 35d1 103a ccd2 3e3c c66a a2bc d9c0 a0bc
00000050: e15b 923c f05c 953b d2bd 8d3c dc02 d2bc
00000060: a57f 743c 6946 8fbc 35b6 69bc cff4 d6bc
00000070: 010e 08bc 95fd bcbb dc56 81bc dba5 a4bb
00000080: 7017 67bb 6ee9 ffbb 9a33 b3bb e418 883c
00000090: 87e9 743c 1824 95bb 7b6a 07bb ccaf b63b
000000a0: c998 f03b e47c 3e3b a973 b1bc 9a25 89bc
000000b0: a2f0 df3b 88f2 493b 144f c83c 5d07 f23a
000000c0: 4297 51bb cc53 debb 0c53 e53c 1983 07bb
000000d0: b2c8 af3b 63db ec3b fc4b 2ebb f69d ac3b
000000e0: a0c8 5abc f031 11bc 3de0 04bb fd23 7dbb
000000f0: c36c 7bbb 593e faba 9492 eebb 452e 803c
00000100: 07b8 963b 7330 723c 823c 4e3b 0164 5c3b
00000110: 3d04 bd3b 2893 cc3c ec0e 433b dbef d83c
00000120: 0798 903c bfee 6ebb 0713 573c c2fe adbc
00000130: c8e2 0fbc 1c04 94bc 7d4d 16bc ef05 7b3c
00000140: e0fe 833c b0ee 9e3b 3fce 1bbd 1df2 15bb
00000150: 72b1 3ebc 53a1 b43b 1a74 3cbc 91cf 9c3c
00000160: 11e6 b43b a72f edbb 72bc 9fbc 1640 6abc
00000170: 4b1a f5bc 6fdc 44bc dc56 2a3b cb77 073c
00000180: 6cdd 2dbc e4f6 7ebc 1b00 eaba f4b7 503c
00000190: e36b b338 2f55 f03b 6001 c6bc 0646 793c
000001a0: 86ff fbbb 3c9e 8ebb 6277 b3bb 18f5 47bb
000001b0: 79cd 8cbc b35c 0f3b 16a7 9fbc a980 eabb
000001c0: 6206 4d3c aec8 8bbc 46d9 d6ba 91b6 0c3c
000001d0: af91 113c bd33 a83c 55e0 23bc 3ac4 253c
000001e0: 41c5 bdbb 59f4 ac3c a4c5 c6ba 0eab d43b
000001f0: df1d da3b 1dff faba 2c9f 853c b820 c73c
00000200: f57a 0cbd 6ebb 993c 5113 64bd 3df5 75bd
00000210: 3645 11bd 16ce 033c 88b5 60bd 931c 9dbb
00000220: 49a5 2fbd a2a0 e6bc c0cb 893d cf64 00bd
00000230: 9f03 51bd 3b9a 83bd 5c1d 65bb d20f 493d
00000240: edea ddbc 4a7c e53c 269a 0c3d eed9 a13c
00000250: edf1 f2bc 2ce3 76bb c240 80bd 6b26 97bd
00000260: 9090 b63a 0d6d 7f3d cf38 103d 260e 093d
00000270: 0a4c 57bd 14e4 bdbc 2ccc a3bc c8a0 90bd
00000280: 927f d73c aafb 37ba 0929 63bc a9ee e03b
00000290: 8783 713c 826d dd3c 2e8e 8bbd ca5a 0c3b
000002a0: 8a40 01bc f97a 253d b0e9 58bd b95c 1cbb
000002b0: 2e9e e3bc 2d3d 6dbd 030c 8abd 5ba2 1ebb
000002c0: 1316 0c3d 8ea3 fa3c 611b 673b bc2a 183d
000002d0: 3987 3bbd 5593 453d cbf6 c93b 3253 463c
000002e0: bc9d 243d 822f 40bc 0e5d 4c3d 441f 0bbd
000002f0: aa03 333d 339f aa3c 27a5 9fbd 1ef0 f63c
00000300: 4971 d0bc a2d8 4c39 08f7 be3b 4438 313d
00000310: 3b81 b73c c2ed 43bc e293 6ebd 44e7 3dbd
00000320: 2d07 f33b dfad 4bbd 8dfc 0ebd 9588 45bd
00000330: bafd 683d decb 94bd 3618 e33c 115f 1d3d
00000340: 07e5 013d a62a ce3c 731c a6ba deb8 8cbd
00000350: 1e72 88bd c488 033c d4c6 083a 770d 10bb
00000360: da14 c93c 6ebe be3c 47ff c33b 8eb7 583d
00000370: 1145 77bd 4254 67bd 97b3 57bd 518e 923c
00000380: 4ab9 b83b 63f1 b7bd 9ae5 2b3d 150f 0ebd
00000390: 6a5a 9abd e7e9 89bd 5cf9 6f3d 7079 c03b
000003a0: 02db 153d 63bb d33c f174 16bd d32e 85bc
000003b0: 67f3 4a3d 1467 2dbb ec68 a33d 7795 fdbc
000003c0: 9d00 e5bc 3efc 5a3d f5ac 2a3d 497b d4bb
000003d0: d5d6 983c e16a 35bd f4fc 97bd 943a 22bb
000003e0: 5807 aa3c df8e 42bd 468f f63c 016f 17bb
000003f0: 0872 a2bd d8f6 f23c e3df cf3c 8b65 453c

action_model._discrete_distribution.branches.0.bias f4 [3]
-0.0028356405 0.015143262 -0.011496529
00000000: 27d6 39bb 721b 783c f05b 3cbc
