results/DemoRun/MoveToBall/MoveToBall-105.pt (torch, 149613 bytes, 11 tensors)

network_body._body_endoder.seq_layers.0.weight f4 [128, 6]
00000000: 322d dbbe 6889 643e bcb8 ffbe add0 23bf
00000010: 3591 c9be c548 3dbf f00e 4fbe 8db4 473e
00000020: 2261 ebbe 3de4 ecbe 7c29 53be d624 e33e
00000030: 39ca 85be 97df 21be a4ce b2bd 95f2 85bc
00000040: 2141 44bf 8bb7 593f 8536 cfbe bd50 3bbf
00000050: 1a65 7fbe fdc3 373f 346a 993e a5be de3d
00000060: 776f 623e 1666 65bd ec87 813e ef21 39bf
00000070: 4ad0 24bf 0afb 203e d6df 46be 6e18 933f
00000080: 249f 923d 4bc7 3a3e 94e1 a03e d6df b6be
00000090: d6ce 073e b11b a13c ef81 b53e 7eb0 aebe
000000a0: 1641 edbe 9d5d 21be b5e8 82be 6740 e4bc
000000b0: e03e a03e 3bed 8cbe 1217 983e 3943 2b3e
000000c0: 8f1a 453f 2ee9 3ebe 770f a03e 604f 35be
000000d0: be70 7d3e 507f c7bd 50c8 2cbe 45d2 debe
000000e0: 1f26 c03e 81b1 ac3d 40cc 79be 8a59 7d3f
000000f0: 4eb6 04be 8693 e9be 51c1 65be a571 553f
00000100: 86b2 7bbf 01a4 4dbe 38e7 a8be eb3d b3bd
00000110: 26a3 14bf e2ba 9dbe b8e8 00bf 9952 f73e
00000120: 0641 75bf bd09 5ebc 9709 9c3e dc9d 093e
00000130: ac45 953e ddde fabc 32ed c0bd f6f6 8f3e
00000140: 264d 203f 3005 163e 9179 16bd 8eb3 fcbd
00000150: 8d28 a7be 6261 24bf cb32 1bbe 36f6 cc3d
00000160: 16a0 3d3e e39b 423e bf73 81be 941a 1b3e
00000170: fdc2 6ebf 1148 9b3e 3f92 a0be 07c5 4f3d
00000180: 0023 643e a7e0 2dbf efeb 12bf 57a4 0dbb
00000190: 467e 913e 8202 a73e 39fb 413e 33da 583e
000001a0: f8f7 d3be d86e 8c3e de04 a6bd e913 19bf
000001b0: eb28 bfbe ea34 213f 25ae b33d b1fa babe
000001c0: 93a3 aa3d 4aa8 b4be 332d 923e 9cb7 bcbe
000001d0: 96b0 eebe 9395 903e 3296 963e 8e40 a23d
000001e0: b2b9 963e b475 babe 7169 57be f10c 223e
000001f0: 9cb3 7f3e 0a38 1dbe 82af bdbd 4409 c5bd
00000200: 4960 d83e ccc5 7d3f bc03 bebe fd7a 75be
00000210: b2a0 e73d 0b77 92bd bd4c f03e eb59 ebbe
00000220: a1c2 033e 6bdd acbd c438 06bf d0e9 2f3e
00000230: afc2 c7bc e953 30be 84c5 36bf f4a8 973d
00000240: 7c60 883e d8e4 133e adce 593e 5aa8 053f
00000250: 362d 31be 0804 2bbd 9bb3 12be 671f fe3e
00000260: 182a 15bf 2202 1ebe 7ae9 883f 9c06 b13d
00000270: 659d e3be e084 c0be a2c5 b2be 8213 19bf
00000280: 2a3a 4a3e 82f4 fbbe 6945 833e 72f9 54be
00000290: 5842 82be 464d 063e f108 113f 9b27 80be
000002a0: 40ae 0b3d 3ff3 663d 27d5 963e 3345 0fbd
000002b0: 32de a43e b00d 3f3f 09d4 2bbf fd87 debd
000002c0: fcc3 3abe 3048 aa3d 85cc 0b3d 28ba 1e3f
000002d0: caf8 363f cde1 dbbe f6d3 703e f51f 9bbe
000002e0: dcc2 ac3e cb8a 73bd ae2b ca3d f861 943d
000002f0: 10c5 95bf 44d6 f0be 2fec b8be 7369 603e
00000300: 2820 93be 3236 5f3d 7174 003f 3cf9 363d
00000310: 058e 583f c942 a3bf b2db 343d 1ca9 233f
00000320: dc5a 9b3d 51d1 1ebe c554 643f b09b 52be
00000330: da58 14be 9c03 24bf 9f50 40bf 4d21 8ebe
00000340: 5c7d 5d3f d25c 4cbe 2844 f2bd 87bc 9abe
00000350: 5a8a c73e 4d51 2fbf 82eb a9be e298 193f
00000360: 5961 2ebf b7ba f73e 6c2a 91be 2a89 89be
00000370: 123e f5bd 89d1 933e dbe3 e33d 2b32 c0be
00000380: eb65 93be 4efe 9abd 18d8 2bbe 31b2 d9be
00000390: effc 9dbe cf18 ef3d d7cf 5c3f 218a 113f
000003a0: 369e 0f3e 7ffc 413e 3399 1ebe 32c9 9c3d
000003b0: d4bd 01bf 3d7b 973e f391 0ebe 02a7 3a3f
000003c0: b679 73bc 4f2c 32bf 4af1 3abe 63d2 7b3d
000003d0: 9404 023e 960c a4bd 8fa0 c73d f07f 00bf
000003e0: 6582 acbe e548 f5be 58ed b93e 210f f5bd
000003f0: 754c 333f 0118 1abf 6f73 cdbe b9fa b63e
-0.4280792 0.22318041 -0.4994563 -0.6399029 -0.39368597 -0.7393916 -0.20220542 0.19502468
-0.45972544 -0.46267882 -0.20621294 0.4436404 -0.26130846 -0.15807949 -0.0873082 -0.016351024
-0.7666188 0.8504569 -0.40471283 -0.7317007 -0.24940911 0.7178343 0.2996384 0.10876206
0.22112833 -0.05600556 0.25299013 -0.72317404 -0.64380324 0.15720764 -0.19421324 1.149183
0.0715926 0.18240087 0.31422102 -0.35717648 0.13262495 0.019666525 0.35450694 -0.34119028
-0.4633872 -0.15758367 -0.25568166 -0.02786274 0.3129797 -0.27524742 0.297051 0.16724862
0.7699365 -0.18643638 0.312618 -0.1770606 0.24750039 -0.0974108 -0.16873288 -0.43519798
0.37529084 0.08432294 -0.24394321 0.9896475 -0.12960169 -0.45620364 -0.22437026 0.8337653
-0.9831928 -0.20082094 -0.32988906 -0.08752044 -0.58061445 -0.30806643 -0.503551 0.48305205
-0.9580234 -0.0135521265 0.30476066 0.13439125 0.29154718 -0.030623848 -0.094202414 0.28118104
0.6261772 0.14650416 -0.03673703 -0.12338935 -0.32648125 -0.64211094 -0.15156095 0.100078985
0.18518099 0.19004779 -0.2528362 0.15146858 -0.9326628 0.3032842 -0.31361577 0.05072501
0.22278976 -0.6792092 -0.57391256 -0.0021612847 0.2841665 0.326191 0.1894349 0.21176986
-0.41400123 0.27428317 -0.08106397 -0.59796005 -0.37335905 0.62971365 0.0877345 -0.36519387
0.083319806 -0.35284644 0.2855011 -0.36858833 -0.466191 0.28239116 0.29411465 0.07922469
0.2943855 -0.36417925 -0.21036316 0.15825249 0.2497086 -0.15353408 -0.09261991 -0.09620908
0.4226096 0.9912994 -0.37112224 -0.23972698 0.11309947 -0.07151612 0.46933547 -0.4596704
0.12867214 -0.084406696 -0.5243037 0.17179036 -0.024384825 -0.17219509 -0.71395135 0.07405272
0.26636112 0.14442766 0.21270247 0.5221001 -0.17302403 -0.04175189 -0.14326327 0.49633333
-0.58267355 -0.15430501 1.0696251 0.08643839 -0.4445602 -0.37601376 -0.34916407 -0.5979539
0.1974875 -0.49209982 0.25638893 -0.20798281 -0.2544124 0.13115415 0.5665427 -0.25030217
0.034101725 0.05638432 0.29459497 -0.034978103 0.32200772 0.7463026 -0.67120415 -0.108657815
-0.18238825 0.0831455 0.034130592 0.620028 0.7147337 -0.4294571 0.23518357 -0.3029782
0.33742416 -0.059458535 0.098716125 0.072452486 -1.1700764 -0.47038472 -0.36117694 0.21915226
-0.2873547 0.054495044 0.50177675 0.044671282 0.84591705 -1.2754756 0.04415483 0.63929915
0.075856894 -0.15509535 0.8919185 -0.20567203 -0.14487019 -0.6406801 -0.7512302 -0.2775978
0.8651941 -0.19957283 -0.11829406 -0.3022196 0.3897274 -0.6848343 -0.3318749 0.59998906
-0.6811729 0.4838464 -0.28352678 -0.2686246 -0.119747296 0.288708 0.11127444 -0.37538275
-0.28788695 -0.07568036 -0.16781652 -0.42518762 -0.30857036 0.11674654 0.8625464 0.56851393
0.14025196 0.18943976 -0.15488128 0.076555625 -0.5068028 0.2958621 -0.13922863 0.72911084
-0.014860561 -0.6959886 -0.18256107 0.061479937 0.12697059 -0.08010213 0.09747421 -0.5019522
-0.33693233 -0.47907177 0.3631389 -0.11965776 0.7003854 -0.6019288 -0.4012713 0.3573816

network_body._body_endoder.seq_layers.0.bias f4 [128]
00000000: 0000 0000 0000 0000 0000 0000 0000 0000
00000010: 0000 0000 0000 0000 0000 0000 0000 0000
00000020: 0000 0000 0000 0000 0000 0000 0000 0000
00000030: 0000 0000 0000 0000 0000 0000 0000 0000
00000040: 0000 0000 0000 0000 0000 0000 0000 0000
00000050: 0000 0000 0000 0000 0000 0000 0000 0000
00000060: 0000 0000 0000 0000 0000 0000 0000 0000
00000070: 0000 0000 0000 0000 0000 0000 0000 0000
00000080: 0000 0000 0000 0000 0000 0000 0000 0000
00000090: 0000 0000 0000 0000 0000 0000 0000 0000
000000a0: 0000 0000 0000 0000 0000 0000 0000 0000
000000b0: 0000 0000 0000 0000 0000 0000 0000 0000
000000c0: 0000 0000 0000 0000 0000 0000 0000 0000
000000d0: 0000 0000 0000 0000 0000 0000 0000 0000
000000e0: 0000 0000 0000 0000 0000 0000 0000 0000
000000f0: 0000 0000 0000 0000 0000 0000 0000 0000
00000100: 0000 0000 0000 0000 0000 0000 0000 0000
00000110: 0000 0000 0000 0000 0000 0000 0000 0000
00000120: 0000 0000 0000 0000 0000 0000 0000 0000
00000130: 0000 0000 0000 0000 0000 0000 0000 0000
00000140: 0000 0000 0000 0000 0000 0000 0000 0000
00000150: 0000 0000 0000 0000 0000 0000 0000 0000
00000160: 0000 0000 0000 0000 0000 0000 0000 0000
00000170: 0000 0000 0000 0000 0000 0000 0000 0000
00000180: 0000 0000 0000 0000 0000 0000 0000 0000
00000190: 0000 0000 0000 0000 0000 0000 0000 0000
000001a0: 0000 0000 0000 0000 0000 0000 0000 0000
000001b0: 0000 0000 0000 0000 0000 0000 0000 0000
000001c0: 0000 0000 0000 0000 0000 0000 0000 0000
000001d0: 0000 0000 0000 0000 0000 0000 0000 0000
000001e0: 0000 0000 0000 0000 0000 0000 0000 0000
000001f0: 0000 0000 0000 0000 0000 0000 0000 0000
0.0 0.0 0.0 0.0 0.0 0.0 0.0 0.0
0.0 0.0 0.0 0.0 0.0 0.0 0.0 0.0
0.0 0.0 0.0 0.0 0.0 0.0 0.0 0.0
0.0 0.0 0.0 0.0 0.0 0.0 0.0 0.0
0.0 0.0 0.0 0.0 0.0 0.0 0.0 0.0
0.0 0.0 0.0 0.0 0.0 0.0 0.0 0.0
0.0 0.0 0.0 0.0 0.0 0.0 0.0 0.0
0.0 0.0 0.0 0.0 0.0 0.0 0.0 0.0
0.0 0.0 0.0 0.0 0.0 0.0 0.0 0.0
0.0 0.0 0.0 0.0 0.0 0.0 0.0 0.0
0.0 0.0 0.0 0.0 0.0 0.0 0.0 0.0
0.0 0.0 0.0 0.0 0.0 0.0 0.0 0.0
0.0 0.0 0.0 0.0 0.0 0.0 0.0 0.0
0.0 0.0 0.0 0.0 0.0 0.0 0.0 0.0
0.0 0.0 0.0 0.0 0.0 0.0 0.0 0.0
0.0 0.0 0.0 0.0 0.0 0.0 0.0 0.0

network_body._body_endoder.seq_layers.2.weight f4 [128, 128]
00000000: 85bd 2c3c 812c 15be 93f2 c33d e8f2 eebd
00000010: 1bca d03d 2723 b93b a774 cb3d c87a 8bb9
00000020: 4f2a 993d f223 2cbd 1b2c 0abd fd18 8e3d
00000030: d13a 35bd f055 babd 955f d6bd 571a 62bd
00000040: 89f6 53bd 4c91 483e baf2 aa3d 49c9 6b3d
00000050: a80e 63bd 5017 3d3e 0e89 2cbd 12bd 1e3d
00000060: 042f 023e f6ae 893d 12a7 0e3d a717 923d
00000070: 9ace 9abd f0a0 283d 248d a03d 9532 c338
00000080: b771 583c c0e2 1f3e c1b1 75bd 08b1 283d
00000090: 7a81 ea3d 1c02 5c3d 249f 89bd ce86 4cbd
000000a0: 736b 91bd 631a 70be d632 7fbd b4de 48be
000000b0: 9453 2ebd 2f55 d8bc 7388 b7bd 5c04 b93d
000000c0: 7a0c c2bd 251c 5ebd bd09 aabc 3257 20bc
000000d0: 9847 eb3b 6d4e 7c3d 4aca 853d 50fc 85bc
000000e0: 59db 2c3e 36e6 d5bd ef09 a73d 2b59 b0bd
000000f0: c42a 5abd 0440 183e 2625 3c3d dfea 8e3d
00000100: b5b2 933b caa2 273a 7d16 b13d 72ec 5e3c
00000110: d321 00be 5fa0 b8bd d1a2 bb3b a0c4 c5bd
00000120: dc2e 2f3d 0990 9e3c 3fbf 1f3e c9e2 dabb
00000130: fb95 753e b379 f93c 4491 61bd 2b1f 143d
00000140: ad78 313d 7400 bbbd 8d47 c83c de0b debd
00000150: 6b45 08be 99c5 12bd 61be 8fbc 0a71 8ebd
00000160: 0e75 18be 9fb3 4ebd e9b1 69bd 3fae 4d3d
00000170: 14be 983d eaf4 763c 43ad c83d 8a08 0f3d
00000180: 4bbe 983a 20c5 6abd 9598 ecbb cf5d 7e3c
00000190: b34d cbbc 534f df3b e4cd bfbd 45b2 163d
000001a0: 4824 47bd 6e9b 6abd 1482 04bd f7f6 1f3d
000001b0: cb44 08be 2352 203d 7777 e8bc c251 60bc
000001c0: e3a2 a23d 0f5d c43b 1b7f 783d eaeb 94bc
000001d0: 9ff6 9d3d bf5e da3c cf08 53be bb42 89bd
000001e0: 7c6d 38bd 6cd7 bbbd bc61 0f3d 8d93 b33d
000001f0: 950b 00be 4bb9 eb3d 1b10 13b9 f307 4a3e
00000200: 3ebe c8bc dafd 783d 251f b83d 83e5 cbbb
00000210: 8f2e a03d c62c cebc 7007 bb3c b9de 5ebd
00000220: cad6 c43d 9391 473e efa7 b6bc b6be 95bd
00000230: d3d5 93bd 7133 92bd b2ee 0c3d 2c3e 8e3d
00000240: a6c5 e9bd d5a9 f13c ab98 903c 7e28 873d
00000250: 4fb6 2bbe d1d6 133d d322 a83d 8599 513d
00000260: 4a61 3c3c b289 aa3d 1c05 f53b 18ec 6c3d
00000270: c91e 973d 2044 f53d 8a31 8cbd d27b b63d
00000280: 9e04 f3bd 91a7 ccbd 0628 e43c 0aed ffbd
00000290: 1e73 0d3d 3e26 93bd a288 173d ad1f 323d
000002a0: 8bcf 29be 89cf 80bd 2d98 a9bd 9596 ecbd
000002b0: dbad ac3d 689b 9cbd b965 adbc ddf3 5abe
000002c0: f04a 013e bfa3 d33d f4e7 06be 3559 f23c
000002d0: 44b0 c73c 898b a33b 2ab3 c13d b226 c2bc
000002e0: 346c 21bd 9115 8ebd f4a4 323d 59f1 b1b9
000002f0: 78c0 143d efa7 e83a 319f 96be 4bfc 6bbb
00000300: ef44 e13d cd76 d13c 584a 3fbd 9e46 943d
00000310: 85d8 0fbe 4ade 21be 6b16 26bd cacc dcbd
00000320: 299d c53d 2516 42be a605 43bd 20ac b2bd
00000330: 06b5 c93b 4420 113e 201c f8bd b2d6 5f3d
00000340: 3b07 d8bc 7915 13bc 6d96 253d c1d6 5c3d
00000350: 5cfc dd3d 5b91 38bd 9ab3 40bd a0b5 a1bb
00000360: f09b 813b 8ade 00be 0195 08bd 5b33 993c
00000370: 0d62 03bc 9d2c 0f3e 7fd8 e13c fcc5 063e
00000380: a01c c43d 9aa8 49bd 2ef7 e33d 8df2 9b3b
00000390: 870b dd3c 5d75 f2bd 4a50 ccbd d803 c1bd
000003a0: 4a9c 44bc 46d7 453e e6c8 0abd 8604 703d
000003b0: b8e4 573b 33cc 5d3d 7600 6fbd b42c 52bd
000003c0: a6b7 86bd 3cf0 dd3c a207 afbd cb88 e53d
000003d0: 7175 8d3d c7ec e7bc 340a c5bd f711 cdbd
000003e0: b88d 2f3d 7d3c ab3c bb18 20be 3c9a 323d
000003f0: a0fc 49bd 662e 4bbd 5fde 94bc 3243 0d3e
0.010543232 -0.14567758 0.09567752 -0.116674244 0.101947986 0.0056499424 0.09934359 -0.00026603625
0.07478773 -0.042026468 -0.03373347 0.0693836 -0.044245545 -0.090984225 -0.104674496 -0.0552009
-0.051748786 0.19586676 0.08347078 0.057565007 -0.0554339 0.18465924 -0.042122893 0.03875453
0.12713248 0.06722824 0.0348273 0.071334176 -0.07558937 0.041169107 0.078394204 9.307746e-05
0.0132107055 0.15613842 -0.059983972 0.041184455 0.11450477 0.05371295 -0.06719807 -0.049933247
-0.071005724 -0.23447566 -0.06230434 -0.19616205 -0.042560175 -0.026407806 -0.089615725 0.090340346
-0.09475036 -0.05422606 -0.020756597 -0.009786414 0.0071801655 0.06159823 0.06532724 -0.016355664
0.1688055 -0.104443 0.081561916 -0.086107574 -0.05326344 0.1486817 0.045933865 0.06978392
0.0045073875 0.0006394802 0.086468674 0.013606178 -0.12512903 -0.09014963 0.0057261963 -0.09656644
0.042769298 0.01935579 0.15600298 -0.006679867 0.23982994 0.030453539 -0.055070177 0.036162537
0.043327976 -0.09130946 0.02444818 -0.10842107 -0.13307731 -0.035832975 -0.017546834 -0.06955154
-0.14888403 -0.05046427 -0.057054434 0.050215002 0.074581295 0.0150730405 0.09798672 0.034920253
0.0011653391 -0.0573169 -0.0072203376 0.015525295 -0.024817323 0.006814876 -0.093654424 0.036791105
-0.048618585 -0.057277136 -0.032350615 0.039053883 -0.13307492 0.03914083 -0.028377278 -0.013691368
0.079412244 0.0059925388 0.060668092 -0.018178899 0.07713055 0.026656507 -0.20608829 -0.06702181
-0.045026287 -0.09171948 0.035005316 0.087683775 -0.12504418 0.11509951 -0.00014025012 0.19729595
-0.024504777 0.060788967 0.08990315 -0.0062224283 0.0782138 -0.025167834 0.022830695 -0.054411624
0.0961128 0.19489126 -0.022296874 -0.07311766 -0.07218518 -0.07138718 0.034407325 0.06945452
-0.114146516 0.029499928 0.017650923 0.0659952 -0.16768764 0.036093537 0.08209767 0.0511718
0.011497805 0.083270445 0.0074774157 0.057842344 0.07378919 0.119758844 -0.06845386 0.089103356
-0.11866115 -0.09992898 0.027851116 -0.124963835 0.034533612 -0.071850285 0.036995538 0.04348724
-0.16583078 -0.06289584 -0.08280978 -0.11552159 0.08431598 -0.07646829 -0.02116667 -0.21382089
0.12626243 0.103339665 -0.1317442 0.029583553 0.024376042 0.004990999 0.09458001 -0.023700092
-0.03940983 -0.06937707 0.043614343 -0.0003393989 0.036316365 0.0017750243 -0.29418328 -0.0036008533
0.10999476 0.025569344 -0.04670176 0.07240032 -0.1404744 -0.15807453 -0.040548723 -0.10781248
0.096491165 -0.1895376 -0.04761281 -0.087242365 0.006155613 0.14172465 -0.121147394 0.05464811
-0.026370635 -0.008977287 0.04042666 0.053915743 0.10839149 -0.045060497 -0.04704628 -0.0049349815
0.003955357 -0.12584892 -0.033345226 0.018701246 -0.008018983 0.13981862 0.027569054 0.13161463
0.09575772 -0.049233057 0.1113113 0.004759139 0.026983036 -0.118387915 -0.099762514 -0.09424561
-0.012000153 0.19320402 -0.033882998 0.058598064 0.0032942723 0.054149818 -0.05835005 -0.051312163
-0.06577997 0.027092092 -0.08546378 0.11207732 0.06907166 -0.028311146 -0.09621087 -0.10013192
0.042859763 0.020902866 -0.15634434 0.04360412 -0.049313188 -0.049604796 -0.018172441 0.13795164

network_body._body_endoder.seq_layers.2.bias f4 [128]
00000000: 0000 0000 0000 0000 0000 0000 0000 0000
00000010: 0000 0000 0000 0000 0000 0000 0000 0000
00000020: 0000 0000 0000 0000 0000 0000 0000 0000
00000030: 0000 0000 0000 0000 0000 0000 0000 0000
00000040: 0000 0000 0000 0000 0000 0000 0000 0000
00000050: 0000 0000 0000 0000 0000 0000 0000 0000
00000060: 0000 0000 0000 0000 0000 0000 0000 0000
00000070: 0000 0000 0000 0000 0000 0000 0000 0000
00000080: 0000 0000 0000 0000 0000 0000 0000 0000
00000090: 0000 0000 0000 0000 0000 0000 0000 0000
000000a0: 0000 0000 0000 0000 0000 0000 0000 0000
000000b0: 0000 0000 0000 0000 0000 0000 0000 0000
000000c0: 0000 0000 0000 0000 0000 0000 0000 0000
000000d0: 0000 0000 0000 0000 0000 0000 0000 0000
000000e0: 0000 0000 0000 0000 0000 0000 0000 0000
000000f0: 0000 0000 0000 0000 0000 0000 0000 0000
00000100: 0000 0000 0000 0000 0000 0000 0000 0000
00000110: 0000 0000 0000 0000 0000 0000 0000 0000
00000120: 0000 0000 0000 0000 0000 0000 0000 0000
00000130: 0000 0000 0000 0000 0000 0000 0000 0000
00000140: 0000 0000 0000 0000 0000 0000 0000 0000
00000150: 0000 0000 0000 0000 0000 0000 0000 0000
00000160: 0000 0000 0000 0000 0000 0000 0000 0000
00000170: 0000 0000 0000 0000 0000 0000 0000 0000
00000180: 0000 0000 0000 0000 0000 0000 0000 0000
00000190: 0000 0000 0000 0000 0000 0000 0000 0000
000001a0: 0000 0000 0000 0000 0000 0000 0000 0000
000001b0: 0000 0000 0000 0000 0000 0000 0000 0000
000001c0: 0000 0000 0000 0000 0000 0000 0000 0000
000001d0: 0000 0000 0000 0000 0000 0000 0000 0000
000001e0: 0000 0000 0000 0000 0000 0000 0000 0000
000001f0: 0000 0000 0000 0000 0000 0000 0000 0000
0.0 0.0 0.0 0.0 0.0 0.0 0.0 0.0
0.0 0.0 0.0 0.0 0.0 0.0 0.0 0.0
0.0 0.0 0.0 0.0 0.0 0.0 0.0 0.0
0.0 0.0 0.0 0.0 0.0 0.0 0.0 0.0
0.0 0.0 0.0 0.0 0.0 0.0 0.0 0.0
0.0 0.0 0.0 0.0 0.0 0.0 0.0 0.0
0.0 0.0 0.0 0.0 0.0 0.0 0.0 0.0
0.0 0.0 0.0 0.0 0.0 0.0 0.0 0.0
0.0 0.0 0.0 0.0 0.0 0.0 0.0 0.0
0.0 0.0 0.0 0.0 0.0 0.0 0.0 0.0
0.0 0.0 0.0 0.0 0.0 0.0 0.0 0.0
0.0 0.0 0.0 0.0 0.0 0.0 0.0 0.0
0.0 0.0 0.0 0.0 0.0 0.0 0.0 0.0
0.0 0.0 0.0 0.0 0.0 0.0 0.0 0.0
0.0 0.0 0.0 0.0 0.0 0.0 0.0 0.0
0.0 0.0 0.0 0.0 0.0 0.0 0.0 0.0

action_model._discrete_distribution.branches.0.weight f4 [3, 128]
00000000: 03de 173b dd1a d33b 1e0b 05bc fbae 2abc
00000010: 4268 7eba e30a 3a3c 5030 4e3b 07a4 2a3c
00000020: 470b aabb 1502 52bb 9d3b 053c 3bb6 e9bc
00000030: e305 d5bb a907 25bb 0f7a 94bb bb70 a53b
00000040: 3906 1a3c 2716 ac3b 8f1d 263b d3d4 90bb
00000050: f5df 633c 9ee8 3e3a 47ad 643c 55ee 5bbc
00000060: 58b1 723c 3ed4 35bc d1f8 10bc 555c 20bc
00000070: 5d4e 243c 73dc 3e3b 5b7f 2fbb c8a0 5f3c
00000080: 13b2 c8bb 919d 01bb 139a 02bc 2200 533c
00000090: afb6 623c 77c4 6fb9 55d9 603b 2a5e b83b
000000a0: cf46 203b d45d 39b9 6be8 d739 c259 38bc
000000b0: a761 7d3b d468 9eba 39c7 9a3c 4b7c 59bb
000000c0: 5baf 4d39 424e f53b 4dc9 cd3c 3a1f 7c3a
000000d0: c2a7 cdbb 4f46 973b 2d1f ffba bbe4 bb3b
000000e0: 73c8 8d3a db71 f9bb 736f df3b 3ba4 0ebc
000000f0: dab5 babb 7bc6 193a bd0c 72bc 2fe5 103c
00000100: 880c 913b a4f0 873c ffde bfba 1d79 d93b
00000110: df0d 7b3a 97cf 853c 984e d939 cd80 3e3c
00000120: eb5d 2b3c d79b e23a d1b9 123b 3740 8abc
00000130: e5b1 cdbb 7fc8 d439 d1b2 09bc 8326 b93c
00000140: ccb3 233c c130 843c 2e7b 95bc 5d22 f1bb
00000150: 8882 26bc 8186 11ba 0740 6abc d0b9 593c
00000160: 60d5 d63b 2147 4cbc cc57 85bc 1873 543b
00000170: ec32 2cbc bfa1 79bc 1196 0a3b bead 063c
00000180: 4866 1bbc 4898 14bb 0d00 04bc cf48 ba3b
00000190: 5b86 d53a cf38 97bb e753 f0bb 6f83 593c
000001a0: 5bdc 84bb 482b 643c 9dfa 38bc 4390 3fbc
000001b0: 1377 1b3a 4f2b baba 6a0b 07bb 1a24 55bb
000001c0: bb79 bc3b fd16 57bc 0a92 233c 7185 c53a
000001d0: a07d 1aba 4ad8 b73b b01c 01bc a0d7 e23b
000001e0: b7d1 28bc ae78 8f3c aadf f23b 8377 733c
000001f0: 0e6a be3c bb1f 0fbb b7b1 733c dbd1 723c
00000200: 3772 9ebc d437 8a3b 1a81 d13a 9024 71bb
00000210: cd33 e7bb 4743 803a 7e21 03bc dd16 71bb
00000220: e3ec ea3b 0fca 1dbb 70af 263c 9509 e9bb
00000230: 0ff9 4c3a 19b1 29bc f359 443a 37f9 9e3b
00000240: 36f9 8e3b 125b d93b 1b4a a3bb c5ad c83b
00000250: 67cb 163c 1b35 cd39 299a 323b 762f 27bb
00000260: 0da7 20bc 5a5b 3e3b d3e4 723c a94a 0c3a
00000270: 0a78 873c 572b 86bc 37f1 88bb 3b3c af3b
00000280: 255a 823c baec d03a 2006 d7bb c323 023b
00000290: a948 01bb 3073 963b 3529 3bbb d676 3abc
000002a0: 2037 fbbb 6716 bb3b d8b7 ad3b 97d4 053c
000002b0: c50d 05bc 6340 af3c 48ba eebb 7898 ab3c
000002c0: 4f77 df3b 9779 1aba dab8 ba3a 41f9 073b
000002d0: 021b d9bb 42f7 7e3b 57c1 08ba a872 f53a
000002e0: dbab 173b 7d63 69bb a5c4 a23b 2554 79bc
000002f0: 343a 263c d093 633b 8aa9 e1bb cc7a 1c3b
00000300: 73b5 81ba b3b1 973b 999f b838 e7c3 a43b
00000310: d156 c8ba 8738 19bb fa25 6d3b ca29 96bb
00000320: 5d41 ac3c ef33 2dbb 4e5a 0fbb 03ba aa3a
00000330: 95e7 3a3c a3a2 49bb da04 973b 1d63 69bb
00000340: 8414 823c 52c7 743b 7013 353c 8b51 98bc
00000350: 4dda 2a3c 127c 603c af6c 763c c2fb 3aba
00000360: db9d 903b 3fcc 59ba 8b2a 2c3b 2e57 383c
00000370: 58b3 f73a 3318 68bc c227 05bc 9fcf 933b
00000380: a615 073a a7f7 6ebc ca21 803c ad81 d9bb
00000390: 14ed bbbb 3405 28bc 7028 073b 7a0e 13bc
000003a0: 52b8 233c 3593 523c 470b 77bc 12f2 723b
000003b0: bba4 123b 9340 de3b 5ffb 9a3c 728b 1e3c
000003c0: 6287 ffbb 5f86 243c 3b1c adbb c71f 633c
000003d0: c7cf 963c d72e 363c eb13 ecbb 1348 5cbc
000003e0: 186f 713c 19ef bdbb f212 92ba 6fa5 01bc
000003f0: 677b 053c 703a 8b3b 17d2 883c 9229 33bc
0.00231731 0.0064424113 -0.008120326 -0.010417695 -0.00097048667 0.011355135 0.0031461902 0.010415084
-0.0051893326 -0.0032044698 0.008131889 -0.028529277 -0.006500946 -0.0025181568 -0.004531152 0.005048839
0.009400898 0.005251664 0.0025347208 -0.004419902 0.013908376 0.00072825875 0.013957328 -0.013423522
0.01481279 -0.011097966 -0.008848385 -0.009787639 0.010028449 0.0029123097 -0.002677879 0.013649173
-0.0061247437 -0.0019777755 -0.0079713045 0.01287845 0.0138375005 -0.00022866005 0.0034309227 0.0056264596
0.0024456268 -0.00017677929 0.0004118116 -0.011251869 0.0038662942 -0.0012085685 0.018893825 -0.0033185657
0.00019615648 0.0074861357 0.025120402 0.000961769 -0.006276102 0.0046165357 -0.0019464247 0.005734054
0.0010817185 -0.0076124496 0.0068187057 -0.008706148 -0.005697948 0.0005866063 -0.014773545 0.008843704
0.0044265427 0.016594239 -0.0014638602 0.0066367523 0.0009576957 0.016334338 0.00041448022 0.011627388
0.0104594035 0.0017288876 0.0022388587 -0.016876323 -0.00627731 0.00040585172 -0.00840445 0.022601372
0.009991597 0.016136529 -0.018247213 -0.0073588328 -0.010162957 -0.00055513537 -0.014297492 0.01328893
0.006556198 -0.01246813 -0.016277216 0.0032417234 -0.010510188 -0.015236317 0.0021146575 0.008220134
-0.009484835 -0.0022673775 -0.008056653 0.005684949 0.0016290651 -0.0046149264 -0.0073342207 0.013275965
-0.0040545887 0.013926335 -0.01129022 -0.0116921095 0.0005930524 -0.0014203581 -0.0020606169 -0.003252274
0.005751816 -0.013128039 0.009983549 0.0015069676 -0.00058933534 0.0056105005 -0.007880375 0.006922677
-0.010303906 0.0175136 0.0074119167 0.014860037 0.02324393 -0.0021838981 0.0148739135 0.014820541
-0.019341571 0.004218081 0.001598391 -0.0036795475 -0.0070557357 0.0009785675 -0.008003591 -0.003678731
0.0071693524 -0.0024076735 0.0101736635 -0.007111738 0.0007819095 -0.010357165 0.000749021 0.004851486
0.0043632044 0.006633171 -0.0049831993 0.0061242306 0.009203768 0.00039140214 0.002725253 -0.0025510467
-0.009805453 0.002904615 0.014825064 0.00053517014 0.016536731 -0.016378088 -0.0041791457 0.005347756
0.015912125 0.0015939691 -0.0065620095 0.0019857741 -0.0019727147 0.004591368 -0.0028558497 -0.011380872
-0.0076664835 0.0057094577 0.005301457 0.008168361 -0.008120959 0.021393007 -0.00728539 0.020946726
0.0068196426 -0.0005892752 0.0014245764 0.0020747932 -0.006625534 0.0038904701 -0.0005216798 0.0018726187
0.0023143205 -0.0035612278 0.0049672895 -0.0152178155 0.010145713 0.0034725554 -0.0068866657 0.0023876904
-0.0009895995 0.0046293377 8.803531e-05 0.005028236 -0.0015284662 -0.002337964 0.0036185966 -0.0045826184
0.021027261 -0.002642866 -0.0021873894 0.0013025407 0.0114077525 -0.0030767105 0.0046087326 -0.0035612055
0.015878923 0.003735025 0.011051998 -0.01859357 0.0104280235 0.013701456 0.015040561 -0.0007132852
0.004413349 -0.0008308328 0.0026270475 0.011251254 0.0018898053 -0.014165926 -0.008127155 0.0045108343
0.0005153067 -0.014585412 0.015641112 -0.006637773 -0.005735049 -0.010255147 0.0020623468 -0.008975619
0.009992676 0.01285248 -0.015078372 0.0037070555 0.002237602 0.0067826 0.018918691 0.009676801
-0.0077981213 0.010041802 -0.0052829063 0.013862557 0.018409623 0.011119566 -0.007204523 -0.013444918
0.0147359595 -0.005796325 -0.0011144562 -0.007912978 0.008147097 0.0042489097 0.016701741 -0.010935204

action_model._discrete_distribution.branches.0.bias f4 [3]
00000000: 0000 0000 0000 0000 0000 0000
0.0 0.0 0.0

network_body._body_endoder.seq_layers.0.weight f4 [128, 6]
00000000: fb11 333c 30b4 f0be 5a8b 9cbe c342 183f
00000010: 4b9b 67bc 97b5 17bf 45ed 023f 97f3 16bf
00000020: a66b 6e3e ee87 8e3f cf2f 063f 2662 bf3e
00000030: e282 21be a18b df3d 45eb 8ebd f732 cc3d
00000040: 4e75 073f ee8b babe 1c63 b8bd e7b4 4bbe
00000050: a96e 26be 0e33 21be 9577 d9be fc03 93bd
00000060: 377a 3cbf 7f53 49be b9de d2bd 99ae d13e
00000070: dd07 9b3e 315f 3abd b7be 1e3e 3551 6c3e
00000080: 2e7d 203e 0299 113f f1da 343f 2ee2 063f
00000090: 51c2 933d a57a e7bc b543 02be a4d0 a4be
000000a0: 277b 833b 01b5 303e a131 98be c2e8 063e
000000b0: 8331 82bd c2fe c3bd 7f4b 493e fc03 a83d
000000c0: f463 353e 5278 563f bc55 a43d c896 263e
000000d0: 21d3 84be b2fd 43be e35a 98bd 24b3 953e
000000e0: 78e3 2d3f dd3a 353e e21a 2abe 108d 6dbe
000000f0: 169b 613e c05e 523f e4e8 70be 53ac 12bf
00000100: ed3f 48be 95b8 37bd 3edb 833d f9b1 c53d
00000110: cd52 a23c 30d9 aebe 0e49 2bbd 1daf 1c3f
00000120: eeec 793e 21fc 27be f4e3 53bd a8a0 7e3e
00000130: 3916 eebd ec76 d6be 5fe3 2b3f 0880 14be
00000140: 8622 23be e7fe 85bd 4f57 04bf 5b54 d8bd
00000150: af06 0abf 049e bdbe 038a 4a3f efa2 433f
00000160: 1d5e 0f3f 394f 4f3f fe9a 743d edec c3be
00000170: c407 1f3e 9a8a 083e b408 153e 09c3 4a3d
00000180: 59ce 42bd 564a 77be 7ffb dd3d cdf0 0c3f
00000190: de50 36bd 543d 0a3f c14c 023f 8639 cbbe
000001a0: 1b69 1cbd 4f6b be3e 76a0 64be 2c21 25bd
000001b0: 08a8 f9bc 80a3 d83d 246d 913e 0369 5fbf
000001c0: dd5a 903e a3a1 903d 3ffb a23e ae0f 96be
000001d0: 76eb 90be 581f de3d 5a4a adbe 25ff cbbe
000001e0: ad70 af3d 7440 b43e 9e92 183f f221 02bd
000001f0: 5ba8 023d d1c0 17be f322 8c3e 35b0 1c3f
00000200: cd61 36bd fd09 603f 3ff0 70be 2d95 623e
00000210: 7c7d fe3e 5cd6 07bf 16fb ccbe e13e d03e
00000220: 72ca 5bbf e873 dcbd 6ee7 03be 70a5 63be
00000230: 1de8 cabe 4e5a 82bb 2d98 50bf bb88 01bf
00000240: 68d0 9dbe 9a04 533d 693e 0fbe 8872 12be
00000250: 1d0c 683e 3499 b2bd 9b39 993e eab4 36bf
00000260: 7b73 17bf 2781 e03e babe eabd 920b cbbd
00000270: 219d db3d d521 9d3e cedd d2be 421f 2a3f
00000280: 9140 b2be e03f b2be 51c8 603f dfcb 033d
00000290: 3ff9 09bf 894c 713f fe6b 723e f9de e2bd
000002a0: 2faf 0a3f ad99 953d 2ea0 db3e 4368 983f
000002b0: 79d7 24bb a266 b43e 58eb 1bbf cd87 643f
000002c0: 5213 94be 52f8 2ebe 1370 0c3f 2fc4 03bf
000002d0: aa4a 313f d6e8 18bf 00e1 183d 232c 1fbd
000002e0: 478b 7fbe a72d bc3e 5d4f ad3e 7850 f23d
000002f0: 8390 0d3f 3cc0 933c 14a9 79be 7bcf 5d3e
00000300: 96e0 b33d 116a e9be 005e ac3e 0fda e73d
00000310: ed95 17be a2a0 9abe 070b 1dbf e773 b63b
00000320: 9820 b63e 008f 913e 13d8 753d 8121 aabe
00000330: d299 02bf 6e63 103f 015c 863e c427 423e
00000340: ddc3 d63e e8f5 a73e 2b01 20be 0294 86bd
00000350: b886 473f c475 b03d f269 d73d 7f84 293f
00000360: 411f 003f eb58 a63e ef8b bfbe e7e6 7dbf
00000370: e7b7 d5be 065a 203f da80 023f 5bee 08bf
00000380: a78d b9bd 80f5 ac3e 69bf 943e 6880 81be
00000390: 0ebf 6d3e 6a04 563f 9aa1 a23e 9298 41bd
000003a0: 9704 b23e 90b8 3bbf e86b 41be 60ca 04bf
000003b0: e391 563e b66d 4b3d 7db2 7a3f fcdd 8b3c
000003c0: 23c8 a4bd fc8f 783e 7b6b 45bf 61ec c7be
000003d0: 8297 27bf 66cb ab3e b851 45bf 4aaf 213e
000003e0: 97a4 df3e 46dc 40be 221d 143e c14a d2bc
000003f0: 2e96 f6be 14de 313e f266 a0be f05b fb3d
0.01092958 -0.47012472 -0.30575067 0.5947687 -0.014136146 -0.5926146 0.51143295 -0.5896544
0.23283252 1.1135232 0.524167 0.3737957 -0.15772584 0.10915304 -0.06978468 0.09970658
0.5291337 -0.36434883 -0.090032786 -0.19893228 -0.16253151 -0.15742132 -0.42474046 -0.07178494
-0.73623985 -0.19660757 -0.10296387 0.4095352 0.30279437 -0.045500938 0.1550244 0.23077853
0.15672752 0.56874096 0.7064658 0.5268887 0.07214797 -0.028256724 -0.1272114 -0.3219043
0.0040124836 0.17256548 -0.29725364 0.13174728 -0.063571 -0.095700756 0.19657706 0.08203885
0.1771391 0.83777344 0.08024165 0.16268456 -0.2594233 -0.19139746 -0.0743921 0.29238236
0.67925215 0.17698236 -0.16611817 -0.23198342 0.22031817 0.8217583 -0.2352634 -0.57294196
-0.19555636 -0.044853766 0.064383015 0.09653086 0.019814873 -0.34150076 -0.041817717 0.612047
0.24406788 -0.16404773 -0.051731065 0.24865973 -0.116253324 -0.41887605 0.67143816 -0.14501965
-0.15931138 -0.065427594 -0.5169572 -0.105629645 -0.5391645 -0.3703462 0.7911684 0.7642049
0.5600298 0.8098026 0.059718125 -0.38266698 0.15530306 0.13334122 0.14554101 0.049502406
-0.04756007 -0.2414945 0.10838985 0.5505493 -0.044510715 0.5399983 0.5089837 -0.39692324
-0.038186174 0.37191245 -0.22326836 -0.04031484 -0.030475631 0.1057806 0.2840358 -0.8726961
0.28194323 0.0706208 0.3183231 -0.29308838 -0.28304642 0.10845822 -0.33845788 -0.39843097
0.08566413 0.35205424 0.5959872 -0.031770654 0.031898838 -0.14819647 0.27370414 0.6120637
-0.044526864 0.8751524 -0.23529147 0.22127219 0.49705112 -0.5306146 -0.40035313 0.40672973
-0.8585578 -0.10764295 -0.12881252 -0.22231078 -0.39630213 -0.0039780503 -0.814822 -0.5059926
-0.30823064 0.05151806 -0.13988651 -0.14301503 0.22660871 -0.087206274 0.29926762 -0.713698
-0.59160584 0.43848535 -0.114621595 -0.09914316 0.10723329 0.30689874 -0.4118485 0.66453946
-0.34814885 -0.34814358 0.8780566 0.03217685 -0.53895944 0.9425741 0.23674008 -0.11077685
0.5417356 0.07304702 0.42895645 1.1906818 -0.0025152846 0.35234553 -0.6090598 0.89269716
-0.2892099 -0.17086914 0.5485851 -0.5147123 0.69254553 -0.5973028 0.03732395 -0.03886045
-0.24955474 0.3675358 0.33849612 0.118317544 0.5529863 0.018036 -0.24380904 0.21661179
0.08783071 -0.45588735 0.33665466 0.11320888 -0.14803286 -0.30200678 -0.6134495 0.005568016
0.35571742 0.28429413 0.060020518 -0.33228686 -0.5101596 0.5640172 0.26242068 0.18960482
0.41946307 0.328048 -0.15625446 -0.06571199 0.7793994 0.08616212 0.10518254 0.662178
0.5004769 0.32489714 -0.37411448 -0.99180454 -0.4174187 0.62637365 0.5097786 -0.534887
-0.09060221 0.33781052 0.29052284 -0.2529328 0.23217413 0.83600485 0.31763917 -0.047264643
0.34769127 -0.73328495 -0.18888819 -0.518713 0.20954089 0.049665175 0.979286 0.017073624
-0.080459855 0.24273676 -0.7711713 -0.3904753 -0.6546556 0.33553618 -0.7707782 0.15789524
0.4368026 -0.18834028 0.14464238 -0.025670411 -0.48161453 0.17369872 -0.3132854 0.12273395

network_body._body_endoder.seq_layers.0.bias f4 [128]
00000000: 0000 0000 0000 0000 0000 0000 0000 0000
00000010: 0000 0000 0000 0000 0000 0000 0000 0000
00000020: 0000 0000 0000 0000 0000 0000 0000 0000
00000030: 0000 0000 0000 0000 0000 0000 0000 0000
00000040: 0000 0000 0000 0000 0000 0000 0000 0000
00000050: 0000 0000 0000 0000 0000 0000 0000 0000
00000060: 0000 0000 0000 0000 0000 0000 0000 0000
00000070: 0000 0000 0000 0000 0000 0000 0000 0000
00000080: 0000 0000 0000 0000 0000 0000 0000 0000
00000090: 0000 0000 0000 0000 0000 0000 0000 0000
000000a0: 0000 0000 0000 0000 0000 0000 0000 0000
000000b0: 0000 0000 0000 0000 0000 0000 0000 0000
000000c0: 0000 0000 0000 0000 0000 0000 0000 0000
000000d0: 0000 0000 0000 0000 0000 0000 0000 0000
000000e0: 0000 0000 0000 0000 0000 0000 0000 0000
000000f0: 0000 0000 0000 0000 0000 0000 0000 0000
00000100: 0000 0000 0000 0000 0000 0000 0000 0000
00000110: 0000 0000 0000 0000 0000 0000 0000 0000
00000120: 0000 0000 0000 0000 0000 0000 0000 0000
00000130: 0000 0000 0000 0000 0000 0000 0000 0000
00000140: 0000 0000 0000 0000 0000 0000 0000 0000
00000150: 0000 0000 0000 0000 0000 0000 0000 0000
00000160: 0000 0000 0000 0000 0000 0000 0000 0000
00000170: 0000 0000 0000 0000 0000 0000 0000 0000
00000180: 0000 0000 0000 0000 0000 0000 0000 0000
00000190: 0000 0000 0000 0000 0000 0000 0000 0000
000001a0: 0000 0000 0000 0000 0000 0000 0000 0000
000001b0: 0000 0000 0000 0000 0000 0000 0000 0000
000001c0: 0000 0000 0000 0000 0000 0000 0000 0000
000001d0: 0000 0000 0000 0000 0000 0000 0000 0000
000001e0: 0000 0000 0000 0000 0000 0000 0000 0000
000001f0: 0000 0000 0000 0000 0000 0000 0000 0000
0.0 0.0 0.0 0.0 0.0 0.0 0.0 0.0
0.0 0.0 0.0 0.0 0.0 0.0 0.0 0.0
0.0 0.0 0.0 0.0 0.0 0.0 0.0 0.0
0.0 0.0 0.0 0.0 0.0 0.0 0.0 0.0
0.0 0.0 0.0 0.0 0.0 0.0 0.0 0.0
0.0 0.0 0.0 0.0 0.0 0.0 0.0 0.0
0.0 0.0 0.0 0.0 0.0 0.0 0.0 0.0
0.0 0.0 0.0 0.0 0.0 0.0 0.0 0.0
0.0 0.0 0.0 0.0 0.0 0.0 0.0 0.0
0.0 0.0 0.0 0.0 0.0 0.0 0.0 0.0
0.0 0.0 0.0 0.0 0.0 0.0 0.0 0.0
0.0 0.0 0.0 0.0 0.0 0.0 0.0 0.0
0.0 0.0 0.0 0.0 0.0 0.0 0.0 0.0
0.0 0.0 0.0 0.0 0.0 0.0 0.0 0.0
0.0 0.0 0.0 0.0 0.0 0.0 0.0 0.0
0.0 0.0 0.0 0.0 0.0 0.0 0.0 0.0

network_body._body_endoder.seq_layers.2.weight f4 [128, 128]
00000000: 49c1 903d ac65 05be aae4 05ba 46e8 053c
00000010: 0a7e bdbd ba81 e3bd 7585 56bd 3da7 033d
00000020: 73a1 d2bd f649 f83d 1d67 8c3d 4e42 d53d
00000030: 603d e23d a2cb 593d 7ebd 83bd 3c60 fbbd
00000040: 0a20 04bd 0a8c 833d 98ea bcbc 305e 393e
00000050: fb83 96bc c5f7 e7ba b72b 21bc f36f e63d
00000060: 27ec dfbd 72a5 5d3d 1ec1 c6bc 22c4 b5bc
00000070: 2874 913c 527b 8fbd b0b2 9f3d f4ae 373d
00000080: 58e0 d6bd 5d05 f13c 3ba8 903d 8b75 0e3c
00000090: 6e1c 98bd b1c4 613d 2d95 cb3d af86 cb3c
000000a0: 26d6 273d 456f b6bc 82d2 39bd 32b7 ffbd
000000b0: 7171 fb3c 937d d1bc 6ac9 7fbd 9d08 d33d
000000c0: 1e68 3a3d 706d ec3b 201e 9cbc 8659 883d
000000d0: f164 873d 8d96 5cbd 7d81 10bd 571d aabd
000000e0: 7dfe 8bbd 968c a4bd dfba 423e 5622 51bd
000000f0: 373d 0d3e 3013 4dbd 93c5 8d3c 95df 293c
00000100: 85b3 80bc 249b 1fbc f78d 513d 796a 6c3d
00000110: 4868 723d c237 24be 0997 08bd 4916 cbbd
00000120: 3e95 ad3d 3ed6 c53d bc89 8abd 3827 3c3d
00000130: e2ba 38bd 518d f33c 1f40 bd3c 17cd 41be
00000140: 3e0a af3d 8ddf bd3c 40a0 c43d 9978 e4bd
00000150: d85b 9d3d 91db eb3c b873 30be 0376 e63d
00000160: 1193 193d 6d8b cdbd 45b5 07be f616 59be
00000170: d5b5 1fbe 71c3 983d ef93 b73d aaab 09bd
00000180: fa1d 05be e5bb aa3d 4cc0 533d 8a61 b1bc
00000190: 1cb6 85bd 7d23 f03c fd9d 233d a0d8 c2bd
000001a0: e031 42be efe6 3f3b 1c6e 27bd fabe ea3d
000001b0: c3e2 7ebd fa64 4a3e 0e0b 153c d077 b3bc
000001c0: adc8 733d a0f4 2fbd de83 933d d56a a13c
000001d0: 5e14 70bd 4d4b ce3d 99ae 8ebb 4e30 00be
000001e0: a912 ed3a cc99 8bbd 1cf2 8cbc 74b5 0b3e
000001f0: 8190 81bd 4b0f 603d 65b3 28bd b2fd abbd
00000200: 2c1a 913d 602f a8bd bced 1abe 3f1c 95bd
00000210: c517 1abd 1b9d 1cbe 21fa bd3c 2dc3 03bd
00000220: 5ae2 24be df74 883d 7a0b c2bd 6515 c23d
00000230: de7f 52bd 787c e73c 136f c53d 045b 343d
00000240: 13f6 be3d 69dd 523d d85c aabd 7f70 ed3d
00000250: 885e e43c 5a5e 893c 4442 0c3e 88fd 96bd
00000260: 503f 18be b276 f13c f6b2 093e d47e 4ebc
00000270: e86b 393c 53f7 293d 646e 85bd 39ee cabd
00000280: 8351 a9bd 9c3d 673d 3039 1e3c 82ac 42be
00000290: f307 0dbe 9180 9abc 251e 413c 0f07 063d
000002a0: 4262 eabc 9b49 29be fac1 693d 6003 813a
000002b0: b64f 01be 7703 fcba 814c dd3c 8f04 bdbc
000002c0: c74d 2dbc d304 ccbd 2daf 42be d109 373e
000002d0: 654a 593b 1c8e 93bd a837 07be 58bb 753e
000002e0: f734 a0bc 255b 8b3e 1eb4 353e cb81 bb3b
000002f0: d653 f3bb 9860 a43d 9dbd 80bc c3b0 03bd
00000300: b742 febc 4834 9a3d 62f1 b03d 1864 893d
00000310: e3ac a53d e696 cfbd f9f1 a93d 397f 2e3e
00000320: 83d3 5d3d dedb f33d e979 f73d c7b0 1dbe
00000330: c56c a83d 7dc5 e73d 28a7 a73d 6869 aa3d
00000340: b73d eb3d 1c9d 14be 1508 1f3d 2f20 7f3d
00000350: afda 343d 5127 bdbd 08a6 c23c 4c96 673d
00000360: eef4 f1bc 0c30 a8bd e0f9 50bc db67 383d
00000370: 6225 2abe 2ed3 f23d db3c a53d 6786 553d
00000380: bb7c 67bd 00c1 0dbd 24da 6d3d 495a cc3c
00000390: 8b4d b83d 201e 42bd d780 70bd 6799 c0bd
000003a0: 7518 223d f295 31bc 15c6 483b 1734 873c
000003b0: 15bb 273e 052f cf3b 2dcb c3bd f6d3 633d
000003c0: e818 ad3d 9e67 05be aa1b ddbd 0f80 f53d
000003d0: d2fb 81bd 2ced d5bd ed5a 84bd b97b debd
000003e0: e501 373c 4263 a0bd 7f10 533c e96f 24bc
000003f0: 91e3 2ebd 5fb2 003e 9424 8f3d cc49 8b3b
0.07068116 -0.13027066 -0.0005107621 0.008173054 -0.09252556 -0.11108728 -0.05237337 0.032141913
-0.102847 0.12123482 0.06855605 0.10413037 0.110468626 0.053172715 -0.06432627 -0.122742146
-0.032257117 0.06423195 -0.023061082 0.18102336 -0.01837348 -0.0017697742 -0.009837083 0.11251821
-0.10933714 0.05411286 -0.024262007 -0.02218825 0.017755583 -0.07005943 0.07797754 0.044844583
-0.10492009 0.029421503 0.070633374 0.008695017 -0.074272975 0.05511922 0.099405624 0.024844496
0.040975712 -0.022269854 -0.04536677 -0.124861136 0.030693742 -0.025572574 -0.062447943 0.10304377
0.04550945 0.0072151944 -0.019057333 0.066577 0.0661105 -0.053854514 -0.03527974 -0.083063774
-0.06835649 -0.08034627 0.19016598 -0.051058136 0.13792883 -0.050067127 0.017306125 0.0103682475
-0.015710602 -0.009741578 0.05116078 0.057718728 0.05918148 -0.16036895 -0.033347163 -0.0991636
0.08475731 0.09660004 -0.06764552 0.04593584 -0.0451001 0.02973047 0.023101864 -0.18925892
0.085468754 0.023177886 0.09600878 -0.11155815 0.076835334 0.02879122 -0.17231643 0.11252978
0.03749377 -0.10036359 -0.13252743 -0.21200165 -0.15596707 0.074591525 0.08963763 -0.033610977
-0.12999716 0.08336619 0.05169706 -0.021652956 -0.06528875 0.029313797 0.03994559 -0.09513974
-0.18964338 0.0029281934 -0.040876493 0.11462207 -0.062227976 0.19765082 0.009096874 -0.021907717
0.05951755 -0.042957902 0.07202886 0.019704262 -0.058613174 0.10072956 -0.0043543098 -0.12518427
0.0018087226 -0.06816444 -0.01720529 0.13643438 -0.0632639 0.054702085 -0.04118671 -0.08397998
0.0708507 -0.08212161 -0.15129751 -0.07280778 -0.037620325 -0.15294306 0.02319056 -0.032168556
-0.16101971 0.066629164 -0.09474845 0.09476737 -0.051391475 0.028257594 0.09640326 0.04403211
0.09324279 0.051480684 -0.0831849 0.115937226 0.027877107 0.016768623 0.13697153 -0.07372576
-0.14867902 0.029475544 0.13447174 -0.01260348 0.011317231 0.041495632 -0.06515196 -0.099087186
-0.082675 0.05645524 0.009657189 -0.19011119 -0.13772564 -0.018860133 0.011786972 0.032721575
-0.028611306 -0.16531985 0.057069756 0.0009842925 -0.12628064 -0.0019227107 0.027014019 -0.023073463
-0.010577626 -0.09961858 -0.19012137 0.17874838 0.0033155915 -0.072048396 -0.13204825 0.23997247
-0.019556506 0.27217975 0.1774449 0.0057222596 -0.0074257655 0.08026236 -0.015715415 -0.032150995
-0.031037671 0.07529503 0.0863979 0.067085445 0.08089616 -0.101362035 0.08298106 0.17040719
0.05415679 0.11907171 0.120837994 -0.15399466 0.08223871 0.11316965 0.081861794 0.08320886
0.114863805 -0.14513057 0.038826067 0.062286552 0.044153865 -0.09236015 0.02376081 0.05653982
-0.029535737 -0.08212289 -0.012754887 0.04502092 -0.16615823 0.118566856 0.08068248 0.05213013
-0.056515437 -0.034607887 0.058069363 0.024945395 0.08999165 -0.04739201 -0.05871662 -0.09404259
0.039574105 -0.010838972 0.0030635644 0.01650433 0.1637996 0.006322744 -0.09560237 0.055622064
0.08452016 -0.13027808 -0.10796292 0.11987316 -0.06346859 -0.104456276 -0.06462655 -0.10863442
0.011169885 -0.07831432 0.012882351 -0.010036447 -0.042697493 0.12568043 0.069893986 0.0042507406

network_body._body_endoder.seq_layers.2.bias f4 [128]
00000000: 0000 0000 0000 0000 0000 0000 0000 0000
00000010: 0000 0000 0000 0000 0000 0000 0000 0000
00000020: 0000 0000 0000 0000 0000 0000 0000 0000
00000030: 0000 0000 0000 0000 0000 0000 0000 0000
00000040: 0000 0000 0000 0000 0000 0000 0000 0000
00000050: 0000 0000 0000 0000 0000 0000 0000 0000
00000060: 0000 0000 0000 0000 0000 0000 0000 0000
00000070: 0000 0000 0000 0000 0000 0000 0000 0000
00000080: 0000 0000 0000 0000 0000 0000 0000 0000
00000090: 0000 0000 0000 0000 0000 0000 0000 0000
000000a0: 0000 0000 0000 0000 0000 0000 0000 0000
000000b0: 0000 0000 0000 0000 0000 0000 0000 0000
000000c0: 0000 0000 0000 0000 0000 0000 0000 0000
000000d0: 0000 0000 0000 0000 0000 0000 0000 0000
000000e0: 0000 0000 0000 0000 0000 0000 0000 0000
000000f0: 0000 0000 0000 0000 0000 0000 0000 0000
00000100: 0000 0000 0000 0000 0000 0000 0000 0000
00000110: 0000 0000 0000 0000 0000 0000 0000 0000
00000120: 0000 0000 0000 0000 0000 0000 0000 0000
00000130: 0000 0000 0000 0000 0000 0000 0000 0000
00000140: 0000 0000 0000 0000 0000 0000 0000 0000
00000150: 0000 0000 0000 0000 0000 0000 0000 0000
00000160: 0000 0000 0000 0000 0000 0000 0000 0000
00000170: 0000 0000 0000 0000 0000 0000 0000 0000
00000180: 0000 0000 0000 0000 0000 0000 0000 0000
00000190: 0000 0000 0000 0000 0000 0000 0000 0000
000001a0: 0000 0000 0000 0000 0000 0000 0000 0000
000001b0: 0000 0000 0000 0000 0000 0000 0000 0000
000001c0: 0000 0000 0000 0000 0000 0000 0000 0000
000001d0: 0000 0000 0000 0000 0000 0000 0000 0000
000001e0: 0000 0000 0000 0000 0000 0000 0000 0000
000001f0: 0000 0000 0000 0000 0000 0000 0000 0000
0.0 0.0 0.0 0.0 0.0 0.0 0.0 0.0
0.0 0.0 0.0 0.0 0.0 0.0 0.0 0.0
0.0 0.0 0.0 0.0 0.0 0.0 0.0 0.0
0.0 0.0 0.0 0.0 0.0 0.0 0.0 0.0
0.0 0.0 0.0 0.0 0.0 0.0 0.0 0.0
0.0 0.0 0.0 0.0 0.0 0.0 0.0 0.0
0.0 0.0 0.0 0.0 0.0 0.0 0.0 0.0
0.0 0.0 0.0 0.0 0.0 0.0 0.0 0.0
0.0 0.0 0.0 0.0 0.0 0.0 0.0 0.0
0.0 0.0 0.0 0.0 0.0 0.0 0.0 0.0
0.0 0.0 0.0 0.0 0.0 0.0 0.0 0.0
0.0 0.0 0.0 0.0 0.0 0.0 0.0 0.0
0.0 0.0 0.0 0.0 0.0 0.0 0.0 0.0
0.0 0.0 0.0 0.0 0.0 0.0 0.0 0.0
0.0 0.0 0.0 0.0 0.0 0.0 0.0 0.0
0.0 0.0 0.0 0.0 0.0 0.0 0.0 0.0

value_heads.value_heads.extrinsic.weight f4 [1, 128]
00000000: 4fe1 03be c3e4 3abe 4891 d7bd e952 31be
00000010: 0253 86bd 21d0 06be 4cbb dcbd 7238 80bd
00000020: ded3 523e 109b 9cbd 00f9 283e eb84 35be
00000030: 1a3f 0a3e b851 5b3d 8cf7 0abe 00b7 333d
00000040: 1c9a 8a3d 4225 5a3e dc5f 2cbd 2016 9cbb
00000050: e055 a3bb 90f3 d53d 58a8 b5bc ecbe a1bd
00000060: 67e1 3fbe 9815 fd3c 3406 63bd f2ec 583e
00000070: 8854 563d 3a02 543e afe4 02be 60f8 903c
00000080: c0d6 503d 4291 39be 5732 3abe 18fe 1abe
00000090: 6069 92bb 1d22 57be f09c c2bd ace7 b63d
000000a0: 7496 b73d 5486 42be c01a b5bb f08f cc3d
000000b0: 679f 21be bc3e 51bd 0000 473a 5443 2ebe
000000c0: 8222 4f3e c69b 37be e8ce 5a3d 3ec5 103e
000000d0: 8617 32be 5ac7 513e f0bf 9ebd d403 5cbd
000000e0: 3447 e93d a8ce e73d d856 ddbc c20b ccbd
000000f0: fe85 313e 86b1 0b3e 689a 083d 242d 6bbd
00000100: cc8f c63d 4607 80bd aa50 463e 283c 0e3d
00000110: 5a80 17be 2886 29bd 6809 3c3d 9830 c83c
00000120: 10ec 213d 9487 02bd 81c3 59be 04e9 c23d
00000130: d832 863d 5e8c 3ebe 824f 03be 62f8 c7bd
00000140: 80aa 213d a0c6 78bd 8495 803d 3c22 153e
00000150: 451f bbbd 30e3 77bd e08c 833d 9098 71bc
00000160: a0aa babc fcbb 333e dc6e eb3d f1da 59be
00000170: 02b0 303e 442d d13d e042 d3bb 98d9 303d
00000180: e70d 0ebe 6445 18be b2be 373e b613 123e
00000190: ce81 5a3e 7019 533e e83c 1e3d 4833 76bd
000001a0: f283 adbd bcbf 9dbd 38b2 c53d c074 f63d
000001b0: c277 e9bd 164c c0bd 7ce3 8d3d a0f6 903b
000001c0: 0c07 aa3d 149c 6fbd 9cc9 e13d 0f8a 2abe
000001d0: 1cf5 d33d 4cac ea3d 5875 fb3d 66ee 013e
000001e0: b00c 393c 6cf5 23bd 8075 b33d 42ff 273e
000001f0: c2b1 19be 0a18 dfbd 84e1 a43d 064b 0c3e
-0.12878917 -0.18251328 -0.10525757 -0.17316784 -0.06558801 -0.13165332 -0.107779115 -0.06260766
0.20588633 -0.07646763 0.16501236 -0.17726485 0.13500634 0.05354473 -0.13570994 0.043875694
0.06767675 0.21303275 -0.042083606 -0.0047633797 -0.0049846023 0.104468465 -0.022175 -0.078977436
-0.18738328 0.030894086 -0.055425838 0.21184137 0.05232671 0.20703974 -0.12782548 0.01769656
0.05098605 -0.18121818 -0.18183266 -0.15135992 -0.004468128 -0.21009107 -0.0950259 0.08930907
0.089642435 -0.18996555 -0.0055268705 0.099883914 -0.15783463 -0.05108522 0.00075912476 -0.17017871
0.20228007 -0.17930517 0.053419977 0.14137742 -0.17391786 0.20486203 -0.07751453 -0.05371459
0.11390534 0.113187134 -0.02701895 -0.0996318 0.1733627 0.13641939 0.03335038 -0.057416096
0.09695396 -0.06251387 0.19366708 0.03472534 -0.14795056 -0.041387707 0.045907408 0.024437234
0.039531767 -0.03186758 -0.21265985 0.095171005 0.065526664 -0.18608233 -0.12823299 -0.09764172
0.039469242 -0.0607363 0.06278518 0.1456384 -0.091368236 -0.060519397 0.06423354 -0.014745846
-0.022786438 0.17552179 0.11495754 -0.21274926 0.17254642 0.10213712 -0.006447181 0.043176264
-0.13872491 -0.1487022 0.17943838 0.14265332 0.21338579 0.20615172 0.038632303 -0.0601075
-0.08472432 -0.07702586 0.09653133 0.12033987 -0.11399795 -0.09389512 0.06928155 0.0044239312
0.08302125 -0.058498457 0.11024782 -0.16654228 0.10349485 0.11458644 0.12278241 0.12688598
0.011294529 -0.040028974 0.08762646 0.16405967 -0.15009215 -0.10893257 0.08050826 0.13700494
