results/DemoRun/MoveToBall/MoveToBall-499992.pt (torch, 439453 bytes, 33 tensors)

network_body._body_endoder.seq_layers.0.weight f4 [128, 6]
000000 fb 11 cf be 33 46 7e 3e 10 a2 f3 be b0 9a 26 bf
       -0.40443406 0.24831466 -0.4758458 -0.65079784
000010 22 bb ba be 6b 3d 37 bf 75 b0 5d be cc 7a 56 3e
       -0.36470896 -0.7157809 -0.21649344 0.20945281
000020 03 b0 f2 be e5 2c e7 be 62 50 4c be f5 d5 db 3e
       -0.4739991 -0.4515144 -0.19952539 0.42936674
000030 ea 2f 83 be b3 14 1e be e0 99 a8 bd be 87 d5 bb
       -0.25622493 -0.15437584 -0.08232474 -0.006516426
000040 b5 50 42 bf 2b fe 5a 3f 1f 2c 8d be a5 14 19 bf
       -0.759044 0.8554408 -0.27572724 -0.59797126
000050 73 52 f8 bd f9 cd 4c 3f 8e df d9 3e 31 9b 72 3e
       -0.12125101 0.8000179 0.4255337 0.23692013
000060 d9 2f 80 3e 4f b1 f5 bc a2 79 90 3e 53 d8 3a bf
       0.25036505 -0.029991774 0.28217798 -0.72986335
000070 6d 42 24 bf a7 de 3e 3e d5 23 6b be b8 0e 95 3f
       -0.6416386 0.18639623 -0.22962888 1.1645117
000080 53 4c 14 3d 5e a2 44 3e 36 f5 91 3e 2d fe c8 be
       0.0362056 0.19202563 0.28507394 -0.3925642
000090 71 5c 25 3e d9 9e 44 3d f5 36 c4 3e 51 05 b4 be
       0.16148545 0.04800305 0.3832318 -0.35160306
0000a0 88 ce e4 be 92 f3 03 be 0f da 4c be 86 0d 84 bc
       -0.4468882 -0.12885883 -0.20005058 -0.01611973
0000b0 e4 af bc 3e 5d 2f 86 be 0b 1f ab 3e 1f 25 64 3e
       0.36852944 -0.2620801 0.3342212 0.22279786
0000c0 3e ba 43 3f 87 b7 5b be 99 51 9d 3e 96 b3 28 be
       0.7645606 -0.21456729 0.30726317 -0.16474757
0000d0 e4 93 70 3e c7 76 d2 bd fe 71 36 be 75 d2 dc be
       0.23493916 -0.10276561 -0.17816922 -0.43129316
0000e0 a9 33 bb 3e bb 7b a6 3d 2b 8a 71 be 57 e0 7a 3f
       0.3656285 0.081290685 -0.23587863 0.97998565
0000f0 bb 13 0e be f7 2c dd be ef 10 6f be da ec 59 3f
       -0.13874714 -0.43198368 -0.23346303 0.8512703
000100 7a f7 72 bf 9f f3 56 be 23 78 91 be ba 65 33 bd
       -0.9490887 -0.20991372 -0.2841197 -0.043798186
000110 ba f0 08 bf ee 07 a5 be 7f e4 f9 be b6 5b 07 3f
       -0.5349232 -0.32232612 -0.4880714 0.52874315
000120 5d 1a 72 bf 7b 68 d8 bc 6f 4d a2 3e 5f 26 52 3e
       -0.9457148 -0.026417008 0.31699702 0.2052245
000130 f7 3e a2 3e 06 a2 96 bc 62 5f 9c bd 62 3e a7 3e
       0.31688663 -0.018387806 -0.0763538 0.32664782
000140 61 dd 24 3f ba c7 29 3e c4 bf da bc 7f 31 d8 bd
       0.644003 0.16580096 -0.02670277 -0.10556316
000150 5f 1d bb be 02 44 2c bf 29 da 42 be 44 4b cb 3d
       -0.36545846 -0.6729127 -0.19028534 0.09926465
000160 88 ea 27 3e 85 f4 1a 3e 59 87 4b be e4 8a 72 3e
       0.1639806 0.1513234 -0.1987585 0.23685795
000170 df fa 60 bf 1a 67 b4 3e 81 c5 97 be b3 23 d6 3d
       -0.878828 0.3523491 -0.2964287 0.10456028
000180 f3 ce ad 3e 92 eb 19 bf a2 2f ea be e5 09 a7 3b
       0.33946952 -0.60125077 -0.45739466 0.005097615
000190 f6 b5 b7 3e c3 aa e2 3e df 11 4a 3e 92 43 83 3e
       0.35881013 0.44270906 0.1973338 0.2563749
0001a0 9a ee cf be 1e d2 8a 3e fe 75 c7 bd 3a 0f 17 bf
       -0.40611726 0.27113432 -0.09739302 -0.5900761
0001b0 94 15 cb be b2 ef 25 3f 89 0a 84 3d 53 74 b8 be
       -0.396649 0.6481887 0.06447322 -0.36026248
0001c0 25 0e 8b 3d 3a 91 c0 be e8 5d b2 3e e2 97 b3 be
       0.06789807 -0.376108 0.3483727 -0.35076815
0001d0 b2 98 ce be cd 60 9d 3e da 19 b2 3e e2 4f 11 3e
       -0.40350872 0.30737916 0.34785348 0.14190629
0001e0 49 5e ba 3e f4 17 ae be 3b 2e 10 be 16 6a 2f 3e
       0.3640006 -0.3400265 -0.14080136 0.17130312
0001f0 9c c7 9b 3e af f9 ab bd 20 53 43 bd fa 90 d9 bc
       0.30425727 -0.08397233 -0.047686696 -0.026558388
000200 12 39 ef 3e 51 1d 83 3f d4 96 c2 be 6d c9 47 be
       0.4672323 1.0243322 -0.38005698 -0.19510432
000210 bf 2b 0d 3e 1a a2 b1 bd 6a f8 fc 3e 69 b4 ee be
       0.13786219 -0.086734965 0.49408275 -0.46622017
000220 ae 25 0d 3e e5 5c 74 bd 97 c8 fa be 44 d9 56 3e
       0.13783905 -0.059658904 -0.48981163 0.20981318
000230 b8 c9 21 3c 0c b8 45 be 2c ee 2f bf f5 d2 dd 3d
       0.009874754 -0.1930849 -0.68722796 0.108312525
000240 87 e4 84 3e 68 01 33 3e 1c d8 52 3e 2b bb 07 3f
       0.25955603 0.17481005 0.20590252 0.5301997
000250 c5 3e 56 be 2b de 46 bd 74 9f e8 bd 87 f0 07 3f
       -0.20922382 -0.04855172 -0.11358538 0.5310139
000260 fc 96 0d bf 68 b7 14 be 6e b1 8b 3f 75 9f ed 3d
       -0.5530851 -0.14523089 1.0913522 0.1160268
000270 a2 2e c9 be c6 dc b3 be 9c 63 98 be 28 ab 1b bf
       -0.3929339 -0.35129374 -0.29763496 -0.6080804
000280 80 b3 62 3e 7c 92 e1 be de f8 7c 3e dc 22 7c be
       0.22138786 -0.4405707 0.2470431 -0.24622673
000290 b1 03 87 be 69 a0 23 3e b8 a9 0f 3f f3 e8 84 be
       -0.26370004 0.1597916 0.56118345 -0.25958976
0002a0 b8 0d 88 3d 16 e7 99 3d 0a 5e a7 3e 31 21 f1 bc
       0.06643242 0.07514779 0.32688934 -0.029434772
0002b0 09 d0 af 3e 0b 52 47 3f da 2a 31 bf aa 77 0b be
       0.34338406 0.7785956 -0.6920601 -0.13619867
0002c0 9e a7 4f be 77 bd c1 3d 94 c4 1e 3d 47 81 19 3f
       -0.20278785 0.09459966 0.03876169 0.59962887
0002d0 dd ba 44 3f ca fb dd be ff ea 93 3e e0 56 97 be
       0.7684763 -0.43356162 0.28890225 -0.29558468
0002e0 cb 11 be 3e a0 18 bc bb 27 99 d3 3d b7 41 bc 3d
       0.3712295 -0.00574024 0.10331946 0.091922216
0002f0 b3 2d 95 bf cc a4 f5 be 26 97 b2 be 54 24 65 3e
       -1.1654571 -0.47977293 -0.34880942 0.2237714
000300 c5 b5 90 be 0d be 93 3c 11 aa 01 3f 79 20 8d 3d
       -0.2826368 0.01803496 0.50650126 0.06890959
000310 48 6e 5a 3f 0b a8 a2 bf de c7 fd 3d 28 f9 37 3f
       0.85324526 -1.2707533 0.12391637 0.7186456
000320 52 38 1f 3e 36 18 fe bd 37 87 74 3f c4 10 01 be
       0.15548828 -0.124069616 0.9551882 -0.12604052
000330 e1 ea af bd 7d 21 20 bf ce 39 31 bf 7b 5c 84 be
       -0.085897215 -0.625511 -0.6922883 -0.25851807
000340 32 19 66 3f b4 01 10 be 2e 7e a3 bd 08 36 95 be
       0.89882195 -0.1406315 -0.07983051 -0.29142785
000350 6a 36 db 3e 22 c2 30 bf 45 8f ab be d1 6e 23 3f
       0.42814952 -0.69046223 -0.33507743 0.6384097
000360 7a 7a 28 bf 01 35 0a 3f 8d 5e 85 be 36 91 8c be
       -0.65811884 0.5398713 -0.260487 -0.27454537
000370 1e 83 b7 bd 68 9d 9f 3e 60 1e 20 3d 0b e8 d9 be
       -0.089605555 0.3117478 0.039091468 -0.42559847
000380 2c de b7 be bc ea 9d bc 92 3e 4b be 72 2a fe be
       -0.3591169 -0.01927697 -0.19848087 -0.49641758
000390 f5 26 98 be f2 dc c8 3d db b8 5f 3f e0 e6 19 3f
       -0.29717222 0.09807767 0.8739144 0.6011791
0003a0 08 e5 32 3e 8e a0 4d 3e f0 73 11 be a1 06 ff 3d
       0.17470181 0.20080778 -0.14204383 0.12452436
0003b0 13 f8 fc be eb 27 a8 3e b1 c8 2d be c7 e8 3d 3f
       -0.49408016 0.32842955 -0.16971089 0.74183315
0003c0 6e e1 81 3c 3a 7f 29 bf 85 bb 1b be 65 54 75 3d
       0.015854564 -0.6620976 -0.15208252 0.059894938
0003d0 b0 63 15 3e d9 41 4b bd 50 cc 11 3e 81 9f fa be
       0.14588809 -0.049623344 0.14238095 -0.48949817
0003e0 d6 8b 95 be 7c 35 f2 be 9d 17 c0 3e 8c 34 99 bd
       -0.2920825 -0.4730643 0.37518016 -0.07480726
0003f0 1f 01 3b 3f 49 33 1d bf 51 0c be be b9 5a c3 3e
       0.73048586 -0.6140638 -0.37118772 0.38155153

network_body._body_endoder.seq_layers.0.bias f4 [128]
000000 ea b1 c1 3c 3a 17 6a bc 07 8b a6 3b 14 13 04 3e
       0.023644406 -0.014287764 0.0050824913 0.12897903
000010 65 80 ef 3c d6 0f 11 bd de 6a ec 3c 93 dc 63 3d
       0.029236028 -0.035415493 0.028859552 0.055630278
000020 70 2b b0 bb 4b a3 1a bc 19 d4 15 bc 82 77 3b 3d
       -0.005376272 -0.009438346 -0.009144806 0.04576827
000030 70 aa 49 3c 01 37 92 3c 85 a4 1f bd 19 7e 5d 3d
       0.012308702 0.017848494 -0.038975257 0.054075334
000040 2a f5 ee 3d a6 69 01 3c 21 ca be bc bf c1 80 3d
       0.11667855 0.007898724 -0.023289742 0.06286954
000050 21 92 8e 3d fd 08 38 3d 6d da ca 3c 69 46 0d 3d
       0.069614656 0.044930447 0.024762357 0.034490976
000060 3e fc de bb 67 1d f3 3c 54 75 53 3d 87 1c 19 bc
       -0.006804972 0.029677106 0.051625565 -0.00934518
000070 f6 6c 04 3d aa d0 aa bc 2d 21 5c 3d e9 d8 96 3b
       0.032330476 -0.020851452 0.053742576 0.0046034944
000080 81 96 9a 3b 66 59 a3 3d 4c 8d 71 3d 87 8b 1d 3d
       0.0047176485 0.07976036 0.05897264 0.03846314
000090 24 dc bc 3c 27 d0 93 bd 34 bd 3a 3c fb 50 52 3c
       0.02305419 -0.07217436 0.011397649 0.01283669
0000a0 de 99 fb 3c a1 ef 37 3d 19 96 f6 3c 30 3d b5 bb
       0.030713018 0.044906262 0.030100869 -0.0055309758
0000b0 97 20 9f bc 3a 2d 01 bd c0 0c 8b bc 22 63 a6 3c
       -0.01942472 -0.031537272 -0.016973853 0.020310942
0000c0 e0 aa c1 bb 26 18 21 3d 18 f3 2f 3d e8 68 93 3d
       -0.0059102625 0.03932967 0.04295644 0.07197744
0000d0 b9 74 69 bd 8f 5f 9e 3b 27 8d 5d 3b 93 e8 62 3d
       -0.05699608 0.004833169 0.0033806057 0.05539758
0000e0 e9 3e a5 3b d8 28 c0 3c 53 48 e7 3c bb e9 a6 3a
       0.0050429 0.023456976 0.028232729 0.0012734452
0000f0 d2 8f 49 3b ce 47 4f 3c 81 1f 95 3d 76 46 27 3d
       0.003075589 0.012651397 0.072813995 0.04083868
000100 58 5d e9 3c 26 de 25 3b 19 97 bf bc fc f7 5b 3b
       0.028486893 0.0025309413 -0.023387479 0.0033564558
000110 21 d1 2a 3d 87 5d 26 3d 1c 17 98 bd 19 0f 1b 3d
       0.041703347 0.04061654 -0.07426283 0.037856195
000120 3a f0 3e bc 00 a5 10 3d 1f 9b aa 3c 56 cc e5 3c
       -0.011653954 0.035313606 0.02082592 0.028051537
000130 27 b0 82 3d da 00 7e 3d f9 b4 d3 3c ef 07 41 3c
       0.06381255 0.06201253 0.02584313 0.011781677
000140 69 19 63 3d 2c df b2 bb be 52 0c 3d 36 63 e9 3c
       0.055444155 -0.005458733 0.034258597 0.02848969
000150 f0 3c 81 33 65 98 2c 3d 35 ad 8e bc 67 ae 09 3d
       6.018115e-08 0.042137522 -0.017416576 0.03361359
000160 7a 23 a9 3c 75 70 53 3d 0f f2 a3 3d a7 94 36 3d
       0.0206468 0.05162092 0.080051534 0.04457536
000170 73 31 a5 3c df 12 ea 3d 57 34 44 3d 0f 13 59 3d
       0.02016518 0.114293806 0.047901478 0.05299669
000180 3d 5d 6a 3c 68 86 6f 3c c5 3f 5d bd c7 4c 77 3b
       0.014304456 0.014619447 -0.054015893 0.0037734972
000190 a6 df 90 3d a3 cb c5 3b d6 fd ce 3c 6c 57 0f 3b
       0.070739076 0.0060362383 0.025267523 0.0021872176
0001a0 fa a3 b0 3c 37 72 7d 3c 5d e8 65 bc b8 f8 b3 3c
       0.021562565 0.0154691255 -0.0140324505 0.021969184
0001b0 cf f6 86 b9 6f 3d a1 bd f7 2d 4d 3d 59 c0 1b 3d
       -0.00025742358 -0.07873046 0.050092664 0.038025234
0001c0 82 d0 80 3c 77 f2 70 bd b8 9a 68 3d bf d2 2b 3c
       0.015724424 -0.058824982 0.056788176 0.0104872575
0001d0 1b c6 cf 3b 26 c8 0d bd cf a3 94 3b f9 04 3b ba
       0.0063407547 -0.034614705 0.004536129 -0.0007134225
0001e0 a4 98 13 3d 3a ce a4 3d 41 18 a5 bc 87 1d db 3b
       0.03603424 0.08047147 -0.020153167 0.0066868695
0001f0 93 7c 29 3d 8d 20 a5 3c d7 84 cc ba 6b f0 da 3c
       0.04137857 0.020157123 -0.0015603554 0.026725968

network_body._body_endoder.seq_layers.2.weight f4 [128, 128]
000000 72 c7 34 3c 76 90 0e be ca c4 ce 3d 91 6e 06 be
       0.01103388 -0.13922295 0.10096128 -0.13128115
000010 7e d5 b8 3d f8 85 f3 3c 5d d9 b6 3d 3d 0b a6 3b
       0.090250954 0.029726967 0.089281775 0.0050672577
000020 a7 9e 83 3d 6b 82 cb bc 58 9f 20 bd 60 49 63 3d
       0.06426745 -0.024842462 -0.039214462 0.055489898
000030 04 55 52 bd 21 c1 52 bd 65 f1 ae bd 95 a2 e5 bc
       -0.05135061 -0.051453713 -0.08542136 -0.028031627
000040 5b 1b e7 bd 2d aa 62 3e de e8 d9 3d d1 64 5e 39
       -0.112845145 0.2213523 0.10640119 0.00021209127
000050 06 6b ee bd df a0 64 3e 17 7c 29 bd 93 ef 16 3d
       -0.11641507 0.22326992 -0.041378107 0.03684957
000060 61 f5 1b 3e 1c d1 96 3d 5a a9 06 3d 36 d5 5c 3d
       0.15230323 0.07364103 0.03287635 0.05391427
000070 84 65 93 bd 32 3c 36 3d e7 46 7a 3d e2 ae 7e bb
       -0.07197097 0.044491 0.061102774 -0.0038861562
000080 d9 33 49 3c c0 86 28 3e fd ee 96 bd e9 e8 e6 3c
       0.012280428 0.16457653 -0.07369802 0.028187232
000090 42 a1 19 3e 98 38 67 3d f7 4c a5 bd 0e 5a 01 bd
       0.15002921 0.056450456 -0.080713205 -0.031580023
0000a0 2c b4 83 bd 5a 62 78 be 81 14 d7 bd 82 80 46 be
       -0.064308494 -0.24256268 -0.10501958 -0.1938496
0000b0 f7 2c 0c bd 44 5e 25 bc 3f 16 ab bd df d3 a3 3d
       -0.03422257 -0.010093275 -0.083538525 0.079993956
0000c0 6d 2f c2 bd 3a 17 93 bc b1 96 58 bd e7 b7 2b 3d
       -0.09481702 -0.017955411 -0.052878086 0.04192343
0000d0 34 fd a9 3c 5d 02 89 3d 14 74 9e 3d 92 88 59 bd
       0.02075062 0.06689904 0.07736984 -0.05310876
0000e0 c5 a4 46 3e 57 9f d4 bd 20 80 81 3d 29 7c 8b bd
       0.19398792 -0.10381954 0.06323266 -0.06810791
0000f0 01 ec f1 bc d4 67 1d 3e 36 68 9b 3c e9 17 76 3d
       -0.02953148 0.15371639 0.01897059 0.060081396
000100 12 1e a5 3a 72 c4 24 3c 02 41 d6 3d 31 80 ef 3c
       0.0012597463 0.010056602 0.10461618 0.029235931
000110 8d 51 19 be 22 4c a6 bd ee a1 45 3c e9 67 b2 bd
       -0.14972515 -0.0811999 0.012062533 -0.087112255
000120 de d0 80 3d e3 ab 85 3d db bc 36 3e f8 28 86 bb
       0.06289838 0.065269254 0.1784548 -0.0040942393
000130 0f c3 6a 3e 6a a0 86 3d 28 de 6f bd 71 31 a4 3d
       0.22925971 0.06573565 -0.058561474 0.08017243
000140 16 c7 91 3c 22 9e 9d bd 1a ff ba 3c 75 35 9d bd
       0.017795127 -0.07696177 0.02282672 -0.07676212
000150 2e 4c fe bd 21 a6 46 bd af f4 2c bc 03 52 78 bd
       -0.12416874 -0.048498277 -0.010556384 -0.060625087
000160 39 55 f2 bd 1c c0 42 bd b9 cb 12 be 8c 43 38 3c
       -0.11832661 -0.04754649 -0.14335527 0.011246573
000170 21 ad c8 3d 48 03 9a ba dd 29 47 3d b2 f2 fc 3b
       0.09798647 -0.0011750245 0.04862391 0.007719361
000180 e2 b1 ee 3a c4 e4 84 bd 82 da ab 3b d3 86 bf 3c
       0.0018210972 -0.06488946 0.005244554 0.023379719
000190 4c 6c 5a bd 25 f3 14 3c ec 5c b8 bd 3e 71 40 3d
       -0.053325936 0.009091173 -0.090020984 0.046982996
0001a0 92 d1 cb bc a9 2d 2f bd e0 91 f1 bc 65 fc 2f 3d
       -0.024880204 -0.042768154 -0.029488504 0.04296531
0001b0 64 dd fd bd 19 09 76 3d 7b 12 5f 3d 6c ae c7 bc
       -0.123957425 0.06006727 0.054460984 -0.024375163
0001c0 76 f5 fb 3d 00 f0 c3 3c a4 12 84 3d 3c cb 7a bc
       0.12302677 0.023918152 0.06448868 -0.015307244
0001d0 d3 ce c0 3d b3 3c 25 3d 62 60 49 be 1d 91 b1 bd
       0.094144486 0.04034109 -0.19665673 -0.08670256
0001e0 7a 5b 14 bd 47 27 63 bd 01 87 36 3d 2c 20 a3 3d
       -0.03622005 -0.05545738 0.044562344 0.07965121
0001f0 4d cc f4 bd 6a 97 c8 3d 1f 5f ac 3c c1 5c 4b 3e
       -0.1195303 0.09794505 0.021041451 0.19859602
000200 64 fc 36 3c 14 7b c6 3d 2f 26 52 3d 80 a6 de bc
       0.011168573 0.09691444 0.051305946 -0.027179003
000210 5e ef f4 3d 4e 2e 9d bc dd 3e 88 3d 68 e6 fc bc
       0.11959718 -0.019187119 0.06652615 -0.030871585
000220 ed 7e 00 3e f4 0f 25 3e 16 51 3a bd e1 b4 80 bd
       0.12548418 0.16119367 -0.045487486 -0.062845
000230 91 ed dd bd 72 e4 9d bd 2b 3d ee 39 f7 18 85 3c
       -0.10836328 -0.07709588 0.0004544047 0.016247256
000240 5f 48 02 be 00 b4 65 3c bf b4 2f 3d bb fc 8f 3c
       -0.1272292 0.014019966 0.042896982 0.017576566
000250 e2 1a 4c be 0a d8 61 bc 10 a9 f0 3d 17 7f 1c 3d
       -0.1993213 -0.013784418 0.11750996 0.03820714
000260 d5 72 29 bd e7 ee bd 3d 19 ef 01 3d f9 e3 27 3d
       -0.041369278 0.09274083 0.031722162 0.040988896
000270 d7 56 ab 3d 63 85 b4 3d 7d c4 09 bd 6d 8d 04 3e
       0.08366173 0.08814504 -0.03363465 0.12944575
000280 0a 99 04 be 5a c0 b0 bd 48 b4 b6 3c 97 60 b9 bd
       -0.12949005 -0.08630438 0.022302762 -0.09051626
000290 ba a4 83 3d 5a 4c ba bd d2 4b 1c bd 5c 96 5c bc
       0.064279035 -0.09096594 -0.038158245 -0.013463583
0002a0 83 2e 45 be 20 9f 10 bd 84 da e9 bd 76 f3 e6 bd
       -0.19256024 -0.035308003 -0.11418632 -0.11276905
0002b0 be 09 4a 3d f0 f9 6a bd e8 d1 4f bd 1f 0f 44 be
       0.049325697 -0.057367265 -0.05073729 -0.19146393
0002c0 43 a0 16 3e 0b 7e 93 3d c0 2f 35 be b8 50 ab bc
       0.14709572 0.07201775 -0.17693996 -0.020912513
0002d0 99 0b c6 bc 98 e0 5d bd a8 12 7c 3d e9 05 75 bd
       -0.024175452 -0.054169267 0.06154123 -0.05982009
0002e0 a2 59 fb bb 59 24 8f bd 97 42 72 bc ea 19 33 3c
       -0.007670597 -0.06989355 -0.014786384 0.010931471
0002f0 a0 76 36 3d 03 b4 17 bc e7 77 ac be 57 55 07 3d
       0.044546723 -0.009259227 -0.33685228 0.03304037
000300 00 b5 cc 3d e2 99 40 3d b5 49 9c bd b0 58 de 3d
       0.099954605 0.047021754 -0.07631246 0.108567595
000310 1b 5a 36 be 41 41 46 be 43 62 ab bd 87 9d 12 be
       -0.1780781 -0.1936083 -0.08368351 -0.14317904
000320 49 47 f9 3d c3 dd 79 be c0 b5 e5 bc 4b 82 ed bd
       0.121718 -0.24401002 -0.028040767 -0.11597117
000330 b8 aa 14 3d 35 11 c8 3d 46 05 2b be c9 dd 14 bc
       0.036295623 0.09768907 -0.1670123 -0.009086081
000340 52 8c 31 bb 41 6c 48 bd ff b4 2e 3c 11 3d 1f 3b
       -0.0027091694 -0.048931364 0.01066327 0.0024297873
000350 ae 0f 99 3d 58 d6 0c bd b4 b5 20 bd 56 73 21 bd
       0.07473694 -0.0343841 -0.039235786 -0.039416634
000360 ef 7f 28 bc 9e 08 ce bd 64 9d c2 bd 74 64 e8 bc
       -0.010284408 -0.10060237 -0.09502676 -0.028368212
000370 88 cd 9a bd 09 b1 1a 3e 53 2f cc bc cd 70 23 3e
       -0.07558733 0.15106596 -0.02492491 0.15960999
000380 d3 f7 89 3d 12 1b ec bc 9f 36 a0 3d 6c 9d 24 3d
       0.06736722 -0.028821502 0.07822918 0.04018919
000390 16 df 8d 3d c5 0b b3 bd cd ef c1 bd 94 01 a7 bd
       0.06927316 -0.08742479 -0.094695665 -0.08154598
0003a0 da 53 a6 3c 4f 71 20 3e db 1a 8a bd 3f f6 af 3d
       0.020303655 0.15668224 -0.067434035 0.085918896
0003b0 15 c9 20 3d a2 8c d5 3c 7d b5 44 bd 58 73 32 bc
       0.039254267 0.026068036 -0.048024643 -0.010891758
0003c0 3f c9 2c bd 25 b2 93 bb 78 ef 44 bd 01 45 9e 3d
       -0.04218411 -0.0045073205 -0.048079938 0.07728005
0003d0 eb 95 9c 3d 4a 7f 81 bd 4a 55 ce bd 04 a2 29 be
       0.07645782 -0.063231066 -0.10074861 -0.1656571
0003e0 8b 63 89 3d 7a 44 b6 bc 48 5b 03 be c1 c0 85 3d
       0.067084394 -0.022249449 -0.1282779 0.065309055
0003f0 98 0a 71 bc ba a6 1b bc 6b d4 04 3b 5c c9 35 3e
       -0.014711998 -0.0095002 0.0020268213 0.17752594

network_body._body_endoder.seq_layers.2.bias f4 [128]
000000 d3 14 4a bb 90 f0 f8 3c 8a c3 d9 3b e1 9a 85 3c
       -0.0030835166 0.030388147 0.0066456245 0.016309204
000010 02 02 81 bc 36 37 a1 39 d8 36 d4 3a aa 24 14 bc
       -0.015748028 0.00030749448 0.0016190661 -0.0090419445
000020 1b be a0 3a cf 61 63 bc 9d bd 36 3d da 9e 19 bd
       0.0012263687 -0.0138783 0.044614423 -0.03750501
000030 45 52 4e 3b 86 81 bd 3b 13 7a 62 3b c3 06 0c 3d
       0.0031482142 0.0057832627 0.0034557625 0.034186136
000040 52 55 c8 bb ac cf 4e 3d 49 19 b7 3c 66 6b 48 3c
       -0.0061136866 0.05049102 0.022350924 0.012232637
000050 09 91 46 3c de 3b 84 bc 2b a8 65 3c a7 f1 b4 3c
       0.01211954 -0.016141828 0.014017145 0.022087885
000060 7f 11 f0 3c 61 ac 87 3d 31 95 bd 3c 37 35 da 3c
       0.029305218 0.066246755 0.02314243 0.026636703
000070 01 7c 5e 3c 8f 2a 24 bc 1e a2 86 ba 46 43 b4 3c
       0.0135793695 -0.010019912 -0.0010271703 0.022004735
000080 52 ab dc 3c c7 b8 1d bc 3f bb 33 bc e9 f5 85 3c
       0.02693716 -0.009626574 -0.010969936 0.01635261
000090 61 a0 f9 3c db d2 fe 3c cc 98 20 3c f8 38 60 3c
       0.030471982 0.031106403 0.009802055 0.013685457
0000a0 fc 86 1e bc ca 4c 1b 3d b1 8f 86 3b 28 f5 b8 bb
       -0.0096757375 0.03791503 0.004106485 -0.0056444593
0000b0 f7 72 06 bc 1c 80 84 3b 17 6f d9 3b 73 8e 18 bd
       -0.008206121 0.004043592 0.0066355574 -0.037245225
0000c0 04 01 07 3d 9b 2f c0 3c da 2b 65 3b 20 f1 3e 3d
       0.032959953 0.0234602 0.0034968765 0.046616673
0000d0 bc c2 6f b8 91 c1 60 3d c2 1c b1 3c 05 bd bc 3c
       -5.71634e-05 0.0548721 0.021620158 0.02303935
0000e0 21 92 e0 3c ac 2a 53 bc 06 5a 25 3d 1e d0 f8 bb
       0.02741343 -0.012888592 0.040369056 -0.007593169
0000f0 22 be 67 3d b7 e4 a6 3c 56 cb 63 3c f2 db 79 3d
       0.05657781 0.020372732 0.0139034595 0.06100077
000100 88 41 b3 bb b3 41 79 bc 93 ba fa 3c e9 f0 9f 3d
       -0.0054704584 -0.015213418 0.030606544 0.07809622
000110 e9 52 80 3d b1 b7 f5 3a b9 bc 99 3b 8b ef 1e 3c
       0.06265814 0.0018746761 0.004691687 0.009700666
000120 35 50 12 3c 4c b1 30 3c 36 8e 64 3b 75 84 5c 3c
       0.008930256 0.010784458 0.0034874803 0.013459315
000130 d8 a6 73 3d 7d 7c 02 3c 52 2c fa 3c 90 5d 29 3d
       0.059485286 0.007964251 0.030538712 0.041348994
000140 47 41 58 3d dd cf 34 3c bf dc 09 3a 66 4d 28 3b
       0.05279663 0.011035887 0.0005259029 0.0025680899
000150 e8 d6 1b 3c 8d 4e aa 3b 42 87 e6 bc 99 cf 80 3c
       0.009511687 0.0051973523 -0.028140668 0.01572399
000160 88 4e 43 3d 89 d0 2b 3d e4 9c 7e 38 b4 8b 01 3d
       0.047682315 0.04194692 6.0704435e-05 0.031627372
000170 85 3c fe 3b c4 cf 0e 3c 95 88 2f 39 67 29 f1 3c
       0.0077586793 0.008716527 0.00016740181 0.029438687
000180 a4 bb ba 3c d7 6b 79 3c 70 92 45 3d 5d dc 2f ba
       0.022794552 0.015223465 0.048235357 -0.0006708557
000190 00 e7 77 3c 0d 15 7d 3b 7c be 6d 3d a1 11 f3 3c
       0.015130758 0.0038617284 0.05804299 0.029671492
0001a0 74 03 c1 3c 5e a3 36 3c d6 78 05 bc 78 5b e3 ba
       0.023561217 0.011147348 -0.008146485 -0.0017345985
0001b0 e0 31 0f 3d 22 5e 0b bc de 2e 4a 3d 13 b8 08 bc
       0.034959674 -0.00850633 0.049361102 -0.008344668
0001c0 9b af 6d 3b 88 3d 23 3d 95 72 1a 3d ba 60 54 bc
       0.0036268 0.039853603 0.03770693 -0.012962515
0001d0 ac 39 b3 3c 55 93 17 bb 31 da 3a 3c b8 d0 c2 3c
       0.021878086 -0.0023128588 0.01140456 0.023781165
0001e0 ae 26 ae 3c c0 c8 92 3b 1a e8 db 3c 39 fd 90 bb
       0.021258678 0.0044794977 0.026844073 -0.0044247177
0001f0 cc 0c aa 3c 62 cb 3f 3d 8e 6a d0 3c 29 4a cd 3c
       0.020758055 0.04682482 0.025441434 0.025059776

action_model._discrete_distribution.branches.0.weight f4 [3, 128]
000000 3d e0 16 3c 8d dc 48 3c f5 f6 f7 bc 83 d0 c9 bc
       0.009208736 0.012259615 -0.030269125 -0.024635559
000010 81 d0 f0 3b b6 a2 04 3c eb d3 8e 3b fa 71 99 3b
       0.0073490744 0.008095434 0.0043587587 0.0046827765
000020 a4 df 5c 3c 87 31 37 bc bb f2 0b bc 17 58 de bc
       0.013481054 -0.011181242 -0.008541758 -0.027141614
000030 76 fa 28 bc 36 a3 f2 3b b6 66 88 bc 59 c7 c9 bb
       -0.010313621 0.00740471 -0.016650539 -0.0061577973
000040 22 b5 4a 3a c6 36 5e 3c 24 a6 bd bc ef 69 b0 bc
       0.00077326794 0.013562864 -0.023150511 -0.021534888
000050 84 55 5b 3c 45 57 b4 3b 89 f1 92 3c 44 78 de bc
       0.013387088 0.0055035674 0.017937439 -0.027156956
000060 2d ab 76 3c 0d e6 89 bc aa 7d 7b bc 2b 05 f1 bc
       0.01505546 -0.01683333 -0.015349785 -0.02942141
000070 70 e7 38 bc 60 9f e6 bb 3f a5 88 bc 05 70 01 bc
       -0.011285648 -0.007038042 -0.016680358 -0.007900243
000080 46 90 53 bb 83 b9 08 bc 9a 5f 89 bb 81 c5 91 3c
       -0.0032282039 -0.008345011 -0.004192305 0.017794373
000090 cf 9f 7e 3c 42 be 9d bb 03 9a bb ba a7 ee cf 3b
       0.015541031 -0.0048139403 -0.0014312867 0.0063455882
0000a0 d5 05 07 3c 99 45 af 3b d6 74 b8 bc 7e 5f 95 bc
       0.008241137 0.005348873 -0.02251665 -0.01823401
0000b0 84 1a f8 3b 20 7b 8f 3b b1 70 d1 3c 38 63 9a ba
       0.0075715203 0.0043786913 0.02556643 -0.0011778837
0000c0 6b 74 2d bb 5a 4a 20 bc 6f b9 f0 3c bc bd d8 ba
       -0.0026467096 -0.009783352 0.029385297 -0.0016536037
0000d0 7a b5 e8 3b 9c b6 10 3c 6b fc 08 bb ed da b5 3b
       0.007101712 0.0088326 -0.0020902406 0.0055497796
0000e0 20 71 7e bc 96 d5 17 bc fa 6a f5 ba 31 e1 61 bb
       -0.015529901 -0.009267231 -0.0018723898 -0.00344665
0000f0 1a 15 43 bb 13 8c 8b ba 10 d6 cc bb a7 c0 97 3c
       -0.0029767216 -0.0010646604 -0.006251104 0.018524481
000100 e1 1c cf 3b 39 c4 75 3c f0 23 88 3b cf 54 8d 3b
       0.0063205813 0.015000396 0.0041546747 0.0043130885
000110 0e 31 a3 3b d7 23 d1 3c 50 a9 55 3b 67 bb df 3c
       0.004980213 0.025529785 0.0032602139 0.02731104
000120 6b c0 9f 3c 10 78 9c bb a1 86 6e 3c a8 1a c5 bc
       0.019500932 -0.0047750548 0.014558465 -0.024060562
000130 04 fa 09 bc 7d dd 99 bc 79 de 00 bc c2 5a 71 3c
       -0.008421425 -0.018782372 -0.007865542 0.014731111
000140 3c 4a 89 3c 50 cd 58 3b 3f ea 20 bd 4f 97 a3 bb
       0.01675903 0.003308136 -0.039285894 -0.0049924026
000150 90 6d 66 bc cf 1d 8f 3b 43 9e 76 bc 38 1f a7 3c
       -0.014064208 0.004367567 -0.015052381 0.020400628
000160 a6 d7 8f 3b 05 71 b0 bb cd 63 a2 bc f6 4d 77 bc
       0.004389721 -0.0053845667 -0.01982298 -0.015094271
000170 a6 05 ff bc 3d 36 46 bc 24 fb 6c 3b cb 19 12 3c
       -0.031130623 -0.012097892 0.0036160434 0.008917282
000180 03 95 57 bc 7e 8b 86 bc 1b ef 81 b9 88 0a 51 3c
       -0.013158086 -0.016423937 -0.00024782945 0.0127588585
000190 b5 85 a2 39 9d 76 07 3c 0c 2c d4 bc a2 ca 84 3c
       0.00030998667 0.008268026 -0.02589991 0.016209904
0001a0 77 29 d1 bb 06 5a d5 bb 1d ce 97 bb f7 b7 4c bb
       -0.006383117 -0.006510976 -0.004632725 -0.0031237581
0001b0 4a d9 9f bc f8 9b 93 ba 3e 9c 9e bc 4b 7b dd bb
       -0.019512791 -0.0011261692 -0.019361611 -0.0067590824
0001c0 75 b0 50 3c b3 9c 88 bc ef 94 54 bb 91 ab e6 3b
       0.012737383 -0.016676283 -0.0032437404 0.0070394953
0001d0 d9 f8 08 3c ed 26 b5 3c e6 36 1a bc 80 3e 2e 3c
       0.008360111 0.022113288 -0.009412503 0.010635018
0001e0 83 dc f3 bb b7 b4 9a 3c a0 31 fb ba d3 64 d0 3b
       -0.0074420585 0.018885 -0.001916457 0.0063596754
0001f0 66 a4 c0 3b 4e f8 8c ba fd 03 85 3c 21 f3 e7 3c
       0.005878973 -0.0010755153 0.016237253 0.028314175
000200 45 54 16 bd c5 5c a0 3c f2 ec 82 bd 6b ab 8e bd
       -0.03670146 0.019575486 -0.0639285 -0.06966289
000210 90 36 18 bd 63 8c 06 3c 4c e8 77 bd ef 23 eb bb
       -0.03716141 0.008212182 -0.06052427 -0.0071759145
000220 17 f3 39 bd e1 e7 f7 bc 91 66 93 3d c8 b0 fe bc
       -0.045397844 -0.030261936 0.07197297 -0.031090155
000230 12 57 76 bd 7a 70 8b bd 4f c4 86 bb 60 45 5c 3d
       -0.06014163 -0.068085626 -0.0041127573 0.0537771
000240 86 c0 06 bd da 7e e8 3c 66 e5 20 3d 38 38 ac 3c
       -0.03289845 0.0283808 0.03928127 0.021022901
000250 b7 6a 25 bd 5f 83 a4 bb d9 2b 8a bd 1c ca aa bd
       -0.040384974 -0.0050205435 -0.067466445 -0.083393306
000260 4d c9 d0 3a 50 14 89 3d 45 6a 2d 3d 1e c6 16 3d
       0.0015929133 0.066933274 0.042337675 0.036810033
000270 40 76 77 bd b3 1e ca bc 1f 44 c1 bc e3 49 a7 bd
       -0.060415506 -0.024672842 -0.023592053 -0.0816839
000280 15 99 e4 3c 4c b4 d1 ba 88 63 82 bc 2b e0 e5 3b
       0.027905026 -0.0015999167 -0.0159166 0.0070152483
000290 18 00 85 3c cd d0 ed 3c 38 0f 98 bd 88 5d 4a 3b
       0.016235396 0.029030228 -0.07424778 0.0030878503
0002a0 50 b6 12 bc 77 a1 39 3d 21 c0 77 bd 6f fa 4c bb
       -0.0089545995 0.04532 -0.060485963 -0.00312772
0002b0 d9 bb f9 bc 5b 51 81 bd 75 28 93 bd 8c 88 3e bb
       -0.03048508 -0.063143454 -0.07185451 -0.0029073087
0002c0 9a 26 17 3d df 22 0e 3d 59 b0 51 3b b2 8b 26 3d
       0.036902048 0.034701224 0.003199598 0.040660568
0002d0 fa 6e 4a bd 83 14 51 3d 11 60 e1 3b 03 c2 58 3c
       -0.04942224 0.051044952 0.006877907 0.01322985
0002e0 5d d0 35 3d 7d a6 55 bc fa e5 61 3d a0 8b 15 bd
       0.044388164 -0.013040182 0.055150963 -0.03651011
0002f0 4c c7 44 3d 00 93 b7 3c 61 23 a8 bd 43 39 06 3d
       0.048041627 0.022408962 -0.08209873 0.032769453
000300 de 19 f2 bc 94 65 a0 ba 87 a6 d6 3b e9 b3 42 3d
       -0.02955335 -0.0012237304 0.0065506133 0.047534857
000310 bf a1 bd 3c fb ef 55 bc 2b 1d 7c bd e2 be 47 bd
       0.023148416 -0.013057704 -0.061551254 -0.048766024
000320 6a 3d d6 3b ec b1 5f bd d2 4d 1c bd b1 d5 6a bd
       0.006538083 -0.05461304 -0.038160153 -0.0573327
000330 1e 5c 7b 3d ee ae a5 bd 70 70 f7 3c 9a ec 32 3d
       0.061367147 -0.08090006 0.030204982 0.043682672
000340 0e c4 03 3d 18 37 e3 3c 92 d6 39 bb bf 2c a3 bd
       0.032169394 0.027736232 -0.0028356654 -0.07967519
000350 96 34 9e bd b2 79 06 3c 09 5a 7b 3a e7 54 3c bb
       -0.07724874 0.008207725 0.00095883064 -0.002873713
000360 31 61 d0 3c eb d5 e1 3c b7 b9 c3 3b af d2 66 3d
       0.02543697 0.027567824 0.0059730667 0.056353267
000370 24 d2 86 bd be f5 75 bd 26 fe 70 bd 06 44 a1 3c
       -0.0658305 -0.06004881 -0.058836125 0.019685756
000380 a1 04 ce 3b 34 75 c9 bd 66 5f 37 3d 6c f7 18 bd
       0.006287173 -0.09836808 0.044768713 -0.037345335
000390 63 a3 a5 bd 32 32 90 bd bb 12 82 3d 19 fa 0b 3c
       -0.08087804 -0.07040824 0.06351229 0.008543515
0003a0 29 79 1f 3d 7a c2 e3 3c 09 ff 20 bd eb 11 94 bc
       0.038933907 0.027802695 -0.03930572 -0.01807495
0003b0 c3 20 5b 3d 5c 90 89 bb 9d ae aa 3d 0e b2 12 bd
       0.05349804 -0.004198117 0.08334086 -0.035814337
0003c0 8f 2b fa bc 16 ed 68 3d 7e 4b 3d 3d 98 b5 da bb
       -0.030538348 0.056866728 0.046214573 -0.0066744797
0003d0 40 db 9c 3c 5c 94 45 bd 79 14 a3 bd e2 11 02 bb
       0.019147515 -0.04823719 -0.07962889 -0.0019847085
0003e0 a5 60 ad 3c 58 86 5f bd 1f 0e 07 3d 65 a8 17 bb
       0.021164248 -0.05457148 0.03297245 -0.0023141142
0003f0 f9 cc b5 bd 26 81 02 3d 27 5a dc 3c 01 3c 54 3c
       -0.08876986 0.031861447 0.026898457 0.012953759

action_model._discrete_distribution.branches.0.bias f4 [3]
000000 a2 cc 20 ba d6 1c 81 3c 89 1e 67 bc
       -0.0006134008 0.01576082 -0.014106401

exp_avg f4 [128, 6]
000000 1d bc 52 39 3e b6 b9 39 20 07 85 36 1d 29 a1 b9
       0.00020097238 0.0003542173 3.9645383e-06 -0.00030738945
000010 5c fc f3 39 20 07 85 36 8c 02 b6 39 5d f1 56 3a
       0.00046536594 3.9645383e-06 0.00034715643 0.0008199418
000020 45 ca e5 36 bd c4 85 ba 61 23 6e 3a 45 ca e5 36
       6.848279e-06 -0.0010205727 0.00090842514 6.848279e-06
000030 e0 50 14 b7 f5 99 76 b8 42 40 3b b4 e3 2c 33 39
       -8.840318e-06 -5.8794354e-05 -1.7439109e-07 0.00017087492
000040 55 83 65 b8 42 40 3b b4 13 d6 d1 37 fa 50 48 39
       -5.4720167e-05 -1.7439109e-07 2.5014428e-05 0.00019103652
000050 e6 75 04 35 fd 71 dc b7 50 11 f8 b8 e6 75 04 35
       4.9345397e-07 -2.6279124e-05 -0.00011828786 4.9345397e-07
000060 a3 f2 be b9 5f 67 1c ba 05 13 f1 b6 fe 99 67 3a
       -0.00036420402 -0.0005966331 -7.184574e-06 0.00088348973
000070 4e 12 0f ba 05 13 f1 b6 91 76 9e 3a f9 5b 42 3b
       -0.00054577447 -7.184574e-06 0.0012089779 0.002965687
000080 d7 0f c8 37 dc ee 78 bb f8 55 9b 3b d7 0f c8 37
       2.3849234e-05 -0.0037984168 0.004740473 2.3849234e-05
000090 d3 1c 08 b9 08 4b 5d b9 17 d8 2b b6 84 3b 49 3a
       -0.00012980709 -0.00021104154 -2.5606766e-06 0.000767641
0000a0 36 40 82 b9 17 d8 2b b6 b5 13 ac b8 94 80 28 b9
       -0.00024843373 -2.5606766e-06 -8.20527e-05 -0.00016069628
0000b0 e4 3f d9 b5 be 5e ae 38 3c 0e 94 b9 e4 3f d9 b5
       -1.6186355e-06 8.314614e-05 -0.00028239365 -1.6186355e-06
0000c0 f9 bf 37 ba 0f 67 e1 ba a1 fc 67 b7 36 89 d7 3a
       -0.0007009502 -0.0017196852 -1.3827493e-05 0.001644409
0000d0 d4 58 19 bb a1 fc 67 b7 19 e1 65 37 45 51 0f b9
       -0.0023398893 -1.3827493e-05 1.3701873e-05 -0.00013667818
0000e0 dc 1c 91 34 d0 77 52 39 14 9d 4f b9 dc 1c 91 34
       2.7029353e-07 0.00020071794 -0.00019799575 2.7029353e-07
0000f0 cd 3c 50 38 02 47 59 38 8d 73 83 35 be 51 2a 38
       4.964769e-05 5.1802963e-05 9.79389e-07 4.0607287e-05
000100 84 25 8b 37 8d 73 83 35 d4 d2 b7 b7 c4 77 df 37
       1.658756e-05 9.79389e-07 -2.1913474e-05 2.6639442e-05
000110 6b 14 e8 b4 13 d2 81 b8 1c 26 13 38 6b 14 e8 b4
       -4.3228223e-07 -6.190329e-05 3.5083023e-05 -4.3228223e-07
000120 15 73 09 b9 26 2e 05 ba 2f 88 2d b6 98 e8 fb 38
       -0.0001310821 -0.0005080424 -2.5858278e-06 0.000120119366
000130 a0 e9 3d ba 2f 88 2d b6 90 09 ad 39 b4 18 bf 3a
       -0.00072445907 -2.5858278e-06 0.00033004256 0.0014579506
000140 52 76 da 36 d3 af 03 bb f2 a0 33 3b 52 76 da 36
       6.5106806e-06 -0.0020093813 0.0027409163 6.5106806e-06
000150 ec 42 ba b7 a4 05 3a b9 69 28 eb b4 da 37 86 39
       -2.220409e-05 -0.00017740444 -4.3801563e-07 0.00025600084
000160 eb 53 91 b9 69 28 eb b4 fd b8 23 ba b8 9a bf ba
       -0.0002771908 -4.3801563e-07 -0.0006245522 -0.0014618253
000170 b7 b3 4e b7 66 ba 03 ba 6a 79 06 ba b7 b3 4e b7
       -1.23204e-05 -0.0005025029 -0.00051297864 -1.23204e-05
000180 4b 09 db ba ae 82 42 bb a7 44 0a b8 06 01 2c 3b
       -0.0016711144 -0.0029679942 -3.29657e-05 0.0026245727
000190 56 01 8f bb a7 44 0a b8 15 13 58 39 d6 78 45 3a
       -0.004364173 -3.29657e-05 0.00020606474 0.00075329596
0001a0 fa 65 88 36 67 81 be ba fc e0 01 3b fa 65 88 36
       4.0649875e-06 -0.0014534415 0.001981794 4.0649875e-06
0001b0 f2 c6 ac 3a f0 7b 67 3b 30 22 da 37 c4 5a 69 bb
       0.0013181849 0.0035321675 2.6003545e-05 -0.003560708
0001c0 20 40 a1 3b 30 22 da 37 5b df 88 ba e3 d5 1b bb
       0.0049209744 2.6003545e-05 -0.0010442542 -0.002377861
0001d0 a6 cd ac b7 e1 7f e8 3a e8 d2 90 bb a6 cd ac b7
       -2.059976e-05 0.0017738306 -0.0044196732 -2.059976e-05
0001e0 1b 6a d0 ba 3a 5a 61 bb 24 90 03 b8 3a 65 46 3b
       -0.0015900763 -0.0034386055 -3.1367075e-05 0.0030272738
0001f0 f0 c1 b8 bb 24 90 03 b8 20 64 0b ba a7 e4 d8 ba
       -0.0056383535 -3.1367075e-05 -0.0005317349 -0.0016547636
000200 b3 fb 2f b7 71 ed a5 b9 b0 c3 60 ba b3 fb 2f b7
       -1.0489416e-05 -0.0003164816 -0.00085740816 -1.0489416e-05
000210 10 4a 71 b9 44 0d 2b ba c9 50 98 b6 79 dc 25 3a
       -0.00023011141 -0.0006525109 -4.5393576e-06 0.00063271035
000220 0a e9 5c ba c9 50 98 b6 83 fd 04 b7 44 93 26 35
       -0.00084270595 -4.5393576e-06 -7.926838e-06 6.205412e-07
000230 e5 e6 27 b4 35 bf 99 38 ea e8 ca b7 e5 e6 27 b4
       -1.5637086e-07 7.3312236e-05 -2.4188736e-05 -1.5637086e-07
000240 22 d2 c8 b9 15 04 6d ba 03 8a fd b6 48 ab 25 ba
       -0.00038303534 -0.0009041441 -7.5560542e-06 -0.00063197734
000250 51 b0 78 39 03 8a fd b6 65 87 15 b9 34 58 84 b9
       0.00023716806 -7.5560542e-06 -0.00014260186 -0.00025242718
000260 44 c8 3c b6 a0 76 94 39 91 9f ea b8 44 c8 3c b6
       -2.8130753e-06 0.00028317142 -0.00011187711 -2.8130753e-06
000270 7e 19 23 37 ec 76 5e 35 5a ea 4d 34 56 e7 02 b8
       9.7214925e-06 8.28745e-07 1.917737e-07 -3.1209864e-05
000280 70 89 a2 38 5a ea 4d 34 33 4e 37 ba cd d1 f7 ba
       7.750362e-05 1.917737e-07 -0.00069925486 -0.001890713
000290 f9 6c 67 b7 6c fb e4 3a 41 18 32 bb f9 6c 67 b7
       -1.3794045e-05 0.0017469949 -0.00271751 -1.3794045e-05
0002a0 e1 2b 19 b9 8f 70 df b9 8a 61 41 b6 49 57 7b 39
       -0.00014607563 -0.00042617737 -2.8816016e-06 0.00023969742
0002b0 93 82 34 ba 8a 61 41 b6 d2 df e7 b6 02 b6 e7 b7
       -0.0006885912 -2.8816016e-06 -6.9103926e-06 -2.76221e-05
0002c0 50 5f 12 b4 29 23 87 38 4d d2 28 b8 50 5f 12 b4
       -1.3631984e-07 6.443851e-05 -4.025018e-05 -1.3631984e-07
0002d0 1b a6 00 bb e8 6d 8b bb c1 6b 22 b8 00 71 66 3b
       -0.0019630257 -0.004255045 -3.8724163e-05 0.0035162568
0002e0 3d 98 bc bb c1 6b 22 b8 4e 12 b7 37 1b fb a4 37
       -0.005755453 -3.8724163e-05 2.1823824e-05 1.9667254e-05
0002f0 67 21 e7 34 5a 9f a0 39 3a 36 a9 38 67 21 e7 34
       4.3051406e-07 0.00030636304 8.0686485e-05 4.3051406e-07
000300 55 be 26 ba ab d0 da ba 18 84 52 b7 ec 67 df 3a
       -0.0006360759 -0.0016694268 -1.2547731e-05 0.0017044521
000310 5b c7 16 bb 18 84 52 b7 1a 27 2e b9 74 ac f6 b8
       -0.0023007009 -1.2547731e-05 -0.000166085 -0.00011762316
000320 ca de 5b b6 c6 96 fd b9 63 12 f2 38 ca de 5b b6
       -3.2763223e-06 -0.00048368255 0.00011542884 -3.2763223e-06
000330 40 f4 e6 ba 1a df 91 bb 9a ca 11 b8 53 27 2d 3b
       -0.00176204 -0.0044516446 -3.475938e-05 0.0026421144
000340 c0 c9 b3 bb 9a ca 11 b8 da 6e 20 ba 62 72 8e ba
       -0.005486697 -3.475938e-05 -0.0006120034 -0.0010867829
000350 88 8c 4a b7 df 4e a8 3a d7 90 8d ba 88 8c 4a b7
       -1.2072858e-05 0.0012840888 -0.0010800612 -1.2072858e-05
000360 9e aa d3 3a f6 a6 92 3b ae 9d 05 38 95 1a 81 bb
       0.001614887 0.0044754697 3.185652e-05 -0.0039399364
000370 64 52 bd 3b ae 9d 05 38 44 b0 f3 b7 b6 af 0a b9
       0.005777644 3.185652e-05 -2.9049937e-05 -0.00013226163
000380 84 d4 19 b5 bd 35 22 39 16 ec 34 b9 84 d4 19 b5
       -5.730619e-07 0.00015469543 -0.00017254087 -5.730619e-07
000390 1e e2 5a b8 aa 1e a8 b9 da 2b 8a b5 43 70 7c 39
       -5.218584e-05 -0.00032066304 -1.0294564e-06 0.00024074414
0003a0 64 3e 73 ba da 2b 8a b5 48 38 a6 b9 bd c3 44 ba
       -0.0009279011 -1.0294564e-06 -0.0003170392 -0.0007505974
0003b0 d9 da d1 b6 02 6b cd b9 ff f1 5d b6 d9 da d1 b6
       -6.2541626e-06 -0.00039180374 -3.3072427e-06 -6.2541626e-06
0003c0 8c f4 b0 b5 02 ee 2b b8 68 68 df b2 b3 68 75 38
       -1.3184194e-06 -4.099124e-05 -2.6008095e-08 5.851006e-05
0003d0 85 fa 54 b8 68 68 df b2 5e da 08 ba 8e 8e 94 ba
       -5.0778053e-05 -2.6008095e-08 -0.00052205275 -0.0011333989
0003e0 60 c7 2c b7 46 17 30 3a ce 01 ad ba 60 c7 2c b7
       -1.02984195e-05 0.0006717335 -0.001319939 -1.02984195e-05
0003f0 f8 71 a3 ba 95 36 42 bb 13 5a ce b7 90 8b 2a 3b
       -0.0012469878 -0.0029634584 -2.4599058e-05 0.0026023127

exp_avg_sq f4 [128, 6]
000000 0c 88 8a 34 30 e2 91 35 87 cf dc 2e 74 06 07 36
       2.580349e-07 1.0869171e-06 1.0041306e-10 2.0120324e-06
000010 8d 05 ae 35 87 cf dc 2e 88 64 dd 34 c6 c9 03 36
       1.2965626e-06 1.0041306e-10 4.1237604e-07 1.9637969e-06
000020 93 71 30 2f f4 a6 5d 36 59 6c 14 36 93 71 30 2f
       1.6047456e-10 3.3028746e-06 2.2116785e-06 1.6047456e-10
000030 c9 67 58 32 07 6c 54 33 06 78 ac 2c f2 1f 7b 33
       1.2596453e-08 4.9458347e-08 4.9018593e-12 5.8469546e-08
000040 c1 33 51 33 06 78 ac 2c a9 dc 0b 35 79 89 1a 36
       4.8708674e-08 4.9018593e-12 5.210264e-07 2.3027808e-06
000050 83 ee 5e 2f 1a b8 5e 34 ee ec 3f 36 83 ee 5e 2f
       2.0275519e-10 2.0742337e-07 2.859913e-06 2.0275519e-10
000060 28 1e 06 35 89 f3 f9 35 a5 c6 55 2f 3f c6 64 36
       4.9962773e-07 1.8622824e-06 1.944281e-10 3.4090042e-06
000070 0f a5 c0 35 a5 c6 55 2f 99 a4 bd 37 dc 88 e2 38
       1.4353153e-06 1.944281e-10 2.2607202e-05 0.00010802012
000080 c9 23 17 32 03 4c 28 38 4c 0f 00 39 c9 23 17 32
       8.797493e-09 4.0125113e-05 0.0001221273 8.797493e-09
000090 fd 4f b3 34 a2 02 9d 35 2b e8 0e 2f 8e e1 00 36
       3.3399547e-07 1.1698178e-06 1.2997307e-10 1.9204776e-06
0000a0 87 db 23 35 2b e8 0e 2f 85 46 51 34 60 6d 80 35
       6.1041686e-07 1.2997307e-10 1.9490297e-07 9.568575e-07
0000b0 55 c9 a6 2e fb d1 5f 34 62 aa 96 35 55 c9 a6 2e
       7.58457e-11 2.0844884e-07 1.1225459e-06 7.58457e-11
0000c0 dc d0 6d 36 19 75 9d 37 38 88 bd 30 0a 4d fb 36
       3.5437324e-06 1.8770386e-05 1.3790276e-09 7.4893514e-06
0000d0 ef 47 b7 37 38 88 bd 30 3b 3d 4f 33 23 3a 6e 34
       2.1848797e-05 1.3790276e-09 4.8251632e-08 2.2186627e-07
0000e0 db 29 a5 2d 46 e8 02 34 75 4e 8b 34 db 29 a5 2d
       1.8776916e-11 1.2191694e-07 2.5947853e-07 1.8776916e-11
0000f0 2e 84 23 31 dd 8a 93 31 61 51 82 2b ca 0f b2 30
       2.3794757e-09 4.29405e-09 9.259643e-13 1.2955692e-09
000100 cd 1c 25 31 61 51 82 2b 9e c1 a3 32 65 27 a5 33
       2.4027031e-09 9.259643e-13 1.9063744e-08 7.690577e-08
000110 50 82 02 2d e9 03 c3 33 20 a9 53 33 50 82 02 2d
       7.41858e-12 9.0811064e-08 4.9281084e-08 7.41858e-12
000120 ca 00 06 35 9c d1 83 36 bc 97 55 2f 24 2e 24 34
       4.992004e-07 3.928506e-06 1.9426144e-10 1.5290476e-07
000130 3c dd a8 36 bc 97 55 2f d7 08 2e 37 ad 1b 6f 38
       5.0325452e-06 1.9426144e-10 1.0373266e-05 5.7007815e-05
000140 54 b3 8a 31 26 f2 eb 36 be 58 81 38 54 b3 8a 31
       4.036716e-09 7.0317355e-06 6.167729e-05 4.036716e-09
000150 80 ed 8f 33 bb 6c c1 34 94 69 e5 2d ef c8 33 34
       6.7021574e-08 3.6028163e-07 2.6081172e-11 1.6743773e-07
000160 1d aa f3 34 94 69 e5 2d 98 aa 9f 36 58 5d 8b 37
       4.538605e-07 2.6081172e-11 4.758429e-06 1.6613558e-05
000170 b8 7f fe 30 0c 4f 0d 36 11 97 65 37 b8 7f fe 30
       1.8517232e-09 2.1056649e-06 1.36846365e-05 1.8517232e-09
000180 52 d1 3b 37 cc e0 45 38 58 af 95 31 96 d5 95 37
       1.1194805e-05 4.717782e-05 4.356405e-09 1.7861643e-05
000190 ed 29 89 38 58 af 95 31 4d c5 2d 37 ba 4c 5e 38
       6.540478e-05 4.356405e-09 1.0357541e-05 5.300038e-05
0001a0 78 7d 8a 31 22 5e 96 36 0b 62 72 38 78 7d 8a 31
       4.0305927e-09 4.481307e-06 5.7788606e-05 4.0305927e-09
0001b0 33 08 93 37 f3 e4 c8 38 53 5c ea 31 59 66 2e 38
       1.7527584e-05 9.579388e-05 6.8207924e-09 4.158015e-05
0001c0 84 e4 f1 38 53 5c ea 31 6f 5a d3 37 54 35 0b 39
       0.0001153434 6.8207924e-09 2.5195272e-05 0.0001327594
0001d0 3b 71 28 32 a3 2a 3b 37 96 9a 2c 39 3b 71 28 32
       9.804633e-09 1.1155996e-05 0.00016460786 9.804633e-09
0001e0 31 e4 04 38 5d 8e 28 39 38 d2 53 32 37 d0 af 37
       3.1683772e-05 0.00016074763 1.2329615e-08 2.0958583e-05
0001f0 e2 9b 51 39 38 d2 53 32 ed 0a 38 36 d1 0e bc 36
       0.00019989864 1.2329615e-08 2.7424496e-06 5.6045615e-06
000200 34 ad 92 30 4d f7 a1 35 e3 6a 5e 36 34 ad 92 30
       1.0672125e-09 1.2067409e-06 3.3142794e-06 1.0672125e-09
000210 62 50 8c 35 1d c4 a6 36 f4 a6 df 2f d0 b5 05 36
       1.0454207e-06 4.970016e-06 4.068209e-10 1.9924373e-06
000220 f6 30 9d 36 f4 a6 df 2f 4b 6e 2f 32 27 14 19 33
       4.6846644e-06 4.068209e-10 1.0211418e-08 3.5641417e-08
000230 32 d0 8b 2c d1 18 c7 32 ac fc 8b 32 32 d0 8b 2c
       3.973732e-12 2.3177934e-08 1.6296632e-08 3.973732e-12
000240 74 a6 04 37 29 f1 09 38 c7 6f 53 31 99 f1 33 36
       7.9065685e-06 3.2887943e-05 3.076808e-09 2.6813707e-06
000250 2e 37 08 38 c7 6f 53 31 ce 62 4c 33 2d 7d 68 34
       3.2476317e-05 3.076808e-09 4.7587314e-08 2.1652222e-07
000260 b8 e3 a2 2d 7c ab b7 34 90 67 60 34 b8 e3 a2 2d
       1.8518395e-11 3.4211178e-07 2.0899301e-07 1.8518395e-11
000270 fa dd 39 33 62 a5 3d 34 6d 21 94 2d 09 27 ad 34
       4.3275556e-08 1.7662163e-07 1.6840496e-11 3.2252163e-07
000280 83 43 82 34 6d 21 94 2d 33 df 8b 36 48 ef cb 37
       2.4263508e-07 1.6840496e-11 4.1685066e-06 2.431091e-05
000290 9d f2 de 30 0a 00 b4 36 17 21 02 38 9d f2 de 30
       1.6221581e-09 5.3644226e-06 3.1025233e-05 1.6221581e-09
0002a0 c2 bc e3 34 98 f2 19 36 f5 7f 35 2f ea 58 08 35
       4.2419384e-07 2.2939985e-06 1.6507314e-10 5.0793335e-07
0002b0 42 eb 3e 36 f5 7f 35 2f 2d 85 a5 30 58 26 b8 31
       2.8449144e-06 1.6507314e-10 1.2043181e-09 5.359464e-09
0002c0 2e ea 03 2b 7d ee 8f 32 a5 94 cf 31 2e ea 03 2b
       4.686554e-13 1.6755843e-08 6.041392e-09 4.686554e-13
0002d0 66 84 c0 37 d9 25 ef 38 30 6e 19 32 6a cb 30 38
       2.2949836e-05 0.00011403458 8.930826e-09 4.2151114e-05
0002e0 38 73 0f 39 30 6e 19 32 8b a9 94 34 f7 2c 85 35
       0.00013680465 8.930826e-09 2.7690507e-07 9.922359e-07
0002f0 7d f5 ec 2e 9a 38 a3 35 dd 2f 2b 35 7d f5 ec 2e
       1.0775645e-10 1.216092e-06 6.3772114e-07 1.0775645e-10
000300 58 d4 82 36 60 d6 b4 37 bf 88 d0 30 3c a8 01 37
       3.899022e-06 2.1557498e-05 1.5172857e-09 7.728169e-06
000310 b7 2e e3 37 bf 88 d0 30 4f 28 af 34 3f a7 b1 35
       2.7082262e-05 1.5172857e-09 3.2625618e-07 1.3236203e-06
000320 66 98 0b 2f 68 ff 73 35 24 5b 88 35 66 98 0b 2f
       1.2696119e-10 9.089622e-07 1.0159315e-06 1.2696119e-10
000330 e1 f9 64 37 e1 a8 b0 38 bd 7c b6 31 39 9c d8 37
       1.36480385e-05 8.42379e-05 5.3110782e-09 2.5821953e-05
000340 b7 e3 e3 38 bd 7c b6 31 66 a4 ab 35 96 e1 b3 36
       0.00010866619 5.3110782e-09 1.2788339e-06 5.3608774e-06
000350 2f cb 08 30 32 e4 88 37 4c b5 b1 36 2f cb 08 30
       4.9765253e-10 1.6318725e-05 5.296117e-06 4.9765253e-10
000360 c2 f8 87 37 c6 17 ca 38 26 bb d8 31 b4 d4 43 38
       1.6209091e-05 9.636539e-05 6.3077037e-09 4.6689718e-05
000370 94 45 f1 38 26 bb d8 31 65 e0 37 32 d7 fd 79 33
       0.000115047354 6.3077037e-09 1.0703023e-08 5.8205696e-08
000380 56 8b 92 2c 44 f8 38 33 8d 7a af 33 56 8b 92 2c
       4.165039e-12 4.3066635e-08 8.1713644e-08 4.165039e-12
000390 ef f7 1e 36 c0 c3 6c 37 e5 62 7d 30 8a ee 44 35
       2.368815e-06 1.4112273e-05 9.21814e-10 7.336281e-07
0003a0 bc 23 90 37 e5 62 7d 30 ae a5 49 36 1d db 41 37
       1.7182778e-05 9.21814e-10 3.0047772e-06 1.1554713e-05
0003b0 ef b4 a0 30 0e 99 a7 35 38 16 37 37 ef b4 a0 30
       1.1692957e-09 1.2487014e-06 1.0912823e-05 1.1692957e-09
0003c0 4e b2 7e 31 5e 0d 83 32 51 fc ca 2b 2d 74 b0 32
       3.706322e-09 1.5256486e-08 1.4422995e-12 2.0541927e-08
0003d0 20 59 ab 32 51 fc ca 2b 52 e1 64 35 96 c3 89 36
       1.994755e-08 1.4422995e-12 8.5264503e-07 4.1056874e-06
0003e0 30 69 b6 2f ba 8f 36 36 c9 63 98 36 30 69 b6 2f
       3.3180347e-10 2.7203773e-06 4.5415695e-06 3.3180347e-10
0003f0 1a e7 fd 37 b9 fa 27 39 5e 5a 4a 32 00 92 a7 37
       3.0267565e-05 0.00016019763 1.1778495e-08 1.9975938e-05

exp_avg f4 [128]
000000 f1 1f 12 39 d9 69 7c 39 b1 af cd b6 5c 80 91 37
       0.00013935544 0.00024072024 -6.1299293e-06 1.7345119e-05
000010 80 67 84 b9 36 c2 5b 3a 40 c3 bc b8 6e a3 6e b8
       -0.00025254115 0.00083831267 -9.000907e-05 -5.6895828e-05
000020 96 d3 fe b9 4b 66 1f 37 a1 64 10 38 c9 ed 7e b7
       -0.000486043 9.5009555e-06 3.4425993e-05 -1.5194943e-05
000030 dc 9d be b8 7c f8 6f 39 a3 27 81 b7 68 0d e3 b9
       -9.0893096e-05 0.00022885384 -1.5396456e-05 -0.00043306802
000040 8d e1 97 ba c1 d3 15 39 fe 9b 6f 3a f8 d0 3d ba
       -0.0011587605 0.00014288632 0.0009140371 -0.00072409166
000050 0e 84 90 ba 27 4f c1 b9 b7 4f 27 b9 bc 6e b8 b6
       -0.0011025683 -0.00036870802 -0.00015956057 -5.4965185e-06
000060 1f 40 8b b9 50 5e cf b8 3c 30 e2 36 c8 35 fe b9
       -0.0002655992 -9.888096e-05 6.74094e-06 -0.00048486725
000070 7f 6b d4 b8 76 c8 a0 b6 62 69 b2 ba ba e2 7d 37
       -0.000101289705 -4.7917083e-06 -0.0013611729 1.5132764e-05
000080 ea 3d e7 b9 5c 84 f1 b8 1a 25 a0 ba 8b 7d de b9
       -0.00044105883 -0.000115164294 -0.0012218088 -0.00042436676
000090 51 c5 92 3a 9d f9 a8 b7 55 c6 17 b8 08 84 66 b9
       0.0011197721 -2.0143396e-05 -3.6185917e-05 -0.00021983695
0000a0 5a 67 75 b5 13 ca bd b9 ed aa 62 ba ba 20 2b b9
       -9.142001e-07 -0.00036199446 -0.0008646686 -0.00016320022
0000b0 5a bf 14 39 bb 6a b9 39 28 2f f1 b7 64 4d b5 36
       0.00014185664 0.0003536547 -2.8751398e-05 5.40323e-06
0000c0 f2 6a 6a 39 88 a7 f2 b9 b9 fd b3 b9 d0 98 00 ba
       0.00022355819 -0.00046282657 -0.0003433058 -0.00049055833
0000d0 f6 a2 5f b8 b9 12 17 38 3a 26 de b6 ae ea e0 b9
       -5.3319112e-05 3.6018642e-05 -6.6205657e-06 -0.0004289946
0000e0 4d 58 4c 3a 53 1c 38 b9 33 2b 2c 38 1c 6d 04 3a
       0.000779514 -0.00017558159 4.1048228e-05 0.0005051659
0000f0 a6 07 43 39 d4 c7 c9 38 b3 e7 9f ba f4 35 5c ba
       0.00018599498 9.621648e-05 -0.0012199789 -0.00084003736
000100 bd 46 24 ba 50 88 2c 38 1e e3 04 37 f5 fc 3a 3a
       -0.00062666443 4.1134947e-05 7.920693e-06 0.00071330304
000110 e3 32 01 ba 7b ce 8a b8 9a 4c f8 36 af a6 0a b9
       -0.0004928542 -6.618813e-05 7.3998935e-06 -0.000132228
000120 fd 94 26 3a 3f 52 2c ba c3 23 0a 39 af bc 0d b8
       0.00063545984 -0.0006573535 0.00013174028 -3.3792745e-05
000130 e7 13 8e ba e9 c8 87 38 e7 d8 a9 b9 bd f2 91 b9
       -0.0010839672 6.474724e-05 -0.00032395797 -0.0002783741
000140 9d 47 d2 b8 7e 57 85 36 53 61 01 39 ec 58 66 b9
       -0.00010026919 3.9738943e-06 0.00012338655 -0.00021967635
000150 aa 4b b7 b8 6b ef 6b ba ac b8 36 b8 82 ab f3 37
       -8.7402135e-05 -0.00090002146 -4.356417e-05 2.9047722e-05
000160 4e cb b4 b9 f2 0b 21 b8 f9 8d b8 b9 7a 65 33 ba
       -0.0003448375 -3.8396516e-05 -0.00035200993 -0.00068434293
000170 fd 41 a6 b9 b2 64 2e b9 3f 6c 1f b9 8e dd 16 b9
       -0.00031711152 -0.00016631445 -0.00015203746 -0.0001438765
000180 7b b0 97 b7 35 2f d4 b5 0c 1c 91 b7 33 a2 b4 37
       -1.8082783e-05 -1.580897e-06 -1.7298407e-05 2.1533202e-05
000190 c1 88 4b ba c8 f6 97 b9 95 e8 d1 b8 37 1d 88 39
       -0.00077642134 -0.0002898483 -0.000100092184 0.00025961708
0001a0 3b 2f bc 39 79 b8 a1 b7 cd 2c 3d 38 b9 80 99 38
       0.00035893344 -1.9278597e-05 4.5102835e-05 7.319585e-05
0001b0 03 3e e4 39 6c 6a ef 37 0f 22 99 3a be 99 29 ba
       0.0004353375 2.8540577e-05 0.0011683124 -0.0006469748
0001c0 ba b8 8f 3a 8a 6b 29 38 06 56 3d b9 98 80 b5 b8
       0.0010965087 4.0392893e-05 -0.00018056491 -8.654705e-05
0001d0 7c 21 01 b8 4c ec b7 37 30 2e ba b9 2e 3c 16 b9
       -3.078718e-05 2.1925334e-05 -0.00035511097 -0.00014327533
0001e0 76 97 1f 39 a6 c9 bf b9 a3 b6 85 39 dd e7 03 b8
       0.00015219845 -0.000365806 0.00025503812 -3.1448773e-05
0001f0 7d b0 4c 39 e8 fe 7a ba 71 b1 c1 39 40 a0 56 ba
       0.00019520703 -0.0009574727 0.00036944033 -0.0008187331
