results/DemoRun/MoveToBall/MoveToBall-128912.onnx (onnx, 73315 bytes, 6 tensors)

network_body._body_endoder.seq_layers.0.weight f4 [128, 6]
0	0xbed4b5b2	-0.41544873
1	0x3e73034b	0.23731725
2	0xbef94451	-0.48684934
3	0xbf25ce03	-0.64767474
4	0xbebec30b	-0.3725818
5	0xbf3a0e8e	-0.7267846
6	0xbe58d8c0	-0.21176434
7	0x3e5072f3	0.2035635
8	0xbef044a3	-0.46927366
9	0xbee80919	-0.4531944
10	0xbe536d02	-0.20647052
11	0x3ede4155	0.4340922
12	0xbe8631b6	-0.262098
13	0xbe17a7f5	-0.14810164
14	0xbdb46b68	-0.088095486
15	0xbc60a44e	-0.013711048
16	0xbf46b03f	-0.7761268
17	0x3f5983fb	0.8496701
18	0xbeb6c8ac	-0.35699975
19	0xbf2c1ad7	-0.67228454
20	0xbe4f0991	-0.20218493
21	0x3f3de69b	0.7418
22	0x3eae32f8	0.3402326
23	0x3e1fbad8	0.15598619
24	0x3e6842b2	0.22681692
25	0xbd37420f	-0.044740733
26	0x3e846f01	0.2586594
27	0xbf3904eb	-0.7227313
28	0xbf250b43	-0.6447031
29	0x3e26c94e	0.16287729
30	0xbe5f218a	-0.21790138
31	0x3f94082d	1.1564995
32	0x3d4453a4	0.04793133
33	0x3e45ed1c	0.19328731
34	0x3e95131c	0.29116142
35	0xbec2fd27	-0.38083765
36	0x3e177f01	0.14794542
37	0x3d3bdab2	0.04586286
38	0x3ebd4b75	0.36971632
39	0xbeaecafd	-0.34139243
40	0xbee3ba8a	-0.44478256
41	0xbe11ca8e	-0.14237425
42	0xbe6d0f9a	-0.23150483
43	0xbccb6f45	-0.02483333
44	0x3eac9b04	0.33712018
45	0xbe8c95f6	-0.2745816
46	0x3ea09e1b	0.31370625
47	0x3e43fb8d	0.19138928
48	0x3f427506	0.75959814
49	0xbe4e9a05	-0.20175941
50	0x3e9ac76c	0.30230272
51	0xbe2b8d32	-0.1675308
52	0x3e719afe	0.23594281
53	0xbddc9f6c	-0.10772595
54	0xbe1fd364	-0.15607983
55	0xbed5d194	-0.41761458
56	0x3ec6747a	0.3876074
57	0x3da2dc2a	0.07952149
58	0xbe710047	-0.23535262
59	0x3f804060	1.0019646
60	0xbe1717db	-0.14755194
61	0xbee58eed	-0.44835606
62	0xbe78022d	-0.2421958
63	0x3f577687	0.84165233
64	0xbf7d69f6	-0.9898981
65	0xbe5fe4dd	-0.21864648
66	0xbea215f3	-0.3165737
67	0xbd9a1ac9	-0.0752464
68	0xbf1136df	-0.5672435
69	0xbe9dbcc6	-0.30808085
70	0xbf00bb36	-0.5028566
71	0x3efe2b24	0.4964229
72	0xbf727bef	-0.9472036
73	0xbc8e1054	-0.01734177
74	0x3ea18a6c	0.3155092
75	0x3e2ea47f	0.17054938
76	0x3e9f9124	0.3116542
77	0xbca2d141	-0.01987517
78	0xbda6cc30	-0.081444144
79	0x3e9bf079	0.30456904
80	0x3f238fed	0.6389149
81	0x3e26a748	0.1627475
82	0xbcfa6303	-0.03056479
83	0xbde29d7e	-0.110651955
84	0xbeab3216	-0.3343665
85	0xbf25c3a7	-0.64751667
86	0xbe232523	-0.15932135
87	0x3dceca0a	0.1009713
88	0x3e35d4f7	0.17757021
89	0x3e3aa98b	0.18228738
90	0xbe52adc4	-0.20574099
91	0x3e541fb7	0.20715223
92	0xbf62c43b	-0.88580674
93	0x3ea9d398	0.33169246
94	0xbe964e09	-0.2935641
95	0x3dc7d8ba	0.09758134
96	0x3e9109d3	0.28327808
97	0xbf218090	-0.63086796
98	0xbf0378cd	-0.513562
99	0xbc778ea6	-0.015109694
100	0x3ea59d51	0.32346585
101	0x3ec5e8d2	0.3865419
102	0x3e4aac47	0.19792281
103	0x3e73a2f3	0.23792629
104	0xbecfa170	-0.40552855
105	0x3e8be7cb	0.27325282
106	0xbdc2f3a3	-0.09519126
107	0xbf16e8a1	-0.58948714
108	0xbec966a9	-0.39336136
109	0x3f2325c0	0.63729477
110	0x3d8ac5e7	0.06776028
111	0xbeb7651e	-0.35819334
112	0x3d8bfcab	0.06835302
113	0xbebee25b	-0.3728207
114	0x3ea5c6a6	0.3237812
115	0xbeb2d8a6	-0.34930915
116	0xbedb2f26	-0.4280941
117	0x3e8da1fa	0.2766264
118	0x3ea93006	0.3304445
119	0x3df0462f	0.117321365
120	0x3eabdd30	0.3356719
121	0xbeaf30a6	-0.34216803
122	0xbe2d2f01	-0.16912462
123	0x3e189146	0.14899167
124	0x3e92683b	0.28595147
125	0xbde5fb31	-0.112295516
126	0xbd43d9d3	-0.047815155
127	0xbd49a6f4	-0.049231485
128	0x3eef283d	0.46710387
129	0x3f81c7ec	1.0139136
130	0xbeb774cd	-0.358313
131	0xbe47eb12	-0.19523266
132	0x3dfbab41	0.122885235
133	0xbdaaeb9b	-0.083457194
134	0x3ef54ea9	0.47911575
135	0xbeed762a	-0.46379215
136	0x3e09ce2f	0.13457559
137	0xbd98d583	-0.07462599
138	0xbf046cc9	-0.5172849
139	0x3e37bb9b	0.1794266
140	0xbc8eb2d6	-0.01741926
141	0xbe368b82	-0.17826656
142	0xbf333679	-0.70004994
143	0x3da5ecf0	0.08101833
144	0x3e8823e3	0.2658988
145	0x3e224b08	0.15848935
146	0x3e595640	0.21224308
147	0x3f077054	0.52905774
148	0xbe48e55e	-0.19618747
149	0xbd2ce5c1	-0.042211298
150	0xbe134db8	-0.14385116
151	0x3f006672	0.5015632
152	0xbf155112	-0.5832683
153	0xbe1ece54	-0.15508395
154	0x3f88fce8	1.0702181
155	0x3dafcea9	0.08584339
156	0xbed5a940	-0.4173069
157	0xbebe3037	-0.3714616
158	0xbea4d70c	-0.32195318
159	0xbf1b1f68	-0.605948
160	0x3e55a48e	0.20863554
161	0xbeee05ec	-0.46488893
162	0x3e744211	0.23853327
163	0xbe72aadd	-0.23697992
164	0xbe8b5e9e	-0.27220625
165	0x3e16c335	0.14722903
166	0x3f0e64ef	0.5562276
167	0xbe8943e0	-0.26809597
168	0x3d30ea39	0.043192122
169	0x3d922527	0.071359925
170	0x3e9b7b26	0.30367392
171	0xbd3215a4	-0.04347767
172	0x3ea7544c	0.326815
173	0x3f4160a5	0.7553809
174	0xbf2d3b09	-0.67668205
175	0xbdfa329c	-0.12216684
176	0xbe402d05	-0.18767174
177	0x3dbaa503	0.09113505
178	0x3d26dd62	0.04073847
179	0x3f1d5fe5	0.6147445
180	0x3f3ee3a4	0.745661
181	0xbeddd100	-0.43323517
182	0x3e883cfd	0.2660903
183	0xbe9af9dd	-0.30268756
184	0x3eb8937c	0.36050022
185	0xbce9e5da	-0.028551985
186	0x3db7619f	0.089541666
187	0x3dad3cf2	0.0845889
188	0xbf96f08a	-1.1792157
189	0xbef0f632	-0.47062832
190	0xbeb49ce7	-0.35275957
191	0x3e570d72	0.21001223
192	0xbe94be42	-0.29051405
193	0x3cd88711	0.026431592
194	0x3eff4bdf	0.49862573
195	0x3d783173	0.060594033
196	0x3f594f2d	0.8488644
197	0xbfa3aa0b	-1.2786268
198	0x3dc2e69c	0.095166415
199	0x3f30de81	0.69089514
200	0x3e01ce70	0.12676406
201	0xbe12e305	-0.14344414
202	0x3f6eb697	0.9324736
203	0xbe1e7aa6	-0.15476474
204	0xbde1308c	-0.10995588
205	0xbf215241	-0.63016135
206	0xbf376234	-0.7163422
207	0xbe8b3046	-0.27185267
208	0x3f62ca8a	0.885903
209	0xbe28a330	-0.16468501
210	0xbdc257ce	-0.09489404
211	0xbe9ac6cc	-0.30229795
212	0x3ed38105	0.41309372
213	0xbf2fd9dd	-0.6869181
214	0xbeac5fad	-0.33666745
215	0x3f1f9439	0.62335545
216	0xbf2b0858	-0.66809607
217	0x3f04c3d7	0.5186133
218	0xbe8a7a18	-0.27046275
219	0xbe8c57ae	-0.27410644
220	0xbdd21bef	-0.10259234
221	0x3e9a81dd	0.30177203
222	0x3d8fac31	0.07015265
223	0xbecf67c3	-0.4050885
224	0xbea81715	-0.3283011
225	0xbd11b19e	-0.03556978
226	0xbe3f0966	-0.18655929
227	0xbeee635b	-0.46560177
228	0xbe9b288a	-0.30304366
229	0x3ddf9e5d	0.10918877
230	0x3f5e3844	0.86804605
231	0x3f133f3b	0.5751836
232	0x3e29e567	0.16591416
233	0x3e479e3f	0.1949396
234	0xbe0ab1ac	-0.13544339
235	0x3ddb769b	0.107159816
236	0xbef9979b	-0.48748478
237	0x3ea490b7	0.3214166
238	0xbe1e4a5f	-0.15458058
239	0x3f3f9905	0.74842864
240	0x3d0a4a66	0.033762358
241	0xbf263c57	-0.6493582
242	0xbe098b21	-0.1343198
243	0x3d5d3aee	0.054011278
244	0x3e25b663	0.16182856
245	0xbd02807d	-0.031860817
246	0x3deb6a76	0.11494915
247	0xbefecef6	-0.49767274
248	0xbea3945e	-0.31949133
249	0xbef3c983	-0.4761468
250	0x3ebafb2a	0.36519748
251	0xbdd156ec	-0.10221657
252	0x3f377065	0.71655875
253	0xbf1abb7e	-0.6044234
254	0xbec52d6e	-0.38511223
255	0x3eb88bb5	0.36044088

network_body._body_endoder.seq_layers.0.bias f4 [128]
0	0x3c4eeeb6	0.012630155
1	0xbc1c9be9	-0.009558656
2	0xba4efa10	-0.00078955386
3	0x3d436ab1	0.04770917
4	0x3bba650b	0.005688315
5	0xbcc20cda	-0.023687769
6	0x3c7afee1	0.015319557
7	0x3cc60dd9	0.024176525
8	0xbc2964aa	-0.010338942
9	0x3c4f41ca	0.012649963
10	0xbc9309fd	-0.017949099
11	0x3c5a2b42	0.0133159775
12	0x3c314442	0.010819497
13	0x3c51075c	0.012758102
14	0xbc012e1c	-0.0078845285
15	0x3d40e4ab	0.047093075
16	0x3d77c169	0.060487185
17	0x3c0b1047	0.008487768
18	0xbca3db43	-0.020002013
19	0x3d1cc9fd	0.03827857
20	0x3d291b56	0.041285835
21	0x3d37823f	0.044801947
22	0x3c2053fe	0.00978565
23	0x3be5ff9f	0.007018998
24	0xb9f25b42	-0.0004622583
25	0xba1a2395	-0.0005879936
26	0x3cdf414d	0.027252818
27	0xbc9244a0	-0.017854989
28	0x3c14ef8a	0.009090314
29	0xbbb37103	-0.0054761185
30	0x3cfd5a35	0.030926803
31	0xbc164f5c	-0.009174194
32	0xbb4f0f1c	-0.00315947
33	0x3d50f088	0.05101064
34	0x3d0f0216	0.0349141
35	0x3cbfb0dc	0.023399763
36	0x3c563ef6	0.0130765345
37	0xbd286881	-0.041115288
38	0x3bb51734	0.0055264477
39	0x3c9f3a02	0.01943684
40	0x3d47253e	0.0486195
41	0x3c8f26e9	0.017474608
42	0x3c847d6a	0.016173083
43	0xbbf1ff51	-0.0073851724
44	0xbb41fd53	-0.0029600456
45	0xbce85691	-0.02836159
46	0xbc96cd8f	-0.018408565
47	0x3c337675	0.010953535
48	0xbc189665	-0.009313201
49	0x3d234041	0.0398562
50	0x3cd606e0	0.026126325
51	0x3d6d028c	0.057863757
52	0xbcdbfd57	-0.0268542
53	0x3c174fa8	0.0092353
54	0xbc98724f	-0.018609194
55	0x3ce85fa8	0.028365925
56	0xb97d619a	-0.0002416432
57	0x3bda0f4e	0.0066546565
58	0x3c8a71c9	0.01689996
59	0x3b82e2c9	0.00399432
60	0x3bbfc1d7	0.005851965
61	0xbb809327	-0.003923792
62	0x3d3b8dac	0.045789406
63	0x3c86326b	0.016381463
64	0x3c711a9d	0.014715818
65	0xbb894b63	-0.004189895
66	0x3c24d825	0.0100612985
67	0xbb7c5404	-0.0038502226
68	0x3ce113b1	0.02747521
69	0x3cb0a6f6	0.021563988
70	0xbcc38334	-0.023866273
71	0x3c7c213f	0.015388786
72	0xbc4814c3	-0.012211981
73	0x3d2823b7	0.041049685
74	0x3c907a3b	0.017636409
75	0x3c3869f3	0.011255729
76	0x3d239258	0.039934486
77	0x3d0c9385	0.034320373
78	0x3c619fb0	0.013770983
79	0x3bc2d8ab	0.005946239
80	0x3ce98af1	0.028508635
81	0xbbaa9042	-0.005205185
82	0x3cb72b4c	0.022359513
83	0x3cdf17b8	0.02723299
84	0x3c291307	0.010319478
85	0x3cd504e1	0.026003303
86	0xbbfce5eb	-0.007717838
87	0x3c472c5a	0.01215657
88	0x3ce4e62f	0.027941791
89	0x3c8f19a5	0.017468283
90	0x3cf5280d	0.029926324
91	0x3cc3c779	0.023898827
92	0x3ca2839f	0.019838152
93	0x3d6f6577	0.058446374
94	0x3c3c61ad	0.011497897
95	0x3d0b1acd	0.033961106
96	0x3bc2c9f2	0.005944484
97	0x3c4ba748	0.01243002
98	0xbcf5db0d	-0.030011678
99	0xbc1e6bfb	-0.009669299
100	0x3d2c894c	0.042123124
101	0xbb5e6193	-0.003393267
102	0x3c23c092	0.009994643
103	0x3b0d02aa	0.002151648
104	0x3c63296f	0.013864859
105	0x3cd2be61	0.025725545
106	0x3bb5d805	0.005549433
107	0x3b830cda	0.0039993348
108	0x38b72224	8.732479e-05
109	0xbc4548fd	-0.012041328
110	0x3d0d1408	0.03444293
111	0x3ca4db74	0.020124175
112	0x3c308bec	0.0107755475
113	0xbba6eca7	-0.005094129
114	0x3d03ed4c	0.032208726
115	0xbb4a71d3	-0.0030890598
116	0x3b1a55b7	0.0023549625
117	0xbc743ab6	-0.014906576
118	0xba9d8d59	-0.0012020274
119	0xbaeb27b2	-0.0017940907
120	0x3cbb39a9	0.022854643
121	0x3d4cfa8c	0.050043628
122	0xbc8e00bb	-0.017334333
123	0x3bea1068	0.007143069
124	0x3cbb9bee	0.022901502
125	0x3bb34193	0.0054704635
126	0x39f6113b	0.00046933614
127	0x3c7455df	0.014913051

network_body._body_endoder.seq_layers.2.weight f4 [128, 128]
0	0x3c6eb5a4	0.014569674
1	0xbe0e423b	-0.13892452
2	0x3dcadd5b	0.099055015
3	0xbddca9fa	-0.10774608
4	0x3dc5472b	0.09632715
5	0x3c9ac6aa	0.018893559
6	0x3dc3d76b	0.09562572
7	0x3a983143	0.0011611361
8	0x3d87e2f8	0.06635088
9	0xbcf05e80	-0.029341936
10	0xbd2e66c0	-0.04257846
11	0x3d7c2588	0.06155923
12	0xbd4b4ead	-0.049635578
13	0xbd8db22b	-0.069187485
14	0xbdb9e148	-0.09076172
15	0xbd1778a7	-0.036980297
16	0xbda2918c	-0.07937917
17	0x3e566e8d	0.2094061
18	0x3dc5dc8c	0.096612066
19	0x3ccf7f6b	0.025329312
20	0xbdbb9dc4	-0.09160951
21	0x3e59931c	0.21247524
22	0xbd2ba4cb	-0.041905206
23	0x3d25a26e	0.04043811
24	0x3e1749ae	0.147742
25	0x3d8baf46	0.0682054
26	0x3d0cb29c	0.034350023
27	0x3d67dcf4	0.0566072
28	0xbd9d501b	-0.076812945
29	0x3d3916f4	0.045187905
30	0x3d866d91	0.06563867
31	0x395626bf	0.00020423064
32	0x3c0e7d73	0.008696902
33	0x3e227c07	0.15867625
34	0xbd928212	-0.07153715
35	0x3d0a25a7	0.033727314
36	0x3e0d6094	0.13806373
37	0x3d5f6e87	0.054548766
38	0xbd9ae175	-0.07562534
39	0xbd0eee71	-0.034895364
40	0xbd7eeecb	-0.06223945
41	0xbe7612f2	-0.24030665
42	0xbdb8d74f	-0.09025442
43	0xbe4ab7ef	-0.19796728
44	0xbd1368eb	-0.03598873
45	0xbc94facd	-0.018185997
46	0xbdaf9aa8	-0.0857442
47	0x3dae61be	0.085147366
48	0xbdbd2160	-0.092348814
49	0xbce47bd3	-0.027891075
50	0xbd1ec505	-0.03876211
51	0x3c9aaa08	0.018879905
52	0x3c9de4df	0.019274173
53	0x3d8456a6	0.064618394
54	0x3d927103	0.071504615
55	0xbd046e54	-0.03233178
56	0x3e3d6934	0.18497163
57	0xbddca30f	-0.107732885
58	0x3d9edc7b	0.07756897
59	0xbd9c5509	-0.07633407
60	0xbd1e0d45	-0.038586874
61	0x3e17b34b	0.14814489
62	0x3cd2ee75	0.02574847
63	0x3d80fed6	0.06298606
64	0xba1a5a80	-0.00058881193
65	0x3b89945c	0.004198594
66	0x3dcc1bfd	0.09966276
67	0x3cbe22d7	0.023209972
68	0xbe1402a2	-0.1445413
69	0xbdabd750	-0.08390677
70	0x3c771181	0.015079857
71	0xbdc701a7	-0.09717112
72	0x3d5e40cd	0.054261018
73	0x3d65796d	0.056024004
74	0x3e2caad2	0.16862038
75	0xbb9b97c6	-0.0047483174
76	0x3e6d45e4	0.23171192
77	0x3d3c278a	0.045936145
78	0xbd8027bd	-0.062575795
79	0x3d810d4e	0.06301366
80	0x3cc97578	0.024592146
81	0xbda8d931	-0.08244551
82	0x3ca2dd8e	0.019881036
83	0xbdaf527d	-0.08560655
84	0xbe00fb32	-0.12595823
85	0xbd416347	-0.04721382
86	0xbc832952	-0.016010914
87	0xbd8e451a	-0.06946774
88	0xbe00ec12	-0.12590054
89	0xbd4c6150	-0.049897492
90	0xbdbff050	-0.09372008
91	0x3cbf3260	0.02333945
92	0x3dc1259d	0.09431002
93	0x3c5b3409	0.013379105
94	0x3da69b5a	0.081351
95	0x3c751355	0.014958222
96	0x3a600a04	0.00085464143
97	0xbd6d7d89	-0.057981048
98	0x3b5e4bbf	0.003391966
99	0x3cabe0a5	0.020981142
100	0xbd397318	-0.045275778
101	0x3bd2f7bd	0.006438224
102	0xbdc1cc55	-0.09462801
103	0x3d25c237	0.04046842
104	0xbd0a82f5	-0.033816297
105	0xbd3f48f8	-0.046700448
106	0xbcef40d6	-0.02920572
107	0x3d24e3c8	0.04025629
108	0xbe0362e4	-0.12830693
109	0x3d628432	0.055301853
110	0x3c99f7ca	0.018794913
111	0xbca1ba75	-0.01974223
112	0x3ddaa1dd	0.10675404
113	0x3cab7cbb	0.0209335
114	0x3d7edc2c	0.06222169
115	0xbcb1f0d8	-0.021721289
116	0x3daf6bc5	0.08565477
117	0x3d19276d	0.037391115
118	0xbe4fcbce	-0.20292589
119	0xbda9c4d8	-0.08289498
120	0xbd2b7be2	-0.04186619
121	0xbd993ae4	-0.074819356
122	0x3d21a9e1	0.03946865
123	0x3da88c50	0.082298875
124	0xbdf8b990	-0.12144768
125	0x3dd457f9	0.10368342
126	0x3c3cb627	0.011518038
127	0x3e4a7e54	0.19774753
128	0x3c0d384b	0.008619378
129	0x3dbdc3ed	0.092658855
130	0x3d9e0be2	0.0771711
131	0x3aa5af8c	0.0012640818
132	0x3deb0f46	0.114775226
133	0xbcf26cd3	-0.029592907
134	0x3d793a45	0.060846586
135	0xbd1131b8	-0.035447806
136	0x3de2617c	0.1105375
137	0x3e3ef804	0.18649298
138	0xbc760c1c	-0.015017536
139	0xbd4114e5	-0.047139067
140	0xbdabb47f	-0.08384036
141	0xbdb1cf95	-0.08682171
142	0x3ce27982	0.02764583
143	0x3d22833f	0.039675947
144	0xbdfacd5e	-0.12246202
145	0x3bcdc7d3	0.0062799244
146	0x3d10cd67	0.035352137
147	0x3cf56579	0.029955612
148	0xbe499006	-0.19683847
149	0x3c706c63	0.014674279
150	0x3de303c1	0.110847004
151	0x3d6f707d	0.058456887
152	0xbccb8c7d	-0.024847263
153	0x3dabf482	0.083962455
154	0x3d063d28	0.032773167
155	0x3d172cdb	0.036908012
156	0x3d9750f7	0.0738849
157	0x3de420e3	0.11139085
158	0xbd3bbe03	-0.045835506
159	0x3dfe05c5	0.12403444
160	0xbe078053	-0.13232546
161	0xbdc6d678	-0.097088754
162	0x3ca2a11c	0.019852214
163	0xbdb86b33	-0.09004822
164	0x3d77dd83	0.060513984
165	0xbd910080	-0.070801735
166	0xba6046f8	-0.0008555497
167	0x3c19f85b	0.009397591
168	0xbe300467	-0.1718918
169	0xbd1f3b38	-0.038874835
170	0xbde9b4b2	-0.11411418
171	0xbdf11437	-0.11771434
172	0x3d8e9e7d	0.06963823
173	0xbd868fe3	-0.06570413
174	0xbce16719	-0.027514981
175	0xbe3d6616	-0.18495974
176	0x3e1ade22	0.151238
177	0x3d8eab33	0.069662474
178	0xbe17db5f	-0.14829777
179	0xbb960e1b	-0.004579318
180	0x3bd359d2	0.0064499164
181	0xbcfdcce8	-0.030981496
182	0x3dbfcc8b	0.09365185
183	0xbd2ca3e7	-0.042148497
184	0xbc6dee24	-0.014522109
185	0xbda25a26	-0.07927351
186	0x3cc1531c	0.0235992
187	0x3c417ebe	0.011810003
188	0x3cbf2ff7	0.023338301
189	0xbc3fb05b	-0.011699761
190	0xbea71759	-0.32635
191	0x3cce9149	0.025215762
192	0x3db6a43f	0.08918046
193	0x3d173ac0	0.036921263
194	0xbd42b0da	-0.04753194
195	0x3dcd244c	0.10016689
196	0xbe30e504	-0.17274863
197	0xbe2d3fcb	-0.16918866
198	0xbd719209	-0.05897716
199	0xbdf5b88b	-0.119980894
200	0x3deeb804	0.11656192
201	0xbe66d59e	-0.22542426
202	0xbd22380a	-0.039604224
203	0xbdbea9cf	-0.09309732
204	0x3cf54bb0	0.029943317
205	0x3e0fcf45	0.14043911
206	0xbe17e258	-0.14832437
207	0x3c981e0c	0.018569015
208	0x3bf2c0b2	0.007408225
209	0xbcac982f	-0.02106866
210	0x3c85d101	0.016335012
211	0x3c859de5	0.016310642
212	0x3dc4853c	0.09595725
213	0xbd2ebb2f	-0.04265898
214	0xbd4d75bb	-0.050161105
215	0xbb2feae0	-0.0026842877
216	0xbcad4021	-0.021148743
217	0xbdd46dcd	-0.10372505
218	0xbd599a14	-0.053125456
219	0xbc81516d	-0.015785897
220	0xbd43d1fd	-0.047807682
221	0x3e11e3f6	0.14247116
222	0xbc2d7f2c	-0.010589402
223	0x3e2be873	0.16787891
224	0x3dbbc4e5	0.09168414
225	0xbcb22db2	-0.021750305
226	0x3dc421fb	0.09576794
227	0x3d0add24	0.033902302
228	0x3d852377	0.06500905
229	0xbdc4bd17	-0.096063785
230	0xbdd13252	-0.10214676
231	0xbdb4e429	-0.088325806
232	0x3c43ece0	0.011958331
233	0x3e3c3525	0.18379648
234	0xbd40452c	-0.046940967
235	0x3da7ffe4	0.08203104
236	0x3cf5b56a	0.029993732
237	0x3d55c61a	0.052190877
238	0xbd3ba10e	-0.04580789
239	0xbc88a4b1	-0.016680093
240	0xbd4874ac	-0.048939392
241	0x3c9e56a3	0.019328421
242	0xbd698942	-0.057015665
243	0x3dbbe37c	0.091742486
244	0x3d6a58a0	0.057213426
245	0xbd23d947	-0.040002134
246	0xbde960ec	-0.113954395
247	0xbe084ba4	-0.13310105
248	0x3d7012a2	0.05861152
249	0xbb5081bb	-0.0031815607
250	0xbe0a1b65	-0.13487013
251	0x3d8bfede	0.068357214
252	0xbc9f7caf	-0.019468633
253	0xbce355bd	-0.027750844
254	0xbbecf840	-0.007231742
255	0x3e2c14a2	0.16804746

network_body._body_endoder.seq_layers.2.bias f4 [128]
0	0xbb5f918a	-0.0034113848
1	0x3c06ab8d	0.008219612
2	0x3c202abd	0.009775815
3	0x3c436c91	0.01192774
4	0x3baf80c0	0.0053559244
5	0xbb08a51c	-0.0020850366
6	0x3bbb3b46	0.005713853
7	0xbb45c067	-0.0030174495
8	0xba945fb9	-0.0011320031
9	0xbc509485	-0.012730722
10	0x3cd9b59d	0.026575858
11	0xbc733a68	-0.014845468
12	0x3b1551a8	0.0022784267
13	0x3bffaf03	0.0078028454
14	0x3be4ea95	0.006985972
15	0x3c622579	0.0138028795
16	0x3a28bb23	0.0006436577
17	0x3ce023f2	0.02736089
18	0x3bbb522b	0.0057165823
19	0x3c0df9b8	0.008665495
20	0xba0601d0	-0.00051119644
21	0xbc02e5bd	-0.007989344
22	0x3c7987e8	0.0152301565
23	0x3cd286d5	0.025699059
24	0x3c8c8315	0.017152349
25	0x3d311250	0.043230355
26	0x3b631179	0.0034647866
27	0x3c77d9f9	0.015127652
28	0x3c3a490e	0.011369957
29	0xbba25347	-0.004953775
30	0x3bb19a9c	0.005420042
31	0x3c9fa3dd	0.019487316
32	0x3c403596	0.011731526
33	0xbaf81b21	-0.0018928983
34	0xbb6f0cdc	-0.003647617
35	0x3b8dde58	0.004329484
36	0x3c6be383	0.014397505
37	0x3c881e5a	0.016616035
38	0x3c2c76fa	0.010526413
39	0x3b458457	0.0030138695
40	0xbbe35ef6	-0.0069388105
41	0x3c38f954	0.011289913
42	0x3c44fe83	0.012023571
43	0xb89a8d8b	-7.369657e-05
44	0xbbad33dd	-0.0052857236
45	0x3abbbde1	0.0014323556
46	0x3b953154	0.0045529995
47	0xbcad82e8	-0.021180585
48	0x3c802302	0.015641693
49	0x3c0550a0	0.008136898
50	0xbaa834b1	-0.0012833086
51	0x3cdf4919	0.027256535
52	0x3a83d958	0.001005928
53	0x3d0aa0c4	0.033844724
54	0x3c170ca2	0.0092193205
55	0x3c0a3564	0.008435581
56	0x3c463acb	0.012098978
57	0xbb90614d	-0.0044061304
58	0x3c8a2f8d	0.016868377
59	0xbb80d76d	-0.0039319308
60	0x3d032fb3	0.03202791
61	0x3be3548f	0.0069375704
62	0x3c847329	0.016168194
63	0x3cfdb435	0.030969718
64	0xbb06da24	-0.00205768
65	0xbbe9c9ff	-0.0071346755
66	0x3c4356c8	0.011922546
67	0x3d3e1a5c	0.046411857
68	0x3d18a853	0.0372699
69	0xb9b9a6d8	-0.00035410258
70	0x3b6a82bb	0.0035783488
71	0x3bee4e30	0.0072725043
72	0x3a939125	0.0011258466
73	0x3c4e569c	0.0125938915
74	0x3aa8f122	0.0012889246
75	0x3c5cfe31	0.013488338
76	0x3cffb790	0.03121546
77	0x3c8760c5	0.016525635
78	0x3c6743b1	0.01411526
79	0x3ca08f02	0.019599441
80	0x3cfbc53f	0.030733703
81	0x3add64cb	0.0016891
82	0x3c040131	0.008056925
83	0xbb29e474	-0.0025923522
84	0x3bd3d5b0	0.0064646825
85	0x39ce04ef	0.00039295058
86	0xbcadfe09	-0.021239297
87	0x3c2d1dcd	0.010566187
88	0x3ce01e5f	0.027358232
89	0x3c822c67	0.015890313
90	0x3b013454	0.0019715028
91	0x3c90b83e	0.017665979
92	0x3c08bb36	0.008345416
93	0x3c1624af	0.0091640195
94	0x3b854b22	0.0040677944
95	0x3c2af3e7	0.010434127
96	0x3c6cab66	0.014445161
97	0x3c86434e	0.016389515
98	0x3cc336d4	0.023829855
99	0xbae2aec0	-0.0017294511
100	0x3c9796b4	0.018504478
101	0x3b4196db	0.002953938
102	0x3d22da7a	0.039759137
103	0x3bb36134	0.005474234
104	0x3c2047a6	0.009782707
105	0x3b84446c	0.004036477
106	0xbbaadd2a	-0.005214353
107	0xba808afb	-0.0009807044
108	0x3cab5e63	0.02091903
109	0xbbc8fc38	-0.0061335824
110	0x3d0ca0a8	0.0343329
111	0xbb9ccdea	-0.004785289
112	0x3b41f597	0.0029595846
113	0x3cbbcbe6	0.022924375
114	0x3cac845e	0.021059211
115	0xbc7632dc	-0.015026774
116	0x3b3a1790	0.0028395392
117	0xbb4795a3	-0.003045418
118	0x3c7efa0d	0.015562546
119	0x3c2431c8	0.010021634
120	0x3c5c3a0f	0.013441577
121	0xbabab3f9	-0.001424431
122	0x3c41bfa2	0.011825474
123	0xbb4f3bb4	-0.003162128
124	0x3cc39de2	0.023878995
125	0x3ce6f0fd	0.028191084
126	0x3c23ab96	0.00998964
127	0x3bcc65f3	0.006237739

action_model._discrete_distribution.branches.0.weight f4 [3, 128]
0	0x3bc9cf8e	0.0061587756
1	0x3c20c34f	0.00981219
2	0xbcb8e25e	-0.022568878
3	0xbc808246	-0.01568712
4	0x3c053563	0.008130404
5	0x3c0cc365	0.008591508
6	0x3b349b21	0.0027558284
7	0x3b44a848	0.003000753
8	0x3c1a83cc	0.009430837
9	0xbb9eb5b9	-0.0048434404
10	0xbb2fd27e	-0.0026828344
11	0xbcbe5da2	-0.023238007
12	0xbbeca4b7	-0.007221784
13	0x3b6cca56	0.0036131344
14	0xbc620b1f	-0.013796597
15	0xbb4a5cfb	-0.0030878175
16	0xb9f204bc	-0.00046161364
17	0x3c18c7ec	0.009325009
18	0xbc61f758	-0.0137918815
19	0xbc84cc20	-0.016210616
20	0x3c9f91f5	0.019478777
21	0x3b4bae35	0.0031079177
22	0x3c773cbf	0.015090167
23	0xbcb001e8	-0.021485284
24	0x3c7b2c5b	0.015330399
25	0xbc682b53	-0.014170486
26	0xbbd182b9	-0.006393757
27	0xbcb89788	-0.022533193
28	0xbbb152fe	-0.005411505
29	0xbb8f823c	-0.004379539
30	0xbc5f2171	-0.013618813
31	0x3b95699b	0.0045597083
32	0xbb48de5e	-0.003065012
33	0xbbd6e0ac	-0.0065575447
34	0xbbd0adcc	-0.0063683745
35	0x3c8381ca	0.0160531
36	0x3c78d6fa	0.015187973
37	0xbb335509	-0.0027363917
38	0xbb8a9e21	-0.004230276
39	0x3bc0df4f	0.0058859955
40	0x3bccc3b4	0.0062489156
41	0x3bb0ffd5	0.0054015913
42	0xbc8b8bf2	-0.017034505
43	0xbc813db9	-0.015776502
44	0x3bac5e5b	0.0052602715
45	0x3a13677b	0.0005623025
46	0x3caf62c6	0.021409404
47	0x3aac3515	0.0013138378
48	0xba8f185c	-0.0010917294
49	0xbb0cb5b3	-0.0021470606
50	0x3cdcca25	0.026951859
51	0x3ab45124	0.0013757092
52	0x3b2a205c	0.002595923
53	0x3c0d4aca	0.008623788
54	0xbb1e03e8	-0.0024111215
55	0x3bb4d269	0.005518247
56	0xbc152c17	-0.00910475
57	0xbc0f85d8	-0.008759938
58	0x3abcb5ba	0.001439742
59	0xbbbc25f9	-0.0057418314
60	0xbb06553a	-0.0020497576
61	0xba5e91b5	-0.000849034
62	0xbc0e7e13	-0.008697051
63	0x3c4ede7c	0.012626287
64	0x3adce141	0.0016851799
65	0x3c72ddf6	0.014823427
66	0x3b4f727e	0.0031653936
67	0x3b906327	0.004406351
68	0x3b68a0a5	0.0035496142
69	0x3cc50034	0.024047948
70	0x3b03b998	0.0020099636
71	0x3cc04cbc	0.02347409
72	0x3c798f9e	0.015231995
73	0xbb763243	-0.003756658
74	0x3c152056	0.009101948
75	0xbc9e687c	-0.019336931
76	0xbbca22ae	-0.006168685
77	0xbc62e8ad	-0.01384942
78	0xbc034556	-0.008012136
79	0x3c978c86	0.018499624
80	0x3c491adc	0.01227447
81	0x3c031bc7	0.008002228
82	0xbd0ea1ff	-0.03482246
83	0xba59b299	-0.0008304506
84	0xbb4b871d	-0.0031055876
85	0x3baf9c93	0.0053592413
86	0xbc20c1de	-0.009811847
87	0x3c9b8802	0.018985752
88	0x3b850344	0.004059227
89	0xbbd42547	-0.0064741704
90	0xbc9bae63	-0.019004053
91	0xbc22ea50	-0.00994356
92	0xbcf3c2be	-0.029755946
93	0xbc5da2a6	-0.013527548
94	0xb92d3cfd	-0.00016521286
95	0x3c1eb955	0.009687741
96	0xbc2f8904	-0.010713819
97	0xbc8578c0	-0.01629293
98	0xbb256147	-0.0025234984
99	0x3c3c4450	0.011490896
100	0xba965f11	-0.0011472424
101	0x3bad80cc	0.005294895
102	0xbc9c1876	-0.019054633
103	0x3c72748f	0.014798298
104	0xbbb3062c	-0.005463382
105	0x38f6b04b	0.00011763031
106	0xbbe536be	-0.006995051
107	0xbbc2055b	-0.0059210486
108	0xbc4c835d	-0.012482491
109	0x3b62a8c5	0.0034585458
110	0xbc82b764	-0.015956588
111	0xbc07926f	-0.008274659
112	0x3c2733c9	0.010205218
113	0xbc719258	-0.014744364
114	0x3b0174a9	0.0019753373
115	0x3bcb8112	0.0062104547
116	0x3bb5e0f2	0.005550497
117	0x3c8c257c	0.017107718
118	0xbc40b1f5	-0.011761178
119	0x3c37c429	0.011216202
120	0xbbe6b38d	-0.007040447
121	0x3c9b1596	0.018931191
122	0x3ab45c27	0.0013760374
123	0x3bf146d5	0.00736318
124	0x3c1aa164	0.009437893
125	0xb9ffb364	-0.00048771047
126	0x3c8948fa	0.01675843
127	0x3cc2dda7	0.023787333
128	0xbcec4d42	-0.028845433
129	0x3c63f92e	0.01391439
130	0xbcc8b7b2	-0.024501655
131	0xbcbb9c49	-0.022901671
132	0xbcacfe4e	-0.021117356
133	0x3bf9a882	0.0076189646
134	0xbd1facc2	-0.038983114
135	0xb8970a3b	-7.202147e-05
136	0xbceced96	-0.028921884
137	0xbc3bd25c	-0.011463728
138	0x3d412808	0.047157317
139	0xbcabaa1e	-0.020955142
140	0xbc8e84e3	-0.01739735
141	0xbd4625f3	-0.048376035
142	0x3824f075	3.932459e-05
143	0x3ceebe06	0.029143345
144	0xbc302ea3	-0.010753307
145	0x3cb9e1de	0.02269071
146	0x3c8617eb	0.016368827
147	0x3c7c4c88	0.015399106
148	0xbbe35a8b	-0.006938284
149	0xba25266b	-0.0006299975
150	0xbd316698	-0.04331073
151	0xbd199c4b	-0.03750257
152	0x3a3a1dd9	0.00070997846
153	0x3d1b19b6	0.037866317
154	0x3c2197ac	0.009862822
155	0x3cc524e1	0.024065437
156	0xbc78c4e5	-0.015183662
157	0xbc97b476	-0.018518668
158	0xbc1780ed	-0.009247047
159	0xbcf5c6c7	-0.030002011
160	0x3c9ea7f1	0.01936719
161	0x3a65e8c7	0.0008770343
162	0xbc11da39	-0.008902126
163	0x3baa184c	0.0051908847
164	0x3c2268c7	0.009912676
165	0x3ca1ba99	0.019742297
166	0xbd2b3bf3	-0.04180522
167	0xba8d97db	-0.0010802703
168	0xbbcecb2f	-0.0063108425
169	0x3c76ab03	0.015055421
170	0xbcee98c9	-0.029125588
171	0xb7207bc1	-9.565557e-06
172	0xbc8aab7a	-0.01692747
173	0xbceb7077	-0.02874015
174	0xbd442bc1	-0.04789329
175	0x3c041404	0.008061413
176	0x3caff7b6	0.021480422
177	0x3c8eacb9	0.017416345
178	0x3b816503	0.003948809
179	0x3cad7c2c	0.021177374
180	0xbd03b614	-0.032156065
181	0x3d08c590	0.033391535
182	0x3b87e416	0.004147063
183	0x3c068569	0.008210518
184	0x3cd0ed2a	0.025503714
185	0xbbf8f37c	-0.007597385
186	0x3cdbb38a	0.02681901
187	0xbcc87c58	-0.024473354
188	0x3cded642	0.027201775
189	0x3c6106f8	0.013734572
190	0xbd744ff3	-0.059646558
191	0x3c885621	0.016642632
192	0xbc2ccb2a	-0.010546485
193	0x3b92a130	0.0044747815
194	0x3a8ed5ec	0.0010897494
195	0x3ccf9fae	0.025344696
196	0x3c8f3bf6	0.017484646
197	0xbc0e216d	-0.0086749615
198	0xbd266c2f	-0.040630516
199	0xbd10978b	-0.035300773
200	0x3c2ba432	0.010476159
201	0xbcef9a65	-0.029248426
202	0xbcc60018	-0.024169967
203	0xbc76a5db	-0.015054191
204	0x3d0d3fc1	0.03448463
205	0xbd41086b	-0.04712717
206	0x3c8a4813	0.01688007
207	0x3ca84bdb	0.020543983
208	0x3cdda47b	0.02705597
209	0x3c8ffeea	0.017577607
210	0x3ab4ba2d	0.0013788395
211	0xbd0a0c69	-0.03370324
212	0xbcca0a15	-0.02466301
213	0x3c183f1b	0.009292389
214	0x3bda3349	0.0066589457
215	0x3a001404	0.0004885795
216	0x3caad501	0.020853521
217	0x3bdab593	0.0066744774
218	0x3bcc4ab6	0.006234492
219	0x3d1c6f05	0.038191814
220	0xbd088b78	-0.033336133
221	0xbd2abe1b	-0.041685205
222	0xbd08af8a	-0.033370532
223	0x3c2f49dc	0.010698762
224	0x3be57a22	0.0070030848
225	0xbd5e64ec	-0.054295465
226	0x3d03b5fd	0.03215598
227	0xbcbf5353	-0.023355162
228	0xbd5deccb	-0.0541809
229	0xbd574d31	-0.05256385
230	0x3d1b8380	0.037967205
231	0x3982f14c	0.00024975312
232	0x3ccc588b	0.024944564
233	0x3c98be81	0.018645527
234	0xbce1abe9	-0.027547793
235	0xbbacfbb6	-0.0052790297
236	0x3d1047b0	0.035224617
237	0x3abf125e	0.0014577617
238	0x3d818d25	0.06325749
239	0xbc45990f	-0.012060418
240	0xbca6957c	-0.020334952
241	0x3d1f1f27	0.03884807
242	0x3cd7b311	0.026330503
243	0x3b41b7a3	0.002955892
244	0x3c842f37	0.016135795
245	0xbcd9b3d1	-0.026575001
246	0xbd599091	-0.053116385
247	0xbbe70339	-0.0070499447
248	0x3cc31b65	0.023816774
249	0xbcf70ae9	-0.03015657
250	0x3ca098fd	0.0196042
251	0xbb1627da	-0.0022911937
252	0xbd316b16	-0.043315016
253	0x3ca2e3f0	0.01988408
254	0x3ca1cc17	0.019750638
255	0x3bb8929f	0.005632713

action_model._discrete_distribution.branches.0.bias f4 [3]
0	0xbb34482c	-0.0027508838
1	0x3be9fbda	0.0071406187
2	0xbb6f472e	-0.0036510932
