results/DemoRun/MoveToBall/MoveToBall-128912.pt (torch, 439453 bytes, 33 tensors)

network_body._body_endoder.seq_layers.0.weight f4 [128, 6]
-0.41544873 0.23731725 -0.48684934 -0.64767474 -0.3725818 -0.7267846 -0.21176434 0.2035635
-0.46927366 -0.4531944 -0.20647052 0.4340922 -0.262098 -0.14810164 -0.088095486 -0.013711048
-0.7761268 0.8496701 -0.35699975 -0.67228454 -0.20218493 0.7418 0.3402326 0.15598619
0.22681692 -0.044740733 0.2586594 -0.7227313 -0.6447031 0.16287729 -0.21790138 1.1564995
0.04793133 0.19328731 0.29116142 -0.38083765 0.14794542 0.04586286 0.36971632 -0.34139243
-0.44478256 -0.14237425 -0.23150483 -0.02483333 0.33712018 -0.2745816 0.31370625 0.19138928
0.75959814 -0.20175941 0.30230272 -0.1675308 0.23594281 -0.10772595 -0.15607983 -0.41761458
0.3876074 0.07952149 -0.23535262 1.0019646 -0.14755194 -0.44835606 -0.2421958 0.84165233
-0.9898981 -0.21864648 -0.3165737 -0.0752464 -0.5672435 -0.30808085 -0.5028566 0.4964229
-0.9472036 -0.01734177 0.3155092 0.17054938 0.3116542 -0.01987517 -0.081444144 0.30456904
0.6389149 0.1627475 -0.03056479 -0.110651955 -0.3343665 -0.64751667 -0.15932135 0.1009713
0.17757021 0.18228738 -0.20574099 0.20715223 -0.88580674 0.33169246 -0.2935641 0.09758134
0.28327808 -0.63086796 -0.513562 -0.015109694 0.32346585 0.3865419 0.19792281 0.23792629
-0.40552855 0.27325282 -0.09519126 -0.58948714 -0.39336136 0.63729477 0.06776028 -0.35819334
0.06835302 -0.3728207 0.3237812 -0.34930915 -0.4280941 0.2766264 0.3304445 0.117321365
0.3356719 -0.34216803 -0.16912462 0.14899167 0.28595147 -0.112295516 -0.047815155 -0.049231485
0.46710387 1.0139136 -0.358313 -0.19523266 0.122885235 -0.083457194 0.47911575 -0.46379215
0.13457559 -0.07462599 -0.5172849 0.1794266 -0.01741926 -0.17826656 -0.70004994 0.08101833
0.2658988 0.15848935 0.21224308 0.52905774 -0.19618747 -0.042211298 -0.14385116 0.5015632
-0.5832683 -0.15508395 1.0702181 0.08584339 -0.4173069 -0.3714616 -0.32195318 -0.605948
0.20863554 -0.46488893 0.23853327 -0.23697992 -0.27220625 0.14722903 0.5562276 -0.26809597
0.043192122 0.071359925 0.30367392 -0.04347767 0.326815 0.7553809 -0.67668205 -0.12216684
-0.18767174 0.09113505 0.04073847 0.6147445 0.745661 -0.43323517 0.2660903 -0.30268756
0.36050022 -0.028551985 0.089541666 0.0845889 -1.1792157 -0.47062832 -0.35275957 0.21001223
-0.29051405 0.026431592 0.49862573 0.060594033 0.8488644 -1.2786268 0.095166415 0.69089514
0.12676406 -0.14344414 0.9324736 -0.15476474 -0.10995588 -0.63016135 -0.7163422 -0.27185267
0.885903 -0.16468501 -0.09489404 -0.30229795 0.41309372 -0.6869181 -0.33666745 0.62335545
-0.66809607 0.5186133 -0.27046275 -0.27410644 -0.10259234 0.30177203 0.07015265 -0.4050885
-0.3283011 -0.03556978 -0.18655929 -0.46560177 -0.30304366 0.10918877 0.86804605 0.5751836
0.16591416 0.1949396 -0.13544339 0.107159816 -0.48748478 0.3214166 -0.15458058 0.74842864
0.033762358 -0.6493582 -0.1343198 0.054011278 0.16182856 -0.031860817 0.11494915 -0.49767274
-0.31949133 -0.4761468 0.36519748 -0.10221657 0.71655875 -0.6044234 -0.38511223 0.36044088
00000000: b2b5 d4be 4b03 733e 5144 f9be 03ce 25bf
00000010: 0bc3 bebe 8e0e 3abf c0d8 58be f372 503e
00000020: a344 f0be 1909 e8be 026d 53be 5541 de3e
00000030: b631 86be f5a7 17be 686b b4bd 4ea4 60bc
00000040: 3fb0 46bf fb83 593f acc8 b6be d71a 2cbf
00000050: 9109 4fbe 9be6 3d3f f832 ae3e d8ba 1f3e
00000060: b242 683e 0f42 37bd 016f 843e eb04 39bf
00000070: 430b 25bf 4ec9 263e 8a21 5fbe 2d08 943f
00000080: a453 443d 1ced 453e 1c13 953e 27fd c2be
00000090: 017f 173e b2da 3b3d 754b bd3e fdca aebe
000000a0: 8aba e3be 8eca 11be 9a0f 6dbe 456f cbbc
000000b0: 049b ac3e f695 8cbe 1b9e a03e 8dfb 433e
000000c0: 0675 423f 059a 4ebe 6cc7 9a3e 328d 2bbe
000000d0: fe9a 713e 6c9f dcbd 64d3 1fbe 94d1 d5be
000000e0: 7a74 c63e 2adc a23d 4700 71be 6040 803f
000000f0: db17 17be ed8e e5be 2d02 78be 8776 573f
00000100: f669 7dbf dde4 5fbe f315 a2be c91a 9abd
00000110: df36 11bf c6bc 9dbe 36bb 00bf 242b fe3e
00000120: ef7b 72bf 5410 8ebc 6c8a a13e 7fa4 2e3e
00000130: 2491 9f3e 41d1 a2bc 30cc a6bd 79f0 9b3e
00000140: ed8f 233f 48a7 263e 0363 fabc 7e9d e2bd
00000150: 1632 abbe a7c3 25bf 2325 23be 0aca ce3d
00000160: f7d4 353e 8ba9 3a3e c4ad 52be b71f 543e
00000170: 3bc4 62bf 98d3 a93e 094e 96be bad8 c73d
00000180: d309 913e 9080 21bf cd78 03bf a68e 77bc
00000190: 519d a53e d2e8 c53e 47ac 4a3e f3a2 733e
000001a0: 70a1 cfbe cbe7 8b3e a3f3 c2bd a1e8 16bf
000001b0: a966 c9be c025 233f e7c5 8a3d 1e65 b7be
000001c0: abfc 8b3d 5be2 bebe a6c6 a53e a6d8 b2be
000001d0: 262f dbbe faa1 8d3e 0630 a93e 2f46 f03d
000001e0: 30dd ab3e a630 afbe 012f 2dbe 4691 183e
000001f0: 3b68 923e 31fb e5bd d3d9 43bd f4a6 49bd
00000200: 3d28 ef3e ecc7 813f cd74 b7be 12eb 47be
00000210: 41ab fb3d 9beb aabd a94e f53e 2a76 edbe
00000220: 2fce 093e 83d5 98bd c96c 04bf 9bbb 373e
00000230: d6b2 8ebc 828b 36be 7936 33bf f0ec a53d
00000240: e323 883e 084b 223e 4056 593e 5470 073f
00000250: 5ee5 48be c1e5 2cbd b84d 13be 7266 003f
00000260: 1251 15bf 54ce 1ebe e8fc 883f a9ce af3d
00000270: 40a9 d5be 3730 bebe 0cd7 a4be 681f 1bbf
00000280: 8ea4 553e ec05 eebe 1142 743e ddaa 72be
00000290: 9e5e 8bbe 35c3 163e ef64 0e3f e043 89be
000002a0: 39ea 303d 2725 923d 267b 9b3e a415 32bd
000002b0: 4c54 a73e a560 413f 093b 2dbf 9c32 fabd
000002c0: 052d 40be 03a5 ba3d 62dd 263d e55f 1d3f
000002d0: a4e3 3e3f 00d1 ddbe fd3c 883e ddf9 9abe
000002e0: 7c93 b83e dae5 e9bc 9f61 b73d f23c ad3d
000002f0: 8af0 96bf 32f6 f0be e79c b4be 720d 573e
00000300: 42be 94be 1187 d83c df4b ff3e 7331 783d
00000310: 2d4f 593f 0baa a3bf 9ce6 c23d 81de 303f
00000320: 70ce 013e 05e3 12be 97b6 6e3f a67a 1ebe
00000330: 8c30 e1bd 4152 21bf 3462 37bf 4630 8bbe
00000340: 8aca 623f 30a3 28be ce57 c2bd ccc6 9abe
00000350: 0581 d33e ddd9 2fbf ad5f acbe 3994 1f3f
00000360: 5808 2bbf d7c3 043f 187a 8abe ae57 8cbe
00000370: ef1b d2bd dd81 9a3e 31ac 8f3d c367 cfbe
00000380: 1517 a8be 9eb1 11bd 6609 3fbe 5b63 eebe
00000390: 8a28 9bbe 5d9e df3d 4438 5e3f 3b3f 133f
000003a0: 67e5 293e 3f9e 473e acb1 0abe 9b76 db3d
000003b0: 9b97 f9be b790 a43e 5f4a 1ebe 0599 3f3f
000003c0: 664a 0a3d 573c 26bf 218b 09be ee3a 5d3d
000003d0: 63b6 253e 7d80 02bd 766a eb3d f6ce febe
000003e0: 5e94 a3be 83c9 f3be 2afb ba3e ec56 d1bd
000003f0: 6570 373f 7ebb 1abf 6e2d c5be b58b b83e

network_body._body_endoder.seq_layers.0.bias f4 [128]
0.012630155 -0.009558656 -0.00078955386 0.04770917 0.005688315 -0.023687769 0.015319557 0.024176525
-0.010338942 0.012649963 -0.017949099 0.0133159775 0.010819497 0.012758102 -0.0078845285 0.047093075
0.060487185 0.008487768 -0.020002013 0.03827857 0.041285835 0.044801947 0.00978565 0.007018998
-0.0004622583 -0.0005879936 0.027252818 -0.017854989 0.009090314 -0.0054761185 0.030926803 -0.009174194
-0.00315947 0.05101064 0.0349141 0.023399763 0.0130765345 -0.041115288 0.0055264477 0.01943684
0.0486195 0.017474608 0.016173083 -0.0073851724 -0.0029600456 -0.02836159 -0.018408565 0.010953535
-0.009313201 0.0398562 0.026126325 0.057863757 -0.0268542 0.0092353 -0.018609194 0.028365925
-0.0002416432 0.0066546565 0.01689996 0.00399432 0.005851965 -0.003923792 0.045789406 0.016381463
0.014715818 -0.004189895 0.0100612985 -0.0038502226 0.02747521 0.021563988 -0.023866273 0.015388786
-0.012211981 0.041049685 0.017636409 0.011255729 0.039934486 0.034320373 0.013770983 0.005946239
0.028508635 -0.005205185 0.022359513 0.02723299 0.010319478 0.026003303 -0.007717838 0.01215657
0.027941791 0.017468283 0.029926324 0.023898827 0.019838152 0.058446374 0.011497897 0.033961106
0.005944484 0.01243002 -0.030011678 -0.009669299 0.042123124 -0.003393267 0.009994643 0.002151648
0.013864859 0.025725545 0.005549433 0.0039993348 8.732479e-05 -0.012041328 0.03444293 0.020124175
0.0107755475 -0.005094129 0.032208726 -0.0030890598 0.0023549625 -0.014906576 -0.0012020274 -0.0017940907
0.022854643 0.050043628 -0.017334333 0.007143069 0.022901502 0.0054704635 0.00046933614 0.014913051
00000000: b6ee 4e3c e99b 1cbc 10fa 4eba b16a 433d
00000010: 0b65 ba3b da0c c2bc e1fe 7a3c d90d c63c
00000020: aa64 29bc ca41 4f3c fd09 93bc 422b 5a3c
00000030: 4244 313c 5c07 513c 1c2e 01bc abe4 403d
00000040: 69c1 773d 4710 0b3c 43db a3bc fdc9 1c3d
00000050: 561b 293d 3f82 373d fe53 203c 9fff e53b
00000060: 425b f2b9 9523 1aba 4d41 df3c a044 92bc
00000070: 8aef 143c 0371 b3bb 355a fd3c 5c4f 16bc
00000080: 1c0f 4fbb 88f0 503d 1602 0f3d dcb0 bf3c
00000090: f63e 563c 8168 28bd 3417 b53b 023a 9f3c
000000a0: 3e25 473d e926 8f3c 6a7d 843c 51ff f1bb
000000b0: 53fd 41bb 9156 e8bc 8fcd 96bc 7576 333c
000000c0: 6596 18bc 4140 233d e006 d63c 8c02 6d3d
000000d0: 57fd dbbc a84f 173c 4f72 98bc a85f e83c
000000e0: 9a61 7db9 4e0f da3b c971 8a3c c9e2 823b
000000f0: d7c1 bf3b 2793 80bb ac8d 3b3d 6b32 863c
00000100: 9d1a 713c 634b 89bb 25d8 243c 0454 7cbb
00000110: b113 e13c f6a6 b03c 3483 c3bc 3f21 7c3c
00000120: c314 48bc b723 283d 3b7a 903c f369 383c
00000130: 5892 233d 8593 0c3d b09f 613c abd8 c23b
00000140: f18a e93c 4290 aabb 4c2b b73c b817 df3c
00000150: 0713 293c e104 d53c ebe5 fcbb 5a2c 473c
00000160: 2fe6 e43c a519 8f3c 0d28 f53c 79c7 c33c
00000170: 9f83 a23c 7765 6f3d ad61 3c3c cd1a 0b3d
00000180: f2c9 c23b 48a7 4b3c 0ddb f5bc fb6b 1ebc
00000190: 4c89 2c3d 9361 5ebb 92c0 233c aa02 0d3b
000001a0: 6f29 633c 61be d23c 05d8 b53b da0c 833b
000001b0: 2422 b738 fd48 45bc 0814 0d3d 74db a43c
000001c0: ec8b 303c a7ec a6bb 4ced 033d d371 4abb
000001d0: b755 1a3b b63a 74bc 598d 9dba b227 ebba
000001e0: a939 bb3c 8cfa 4c3d bb00 8ebc 6810 ea3b
000001f0: ee9b bb3c 9341 b33b 3b11 f639 df55 743c

network_body._body_endoder.seq_layers.2.weight f4 [128, 128]
0.014569674 -0.13892452 0.099055015 -0.10774608 0.09632715 0.018893559 0.09562572 0.0011611361
0.06635088 -0.029341936 -0.04257846 0.06155923 -0.049635578 -0.069187485 -0.09076172 -0.036980297
-0.07937917 0.2094061 0.096612066 0.025329312 -0.09160951 0.21247524 -0.041905206 0.04043811
0.147742 0.0682054 0.034350023 0.0566072 -0.076812945 0.045187905 0.06563867 0.00020423064
0.008696902 0.15867625 -0.07153715 0.033727314 0.13806373 0.054548766 -0.07562534 -0.034895364
-0.06223945 -0.24030665 -0.09025442 -0.19796728 -0.03598873 -0.018185997 -0.0857442 0.085147366
-0.092348814 -0.027891075 -0.03876211 0.018879905 0.019274173 0.064618394 0.071504615 -0.03233178
0.18497163 -0.107732885 0.07756897 -0.07633407 -0.038586874 0.14814489 0.02574847 0.06298606
-0.00058881193 0.004198594 0.09966276 0.023209972 -0.1445413 -0.08390677 0.015079857 -0.09717112
0.054261018 0.056024004 0.16862038 -0.0047483174 0.23171192 0.045936145 -0.062575795 0.06301366
0.024592146 -0.08244551 0.019881036 -0.08560655 -0.12595823 -0.04721382 -0.016010914 -0.06946774
-0.12590054 -0.049897492 -0.09372008 0.02333945 0.09431002 0.013379105 0.081351 0.014958222
0.00085464143 -0.057981048 0.003391966 0.020981142 -0.045275778 0.006438224 -0.09462801 0.04046842
-0.033816297 -0.046700448 -0.02920572 0.04025629 -0.12830693 0.055301853 0.018794913 -0.01974223
0.10675404 0.0209335 0.06222169 -0.021721289 0.08565477 0.037391115 -0.20292589 -0.08289498
-0.04186619 -0.074819356 0.03946865 0.082298875 -0.12144768 0.10368342 0.011518038 0.19774753
0.008619378 0.092658855 0.0771711 0.0012640818 0.114775226 -0.029592907 0.060846586 -0.035447806
0.1105375 0.18649298 -0.015017536 -0.047139067 -0.08384036 -0.08682171 0.02764583 0.039675947
-0.12246202 0.0062799244 0.035352137 0.029955612 -0.19683847 0.014674279 0.110847004 0.058456887
-0.024847263 0.083962455 0.032773167 0.036908012 0.0738849 0.11139085 -0.045835506 0.12403444
-0.13232546 -0.097088754 0.019852214 -0.09004822 0.060513984 -0.070801735 -0.0008555497 0.009397591
-0.1718918 -0.038874835 -0.11411418 -0.11771434 0.06963823 -0.06570413 -0.027514981 -0.18495974
0.151238 0.069662474 -0.14829777 -0.004579318 0.0064499164 -0.030981496 0.09365185 -0.042148497
-0.014522109 -0.07927351 0.0235992 0.011810003 0.023338301 -0.011699761 -0.32635 0.025215762
0.08918046 0.036921263 -0.04753194 0.10016689 -0.17274863 -0.16918866 -0.05897716 -0.119980894
0.11656192 -0.22542426 -0.039604224 -0.09309732 0.029943317 0.14043911 -0.14832437 0.018569015
0.007408225 -0.02106866 0.016335012 0.016310642 0.09595725 -0.04265898 -0.050161105 -0.0026842877
-0.021148743 -0.10372505 -0.053125456 -0.015785897 -0.047807682 0.14247116 -0.010589402 0.16787891
0.09168414 -0.021750305 0.09576794 0.033902302 0.06500905 -0.096063785 -0.10214676 -0.088325806
0.011958331 0.18379648 -0.046940967 0.08203104 0.029993732 0.052190877 -0.04580789 -0.016680093
-0.048939392 0.019328421 -0.057015665 0.091742486 0.057213426 -0.040002134 -0.113954395 -0.13310105
0.05861152 -0.0031815607 -0.13487013 0.068357214 -0.019468633 -0.027750844 -0.007231742 0.16804746
00000000: a4b5 6e3c 3b42 0ebe 5bdd ca3d faa9 dcbd
00000010: 2b47 c53d aac6 9a3c 6bd7 c33d 4331 983a
00000020: f8e2 873d 805e f0bc c066 2ebd 8825 7c3d
00000030: ad4e 4bbd 2bb2 8dbd 48e1 b9bd a778 17bd
00000040: 8c91 a2bd 8d6e 563e 8cdc c53d 6b7f cf3c
00000050: c49d bbbd 1c93 593e cba4 2bbd 6ea2 253d
00000060: ae49 173e 46af 8b3d 9cb2 0c3d f4dc 673d
00000070: 1b50 9dbd f416 393d 916d 863d bf26 5639
00000080: 737d 0e3c 077c 223e 1282 92bd a725 0a3d
00000090: 9460 0d3e 876e 5f3d 75e1 9abd 71ee 0ebd
000000a0: cbee 7ebd f212 76be 4fd7 b8bd efb7 4abe
000000b0: eb68 13bd cdfa 94bc a89a afbd be61 ae3d
000000c0: 6021 bdbd d37b e4bc 05c5 1ebd 08aa 9a3c
000000d0: dfe4 9d3c a656 843d 0371 923d 546e 04bd
000000e0: 3469 3d3e 0fa3 dcbd 7bdc 9e3d 0955 9cbd
000000f0: 450d 1ebd 4bb3 173e 75ee d23c d6fe 803d
00000100: 805a 1aba 5c94 893b fd1b cc3d d722 be3c
00000110: a202 14be 50d7 abbd 8111 773c a701 c7bd
00000120: cd40 5e3d 6d79 653d d2aa 2c3e c697 9bbb
00000130: e445 6d3e 8a27 3c3d bd27 80bd 4e0d 813d
00000140: 7875 c93c 31d9 a8bd 8edd a23c 7d52 afbd
00000150: 32fb 00be 4763 41bd 5229 83bc 1a45 8ebd
00000160: 12ec 00be 5061 4cbd 50f0 bfbd 6032 bf3c
00000170: 9d25 c13d 0934 5b3c 5a9b a63d 5513 753c
00000180: 040a 603a 897d 6dbd bf4b 5e3b a5e0 ab3c
00000190: 1873 39bd bdf7 d23b 55cc c1bd 37c2 253d
000001a0: f582 0abd f848 3fbd d640 efbc c8e3 243d
000001b0: e462 03be 3284 623d caf7 993c 75ba a1bc
000001c0: dda1 da3d bb7c ab3c 2cdc 7e3d d8f0 b1bc
000001d0: c56b af3d 6d27 193d cecb 4fbe d8c4 a9bd
000001e0: e27b 2bbd e43a 99bd e1a9 213d 508c a83d
000001f0: 90b9 f8bd f957 d43d 27b6 3c3c 547e 4a3e
00000200: 4b38 0d3c edc3 bd3d e20b 9e3d 8caf a53a
00000210: 460f eb3d d36c f2bc 453a 793d b831 11bd
00000220: 7c61 e23d 04f8 3e3e 1c0c 76bc e514 41bd
00000230: 7fb4 abbd 95cf b1bd 8279 e23c 3f83 223d
00000240: 5ecd fabd d3c7 cd3b 67cd 103d 7965 f53c
00000250: 0690 49be 636c 703c c103 e33d 7d70 6f3d
00000260: 7d8c cbbc 82f4 ab3d 283d 063d db2c 173d
00000270: f750 973d e320 e43d 03be 3bbd c505 fe3d
00000280: 5380 07be 78d6 c6bd 1ca1 a23c 336b b8bd
00000290: 83dd 773d 8000 91bd f846 60ba 5bf8 193c
000002a0: 6704 30be 383b 1fbd b2b4 e9bd 3714 f1bd
000002b0: 7d9e 8e3d e38f 86bd 1967 e1bc 1666 3dbe
000002c0: 22de 1a3e 33ab 8e3d 5fdb 17be 1b0e 96bb
000002d0: d259 d33b e8cc fdbc 8bcc bf3d e7a3 2cbd
000002e0: 24ee 6dbc 265a a2bd 1c53 c13c be7e 413c
000002f0: f72f bf3c 5bb0 3fbc 5917 a7be 4991 ce3c
00000300: 3fa4 b63d c03a 173d dab0 42bd 4c24 cd3d
00000310: 04e5 30be cb3f 2dbe 0992 71bd 8bb8 f5bd
00000320: 04b8 ee3d 9ed5 66be 0a38 22bd cfa9 bebd
00000330: b04b f53c 45cf 0f3e 58e2 17be 0c1e 983c
00000340: b2c0 f23b 2f98 acbc 01d1 853c e59d 853c
00000350: 3c85 c43d 2fbb 2ebd bb75 4dbd e0ea 2fbb
00000360: 2140 adbc cd6d d4bd 149a 59bd 6d51 81bc
00000370: fdd1 43bd f6e3 113e 2c7f 2dbc 73e8 2b3e
00000380: e5c4 bb3d b22d b2bc fb21 c43d 24dd 0a3d
00000390: 7723 853d 17bd c4bd 5232 d1bd 29e4 b4bd
000003a0: e0ec 433c 2535 3c3e 2c45 40bd e4ff a73d
000003b0: 6ab5 f53c 1ac6 553d 0ea1 3bbd b1a4 88bc
000003c0: ac74 48bd a356 9e3c 4289 69bd 7ce3 bb3d
000003d0: a058 6a3d 47d9 23bd ec60 e9bd a44b 08be
000003e0: a212 703d bb81 50bb 651b 0abe defe 8b3d
000003f0: af7c 9fbc bd55 e3bc 40f8 ecbb a214 2c3e

network_body._body_endoder.seq_layers.2.bias f4 [128]
-0.0034113848 0.008219612 0.009775815 0.01192774 0.0053559244 -0.0020850366 0.005713853 -0.0030174495
-0.0011320031 -0.012730722 0.026575858 -0.014845468 0.0022784267 0.0078028454 0.006985972 0.0138028795
0.0006436577 0.02736089 0.0057165823 0.008665495 -0.00051119644 -0.007989344 0.0152301565 0.025699059
0.017152349 0.043230355 0.0034647866 0.015127652 0.011369957 -0.004953775 0.005420042 0.019487316
0.011731526 -0.0018928983 -0.003647617 0.004329484 0.014397505 0.016616035 0.010526413 0.0030138695
-0.0069388105 0.011289913 0.012023571 -7.369657e-05 -0.0052857236 0.0014323556 0.0045529995 -0.021180585
0.015641693 0.008136898 -0.0012833086 0.027256535 0.001005928 0.033844724 0.0092193205 0.008435581
0.012098978 -0.0044061304 0.016868377 -0.0039319308 0.03202791 0.0069375704 0.016168194 0.030969718
-0.00205768 -0.0071346755 0.011922546 0.046411857 0.0372699 -0.00035410258 0.0035783488 0.0072725043
0.0011258466 0.0125938915 0.0012889246 0.013488338 0.03121546 0.016525635 0.01411526 0.019599441
0.030733703 0.0016891 0.008056925 -0.0025923522 0.0064646825 0.00039295058 -0.021239297 0.010566187
0.027358232 0.015890313 0.0019715028 0.017665979 0.008345416 0.0091640195 0.0040677944 0.010434127
0.014445161 0.016389515 0.023829855 -0.0017294511 0.018504478 0.002953938 0.039759137 0.005474234
0.009782707 0.004036477 -0.005214353 -0.0009807044 0.02091903 -0.0061335824 0.0343329 -0.004785289
0.0029595846 0.022924375 0.021059211 -0.015026774 0.0028395392 -0.003045418 0.015562546 0.010021634
0.013441577 -0.001424431 0.011825474 -0.003162128 0.023878995 0.028191084 0.00998964 0.006237739
00000000: 8a91 5fbb 8dab 063c bd2a 203c 916c 433c
00000010: c080 af3b 1ca5 08bb 463b bb3b 67c0 45bb
00000020: b95f 94ba 8594 50bc 9db5 d93c 683a 73bc
00000030: a851 153b 03af ff3b 95ea e43b 7925 623c
00000040: 23bb 283a f223 e03c 2b52 bb3b b8f9 0d3c
00000050: d001 06ba bde5 02bc e887 793c d586 d23c
00000060: 1583 8c3c 5012 313d 7911 633b f9d9 773c
00000070: 0e49 3a3c 4753 a2bb 9c9a b13b dda3 9f3c
00000080: 9635 403c 211b f8ba dc0c 6fbb 58de 8d3b
00000090: 83e3 6b3c 5a1e 883c fa76 2c3c 5784 453b
000000a0: f65e e3bb 54f9 383c 83fe 443c 8b8d 9ab8
000000b0: dd33 adbb e1bd bb3a 5431 953b e882 adbc
000000c0: 0223 803c a050 053c b134 a8ba 1949 df3c
000000d0: 58d9 833a c4a0 0a3d a20c 173c 6435 0a3c
000000e0: cb3a 463c 4d61 90bb 8d2f 8a3c 6dd7 80bb
000000f0: b32f 033d 8f54 e33b 2973 843c 35b4 fd3c
00000100: 24da 06bb ffc9 e9bb c856 433c 5c1a 3e3d
00000110: 53a8 183d d8a6 b9b9 bb82 6a3b 304e ee3b
00000120: 2591 933a 9c56 4e3c 22f1 a83a 31fe 5c3c
00000130: 90b7 ff3c c560 873c b143 673c 028f a03c
00000140: 3fc5 fb3c cb64 dd3a 3101 043c 74e4 29bb
00000150: b0d5 d33b ef04 ce39 09fe adbc cd1d 2d3c
00000160: 5f1e e03c 672c 823c 5434 013b 3eb8 903c
00000170: 36bb 083c af24 163c 224b 853b e7f3 2a3c
00000180: 66ab 6c3c 4e43 863c d436 c33c c0ae e2ba
00000190: b496 973c db96 413b 7ada 223d 3461 b33b
000001a0: a647 203c 6c44 843b 2add aabb fb8a 80ba
000001b0: 635e ab3c 38fc c8bb a8a0 0c3d eacd 9cbb
000001c0: 97f5 413b e6cb bb3c 5e84 ac3c dc32 76bc
000001d0: 9017 3a3b a395 47bb 0dfa 7e3c c831 243c
000001e0: 0f3a 5c3c f9b3 baba a2bf 413c b43b 4fbb
000001f0: e29d c33c fdf0 e63c 96ab 233c f365 cc3b

action_model._discrete_distribution.branches.0.weight f4 [3, 128]
0.0061587756 0.00981219 -0.022568878 -0.01568712 0.008130404 0.008591508 0.0027558284 0.003000753
0.009430837 -0.0048434404 -0.0026828344 -0.023238007 -0.007221784 0.0036131344 -0.013796597 -0.0030878175
-0.00046161364 0.009325009 -0.0137918815 -0.016210616 0.019478777 0.0031079177 0.015090167 -0.021485284
0.015330399 -0.014170486 -0.006393757 -0.022533193 -0.005411505 -0.004379539 -0.013618813 0.0045597083
-0.003065012 -0.0065575447 -0.0063683745 0.0160531 0.015187973 -0.0027363917 -0.004230276 0.0058859955
0.0062489156 0.0054015913 -0.017034505 -0.015776502 0.0052602715 0.0005623025 0.021409404 0.0013138378
-0.0010917294 -0.0021470606 0.026951859 0.0013757092 0.002595923 0.008623788 -0.0024111215 0.005518247
-0.00910475 -0.008759938 0.001439742 -0.0057418314 -0.0020497576 -0.000849034 -0.008697051 0.012626287
0.0016851799 0.014823427 0.0031653936 0.004406351 0.0035496142 0.024047948 0.0020099636 0.02347409
0.015231995 -0.003756658 0.009101948 -0.019336931 -0.006168685 -0.01384942 -0.008012136 0.018499624
0.01227447 0.008002228 -0.03482246 -0.0008304506 -0.0031055876 0.0053592413 -0.009811847 0.018985752
0.004059227 -0.0064741704 -0.019004053 -0.00994356 -0.029755946 -0.013527548 -0.00016521286 0.009687741
-0.010713819 -0.01629293 -0.0025234984 0.011490896 -0.0011472424 0.005294895 -0.019054633 0.014798298
-0.005463382 0.00011763031 -0.006995051 -0.0059210486 -0.012482491 0.0034585458 -0.015956588 -0.008274659
0.010205218 -0.014744364 0.0019753373 0.0062104547 0.005550497 0.017107718 -0.011761178 0.011216202
-0.007040447 0.018931191 0.0013760374 0.00736318 0.009437893 -0.00048771047 0.01675843 0.023787333
-0.028845433 0.01391439 -0.024501655 -0.022901671 -0.021117356 0.0076189646 -0.038983114 -7.202147e-05
-0.028921884 -0.011463728 0.047157317 -0.020955142 -0.01739735 -0.048376035 3.932459e-05 0.029143345
-0.010753307 0.02269071 0.016368827 0.015399106 -0.006938284 -0.0006299975 -0.04331073 -0.03750257
0.00070997846 0.037866317 0.009862822 0.024065437 -0.015183662 -0.018518668 -0.009247047 -0.030002011
0.01936719 0.0008770343 -0.008902126 0.0051908847 0.009912676 0.019742297 -0.04180522 -0.0010802703
-0.0063108425 0.015055421 -0.029125588 -9.565557e-06 -0.01692747 -0.02874015 -0.04789329 0.008061413
0.021480422 0.017416345 0.003948809 0.021177374 -0.032156065 0.033391535 0.004147063 0.008210518
0.025503714 -0.007597385 0.02681901 -0.024473354 0.027201775 0.013734572 -0.059646558 0.016642632
-0.010546485 0.0044747815 0.0010897494 0.025344696 0.017484646 -0.0086749615 -0.040630516 -0.035300773
0.010476159 -0.029248426 -0.024169967 -0.015054191 0.03448463 -0.04712717 0.01688007 0.020543983
0.02705597 0.017577607 0.0013788395 -0.03370324 -0.02466301 0.009292389 0.0066589457 0.0004885795
0.020853521 0.0066744774 0.006234492 0.038191814 -0.033336133 -0.041685205 -0.033370532 0.010698762
0.0070030848 -0.054295465 0.03215598 -0.023355162 -0.0541809 -0.05256385 0.037967205 0.00024975312
0.024944564 0.018645527 -0.027547793 -0.0052790297 0.035224617 0.0014577617 0.06325749 -0.012060418
-0.020334952 0.03884807 0.026330503 0.002955892 0.016135795 -0.026575001 -0.053116385 -0.0070499447
0.023816774 -0.03015657 0.0196042 -0.0022911937 -0.043315016 0.01988408 0.019750638 0.005632713
00000000: 8ecf c93b 4fc3 203c 5ee2 b8bc 4682 80bc
00000010: 6335 053c 65c3 0c3c 219b 343b 48a8 443b
00000020: cc83 1a3c b9b5 9ebb 7ed2 2fbb a25d bebc
00000030: b7a4 ecbb 56ca 6c3b 1f0b 62bc fb5c 4abb
00000040: bc04 f2b9 ecc7 183c 58f7 61bc 20cc 84bc
00000050: f591 9f3c 35ae 4b3b bf3c 773c e801 b0bc
00000060: 5b2c 7b3c 532b 68bc b982 d1bb 8897 b8bc
00000070: fe52 b1bb 3c82 8fbb 7121 5fbc 9b69 953b
00000080: 5ede 48bb ace0 d6bb ccad d0bb ca81 833c
00000090: fad6 783c 0955 33bb 219e 8abb 4fdf c03b
000000a0: b4c3 cc3b d5ff b03b f28b 8bbc b93d 81bc
000000b0: 5b5e ac3b 7b67 133a c662 af3c 1535 ac3a
000000c0: 5c18 8fba b3b5 0cbb 25ca dc3c 2451 b43a
000000d0: 5c20 2a3b ca4a 0d3c e803 1ebb 69d2 b43b
000000e0: 172c 15bc d885 0fbc bab5 bc3a f925 bcbb
000000f0: 3a55 06bb b591 5eba 137e 0ebc 7cde 4e3c
00000100: 41e1 dc3a f6dd 723c 7e72 4f3b 2763 903b
00000110: a5a0 683b 3400 c53c 98b9 033b bc4c c03c
00000120: 9e8f 793c 4332 76bb 5620 153c 7c68 9ebc
00000130: ae22 cabb ade8 62bc 5645 03bc 868c 973c
00000140: dc1a 493c c71b 033c ffa1 0ebd 99b2 59ba
00000150: 1d87 4bbb 939c af3b dec1 20bc 0288 9b3c
00000160: 4403 853b 4725 d4bb 63ae 9bbc 50ea 22bc
00000170: bec2 f3bc a6a2 5dbc fd3c 2db9 55b9 1e3c
00000180: 0489 2fbc c078 85bc 4761 25bb 5044 3c3c
00000190: 115f 96ba cc80 ad3b 7618 9cbc 8f74 723c
000001a0: 2c06 b3bb 4bb0 f638 be36 e5bb 5b05 c2bb
000001b0: 5d83 4cbc c5a8 623b 64b7 82bc 6f92 07bc
000001c0: c933 273c 5892 71bc a974 013b 1281 cb3b
000001d0: f2e0 b53b 7c25 8c3c f5b1 40bc 29c4 373c
000001e0: 8db3 e6bb 9615 9b3c 275c b43a d546 f13b
000001f0: 64a1 1a3c 64b3 ffb9 fa48 893c a7dd c23c
00000200: 424d ecbc 2ef9 633c b2b7 c8bc 499c bbbc
00000210: 4efe acbc 82a8 f93b c2ac 1fbd 3b0a 97b8
00000220: 96ed ecbc 5cd2 3bbc 0828 413d 1eaa abbc
00000230: e384 8ebc f325 46bd 75f0 2438 06be ee3c
00000240: a32e 30bc dee1 b93c eb17 863c 884c 7c3c
00000250: 8b5a e3bb 6b26 25ba 9866 31bd 4b9c 19bd
00000260: d91d 3a3a b619 1b3d ac97 213c e124 c53c
00000270: e5c4 78bc 76b4 97bc ed80 17bc c7c6 f5bc
00000280: f1a7 9e3c c7e8 653a 39da 11bc 4c18 aa3b
00000290: c768 223c 99ba a13c f33b 2bbd db97 8dba
000002a0: 2fcb cebb 03ab 763c c998 eebc c17b 20b7
000002b0: 7aab 8abc 7770 ebbc c12b 44bd 0414 043c
000002c0: b6f7 af3c b9ac 8e3c 0365 813b 2c7c ad3c
000002d0: 14b6 03bd 90c5 083d 16e4 873b 6985 063c
000002e0: 2aed d03c 7cf3 f8bb 8ab3 db3c 587c c8bc
000002f0: 42d6 de3c f806 613c f34f 74bd 2156 883c
00000300: 2acb 2cbc 30a1 923b ecd5 8e3a ae9f cf3c
00000310: f63b 8f3c 6d21 0ebc 2f6c 26bd 8b97 10bd
00000320: 32a4 2b3c 659a efbc 1800 c6bc dba5 76bc
00000330: c13f 0d3d 6b08 41bd 1348 8a3c db4b a83c
00000340: 7ba4 dd3c eafe 8f3c 2dba b43a 690c 0abd
00000350: 150a cabc 1b3f 183c 4933 da3b 0414 003a
00000360: 01d5 aa3c 93b5 da3b b64a cc3b 056f 1c3d
00000370: 788b 08bd 1bbe 2abd 8aaf 08bd dc49 2f3c
00000380: 227a e53b ec64 5ebd fdb5 033d 5353 bfbc
00000390: cbec 5dbd 314d 57bd 8083 1b3d 4cf1 8239
000003a0: 8b58 cc3c 81be 983c e9ab e1bc b6fb acbb
000003b0: b047 103d 5e12 bf3a 258d 813d 0f99 45bc
000003c0: 7c95 a6bc 271f 1f3d 11b3 d73c a3b7 413b
000003d0: 372f 843c d1b3 d9bc 9190 59bd 3903 e7bb
000003e0: 651b c33c e90a f7bc fd98 a03c da27 16bb
000003f0: 166b 31bd f0e3 a23c 17cc a13c 9f92 b83b

action_model._discrete_distribution.branches.0.bias f4 [3]
-0.0027508838 0.0071406187 -0.0036510932
00000000: 2c48 34bb dafb e93b 2e47 6fbb

exp_avg f4 [128, 6]
-3.6248646e-05 -5.2214924e-05 -7.150689e-07 3.7493515e-05 -0.0001004441 -7.150689e-07 0.00017100826 0.0002410784
3.3734416e-06 -0.0003948507 5.7252837e-05 3.3734416e-06 -3.748725e-06 -2.1061298e-06 -7.395029e-08 8.233235e-06
-1.2604337e-06 -7.395029e-08 -4.5619505e-05 -8.19685e-05 -8.999259e-07 -2.0878497e-05 -9.799993e-05 -8.999259e-07
-0.0001899763 -0.0003787232 -3.74762e-06 0.000264001 -0.00019587307 -3.74762e-06 0.0006192641 0.00023938056
1.2216085e-05 -0.0005662808 -0.00048227215 1.2216085e-05 -8.595969e-05 -0.00015082928 -1.6957076e-06 8.9731024e-05
-6.413628e-05 -1.6957076e-06 -5.8853737e-05 -9.057895e-07 -1.1609949e-06 -1.42543695e-05 4.11195e-06 -1.1609949e-06
-9.105405e-05 4.5881556e-05 -1.796204e-06 0.00019858702 0.00027709437 -1.796204e-06 1.482562e-05 3.1588042e-05
2.9246164e-07 1.2964216e-05 5.1578358e-05 2.9246164e-07 4.269531e-05 4.002698e-05 8.42241e-07 -2.5527427e-06
7.1280724e-06 8.42241e-07 -6.949281e-05 -0.00015954643 -1.3708694e-06 0.00012955132 -5.9694292e-05 -1.3708694e-06
4.6678935e-05 0.0002007523 9.208253e-07 -8.828037e-05 0.00013112131 9.208253e-07 0.00028584743 0.000118801676
5.638849e-06 -0.00023088118 -0.00011379401 5.638849e-06 2.5302232e-05 4.7135094e-05 4.9913143e-07 1.22500205e-05
7.631144e-05 4.9913143e-07 0.00020247944 8.886709e-05 3.9942674e-06 -8.472946e-05 7.0217015e-05 3.9942674e-06
-0.00016028216 2.92656e-05 -3.1618483e-06 -0.00019930955 0.00025294826 -3.1618483e-06 0.00023708599 -0.00018627483
4.676942e-06 -9.50724e-05 -0.00039347872 4.676942e-06 0.00016908282 -0.00035266514 3.33546e-06 -0.00046592386
-0.001083286 3.33546e-06 -0.000106412306 0.0004452771 -2.099172e-06 -0.0003244699 0.00052845833 -2.099172e-06
-0.0002966274 0.0002665156 -5.851502e-06 -0.00023616549 0.00047599457 -5.851502e-06 0.00012522674 0.00013870875
2.4703204e-06 7.435252e-05 0.00026530746 2.4703204e-06 -0.00025414888 -0.0002779447 -5.0135395e-06 0.00025162208
-0.00012654536 -5.0135395e-06 -3.899258e-05 -9.539357e-05 -7.691978e-07 1.8657025e-05 -1.1255124e-05 -7.691978e-07
0.00030039175 -4.6102177e-06 5.9257586e-06 -2.3744873e-05 4.0302675e-05 5.9257586e-06 -1.8816938e-05 -3.7449838e-05
-3.7119773e-07 5.4638545e-05 -8.0948805e-05 -3.7119773e-07 -6.151822e-05 -7.857438e-05 -1.2135564e-06 6.8390036e-05
-5.5449964e-05 -1.2135564e-06 -6.7495907e-06 0.0002833573 -1.3314674e-07 1.5598984e-05 0.00035422458 -1.3314674e-07
1.3210486e-05 0.00012958766 2.606005e-07 -0.00011195076 9.164912e-05 2.606005e-07 -4.8281345e-06 -5.6245544e-06
-9.524353e-08 -1.8042821e-06 -2.0811798e-05 -9.524353e-08 -0.0004336 -1.2836361e-05 -8.553532e-06 0.00032900335
0.0005887512 -8.553532e-06 -0.00012400236 -0.00022754855 -2.446167e-06 9.230306e-05 -0.00013106922 -2.446167e-06
-5.145422e-05 0.00036439934 -1.0150263e-06 0.00011452438 0.0005113452 -1.0150263e-06 0.00018088042 0.0003395738
3.5681878e-06 -0.00019249455 0.00026690014 3.5681878e-06 -0.00022155045 0.00011922295 -4.3704804e-06 9.883852e-05
0.00027797965 -4.3704804e-06 -0.00024562923 -0.00048283872 -4.8454745e-06 0.00038009993 -0.00013338611 -4.8454745e-06
9.307617e-05 -0.0002577128 1.8360917e-06 -0.0006710646 -0.0010070604 1.8360917e-06 2.6648848e-05 4.4685214e-05
5.25696e-07 -1.112581e-05 5.1013893e-05 5.25696e-07 4.854248e-05 0.0003979042 9.575874e-07 -6.130334e-05
0.0003511299 9.575874e-07 0.00015273671 4.5259763e-05 3.0130038e-06 -1.987858e-05 1.8566832e-05 3.0130038e-06
-3.0321884e-05 -4.4312394e-05 -5.981531e-07 -4.7490644e-06 -5.6829933e-05 -5.981531e-07 -0.00014752641 -0.00013595154
-2.9102193e-06 0.00013755026 1.02101885e-05 -2.9102193e-06 -1.1021195e-05 0.00087975664 -2.1741452e-07 -0.00036412865
00000000: b009 18b8 5901 5bb8 29f3 3fb5 5b42 1d38
00000010: 84a5 d2b8 29f3 3fb5 ae50 3339 fec9 7c39
00000020: 4963 6236 f703 cfb9 c422 7038 4963 6236
00000030: 9b92 7bb6 0957 0db6 9ace 9eb3 7a21 0a37
00000040: 2c2c a9b5 9ace 9eb3 9257 3fb8 81e6 abb8
00000050: 7092 71b5 3b24 afb7 5085 cdb8 7092 71b5
00000060: 6034 47b9 5e8f c6b9 9f7f 7bb6 9d69 8a39
00000070: 4763 4db9 9f7f 7bb6 1c56 223a 3b02 7b39
00000080: b0f3 4c37 7672 14ba 79d9 fcb9 b0f3 4c37
00000090: 4245 b4b8 ed27 1eb9 1298 e3b5 fa2d bc38
000000a0: e780 86b8 1298 e3b5 b8d9 76b8 6125 73b5
000000b0: 7bd3 9bb5 0d26 6fb7 62f9 8936 7bd3 9bb5
000000c0: 45f4 beb8 f270 4038 1915 f1b5 cc3b 5039
000000d0: fa46 9139 1915 f1b5 8ebb 7837 677d 0438
000000e0: 9f03 9d34 e280 5937 d755 5838 9f03 9d34
000000f0: bd13 3338 a4e2 2738 5c16 6235 c94f 2bb6
00000100: ad2d ef36 5c16 6235 abbc 91b8 eb4b 27b9
00000110: b7fe b7b5 2bd8 0739 4260 7ab8 b7fe b7b5
00000120: 20c9 4338 0981 5239 a22e 7735 2a23 b9b8
00000130: 9c7d 0939 a22e 7735 cbdd 9539 2a25 f938
00000140: 5835 bd36 b218 72b9 b2a4 eeb8 5835 bd36
00000150: 2140 d437 ecb2 4538 0dfc 0535 7085 4d37
00000160: 6409 a038 0dfc 0535 a950 5439 285e ba38
00000170: 7f06 8636 c8b0 b1b8 7941 9338 7f06 8636
00000180: 6a11 28b9 667f f537 2430 54b6 c0fd 50b9
00000190: 249e 8439 2430 54b6 499a 7839 c552 43b9
000001a0: a0ee 9c36 9b61 c7b8 d24b ceb9 a0ee 9c36
000001b0: d34b 3139 eae5 b8b9 c4d6 5f36 3e47 f4b9
000001c0: 0cfd 8dba c4d6 5f36 ac29 dfb8 1574 e939
000001d0: 80df 0cb6 9d1d aab9 3d88 0a3a 80df 0cb6
000001e0: a884 9bb9 1ebb 8b39 0558 c4b6 31a3 77b9
000001f0: e98e f939 0558 c4b6 4c4f 0339 5972 1139
00000200: c8c7 2536 b5ed 9b38 f718 8b39 c8c7 2536
00000210: 493f 85b9 1bb9 91b9 fa39 a8b6 25ec 8339
00000220: 43b1 04b9 fa39 a8b6 f78b 23b8 080e c8b8
00000230: df7a 4eb5 a881 9c37 64d4 3cb7 df7a 4eb5
00000240: e67d 9d39 78b1 9ab6 e1d5 c636 ba2f c7b7
00000250: ab0a 2938 e1d5 c636 11d9 9db7 7513 1db8
00000260: 0749 c7b4 b12b 6538 0fc3 a9b8 0749 c7b4
00000270: 5803 81b8 4dc8 a4b8 7be1 a2b5 9f6c 8f38
00000280: f292 68b8 7be1 a2b5 8b7a e2b6 938f 9439
00000290: 19f7 0eb4 90da 8237 38b7 b939 19f7 0eb4
000002a0: 9ba2 5d37 ece1 0739 a9e8 8b34 1bc7 eab8
000002b0: bf33 c038 a9e8 8b34 5c01 a2b6 8eba bcb6
000002c0: af88 ccb3 a92a f2b5 ff94 aeb7 af88 ccb3
000002d0: cf54 e3b9 c05b 57b7 2481 0fb7 157e ac39
000002e0: 6d56 1a3a 2481 0fb7 a106 02b9 199a 6eb9
000002f0: d428 24b6 d492 c138 a06f 09b9 d428 24b6
00000300: 8cd0 57b8 da0c bf39 0a3c 88b5 cf2c f038
00000310: cc0b 063a 0a3c 88b5 b8aa 3d39 d308 b239
00000320: 0075 6f36 5dd8 49b9 bbee 8b39 0075 6f36
00000330: ff4f 68b9 5507 fa38 24a6 92b6 8747 cf38
00000340: ccbd 9139 24a6 92b6 ccc7 80b9 8425 fdb9
00000350: 4f96 a2b6 2648 c739 90dd 0bb9 4f96 a2b6
00000360: e331 c338 a01d 87b9 a16f f635 62ea 2fba
00000370: 57ff 83ba a16f f635 f78b df37 626c 3b38
00000380: 8e1d 0d35 fda8 3ab7 c0f7 5538 8e1d 0d35
00000390: 179a 4b38 cc9d d039 7486 8035 fb8f 80b8
000003a0: db17 b839 7486 8035 f327 2039 4dd5 3d38
000003b0: 0333 4a36 edc0 a6b7 f8bf 9b37 0333 4a36
000003c0: c05b feb7 12dc 39b8 c590 20b5 275a 9fb6
000003d0: ad5c 6eb8 c590 20b5 52b1 1ab9 378e 0eb9
000003e0: 304d 43b6 5e3b 1039 6d4c 2b37 304d 43b6
000003f0: ace7 38b7 789f 663a 7372 69b4 85e8 beb9

exp_avg_sq f4 [128, 6]
4.6345008e-08 2.056544e-07 1.8034964e-11 5.024979e-07 2.3798115e-07 1.8034964e-11 8.4221526e-08 4.0166913e-07
3.2774478e-11 6.201078e-07 3.7453597e-07 3.2774478e-11 1.1989858e-10 5.074586e-10 4.6658004e-14 8.087956e-10
4.75742e-10 4.6658004e-14 1.1429512e-09 3.767842e-09 4.4477478e-13 5.9555033e-10 8.193759e-09 4.4477478e-13
1.5170944e-08 6.781227e-08 5.9037068e-12 1.7061235e-07 5.079981e-08 5.9037068e-12 1.3551361e-06 6.145618e-06
5.273456e-10 4.1846715e-06 7.625609e-06 5.273456e-10 5.8015446e-09 2.655597e-08 2.2576457e-12 5.727326e-08
1.4384426e-08 2.2576457e-12 2.8937889e-08 1.0543263e-07 1.1261068e-11 2.2462974e-07 1.8468128e-07 1.1261068e-11
1.02455886e-07 5.5011617e-07 3.9870298e-11 3.6112115e-07 6.688101e-07 3.9870298e-11 5.344908e-10 2.7453728e-09
2.079948e-13 2.702318e-09 3.631085e-09 2.079948e-13 8.9269947e-10 2.2875222e-09 3.4739e-13 4.6496498e-10
6.5144745e-10 3.4739e-13 2.7425866e-09 1.1586601e-08 1.067266e-12 2.791172e-08 5.3142934e-09 1.067266e-12
3.5198532e-08 2.2583981e-07 1.3697363e-11 1.3213384e-08 3.3363287e-07 1.3697363e-11 2.3019794e-07 1.1927311e-06
8.958056e-11 2.9900232e-07 1.0469352e-06 8.958056e-11 1.11334e-09 5.5866316e-09 4.3325177e-13 5.3904947e-09
8.833117e-09 4.3325177e-13 1.0571692e-07 4.1679587e-07 4.1139304e-11 6.934245e-08 2.3394267e-07 4.1139304e-11
1.0317987e-07 3.641794e-07 4.0152003e-11 2.5321964e-07 7.4452487e-07 4.0152003e-11 5.479696e-07 2.679494e-06
2.1324012e-10 2.8692972e-07 3.070997e-06 2.1324012e-10 1.1866493e-06 6.007815e-06 4.6177945e-10 4.1344556e-06
7.995614e-06 4.6177945e-10 3.66609e-07 1.7302809e-06 1.4266437e-10 1.8715858e-07 2.694931e-06 1.4266437e-10
6.227039e-07 2.7677927e-06 2.423226e-10 5.003079e-07 4.45677e-06 2.423226e-10 4.3900855e-08 1.309513e-07
1.7083831e-11 1.9128606e-08 5.7468455e-08 1.7083831e-11 9.3967486e-08 4.3801393e-07 3.656704e-11 4.4846493e-07
4.3695619e-07 3.656704e-11 8.884561e-10 4.3467305e-09 3.45739e-13 5.141444e-09 1.2524234e-09 3.45739e-13
2.9888827e-07 1.2369992e-06 1.1631114e-10 1.04677184e-07 1.2688877e-06 1.1631114e-10 8.107251e-09 3.5482852e-08
3.1548993e-12 5.6810915e-08 4.5033204e-08 3.1548993e-12 2.0190807e-08 6.2444165e-08 7.857171e-12 1.9416046e-07
1.01866405e-07 7.857171e-12 1.3384758e-07 7.656573e-07 5.2086196e-11 1.9685997e-07 1.0320011e-06 5.2086196e-11
3.8756657e-08 1.9493291e-07 1.5082009e-11 1.8974137e-07 2.3978856e-07 1.5082009e-11 1.0325426e-10 3.6833658e-10
4.0180976e-14 5.208314e-10 2.890335e-10 4.0180976e-14 9.469815e-07 4.291989e-06 3.6851402e-10 3.411835e-06
6.190497e-06 3.6851402e-10 2.0009987e-08 8.400081e-08 7.786807e-12 2.3249879e-07 9.918869e-08 7.786807e-12
3.560024e-07 1.8945362e-06 1.385369e-10 9.275821e-07 2.4754513e-06 1.385369e-10 5.5409537e-08 2.3387832e-07
2.1562373e-11 1.4311115e-07 1.8050807e-07 2.1562373e-11 6.611237e-07 3.2806383e-06 2.5727365e-10 2.6072044e-06
5.058116e-06 2.5727365e-10 1.562522e-07 6.8405683e-07 6.080492e-11 2.2024265e-06 5.6056575e-07 6.080492e-11
7.973718e-07 4.3962996e-06 3.102938e-10 4.5557745e-06 4.8536776e-06 3.102938e-10 4.336956e-10 2.3086544e-09
1.6877083e-13 1.1624595e-09 3.2424248e-09 1.6877083e-13 1.5283668e-07 8.088985e-07 5.947572e-11 4.8217032e-08
1.1354338e-06 5.947572e-11 5.902997e-08 2.371018e-07 2.2971266e-11 3.5374157e-08 2.0791842e-07 2.2971266e-11
9.325078e-10 3.3241587e-09 3.62881e-13 2.1139936e-09 3.9027217e-09 3.62881e-13 4.702636e-08 2.1484607e-07
1.8300106e-11 3.6175973e-07 2.439797e-07 1.8300106e-11 7.910921e-07 3.9600045e-06 3.0785016e-10 6.420664e-07
00000000: e00c 4733 dad1 5c34 21a3 9e2d 65e3 0635
00000010: c387 7f34 21a3 9e2d 46dd b433 fca4 d734
00000020: c824 102e 7c75 2635 d513 c934 c824 102e
00000030: 73d4 032f 397d 0b30 0421 5229 ee51 5e30
00000040: 5ec5 0230 0421 5229 0516 9d30 4a76 8131
00000050: cd62 fa2a 21b4 2330 88c4 0c32 cd62 fa2a
00000060: 4251 8232 31a0 9133 ddb7 cf2c 9131 3734
00000070: fb2e 5a33 ddb7 cf2c 1fe2 b535 7536 ce36
00000080: a6f4 1030 0e6a 8c36 7cdf ff36 a6f4 1030
00000090: ed56 c731 321d e432 21de 1e2c 9efc 7533
000000a0: 601f 7732 21de 1e2c 1793 f832 346a e233
000000b0: 571b 462d c131 7134 ce4c 4634 571b 462d
000000c0: b805 dc33 b2ab 1335 f759 2f2e 1de0 c134
000000d0: 4888 3335 f759 2f2e 72eb 1230 1ca9 3c31
000000e0: 6b2e 6a2a aeb3 3931 b986 7931 6b2e 6a2a
000000f0: 2462 7530 8432 1d31 2d90 c32a 019e ff2f
00000100: 8a11 3330 2d90 c32a 1878 3c31 690e 4732
00000110: 4f34 962b 85c2 ef32 0599 b631 4f34 962b
00000120: 322d 1733 607e 7234 70f7 702d 1401 6332
00000130: 271e b334 70f7 702d 542c 7734 ee15 a035
00000140: 5ffd c42e 9186 a034 6b84 8c35 5ffd c42e
00000150: 2b04 9930 88f4 bf31 29e6 f32a 4b37 b931
00000160: 76c0 1732 29e6 f32a 7e06 e333 fdc3 df34
00000170: bdee 342e 6ae9 9433 ac31 7b34 bdee 342e
00000180: bc93 dd33 7084 c334 2397 302e 3ef2 8734
00000190: 5cdb 4735 2397 302e 2f18 1335 5bd1 3336
000001a0: c275 6a2f 520b 9a34 5417 4e36 c275 6a2f
000001b0: f644 9f35 bd96 c936 aedd fd2f b4ba 8a36
000001c0: e724 0637 aedd fd2f 5bd2 c434 003c e835
000001d0: 73dc 1c2f c2f5 4834 90da 3436 73dc 1c2f
000001e0: e327 2735 51be 3936 e037 852f e64c 0635
000001f0: 5d8b 9536 e037 852f 808d 3c33 9f9b 0c34
00000200: 5e45 962d 4050 a432 3cd3 7633 5e45 962d
00000210: 2ccb c933 2d28 eb34 d4d2 202e 8dc4 f034
00000220: cd96 ea34 d4d2 202e 8a37 7430 3f5a 9531
00000230: 3ea2 c22a 9fa8 b031 bb21 ac30 3ea2 c22a
00000240: e476 a034 f806 a635 5ac5 ff2e e4ca e033
00000250: a64e aa35 5ac5 ff2e 1148 0b32 cf65 1833
00000260: 9d01 5e2c 4300 7433 886a 4133 9d01 5e2c
00000270: 0e70 ad32 0b19 8633 8d39 0a2d 6c7a 5034
00000280: a6c1 da33 8d39 0a2d beb7 0f34 9287 4d35
00000290: d813 652e 7560 5334 4a83 8a35 d813 652e
000002a0: 6575 2633 c04e 5134 aaa9 842d b6bb 4b34
000002b0: 4abc 8034 aaa9 842d fb0e e32e c47e ca2f
000002c0: 83f5 3429 402a 0f30 d9e5 9e2f 83f5 3429
000002d0: 1334 7e35 e803 9036 bd97 ca2f e1f6 6436
000002e0: f7b7 cf36 bd97 ca2f 6de2 ab32 ef63 b433
000002f0: a9fc 082d c8a4 7934 8f01 d533 a9fc 082d
00000300: 9920 bf34 c547 fe35 ac52 182f f5fe 7835
00000310: ee1f 2636 ac52 182f 6efb 6d33 fc1f 7b34
00000320: 26aa bd2d 18aa 1934 aed1 4134 26aa bd2d
00000330: 1378 3135 f028 5c36 0c70 8d2f 6ef7 2e36
00000340: e3b8 a936 0c70 8d2f 47c6 2734 07a0 3735
00000350: 20b6 852e 66cd 1336 c979 1635 20b6 852e
00000360: f90a 5635 ed83 9336 f895 aa2f cedd 9836
00000370: c6dc a236 f895 aa2f 3b6d ee2f 47a6 1e31
00000380: e104 3e2a 68c4 9f30 57d1 5e31 e104 3e2a
00000390: 6d1b 2434 1523 5935 dbc9 822e 3017 4f33
000003a0: 3565 9835 dbc9 822e 2388 7d33 0c96 7e34
000003b0: b10e ca2d 4cee 1733 2e40 5f34 b10e ca2d
000003c0: b429 8030 386f 6431 aa48 cc2a c545 1131
000003d0: b418 8631 aa48 cc2a 08fa 4933 70b0 6634
000003e0: 2df8 a02d e137 c234 51fc 8234 2df8 a02d
000003f0: 6f5b 5435 2ee0 8436 0f3e a92f 785a 2c35

exp_avg f4 [128]
-2.5135027e-05 0.0001185781 -2.5993877e-06 -3.1632826e-05 -0.00013173067 0.00042940132 -5.9604943e-05 -4.080952e-05
-6.3137464e-05 1.0280168e-05 2.9605173e-05 -4.8186714e-05 3.2367436e-05 0.00019820825 1.7544713e-05 0.0001404004
-0.00011114053 0.00016439678 0.000117243006 -7.3786876e-05 -0.00020568317 8.683297e-05 -0.0001762283 -2.7037677e-05
0.00020829336 -1.304778e-05 -4.265709e-05 -4.6801842e-06 9.160228e-06 -3.3478557e-06 -0.00030066082 -8.598396e-05
-3.5678662e-05 0.00012542351 -0.00015362435 -0.00017032072 6.453945e-05 1.8478466e-05 3.3659668e-05 0.00010590852
-2.102537e-05 -0.000102295635 -7.642209e-06 -0.0001684825 1.5684163e-05 9.7654854e-05 1.7958758e-06 -8.037387e-06
2.0413963e-05 0.00035112124 4.5901335e-05 0.00018622041 9.178652e-06 5.063688e-05 -5.874138e-06 -7.547808e-05
3.825166e-05 -4.537346e-05 -7.4732484e-06 -3.2716565e-05 0.00027147727 -7.3238756e-05 -0.000103953644 -0.0002808767
0.00015459636 8.009756e-05 2.3681905e-05 -7.133428e-05 -8.501384e-05 -1.7604576e-06 5.437586e-05 4.675568e-05
-5.656045e-05 0.00035007176 0.00021955946 4.0641726e-06 -0.00020197954 -3.7127273e-05 6.487381e-05 8.824545e-05
-5.613206e-05 -2.9802684e-05 -4.3493983e-05 0.00017553063 4.9952927e-05 -0.00021159719 8.9083616e-05 -3.371767e-05
0.0004573634 -7.59682e-05 -0.00014297062 -0.00010631334 0.00014743721 -9.014655e-05 -7.220816e-05 -8.0623955e-05
6.3677735e-06 4.12887e-06 1.9174474e-06 -7.504659e-05 -0.0002612637 -0.00012925576 -9.856413e-05 8.689911e-05
0.00011394898 2.3537863e-05 -3.0236483e-06 -8.923068e-05 -4.4277258e-05 1.8491397e-05 9.861838e-05 -0.00023183087
0.00015205948 1.9506688e-05 -0.00011702652 3.8028196e-05 0.00017242387 -5.215009e-06 0.0002472463 9.708001e-05
9.9750156e-05 8.029731e-05 -7.004952e-05 2.2829574e-05 -0.00012542536 -0.00024846222 0.00018826927 -0.0002290395
00000000: 0fd9 d2b7 22ad f838 2471 2eb6 7dad 04b8
00000010: 2f21 0ab9 4521 e139 5200 7ab8 e32a 2bb8
00000020: ab68 84b8 fc78 2c37 a058 f837 171c 4ab8
00000030: 45c2 0738 1fd6 4f39 fc2c 9337 7238 1339
00000040: 1e14 e9b8 ed61 2c39 5ce0 f538 07be 9ab8
00000050: a8ac 57b9 191a b638 edc9 38b9 f8ce e2b7
00000060: 5369 5a39 cae7 5ab7 b4ea 32b8 7a0a 9db6
00000070: e1ae 1937 b9ab 60b6 03a2 9db9 4952 b4b8
00000080: aca5 15b8 1e84 0339 3916 21b9 1f98 32b9
00000090: 5a59 8738 3402 9b37 cb2d 0d38 341b de38
000000a0: a35f b0b7 8d87 d6b8 0a37 00b7 adaa 30b9
000000b0: 7c91 8337 0dcc cc38 d309 f135 50d8 06b7
000000c0: a73e ab37 b216 b839 2f86 4038 2944 4339
000000d0: 03fe 1937 f062 5438 761a c5b6 fc49 9eb8
000000e0: 6870 2038 624f 3eb8 b7c2 fab6 2539 09b8
000000f0: 1055 8e39 c297 99b8 b001 dab8 a242 93b9
00000100: 251b 2239 0dfa a738 81a8 c637 4d99 95b8
00000110: 7549 b2b8 dd48 ecb5 a311 6438 871b 4438
00000120: 523b 6db8 d689 b739 8b39 6639 fa5e 8836
00000130: 78ca 53b9 1bb9 1bb8 dd0c 8838 6a10 b938
00000140: 576f 6bb8 c700 fab7 4f6d 36b8 a50e 3839
00000150: 8c84 5138 30e0 5db9 67d2 ba38 136c 0db8
00000160: 47ca ef39 1e51 9fb8 62ea 15b9 8af4 deb8
00000170: 6099 1a39 0f0d bdb8 766e 97b8 a814 a9b8
00000180: c2aa d536 b98a 8a36 7fad 0036 5562 9db8
00000190: 38fa 88b9 d488 07b9 37b4 ceb8 9b3d b638
000001a0: e5f7 ee38 2d73 c537 e2e9 4ab6 5b21 bbb8
000001b0: 58b6 39b8 f91d 9b37 57d1 ce38 a017 73b9
000001c0: 2872 1f39 4ba2 a337 226c f5b8 7780 1f38
000001d0: aecc 3439 96fc aeb6 d6a0 8139 6f97 cb38
000001e0: f530 d138 4a65 a838 8de7 92b8 2382 bf37
000001f0: 9d84 03b9 0944 82b9 266a 4539 532a 70b9

exp_avg_sq f4 [128]
2.2283226e-08 4.0494697e-08 5.7648608e-11 5.495445e-10 7.294363e-09 6.515653e-07 2.7894485e-09 1.391368e-08
4.9262006e-08 2.5698937e-10 4.2921985e-10 1.3186668e-09 1.6923845e-08 1.10681796e-07 5.3530674e-10 5.082991e-08
4.961006e-08 2.634701e-07 5.705545e-07 1.762699e-07 2.994033e-07 2.110803e-08 4.5180638e-08 4.2717999e-10
1.4370896e-07 3.8980583e-09 9.707976e-09 6.435543e-08 1.8634656e-08 4.9645836e-11 4.5532002e-07 9.621032e-09
1.7117014e-07 2.664153e-08 3.1787602e-07 7.512788e-08 3.833854e-07 2.0852585e-10 7.348561e-08 2.8382296e-08
4.4836063e-10 2.2610816e-08 3.803661e-07 1.3378039e-07 3.350934e-09 5.907415e-08 2.2088002e-10 2.8328313e-09
1.5637617e-08 1.137625e-07 9.150773e-08 9.897581e-08 1.8542347e-10 9.828664e-08 8.1568995e-11 7.151673e-08
1.4855442e-07 2.8367687e-08 1.351844e-08 1.8119916e-08 3.9254252e-07 4.281243e-08 3.5732637e-07 1.6892105e-07
1.5245325e-07 3.525137e-08 3.7692383e-10 2.4653008e-07 1.6200599e-07 7.7645224e-10 3.4209238e-09 4.193859e-08
1.773979e-07 2.032151e-07 1.5521547e-07 3.7459436e-10 2.1470623e-07 3.3102962e-10 1.3767337e-07 6.662696e-08
7.143087e-09 9.934381e-10 2.4098072e-09 1.9551446e-07 1.4978574e-09 3.9741533e-07 8.6985406e-09 3.2127648e-10
1.2894101e-07 5.487447e-09 1.00669936e-07 1.6867162e-07 8.374456e-08 1.9061208e-09 1.9464443e-08 1.8713507e-08
1.14774794e-10 2.7137415e-09 4.1139572e-10 7.2810704e-09 1.3620566e-07 4.900725e-08 7.099774e-08 1.265587e-07
1.1041285e-07 3.2173197e-09 1.3764623e-10 2.279668e-08 1.1153076e-07 3.4238254e-10 2.4201276e-07 1.1057659e-07
5.3553117e-07 2.045253e-10 4.092969e-08 8.717397e-09 7.7334875e-08 3.6538586e-10 7.184885e-08 1.6376993e-07
4.6428593e-08 4.198424e-08 1.6282632e-08 1.3462335e-08 1.2012615e-08 2.3448422e-07 1.7054388e-07 2.2452133e-07
00000000: 5569 bf32 64ec 2d33 908a 7d2e c20e 1730
00000010: e5a1 fa31 3ae7 2e35 7fb0 3f31 0309 6f32
00000020: 2694 5333 0a48 8d2f 53f7 eb2f 773c b530
00000030: ee5f 9132 f6af ed33 dd24 1330 1450 5a33
00000040: d612 5533 0e73 8d34 3528 1935 b344 3d34
00000050: adbd a034 0d51 b532 a30c 4233 3dd8 ea2f
00000060: 6b4e 1a34 afef 8531 21c8 2632 c633 8a33
00000070: 0b12 a032 3e58 5a2e b572 f434 bf49 2532
00000080: e4ca 3734 58d9 e432 8ca8 aa34 fd55 a133
00000090: 17d4 cd34 cf46 652f 24cf 9d33 54cd f332
000000a0: 267d f62f b639 c232 1e35 cc34 46a5 0f34
000000b0: 4146 6631 b7b8 7d33 33dc 722f b2ab 4231
000000c0: 7c53 8632 994d f433 e882 c433 878c d433
000000d0: 11e0 4b2f a711 d333 435f b32e bd94 9933
000000e0: 5482 1f34 34ad f332 ba3e 6832 1ea6 9b32
000000f0: a2be d234 c4e0 3733 90d6 bf34 aa60 3534
00000100: 08b2 2334 4b67 1733 5037 cf2f d65a 8434
00000110: def3 2d34 f86d 5530 8715 6b31 f81f 3433
00000120: c37a 3e34 5733 5a34 4ea9 2634 78ef cd2f
00000130: 008a 6634 47fc b52f 5ed3 1334 8f14 8f33
00000140: 426f f531 7f89 8830 c799 2531 9bee 5134
00000150: 2cdd cd30 595c d534 9670 1532 a59f b02f
00000160: 0973 0a34 188c bc31 e22f d833 1a1c 3534
00000170: 0fd7 b333 d5fc 0231 c332 a732 70bf a032
00000180: 7764 fc2e a57c 3a31 cd2a e22f f92c fa31
00000190: ed3f 1234 0b7c 5233 6c77 9833 31e4 0734
000001a0: 1b1c ed33 b017 5d31 f857 172f 6ed2 c332
000001b0: af82 ef33 0f3a bc2f fbed 8134 2076 ed33
000001c0: 6cc1 0f35 c1e0 602f acca 2f33 84c3 1532
000001d0: 4c13 a633 7ddf c82f 534b 9a33 bcd8 2f34
000001e0: c768 4733 2952 3433 e3dd 8b32 fa47 6732
000001f0: 0a60 4e32 88c6 7b34 bf1e 3734 f413 7134
