Assets/Prefabs/MoveToBall-Hard.onnx (onnx, 72799 bytes, 6 tensors)

network_body._body_endoder.seq_layers.0.weight f4 [128, 6]
0.4308621 -0.23525077 0.006922699 -0.2614304 0.5726309 -0.15944178 -0.014805764 -0.012329373
-0.22019523 0.10794905 0.30111155 0.019083481 -0.31400397 0.088541195 0.98000276 0.5331039
-0.23222001 0.38753867 0.3197922 -0.23589899 0.5423204 0.34177166 -0.42696878 0.2975415
0.063997135 0.46142885 -0.4262405 0.36911413 0.18175443 0.67270404 0.4929283 0.039347954
0.03545844 0.4544946 0.09671547 -0.13448621 0.13608187 -0.20608106 -0.28645712 0.0005011774
0.7483166 0.51739615 0.3762626 0.27893275 -0.31836683 -0.62044257 -0.120809875 0.64862937
0.28674722 0.72483855 0.18652967 -0.022943363 -0.53096175 -0.16318852 0.3832238 -1.447329
0.17952748 0.15621673 0.3785444 0.27991912 0.5308239 0.4745869 -0.14583775 0.16246562
-0.35447013 0.7096804 -0.21141963 -0.083794534 0.17557167 -0.6185509 -0.23051423 -0.37003076
0.28792807 -0.20916119 -0.03482887 0.3662608 0.15520684 0.5421714 -0.1458802 0.04874055
-0.13596581 -0.22245948 0.07002651 0.10419626 0.41927698 0.32878986 0.1255165 -0.5571193
0.01882996 0.06954333 0.10619756 0.857246 0.73701054 0.43600795 -0.5633518 0.32500127
0.47100076 -0.49239826 -0.38850337 0.33895645 0.35823232 0.3785583 -0.4838259 -0.24357666
0.90759337 0.3463098 -0.26317835 -0.5615304 -0.3636383 0.14707626 -0.14500508 0.73967695
-0.064146645 0.3407831 0.48375374 -0.30228025 -0.3194093 0.24478161 -0.6085438 -0.0018886017
-0.33958268 0.518186 0.2180689 0.7131104 -0.8203011 0.090791196 -0.10337367 0.41675112
0.49286604 0.031202482 -0.3639669 0.14295357 -0.5492093 0.33025175 0.1755203 0.037895348
0.2660426 0.6451723 0.028669965 0.11609787 0.20758504 -0.13110544 0.06554706 0.40629336
-0.42868742 0.055377953 -0.27521995 -0.40449744 0.0025800092 -0.45269117 -0.4943639 -0.51193756
0.67592317 0.039691713 -0.7892595 -0.012724189 -0.14658208 -0.13498798 0.16225152 0.51658267
0.15382369 -0.47213826 0.21849895 0.34962273 0.58720106 0.76386565 -0.50093216 -0.0844634
0.6241321 0.05067976 0.41513142 -0.5450029 -0.3570378 0.5282676 -0.55172336 0.28298
-0.057481796 -0.1558025 0.48870957 -0.23439245 0.033537187 -0.23657729 0.6602575 -0.082896315
0.44521976 -0.03294855 0.16367933 -0.21262693 0.35776168 0.18786408 0.73936933 0.26247382
-0.14882413 0.093611695 -0.07693828 -0.17911877 0.20813268 0.18290031 0.5926666 0.68829525
-0.40890542 0.13127568 0.14232783 -0.26008683 0.6711787 0.0058131684 0.43040064 -0.2458434
-0.73959464 0.047658496 -0.40147516 -0.8419336 -0.1836523 0.33826938 0.21324542 -0.19764997
0.11755739 -0.80265725 -0.18672787 0.2922506 0.12881595 -0.047552917 0.23118138 0.29655686
0.35614714 0.0040630777 0.04387664 0.6762428 0.26743427 0.10598388 -0.51009893 0.12686916
-0.3991438 0.30973896 0.4779363 -0.36079422 -0.67870885 0.23606381 -0.270432 -0.019050188
-0.8251848 -0.30957893 -0.5975533 0.44738752 -0.28659773 0.7805602 0.61124146 0.0009150682
0.18920061 0.22766681 -0.7879133 0.12340478 0.30524027 0.18235561 -0.049293872 -0.9537619
00000000: f599 dc3e 94e5 70be cfd7 e23b 35da 85be
00000010: f097 123f b544 23be e093 72bc 2301 4abc
00000020: dc7a 61be 6414 dd3d 4b2b 9a3e f654 9c3c
00000030: 21c5 a0be 1655 b53d 76e1 7a3f 7f79 083f
00000040: 15cb 6dbe 786b c63e cebb a33e 818f 71be
00000050: 82d5 0a3f b2fc ae3e a79b dabe 5c57 983e
00000060: ee10 833d 6740 ec3e 323c dabe 87fc bc3e
00000070: d51d 3a3e 5536 2c3f 1961 fc3e 522b 213d
00000080: df3c 113d 84b3 e83e c312 c63d c1b6 09be
00000090: 0c59 0b3e ea06 53be 82aa 92be 7261 033a
000000a0: ad91 3f3f 1374 043f 7ea5 c03e 46d0 8e3e
000000b0: fa00 a3be 53d5 1ebf 2b6b f7bd 930c 263f
000000c0: 88d0 923e 058f 393f a201 3f3e b8f3 bbbc
000000d0: 1ced 07bf e41a 27be e935 c43e 1442 b9bf
000000e0: 0dd6 373e 47f7 1f3e 92d0 c13e 8f51 8f3e
000000f0: 13e4 073f 0efd f23e 7e56 15be 635d 263e
00000100: 1c7d b5be 9dad 353f 637e 58be 789c abbd
00000110: 0fc9 333e 5a59 1ebf ec0b 6cbe ac74 bdbe
00000120: 4f6b 933e 5a2e 56be b8a8 0ebd 8986 bb3e
00000130: 8bee 1e3e bfcb 0a3f 9f61 15be 2ca4 473d
00000140: 9f3a 0bbe 6bcc 63be 0f6a 8f3d d964 d53d
00000150: 79ab d63e 2557 a83e 6687 003e 5f9f 0ebf
00000160: 4a41 9a3c bc6c 8e3d 1b7e d93d 7974 5b3f
00000170: b9ac 3c3f 6f3c df3e d337 10bf 9166 a63e
00000180: 0327 f13e a01b fcbe eae9 c6be b38b ad3e
00000190: 3a6a b73e 65d2 c13e 07b8 f7be 296c 79be
000001a0: 0a58 683f 854f b13e 50bf 86be 75c0 0fbf
000001b0: cd2e babe 299b 163e 367c 14be 785b 3d3f
000001c0: 515f 83bd 1f7b ae3e 92ae f73e 7ac4 9abe
000001d0: 9e89 a3be 08a8 7a3e 87c9 1bbf f58a f7ba
000001e0: c8dd adbe d6a7 043f 744d 5f3e 678e 363f
000001f0: 41ff 51bf bcf0 b93d 93b5 d3bd 6760 d53e
00000200: f058 fc3e 599c ff3c df59 babe 6c62 123e
00000210: fb98 0cbf c216 a93e 98bb 333e 2738 1b3d
00000220: bc36 883e 032a 253f 46dd ea3c b8c4 ed3d
00000230: 2c91 543e 8140 06be 893d 863d af05 d03e
00000240: eb7c dbbe fed3 623d a1e9 8cbe 4a1a cfbe
00000250: 5f15 293b 23c7 e7be 441d fdbe 570e 03bf
00000260: 4d09 2d3f c793 223d e90c 4abf 1e79 50bc
00000270: 9d19 16be 4a3a 0abe 4325 263e c33e 043f
00000280: f583 1d3e 1bbc f1be 30be 5f3e c001 b33e
00000290: cf52 163f b38c 433f 173d 00bf 26fb acbd
000002a0: 1fc7 1f3f 9495 4f3d 1b8c d43e 4f85 0bbf
000002b0: a9cd b6be 8c3c 073f be3d 0dbf c1e2 903e
000002c0: 0872 6bbd b18a 1fbe 2438 fa3e 9304 70be
000002d0: 4a5e 093d 5141 72be a306 293f 8bc5 a9bd
000002e0: d8f3 e33e 0ff5 06bd 8e9b 273e e0ba 59be
000002f0: 8a2c b73e 715f 403e 4f47 3d3f f862 863e
00000300: 5a65 18be 7db7 bf3d d191 9dbd e96a 37be
00000310: bc20 553e 384a 3b3e 00b9 173f 1e34 303f
00000320: 0d5c d1be 226d 063e 63be 113e 1a2a 85be
00000330: 5ed2 2b3f 647c be3b 795d dc3e 5fbe 7bbe
00000340: 1356 3dbf 8e35 433d 278e cdbe f688 57bf
00000350: 590f 3cbe a531 ad3e 025d 5a3e c164 4abe
00000360: eec1 f03d f27a 4dbf 9735 3fbe dfa1 953e
00000370: 54e8 033e d9c6 42bd d0ba 6c3e 4dd6 973e
00000380: eb58 b63e 9123 853b feb7 333d 401e 2d3f
00000390: 25ed 883e 140e d93d d895 02bf fde9 013e
000003a0: 935c ccbe 1b96 9e3e 11b4 f43e 05ba b8be
000003b0: ddbf 2dbf b6ba 713e 1076 8abe 240f 9cbc
000003c0: 503f 53bf 2181 9ebe 41f9 18bf fa0f e53e
000003d0: f0bc 92be cbd2 473f 527a 1c3f 30e1 6f3a
000003e0: cebd 413e 7d21 693e b0b4 49bf a5bb fc3d
000003f0: 7448 9c3e 6ebb 3a3e 5fe8 49bd bd29 74bf

network_body._body_endoder.seq_layers.0.bias f4 [128]
0.0383223 0.03309321 0.0075515313 -0.012867648 0.0108073065 0.03403696 0.025786605 0.06425392
0.007951571 -0.021465726 0.005032585 0.03093883 0.018322121 -0.026962578 -0.0002452965 0.008433164
0.06515523 0.038921088 0.0139063485 -0.0063574133 0.06528098 0.024813997 0.01724324 0.035639033
-0.01030294 0.11196746 0.0025576095 0.022330638 0.0060093123 -0.03564463 0.026886424 0.024046108
0.013136616 -0.0059914705 0.026439255 0.02027792 -0.03265573 0.00822546 0.003184085 -0.034524042
0.06203015 0.00549861 0.054993603 0.010826779 0.030792661 0.011752965 0.02709186 0.021566968
-0.038251564 0.08988192 -0.010624509 0.04050885 0.0038375172 -0.014807119 -0.006031935 0.008502491
-0.042436324 -0.04329838 0.012810178 0.002578902 0.0013249074 0.0041304226 0.030669421 -0.03732553
0.005324709 0.0049629263 0.017775219 -0.044523917 0.0071818605 0.017233877 0.007970315 0.03562974
0.05002598 0.017719932 0.030415718 0.053662453 0.028832162 0.021095501 0.041638896 -0.021475488
0.008901576 0.011841387 -0.010383743 0.047070768 0.055836324 0.008739727 0.035734728 -0.024945375
0.018000921 -0.0447183 0.017127275 0.04458292 0.04757059 -0.017019518 0.023244485 0.1199359
-0.017604442 0.021688124 0.027769733 -0.012551527 0.012035975 0.012778547 0.008688923 -0.0019370453
-0.00094738626 -0.014241461 0.008466412 0.017568167 0.062168792 -0.0018668267 0.06723096 0.0340326
0.024931561 0.018599857 0.031528234 -0.01951189 -0.049093645 -0.018761374 -0.0055058193 -0.0032885042
0.03452549 0.03395772 0.050947458 0.044027176 0.023608083 0.02825791 0.03836376 0.038173426
00000000: d8f7 1c3d bf8c 073d d672 f73b d4d2 52bc
00000010: 2111 313c 576a 0b3d 6e3e d33c 8f97 833d
00000020: 4e47 023c e4d8 afbc 62e8 a43b 6e73 fd3c
00000030: 4618 963c a0e0 dcbc 249b 80b9 412b 0a3c
00000040: 1b70 853d b86b 1f3d 74d7 633c d951 d0bb
00000050: 09b2 853d b946 cb3c b241 8d3c 3cfa 113d
00000060: aacd 28bc 324f e53d 919d 273b beee b63c
00000070: c4e9 c43b 1b00 12bd eb40 dc3c 58fc c43c
00000080: f63a 573c 1954 c4bb 2397 d83c e11d a63c
00000090: 04c2 05bd 14c4 063c 15ac 503b 1569 0dbd
000000a0: 5413 7e3d af2d b43b f940 613d cd62 313c
000000b0: e440 fc3c 828f 403c c0ef dd3c 36ad b03c
000000c0: acad 1cbd 0314 b83d 6c12 2ebc 9cec 253d
000000d0: db7e 7b3b 8f99 72bc 8aa7 c5bb 084e 0b3c
000000e0: b6d1 2dbd a459 31bd c8e1 513c cc02 293b
000000f0: 84a8 ad3a 7f58 873b 703e fb3c a8e2 18bd
00000100: e67a ae3b 0ba0 a23b 569d 913c b65e 36bd
00000110: d055 eb3b 0f2e 8d3c ed95 023c 7ef0 113d
00000120: 0be8 4c3d 6429 913c 622a f93c 29cd 5b3d
00000130: 6d31 ec3c 79d0 ac3c 8c8d 2a3d 5ded afbc
00000140: ead7 113c 6002 423c 9320 2abc 47cd 403d
00000150: a1b4 643d 1231 0f3c 945e 123d 3e5a ccbc
00000160: ab76 933c 892a 37bd 804e 8c3c 949c 363d
00000170: 61d9 423d 846c 8bbc 386b be3c f4a0 f53d
00000180: 3137 90bc 4bab b13c 5a7d e33c eba4 4dbc
00000190: 8a32 453c 1c5d 513c fc5b 0e3c 74e4 fdba
000001a0: 045a 78ba 0455 69bc b5b6 0a3c 1eeb 8f3c
000001b0: b4a4 7e3d 4fb0 f4ba 63b0 893d c465 0b3d
000001c0: 463d cc3c ba5e 983c c023 013d 66d7 9fbc
000001d0: 6b16 49bd 74b1 99bc 296a b4bb f283 57bb
000001e0: 9a6a 0d3d 4017 0b3d 48ae 503d d755 343d
000001f0: bd65 c13c 227d e73c 5123 1d3d bd5b 1c3d

network_body._body_endoder.seq_layers.2.weight f4 [128, 128]
-0.013762784 -0.03237071 -0.05857388 -0.04560407 0.107328795 0.09292915 0.08695039 0.08401545
0.08735978 -0.14942177 -0.068963766 0.1112855 0.11842059 -0.027417297 0.07780187 -0.18101922
0.16789718 -0.09823316 0.110539235 -0.27800748 -0.038998216 -0.02634312 -0.15057042 -0.12208062
-0.10023707 -0.22696559 -0.15515484 -0.13917057 -0.015150646 -0.09338068 -0.029312719 0.11752948
-0.17727076 0.060889512 0.2002563 -0.034456857 -0.07903635 0.10603006 -0.07750914 -0.016349548
-0.18778078 -0.08646087 -0.1204617 -0.026728954 0.14600211 0.20753105 -0.044755943 0.010529434
-0.073534966 -0.048839167 0.021616297 0.18002746 0.08128255 0.029632825 0.093203515 -0.10485373
-0.07158043 -0.17840263 0.010777366 -0.028655572 -0.057066772 -0.0055909185 0.16849548 -0.013741438
-0.011950183 0.119794935 0.10064923 -0.080598764 -0.08206441 0.02262736 -0.06924849 -0.09761856
0.033004582 0.10813377 0.06669562 0.1400474 0.12533405 -0.04488466 -0.10129747 0.037484463
-0.052294392 -0.04367627 -0.0032171549 0.05037213 -0.08857954 -0.061176687 0.13400519 0.04644696
-0.044856105 0.013616998 -0.004704945 -0.042423215 0.007063935 0.033474676 -0.066688016 0.040736157
0.01437208 -0.009006604 -0.037069038 0.066635236 0.05781311 -0.08454843 -0.015435188 -0.0033584444
0.10725867 -0.2740838 -0.07479643 0.058804367 -0.079979934 0.03037174 0.038466547 0.103335
0.08967275 0.11522053 0.06823445 -0.04749527 0.107639275 -0.119265616 0.092919044 -0.13919874
0.039024714 -0.09471801 0.037182465 0.023106765 0.073874675 -0.1178807 -0.08483319 -0.056424856
0.07520224 0.14033896 0.06194116 -0.03135789 -0.047114108 -0.02643779 -0.14306654 -0.0587417
-0.10756739 0.037028793 -0.08296664 0.06520049 0.009893863 -0.14519788 -0.03376845 -0.10372165
0.06700414 0.0036017736 -0.055947043 -0.08193965 -0.18251963 -0.13298427 0.053217374 -0.023496142
-0.082654744 0.048823737 0.17239945 -0.20093276 -0.033073157 -0.012330526 -0.12650183 -0.0069277524
-0.030077472 -0.030674625 0.12369018 0.086119875 -0.089353874 -0.025108516 -0.19042085 -0.1549604
0.03748689 -0.07268349 -0.118236385 -0.08530264 0.012626264 0.07072768 0.102779135 0.11180729
0.08681266 0.032323845 0.18290024 0.117084675 0.024818778 -0.029686723 -0.16196233 -0.041355524
-0.10996925 0.041622676 0.046849728 0.060043257 -0.05996378 -0.054479387 -0.16466591 -0.024648102
0.048436224 0.051612724 0.03059483 0.09992824 0.08668397 0.028096639 0.0524503 0.07118551
0.060606677 0.0062936926 0.04189476 0.0853029 0.08301867 0.11630768 -0.071897626 -0.08899237
-0.05731974 0.027981915 -0.046720475 -0.02482933 -0.10112475 -0.13217568 0.20499592 0.11613446
-0.06327575 -0.07715678 0.0016992887 -0.04020962 -0.2109041 -0.14633793 0.05535633 0.09452982
-0.01136464 0.07775583 -0.122481965 0.05560886 -0.01888798 -0.073640704 0.11227609 0.11449486
-0.13641927 -0.023086952 -0.061657883 0.09005425 0.044343065 0.011959634 -0.1307469 0.05505617
0.0866053 -0.14140017 -0.022198377 -0.07668996 0.02218198 -0.10264905 -0.17617927 0.018358141
0.02161354 0.053138595 0.10841508 -0.06069997 0.06394802 -0.0438022 -0.100244164 0.10271795
00000000: 4d7d 61bc 2697 04bd 2aeb 6fbd 55cb 3abd
00000010: 33cf db3d a351 be3d 0c13 b23d 4b10 ac3d
00000020: afe9 b23d 0502 19be e03c 8dbd a7e9 e33d
00000030: 7f86 f23d 3d9a e0bc 9656 9f3d 1a5d 39be
00000040: 3ded 2b3e 782e c9bd 6562 e23d ff56 8ebe
00000050: 98bc 1fbd 87cd d7bc 222f 1abe 6705 fabd
00000060: 1849 cdbd ab69 68be e9e0 1ebe bb82 0ebe
00000070: 6a3a 78bc 5f3e bfbd 3a21 f0bc 4cb3 f03d
00000080: 7786 35be 4867 793d fd0f 4d3e a222 0dbd
00000090: cfdd a1bd 4a26 d93d 1dbd 9ebd 7def 85bc
000000a0: 9b49 40be 6612 b1bd a0b4 f6bd aef6 dabc
000000b0: 9481 153e 0583 543e 0252 37bd a683 2c3c
000000c0: 8099 96bd 940b 48bd a914 b13c 1e59 383e
000000d0: 7777 a63d 8ac0 f23c 7ce1 be3d 8dbd d6bd
000000e0: c398 92bd 2eaf 36be 8d93 303c 17bf eabc
000000f0: d9be 69bd 0634 b7bb 148a 2c3e c523 61bc
00000100: b3ca 43bc 0c57 f53d 2f21 ce3d f710 a5bd
00000110: 6311 a8bd 035d b93c 27d2 8dbd 3dec c7bd
00000120: d02f 073d 3d75 dd3d b797 883d 9668 0f3e
00000130: 9257 003e fad8 37bd 0c75 cfbd 4f89 193d
00000140: a532 56bd e3e5 32bd e7d6 52bb 0253 4e3d
00000150: 3169 b5bd 6894 7abd a838 093e 2b3f 3e3d
00000160: 09bb 37bd d419 5f3c f02b 9abb f7c3 2dbd
00000170: 9578 e73b be1c 093d ba93 88bd f5da 263d
00000180: df78 6b3c 6f90 13bc b4d5 17bd 0e78 883d
00000190: 71cd 6c3d ba27 adbd dfe3 7cbc 5919 5cbb
000001a0: 6faa db3d b654 8cbe df2e 99bd d9dc 703d
000001b0: 85cc a3bd 28ce f83c 198f 1d3d 4da1 d33d
000001c0: 59a6 b73d bef8 eb3d 81be 8b3d 668a 42bd
000001d0: fb71 dc3d 8841 f4bd 574c be3d 1d8a 0ebe
000001e0: 61d8 1f3d 84fb c1bd a44c 183d 664a bd3c
000001f0: 9b4b 973d 706b f1bd 06bd adbd c01d 67bd
00000200: a203 9a3d 04b5 0f3e 04b6 7d3d 2271 00bd
00000210: b9fa 40bd 1094 d8bc 0980 12be 239b 70bd
00000220: 4b4c dcbd 81ab 173d 6aea a9bd d687 853d
00000230: df19 223c c1ae 14be c950 0abd 046c d4bd
00000240: 7739 893d bc0b 6c3b ba28 65bd facf a7bd
00000250: 6de6 3abe 072d 08be 76fa 593d fb7a c0bc
00000260: e446 a9bd 66fb 473d 7b89 303e 51c1 4dbe
00000270: b877 07bd f905 4abc b289 01be 3302 e3bb
00000280: 0865 f6bc 5a49 fbbc 4751 fd3d 9e5f b03d
00000290: 2aff b6bd 60b0 cdbc affd 42be f0ad 1ebe
000002a0: da8b 193d 15db 94bd eb25 f2bd 27b3 aebd
000002b0: 64de 4e3c add9 903d de7d d23d 38fb e43d
000002c0: d6ca b13d 0266 043d 334a 3b3e 17ca ef3d
000002d0: c050 cb3c 9231 f3bc 74d9 25be 6964 29bd
000002e0: 8f37 e1bd 8a7c 2a3d 80e5 3f3d ebef 753d
000002f0: 959c 75bd c725 5fbd 2e9e 28be d1ea c9bc
00000300: 1065 463d dd67 533d 02a2 fa3c 2da7 cc3d
00000310: 5e87 b13d ec2a e63c 20d6 563d b5c9 913d
00000320: b53e 783d 523b ce3b d799 2b3d 49b3 ae3d
00000330: b105 aa3d b932 ee3d 103f 93bd a241 b6bd
00000340: 1bc8 6abd 543a e53c f85d 3fbd e166 cbbc
00000350: 7e1a cfbd 1059 07be 73ea 513e e7d7 ed3d
00000360: b796 81bd 6004 9ebd abba de3a d8b2 24bd
00000370: 3ff7 57be 9cd9 15be 52bd 623d da98 c13d
00000380: c132 3abc 733e 9f3d d3d7 fabd 1ec6 633d
00000390: f7ba 9abc f0d0 96bd 02f1 e53d 487c ea3d
000003a0: 7eb1 0bbe d920 bdbc fa8c 7cbd 5d6e b83d
000003b0: 13a1 353d 57f2 433c 84e2 05be 9482 613d
000003c0: 1f5e b13d 35cb 10be 5fd9 b5bc a00f 9dbd
000003d0: fcb6 b53c aa39 d2bd 5768 34be d063 963c
000003e0: e10e b13c dba7 593d ba08 de3d 88a0 78bd
000003f0: 2ef7 823d f069 33bd d04c cdbd ca5d d23d

network_body._body_endoder.seq_layers.2.bias f4 [128]
0.02702286 -0.010379227 0.007753206 -0.007578523 -0.0067510763 -0.01689874 0.039545342 -0.006304757
-0.01433345 0.005357426 7.3639835e-06 0.034732774 0.033489674 -0.012428618 -0.023218324 0.00072676095
0.020263923 0.04556874 0.010800113 0.01586532 -0.017820967 0.057363376 0.03137412 0.029933225
-0.00078634504 0.05973975 0.033373196 0.05213554 -0.0043821903 -0.0070941662 0.01280322 0.052852955
-0.008589614 -0.002087602 -0.011673308 -0.017236978 0.0019793108 -0.0006794752 0.008481643 0.045818504
-0.015931066 0.025731836 0.060573246 -0.009823123 0.027869597 0.03185815 0.03811645 0.027320877
-0.020828549 0.0093344515 0.02698284 -0.010537551 0.0053372355 -0.0059800413 0.006034825 -0.011067199
0.035827186 0.030140944 0.03789775 0.0009954594 0.013008684 -0.003694014 0.015824446 -0.009537688
0.014596122 -0.0069776704 0.04240706 0.004040133 0.0027179797 -0.0053765606 -0.00019920306 0.010344439
0.025344059 0.011858389 0.030034095 0.047559127 -0.004405262 -0.014511477 0.0223686 -0.007100179
0.013243851 -0.0059268153 0.005723994 -0.025706664 0.038971756 -0.0038833234 0.013650895 0.019922977
0.032549314 0.042327106 -0.024088094 0.041087482 0.019906668 0.020442003 0.029872062 -0.016076064
0.027799282 0.020864896 0.04280084 0.009678346 -0.0068778 0.008925248 0.014341028 0.0076039094
0.020394864 -0.0074532777 -0.001118398 -0.010391413 0.022414923 0.055388734 0.03116645 -0.007095884
0.023025114 0.040675774 -0.015107211 0.014846013 0.013653783 0.0030118162 -0.007838645 -0.0021226194
0.045592736 -0.01148447 -0.00708445 0.032684147 0.000646082 -0.019242719 0.01618055 -0.00309733
00000000: 0b5f dd3c a20d 2abc 9b0e fe3b 4255 f8bb
00000010: 2238 ddbb 3a6f 8abc 4cfa 213d 2398 cebb
00000020: d9d6 6abc 598d af3b 2318 f736 f443 0e3d
00000030: 782c 093d 67a1 4bbc 5b34 bebc 1a84 3e3a
00000040: 8700 a63c 4aa6 3a3d f5f2 303c fdf7 813c
00000050: 47fd 91bc dcf5 6a3d 2682 003d 8636 f53c
00000060: b922 4eba abb1 743d 55b2 083d 138c 553d
00000070: 7a98 8fbb 2e76 e8bb 99c4 513c 577c 583d
00000080: 74bb 0cbc 26d0 08bb 6741 3fbc 9034 8dbc
00000090: 53b7 013b cf1e 32ba 97f6 0a3c 2fac 3b3d
000000a0: de81 82bc 92cb d23c a71b 783d 2af1 20bc
000000b0: c84e e43c b17d 023d ff1f 1c3d 08d0 df3c
000000c0: a2a0 aabc 87ef 183c 1e0b dd3c b1a5 2cbc
000000d0: fae3 ae3b 39f4 c3bb c8bf c53b 3253 35bc
000000e0: 87bf 123d 24ea f63c ac3a 1b3d 137a 823a
000000f0: 6022 553c 4517 72bb 45a2 813c f743 1cbc
00000100: 9324 6f3c f1a4 e4bb 06b3 2d3d 1863 843b
00000110: 2220 323b dc2d b0bb 2ae1 50b9 b97b 293c
00000120: 589e cf3c b049 423c 100a f63c 5ccd 423d
00000130: 045a 90bb 8cc1 6dbc 5b3e b73c 9ea8 e8bb
00000140: bdfc 583c bb35 c2bb 5890 bb3b c896 d2bc
00000150: d9a0 1f3d 5b7f 7ebb 01a8 5f3c 8335 a33c
00000160: 6e52 053d 305f 2d3d 6554 c5bc 594b 283d
00000170: 4f13 a33c fd75 a73c 41b6 f43c f3b1 83bc
00000180: 52bb e33c dcec aa3c ef4f 2f3d ed91 1e3c
00000190: 2b5f e1bb 343b 123c a2f6 6a3c 372a f93b
000001a0: 2113 a73c a03a f4bb 3697 92ba bf40 2abc
000001b0: 809f b73c 4cdf 623d c850 ff3c 9784 e8bb
000001c0: 2a9f bc3c a49b 263d 3c84 77bc b13c 733c
000001d0: 1eb4 5f3c e461 453b a96d 00bc a51b 0bbb
000001e0: 73bf 3a3d 5c29 3cbc ad24 e8bb d0df 053d
000001f0: d45d 293a e8a2 9dbc 138d 843c 93fc 4abb

action_model._discrete_distribution.branches.0.weight f4 [2, 128]
-0.044036694 0.047474615 0.048391707 0.03917206 0.038177244 0.0128521165 -0.021546528 0.030471504
0.014727138 0.04624681 -0.007060359 -0.063027814 -0.055308953 0.02285646 -0.007855534 0.026413735
0.06844301 -0.07144267 -0.018904453 0.053396035 0.021092987 -0.03162478 -0.017938823 -0.054940686
0.024417026 -0.029435286 -0.013799085 -0.025342532 0.05473763 0.017758707 -0.03169448 -0.026484542
0.045757506 0.032817744 0.020744992 0.04597288 0.05609177 0.03747043 -0.004862669 -0.020287363
0.0040655583 -0.03785678 -0.051744603 0.009439162 -0.03501797 -0.04690085 -0.0641473 -0.036187336
0.044030175 -0.00943973 -0.059388157 0.021397201 -0.0015019444 0.04145911 0.06017662 0.017310288
-0.051886663 -0.03117345 -0.046969485 0.04540851 0.0426394 0.048385616 -0.0054435953 0.011015981
0.07650454 0.027953526 -0.021421788 0.017458636 0.059785202 0.036351733 0.020878764 0.06774961
-0.02396056 -0.003219157 -0.055272218 -0.04137895 0.049980715 0.039747525 0.03526886 0.036857165
-0.03026534 0.032802016 0.044857398 0.0066882838 -0.0639733 0.039516184 -0.011443293 -0.01023174
-0.0319821 -0.058445085 0.011997129 -0.062126674 0.08094315 -0.018504772 -0.028710624 -0.0005102379
0.07132902 -0.023307763 -0.048092153 -0.011164478 0.0015973657 -0.023578292 0.0068725855 0.064484045
-0.02217471 0.035864588 0.03870001 0.03858804 -0.037272394 -0.029319732 0.06946778 0.0033766266
-0.025562754 -0.046899833 -0.00029965604 -0.024488337 -0.0013580412 0.058798645 0.042726822 0.0041496754
-0.05646898 0.014577975 0.037367754 0.04801359 0.04328653 0.0051275333 -0.012293656 0.006853269
0.028446274 -0.040367607 -0.041275464 -0.024972375 -0.03716172 -0.0015707295 0.0087214615 -0.017126873
-0.014771034 -0.052098397 -0.003917763 0.04753409 0.06342061 -0.02919942 -0.007061283 -0.028724987
-0.08149435 0.060445108 -0.00026459308 -0.07023542 -0.022103818 0.028990803 0.0171442 0.0615823
-0.019296728 0.030502215 0.009096176 0.03319251 -0.045931544 -0.005616857 0.028768877 0.034133088
-0.030475436 -0.037617605 -0.017646728 -0.050099928 -0.051499266 -0.03740245 0.0029038936 0.025342803
-0.01879728 0.061273135 0.032884773 -0.039182357 0.027413461 0.038145076 0.05957531 0.024133561
-0.038126487 0.022454519 0.051202256 -0.016487481 0.00059131184 -0.024562726 -0.060251944 -0.022233015
0.04483138 0.025638135 0.05525579 -0.052834116 -0.045856323 -0.04844468 0.00021610578 -0.02225962
-0.048509676 -0.05028346 0.02471711 -0.015144104 -0.06305214 -0.04922746 -0.035666484 -0.0552117
0.006576026 0.005983406 0.0638719 0.04535375 -0.06797263 -0.033865705 -0.042158745 -0.034736115
0.033698376 -0.03135387 -0.04848162 -0.014301781 0.07472627 -0.05526034 0.013311301 0.016000025
0.012935978 0.07017766 -0.0071663004 0.06476025 -0.059834547 0.011202888 0.014896214 -0.009390836
-0.08265405 0.015649987 0.052103013 -0.0017685519 -0.026603976 0.029663226 0.016407574 -0.061801687
0.019142142 -0.04782935 -0.052142456 -0.021719389 0.04031999 0.021973843 -0.069117785 -0.0045095007
0.019208565 0.04417927 -0.02068352 0.03347415 0.014034216 -0.06223023 -0.03393587 -0.025738982
0.052698135 -0.025956599 -0.037450165 -0.051562287 -0.043640144 -0.009339097 0.018004412 0.005976061
00000000: d25f 34bd be74 423d 6236 463d e272 203d
00000010: be5f 1c3d af91 523c 5882 b0bc 609f f93c
00000020: 184a 713c 4c6d 3d3d 965a e7bb ba14 81bd
00000030: a48b 62bd 793d bb3c 7fb4 00bc 9e61 d83c
00000040: d92b 8c3d 8950 92bd 83dd 9abc cdb5 5a3d
00000050: 33cb ac3c fc88 01bd 70f4 92bc 7c09 61bd
00000060: 3706 c83c 4522 f1bc 8f15 62bc 249b cfbc
00000070: 9134 603d b57a 913c 12d2 01bd 1cf6 d8bc
00000080: 396c 3b3d e66b 063d 67f1 a93c 0f4e 3c3d
00000090: 7cc0 653d 987a 193d 0657 9fbb af31 a6bc
000000a0: 6038 853b b60f 1bbd 26f2 53bd b7a6 1a3c
000000b0: 016f 0fbd 1b1b 40bd a95f 83bd 2c39 14bd
000000c0: fc58 343d 19a9 1abc ff40 73bd 2f49 af3c
000000d0: e4dc c4ba 07d1 293d c27b 763d 4ece 8d3c
000000e0: 1c87 54bd 775f ffbc 1363 40bd 46fe 393d
000000f0: a7a6 2e3d ff2f 463d 3060 b2bb 607c 343c
00000100: 6aae 9c3d cbfe e43c bf7c afbc 6a05 8f3c
00000110: 54e1 743d 8ee5 143d f109 ab3c 4fc0 8a3d
00000120: f048 c4bc 7ef8 52bb 1f65 62bd f97c 29bd
00000130: 94b8 4c3d 4dce 223d 1576 103d 8af7 163d
00000140: 05ef f7bc 685b 063d 64bc 373d 6429 db3b
00000150: 6f04 83bd b9db 213d a67c 3bbc 07a3 27bc
00000160: aaff 02bd 1d64 6fbd 9b8f 443c 8a78 7ebd
00000170: 86c5 a53d 5297 97bc 8b32 ebbc 7cc1 05ba
00000180: f314 923d ecef bebc 47fc 44bd 37eb 36bc
00000190: b35e d13a 4327 c1bc 6d33 e13b 3610 843d
000001a0: bda7 b5bc bfe6 123d e783 1e3d 7e0e 1e3d
000001b0: f0aa 18bd ef2f f0bc 2045 8e3d 654a 5d3b
000001c0: fb68 d1bc 0a1a 40bd 271b 9db9 c49b c8bc
000001d0: 4d00 b2ba d9d6 703d 5202 2f3d 00fa 873b
000001e0: 044c 67bd 75d8 6e3c ee0e 193d e6a9 443d
000001f0: 374d 313d de04 a83b 556b 49bc 6391 e03b
00000200: 2908 e93c 8158 25bd 7610 29bd de92 ccbc
00000210: e336 18bd f0e0 cdba 76e4 0e3c a84d 8cbc
00000220: 3502 72bc 2165 55bd 9460 80bb 1bb3 423d
00000230: aae2 813d 9f33 efbc 5662 e7bb aa50 ebbc
00000240: 83e6 a6bd 4a95 773d 15b9 8ab9 96d7 8fbd
00000250: 1113 b5bc 1f7e ed3c fe71 8c3c b93d 7c3d
00000260: 2c14 9ebc c8df f93c 2108 153c dff4 073d
00000270: b722 3cbd 9d0d b8bb b5ac eb3c 23cf 0b3d
00000280: 9fa7 f9bc eb14 1abd df8f 90bc 9535 4dbd
00000290: e5f0 52bd 5033 19bd 404f 3e3b b69b cf3c
000002a0: c1fc 99bc 8af9 7a3d 2fb2 063d ae7d 20bd
000002b0: 3292 e03c 033e 1c3d 3e05 743d bfb3 c53c
000002c0: 852a 1cbd 8af2 b73c 75b9 513d c110 87bc
000002d0: 4402 1b3a c537 c9bc beca 76bd 0322 b6bc
000002e0: 1ca1 373d 1107 d23c e553 623d 9668 58bd
000002f0: d7d3 3bbd ee6d 46bd 749a 6239 ce59 b6bc
00000300: 15b2 46bd 08f6 4dbd 897b ca3c fa1e 78bc
00000310: 7b21 81bd bca2 49bd 0517 12bd aa25 62bd
00000320: b47b d73b 7310 c43b 45cf 823d dbc4 393d
00000330: 3c35 8bbd c4b6 0abd a6ae 2cbd 7547 0ebd
00000340: 4f07 0a3d ea6c 00bd aa94 46bd 0452 6abc
00000350: 160a 993d ab58 62bd a517 5a3c 7c12 833c
00000360: 6df1 533c 4eb9 8f3d 49d3 eabb 06a1 843d
00000370: 1215 75bd 518c 373c 400f 743c 05dc 19bc
00000380: 8746 a9bd 6734 803c f869 553d c1ce e7ba
00000390: 95f0 d9bc 4b00 f33c 2d69 863c c423 7dbd
000003a0: fbcf 9c3c b5e8 43bd 5493 55bd dcec b1bc
000003b0: 9326 253d 7d02 b43c a08d 8dbd 6fc4 93bb
000003c0: 485b 9d3c 52f5 343d 7c70 a9bc 311c 093d
000003d0: c5ef 653c 20e5 7ebd 5700 0bbd 8fda d2bc
000003e0: 00da 573d efa2 d4bc 5865 19bd fa32 53bd
000003f0: 02c0 32bd 0303 19bc fd7d 933c d5d2 c33b

action_model._discrete_distribution.branches.0.bias f4 [2]
-0.015215868 0.015215868
00000000: fa4b 79bc fa4b 793c
