Assets/Prefabs/MoveToBall-Easy.onnx (onnx, 72799 bytes, 6 tensors)

network_body._body_endoder.seq_layers.0.weight f4 [128, 6]
0	0x3e988e7f	0.29796216
1	0xbec884e6	-0.39163893
2	0x3ec5f33f	0.38662145
3	0x3e6f73cc	0.23384017
4	0xbedb3068	-0.4281037
5	0xbf0c76d7	-0.54868835
6	0xbec134cd	-0.37735596
7	0x3e2835a5	0.16426714
8	0x3ec043a9	0.3755162
9	0xbe08909f	-0.13336419
10	0xbf4539bc	-0.7704122
11	0x3ed4938d	0.41518822
12	0x3e18f6a8	0.14937842
13	0x3e8daea8	0.27672315
14	0x3e9a2253	0.30104312
15	0x3f1443ce	0.5791596
16	0x3e84531c	0.25844657
17	0xbdb20f08	-0.08694273
18	0xbe57dd05	-0.21080406
19	0xbe4986b6	-0.19680294
20	0xbf298b15	-0.6622785
21	0x3ebede66	0.37279052
22	0xbe056547	-0.13026915
23	0xbdf959ea	-0.12175353
24	0x3fa29f16	1.2704799
25	0x3e826d0c	0.2547382
26	0x3e207873	0.15670948
27	0xbeaedbbc	-0.3415202
28	0xbe9faba1	-0.3118563
29	0x3ef7bcd7	0.4838626
30	0xbd08467d	-0.033270348
31	0x3e157da2	0.14598706
32	0x3e579b3f	0.21055315
33	0x3ebcf719	0.3690727
34	0x3d9134a2	0.07090117
35	0xbeb4be58	-0.3530147
36	0xbec4082c	-0.38287485
37	0xbddba954	-0.10725656
38	0x3d3bb669	0.045828257
39	0xbbbc051d	-0.0057379142
40	0xbd502cbf	-0.050823923
41	0x3d982601	0.07429124
42	0xbfa55332	-1.2916014
43	0xbd02c622	-0.031927235
44	0x3e894b9c	0.26815498
45	0x3e3ea215	0.18616517
46	0x3f0a2daa	0.5397593
47	0x3f09318f	0.53591245
48	0xbd01c33a	-0.031680323
49	0xbf0198d2	-0.5062381
50	0x3e9b71ca	0.30360252
51	0xbf18bb73	-0.59661025
52	0x3e75610d	0.23962803
53	0xbe7b09c8	-0.2451545
54	0xbe33629d	-0.17518087
55	0xbf29e79e	-0.66369045
56	0x3e06a3e8	0.13148463
57	0x3f18efbd	0.5974081
58	0x3ef411e6	0.47669905
59	0x3e002534	0.12514192
60	0x3e82391b	0.25434193
61	0xbf8b9939	-1.0906135
62	0x3f8b69fd	1.089172
63	0xbf33629b	-0.70072335
64	0xbf026c08	-0.5094609
65	0xbdc54825	-0.09632901
66	0x3e94f91a	0.290963
67	0x3e9ad170	0.30237913
68	0xbede6197	-0.4343383
69	0x3de9f13e	0.114229664
70	0xbe100790	-0.14065385
71	0x3e880b60	0.26571178
72	0xbf410eca	-0.7541319
73	0x3de93060	0.1138618
74	0x3efe42e8	0.4966042
75	0x3e851542	0.2599278
76	0xbe935fa7	-0.28783914
77	0x3ddac338	0.10681766
78	0xbedc14d3	-0.42984638
79	0x3e6dde40	0.23229313
80	0xbed4e89a	-0.4158371
81	0x3f04f769	0.5194002
82	0x3ba6cca0	0.005090311
83	0x3c6cf618	0.01446297
84	0x3f437f5e	0.7636622
85	0xbe68776a	-0.22701803
86	0x3dce45de	0.1007192
87	0x3ee948d4	0.45563376
88	0xbe598f56	-0.21246085
89	0xbde6f732	-0.112776175
90	0xbda10132	-0.07861556
91	0x3e4414a5	0.191485
92	0x3dd94666	0.106091306
93	0xbf6a6550	-0.9156084
94	0xbe503f11	-0.20336558
95	0xbc389d6b	-0.011268
96	0x3d926c16	0.07149522
97	0x3dd56d28	0.104212105
98	0xbd03447c	-0.032047734
99	0xbf233bfb	-0.637634
100	0x3e873313	0.26406154
101	0x3f3b9811	0.7327891
102	0x3e875688	0.26433206
103	0x3f018351	0.50591
104	0x3eaebce7	0.34128496
105	0x3e424459	0.18971385
106	0x3e0ad218	0.13556707
107	0xbd9ac4df	-0.075570814
108	0xbeeb1ffb	-0.45922837
109	0xbdc478c3	-0.09593346
110	0x3e85d50f	0.26139113
111	0x3f14b7b4	0.5809281
112	0xbe7f417c	-0.24927324
113	0x3edee1cb	0.4353164
114	0x3e81cb44	0.25350392
115	0x3e811bc2	0.2521649
116	0xbe966256	-0.293719
117	0xbe7df281	-0.24799539
118	0xbd8af3d0	-0.06784785
119	0xbf39f348	-0.7263684
120	0xbd0c5c30	-0.034267604
121	0x3f808323	1.004002
122	0x3f036816	0.513307
123	0xbcd575c9	-0.02605714
124	0x3db6119e	0.08890079
125	0xbe2c199a	-0.16806641
126	0xbf1336bb	-0.5750539
127	0x3ebd3c20	0.36959934
128	0xbd1f4282	-0.038881786
129	0x3f67f9f8	0.906158
130	0x3d7de0df	0.061982032
131	0xbd97a8e9	-0.07405264
132	0xbed2f001	-0.41198733
133	0x3e44eafa	0.19230261
134	0xbe3b4650	-0.18288541
135	0x3ab6d151	0.0013947879
136	0x3dd3cb77	0.10341542
137	0xbe017fc8	-0.12646401
138	0xbe9a627e	-0.3015327
139	0xbee237b6	-0.4418313
140	0x3e12d36c	0.14338464
141	0xbe230864	-0.1592117
142	0x3f1d9b34	0.61564946
143	0xbdfc3e29	-0.123165436
144	0x3e82015c	0.25391662
145	0x3f252f76	0.64525545
146	0x3de44675	0.11146251
147	0xbdfba356	-0.12287013
148	0xbea6fa19	-0.32612684
149	0x3eb807e0	0.35943508
150	0x3f3e42f8	0.74320936
151	0x3b9249b2	0.0044643516
152	0x3e1cae85	0.15300949
153	0x3f16b907	0.5887608
154	0xbd292247	-0.041292455
155	0x3d1dec11	0.03855521
156	0x3ce9ec61	0.028555097
157	0xbe9a0f59	-0.30089834
158	0x3c9ac7a4	0.018894024
159	0x3e12ffa6	0.14355335
160	0x3dee5632	0.11637534
161	0xbf319a3a	-0.69375956
162	0x3e7454f8	0.23860538
163	0xbf0dba28	-0.55362177
164	0x3d1a72ea	0.037707247
165	0xbe7cf8bf	-0.24704264
166	0x3efa8395	0.48928514
167	0x3eb18603	0.34672555
168	0xbebc1026	-0.3673107
169	0x3d7e7640	0.06212449
170	0xbe65ed4f	-0.22453807
171	0xbeb1695f	-0.34650704
172	0xbd9d1654	-0.076702744
173	0x3e7185ec	0.23586243
174	0x3f6fd2d5	0.9368108
175	0xbec30d8d	-0.38096276
176	0xbe267f61	-0.16259529
177	0x3e288082	0.16455272
178	0xbe47363b	-0.19454281
179	0xbcbf03aa	-0.023317177
180	0xbb603295	-0.0034209837
181	0xbda416c3	-0.08012154
182	0x3f91a4be	1.13784
183	0xbebb2da9	-0.36558273
184	0xbe8f1f45	-0.27953544
185	0x3e88a618	0.2668922
186	0xbf7c14dc	-0.9846933
187	0x3cb280c2	0.021789912
188	0xbe8db914	-0.27680266
189	0xbec48631	-0.3838363
190	0xbdd1427a	-0.102177575
191	0xbd097836	-0.033561908
192	0xbf11a110	-0.56886387
193	0xbe7ab235	-0.24482043
194	0x3e44a702	0.19204333
195	0x3f359518	0.70930624
196	0xbe8a439b	-0.27004704
197	0xbf39fbcb	-0.7264983
198	0x3e7b0734	0.24514467
199	0xbec3a64a	-0.38212806
200	0x3ef23fd0	0.4731431
201	0x3e753450	0.23945737
202	0x3dce9ecb	0.10088881
203	0xbf1f5b1c	-0.62248397
204	0xbf11401d	-0.56738454
205	0x3ec2b067	0.3802521
206	0x3ea60808	0.32428002
207	0x3e638619	0.22219123
208	0xbd7ef825	-0.062248368
209	0xbdfcd09f	-0.12344479
210	0x3ef13eea	0.47118312
211	0xbe326067	-0.17419587
212	0xbf0d205c	-0.551275
213	0xbe96066b	-0.29301772
214	0x3f25c6ff	0.6475677
215	0xbd8813b5	-0.06644384
216	0x3e8f4317	0.27980873
217	0x3e7b21ee	0.24524662
218	0x3eb5b759	0.35491446
219	0xbdc27f89	-0.09496982
220	0xbead6a7e	-0.3387031
221	0x3c60dd88	0.013724692
222	0x3e040c48	0.1289531
223	0xbf3625fd	-0.71151716
224	0x3dbf578a	0.093428686
225	0x3e0de0f8	0.1385535
226	0x3ecb30d6	0.39685696
227	0x3dbad82a	0.09123261
228	0xbbdbf6c8	-0.006712768
229	0x3e08d240	0.13361454
230	0x3e15a7df	0.14614819
231	0x3d8e2680	0.06940937
232	0x3f1284d8	0.57233953
233	0x3f40706a	0.7517153
234	0xbe44dc9f	-0.19224785
235	0x3d8c676e	0.06855665
236	0x3ea98e7f	0.33116528
237	0x3f444d65	0.76680595
238	0xbdd7fa47	-0.105457835
239	0xbe0b78ac	-0.13620251
240	0x3e0c91a3	0.13727431
241	0xbd006208	-0.03134349
242	0x3d1ab174	0.03776689
243	0x3f69c67b	0.9131848
244	0x3e7e6d1c	0.2484631
245	0xbe887341	-0.26650432
246	0xbec9f380	-0.39443588
247	0xbe7f7e4e	-0.24950525
248	0x3eea78bb	0.45795235
249	0x3ea0d57e	0.31412882
250	0x3d8afb8d	0.06786261
251	0xbe1b172f	-0.15145563
252	0xbf2deb81	-0.67937475
253	0x3eda4eb5	0.42638174
254	0xbdf63cf6	-0.12023346
255	0x3eeced43	0.46274766

network_body._body_endoder.seq_layers.0.bias f4 [128]
0	0xbc82044a	-0.015871186
1	0xbc612735	-0.013742258
2	0xbbc4f1b7	-0.00601026
3	0x3c3ec4f8	0.011643641
4	0x3c1ff7de	0.009763686
5	0x3a8fd9f0	0.0010974985
6	0xbbecb018	-0.0072231404
7	0x3cacdb25	0.02110059
8	0x3bb31c30	0.0054660067
9	0xbc25ef60	-0.010127872
10	0xbbed1599	-0.0072352407
11	0x3b2a9f66	0.002603495
12	0xbc1b640a	-0.0094843
13	0xbc8c62a9	-0.017136889
14	0xbb658a41	-0.0035025033
15	0x3a6080b1	0.00085640984
16	0x3bb8c24e	0.0056383973
17	0x3a9b1b52	0.0011833704
18	0xbc817ce3	-0.015806621
19	0xbbc80edf	-0.0061052884
20	0xbc0945fe	-0.008378504
21	0x3c5acde2	0.01335475
22	0x3bf04caf	0.00733336
23	0x3c785368	0.015156604
24	0xbaf1a12b	-0.0018434873
25	0x3bfa230b	0.007633572
26	0xbc6a8de9	-0.014316061
27	0x3c43ee8b	0.011958729
28	0xbbed85dd	-0.0072486238
29	0xbc4e717e	-0.012600301
30	0xbc073450	-0.008252218
31	0xbb7ee3a9	-0.003889302
32	0x3b624054	0.0034523206
33	0xbc891be6	-0.016736936
34	0x3c5f7c84	0.013640527
35	0x3beb52cd	0.0071815015
36	0x3b9f83d8	0.004868012
37	0x3ca12a93	0.019673621
38	0xbc1223eb	-0.008919696
39	0xbc057b67	-0.008147097
40	0xba73c977	-0.0009299735
41	0x3bb954f9	0.0056558815
42	0xbadd8380	-0.0016900152
43	0xbbda58cb	-0.006663417
44	0xbc34e392	-0.011040585
45	0x3c602879	0.013681524
46	0xbae7efb7	-0.0017695342
47	0xbc81b69c	-0.015834145
48	0xbbb02649	-0.0053756577
49	0xbca89ee6	-0.020583581
50	0x3c0e4a18	0.0086846575
51	0xbb787a3e	-0.003791466
52	0xbc722ba8	-0.014780916
53	0x39e9553a	0.00044504722
54	0xba6714c1	-0.0008815043
55	0xbb532f67	-0.00322243
56	0x3b5d21fe	0.0033742185
57	0xbcd90b19	-0.02649455
58	0x3c3ffe09	0.011718282
59	0x39c9cdd0	0.0003849105
60	0x3ce36245	0.02775682
61	0x3cce8e50	0.025214344
62	0xbc81f34a	-0.01586308
63	0x3ce0c398	0.027437016
64	0x3c2da6d2	0.010598855
65	0x3c338e00	0.010959148
66	0xbbb1654e	-0.005413688
67	0xba2f630a	-0.0006690478
68	0xbc44afd7	-0.012004814
69	0x39a6a6b4	0.0003178619
70	0x3c206975	0.009790768
71	0x3c46a474	0.01212417
72	0xbb171086	-0.002305062
73	0x3ba63cfe	0.005073189
74	0x3c9ba9fe	0.019001957
75	0xbba93a7d	-0.005164443
76	0xbcbd69a5	-0.023121664
77	0xbb0cde0e	-0.002149466
78	0x3be39721	0.006945506
79	0x3cb25491	0.02176884
80	0x3bf67056	0.0075207157
81	0xbcb00c47	-0.02149023
82	0xbbafefac	-0.0053691473
83	0x3c16622b	0.0091786785
84	0x3aff4323	0.0019474964
85	0x3c9549cd	0.018223668
86	0xbc8f82d1	-0.017518433
87	0x3c5f71a8	0.013637938
88	0x3a872bf6	0.0010312784
89	0xbc3801e9	-0.011230924
90	0xba9bab31	-0.001187658
91	0xbc3593f9	-0.011082643
92	0xbca8fc29	-0.020628052
93	0xb9f9c09d	-0.0004763649
94	0xbc7a1fe2	-0.0152663905
95	0xbcd712d0	-0.026254088
96	0x3bf16c06	0.0073676137
97	0xbc80b8a9	-0.015713053
98	0x3c4877e2	0.012235614
99	0x3bb7150e	0.0055872267
100	0xbc0f80a5	-0.008758699
101	0x3b5055fa	0.0031789527
102	0xbccad084	-0.024757631
103	0xbc806424	-0.01567275
104	0x3c69d4fb	0.01427197
105	0x3c1c7217	0.0095486855
106	0x3bbc1356	0.0057396097
107	0xbb87e6b7	-0.0041473764
108	0x3c16dc69	0.009207823
109	0x3c8373f5	0.016046504
110	0x3b521b51	0.003205974
111	0x3c23ac53	0.009989816
112	0xbbef2923	-0.007298605
113	0xbb5b7f6f	-0.0033492704
114	0xbba9d83a	-0.005183247
115	0x3c0ac3e2	0.008469554
116	0x3bcb9871	0.006213241
117	0xbc6e0123	-0.014526638
118	0x3bb28f5a	0.0054492177
119	0x3aee6a75	0.0018189686
120	0xb993ffc5	-0.00028228588
121	0xbb9905dd	-0.0046698884
122	0x3be76801	0.007061959
123	0xba5faa38	-0.00085321395
124	0x3ca21c24	0.01978881
125	0xbbfbae47	-0.0076806876
126	0x3c601ae9	0.013678291
127	0x3ba5e5b4	0.005062783

network_body._body_endoder.seq_layers.2.weight f4 [128, 128]
0	0x3d118af9	0.035532925
1	0xbde0af18	-0.109708965
2	0xbdd3942d	-0.10330997
3	0xbd650a97	-0.055918302
4	0x3d18f04f	0.03733855
5	0x3dd2cda5	0.1029313
6	0xbdd1708f	-0.10226547
7	0x3e4c5410	0.19953942
8	0xbe1f6f7e	-0.15569875
9	0xbe0aa02a	-0.1353766
10	0xbd074750	-0.033026993
11	0xbd3a57b7	-0.045493808
12	0xbddd6d0a	-0.10811813
13	0xbdb5159b	-0.088420115
14	0xbd4d5e2d	-0.05013864
15	0x3dd24e12	0.10268797
16	0x3e81e304	0.25368512
17	0x3e00a00a	0.1256105
18	0xbddbdf35	-0.10735933
19	0x3d245306	0.04011824
20	0xbe1f87ae	-0.15579101
21	0x3e584d93	0.21123342
22	0x3c2084b0	0.00979726
23	0x3e14886c	0.14505166
24	0xbd8b493b	-0.06801077
25	0xbd75b014	-0.059982374
26	0xbca4e227	-0.02012737
27	0x3d88c657	0.06678455
28	0x3d4cd5ff	0.05000877
29	0xbdc4f6b6	-0.09617369
30	0xbd64d6f9	-0.055869076
31	0xbbb2555e	-0.0054423055
32	0xbd565eee	-0.052336626
33	0x3d6ee4b2	0.05832357
34	0xbdabba18	-0.08385104
35	0xbc66e3c1	-0.014092387
36	0xbe09e45d	-0.1346602
37	0xb803a568	-3.138688e-05
38	0xbdd4904b	-0.10379084
39	0xbd897a0b	-0.06712731
40	0xbd5c9999	-0.05385742
41	0x3cf5e4db	0.030016353
42	0xba955d3f	-0.0011395587
43	0xbdba9ec9	-0.09112317
44	0x3cb61c8a	0.022230405
45	0x3daeb3fe	0.085304245
46	0xbd8e713b	-0.06955191
47	0xbb954386	-0.0045551686
48	0xbe2d2094	-0.16906959
49	0x3d3f0a90	0.046640933
50	0xbdb4559a	-0.0880539
51	0x3c81b961	0.015835466
52	0x3db5ccfc	0.08876988
53	0xbdc984ba	-0.09839769
54	0xbcd58bdc	-0.026067667
55	0xbdb3b9e1	-0.08775688
56	0x3d3b1243	0.045671713
57	0x3d5aedad	0.05344932
58	0xbca43118	-0.020042941
59	0xbd821099	-0.06350822
60	0x3d0d9d53	0.034573864
61	0x3de66019	0.11248798
62	0xb98825fa	-0.00025968236
63	0xbd0c6042	-0.034271486
64	0xbdcb2302	-0.099187866
65	0xbcbfe929	-0.02342661
66	0xbd606d62	-0.054791816
67	0xbd4472b4	-0.047960952
68	0x3e18d1d9	0.149238
69	0xbc1632c1	-0.009167374
70	0x3dee28f9	0.11628909
71	0x3d6ee0ea	0.058319964
72	0xbd6081a3	-0.05481113
73	0xbc76b3d5	-0.015057524
74	0x3b757ba1	0.0037457722
75	0xbd475ca3	-0.04867233
76	0xbd1543a8	-0.036441475
77	0xbddcc3fe	-0.1077957
78	0x3d9a65d7	0.07538956
79	0x3dee2850	0.11628783
80	0x3d45664b	0.048193257
81	0xbd9c42ce	-0.076299295
82	0x3e2568fc	0.1615333
83	0x3ddd5e59	0.10809011
84	0xba2b333d	-0.00065307674
85	0x3dd81a25	0.10551862
86	0x3cb78c25	0.022405693
87	0xbc3c2371	-0.011483059
88	0xbc9e82d5	-0.019349495
89	0xbdda44f2	-0.106576815
90	0x3c984e70	0.01859209
91	0x3d207caa	0.03918139
92	0xbd86c4bc	-0.06580493
93	0xbd2ceeca	-0.042219914
94	0x3db0c474	0.086312205
95	0x3da3e607	0.080028586
96	0xbdce83a7	-0.100837044
97	0x3e02d4a8	0.12776434
98	0xbd2eb62c	-0.0426542
99	0x3bb93a12	0.0056526745
100	0xbc430ae7	-0.011904455
101	0x3d0b9b1f	0.034083482
102	0xbe3c7ec1	-0.18407728
103	0xbdafb765	-0.085799016
104	0x3e2d162f	0.16902994
105	0xbc960047	-0.01831068
106	0xbc8420a8	-0.016128853
107	0xbd7b3b33	-0.061335754
108	0x3de1d4d1	0.1102692
109	0x3dc8ddc7	0.09807926
110	0xbb5b12f4	-0.0033428045
111	0x3e155b7f	0.14585684
112	0x3cbf5adb	0.023358753
113	0x3d2919a8	0.041284233
114	0xbd31b7d3	-0.0433882
115	0x3c02e33d	0.007988748
116	0x3bfafe08	0.0076596774
117	0x378cdb38	1.6791382e-05
118	0x3c136e81	0.008998514
119	0x3c9be3ab	0.019029459
120	0x3db6e094	0.08929554
121	0xbe130500	-0.14357376
122	0xbd44d96f	-0.048058923
123	0xbc7f9586	-0.015599614
124	0x3dbbf434	0.091774374
125	0xbdbef0bc	-0.0932326
126	0x3e0622c8	0.13099205
127	0xbd02151b	-0.03175841
128	0x3cab4741	0.020908
129	0x3dc5db90	0.09661019
130	0x3c32bfcb	0.010909985
131	0x3ce38c1b	0.027776768
132	0xbc6e1dff	-0.014533519
133	0xbcb0e03b	-0.021591296
134	0x3d230d76	0.03980776
135	0xbd59eeef	-0.05320638
136	0xbd0a511f	-0.03376877
137	0x3d466237	0.04843351
138	0x3ce1da95	0.027570048
139	0x3c80debb	0.015731206
140	0xbda08a29	-0.07838852
141	0xba3e5761	-0.0007260945
142	0x3bacea98	0.005276989
143	0x3d6f1c2b	0.058376472
144	0x3b13cfad	0.0022554204
145	0x3e527cdb	0.20555441
146	0xbddce24d	-0.10785351
147	0xbadb9c92	-0.0016755036
148	0xbe6f597e	-0.23373982
149	0xbe44b240	-0.19208622
150	0xbc8321dc	-0.016007356
151	0xbbb10a2e	-0.005402825
152	0xbd4ddfb5	-0.05026217
153	0xbd9070bc	-0.070527524
154	0x3db2c0ac	0.087281555
155	0xbe1eb42b	-0.15498416
156	0xbd3bb400	-0.04582596
157	0x3c6c18d9	0.014410221
158	0xbd3eac46	-0.04655101
159	0x3e394faa	0.18096796
160	0xbba98699	-0.005173516
161	0xbd31d08f	-0.043411788
162	0x3dec17ff	0.115280144
163	0xbe079e5a	-0.13244
164	0x3d1b4a98	0.037912935
165	0x3c8deafd	0.017323965
166	0xbe65eb55	-0.22453053
167	0x3cd8ca35	0.026463607
168	0xbdbbe542	-0.09174587
169	0x3d68eb86	0.056865238
170	0x3dde9769	0.10868723
171	0xbd3532e2	-0.04423798
172	0xbe4cc83e	-0.19998261
173	0x3ddbd708	0.10734373
174	0xbdb8605f	-0.09002756
175	0x3dbf6c2c	0.09346804
176	0x3e07febc	0.13280767
177	0x3df14d39	0.11782307
178	0xbdddd708	-0.108320296
179	0x3e129178	0.14313304
180	0x3e0a4d1d	0.13505979
181	0xbd7819d6	-0.060571514
182	0x3da77a49	0.08177621
183	0x3c913872	0.01772711
184	0xbe339729	-0.17538132
185	0xbda09b58	-0.078421295
186	0xbca9d7f8	-0.020732865
187	0xbdb85b9e	-0.090018496
188	0x3c15caa0	0.009142548
189	0x3ce0eb34	0.027455904
190	0xbd75ee14	-0.060041502
191	0x3dc718e8	0.09721547
192	0x3d1b8d1e	0.037976377
193	0xbdebd04a	-0.11514337
194	0x3d5441a4	0.051820412
195	0x3dd2347e	0.10263918
196	0x3db6e683	0.08930685
197	0xbd50dd5c	-0.050992355
198	0x3de1f529	0.11033089
199	0xbe28c54d	-0.16481514
200	0x3dc87826	0.097885415
201	0x3dea46d5	0.114392914
202	0xbe23727b	-0.1596164
203	0xbcfc1f62	-0.030776683
204	0x3dcf0bc6	0.101096675
205	0x3d73372f	0.0593788
206	0xbb85f134	-0.0040875915
207	0xbd10a5de	-0.035314433
208	0x3a47a8c7	0.00076163973
209	0xbe38bbc4	-0.18040377
210	0x3d3a49dd	0.045480598
211	0xbd5d7d8c	-0.05407481
212	0xbd91de2b	-0.07122453
213	0x3d1121a0	0.035432458
214	0x3d016942	0.031594522
215	0xbe0b87db	-0.13626043
216	0x3d941856	0.07231204
217	0x3dfc3fe0	0.12316871
218	0xbd08ac2b	-0.033367317
219	0x3cfc4093	0.03079251
220	0x3e34faea	0.17673841
221	0xbc81e1bd	-0.01585471
222	0xbe08c30a	-0.13355651
223	0xbe0e9d69	-0.13927235
224	0x3dd6d061	0.10488964
225	0x3c3e5a28	0.011618175
226	0x3de1e592	0.11030115
227	0xbc0f4160	-0.008743614
228	0x3d31d350	0.043414414
229	0x3c6467fd	0.013940808
230	0xbddec3ba	-0.10877176
231	0xbd83da56	-0.06438129
232	0xbdd7faea	-0.10545905
233	0xbc9081d2	-0.017640028
234	0xbd4d2061	-0.050079707
235	0xbd9e3280	-0.07724476
236	0x3d9b5d84	0.07586196
237	0xbd834570	-0.064097285
238	0x3e0b3129	0.13592972
239	0xbd5b6f1c	-0.05357276
240	0x3e0a4188	0.1350156
241	0x3d5841d7	0.052797165
242	0xbcb2f20d	-0.021843934
243	0x3decd87c	0.115647286
244	0x3d09c284	0.03363277
245	0x3e029796	0.12753138
246	0x3d299373	0.041400384
247	0x3d5c6b71	0.0538134
248	0xbe1a678b	-0.15078561
249	0xbb9958ea	-0.004679789
250	0xbdec4634	-0.11536828
251	0xbccace5f	-0.024756609
252	0x3ce5f08c	0.028068803
253	0x3dbe10e8	0.09280568
254	0x3d9a5bab	0.075370155
255	0xbd1f858d	-0.038945723

network_body._body_endoder.seq_layers.2.bias f4 [128]
0	0x3c8e511c	0.01737266
1	0xbc04f1b7	-0.00811427
2	0x3b813da6	0.0039441166
3	0xbb7c143f	-0.0038464216
4	0x3b71e629	0.0036910868
5	0x3bce21ae	0.006290636
6	0xba54b1db	-0.0008113661
7	0x3c67ae56	0.014140686
8	0x38b5df5b	8.672356e-05
9	0xbb098559	-0.0020984022
10	0xbb9cee5f	-0.0047891582
11	0x395b769e	0.00020929656
12	0xbb5898d5	-0.003305008
13	0xbb4c5d14	-0.0031183409
14	0x3bcc070a	0.006226425
15	0xbb9520aa	-0.004551013
16	0x3ba85470	0.005137019
17	0xbc30a536	-0.010781577
18	0x3c2adf89	0.0104292715
19	0xbb794b05	-0.00380391
20	0x3c3d2978	0.011545531
21	0xba9f17b5	-0.0012137803
22	0x3bac795c	0.0052634906
23	0x3be3e153	0.006954351
24	0x3b9c022a	0.004761
25	0xbb4b29c5	-0.0031000238
26	0xb925a9c2	-0.00015798866
27	0xbafce9b1	-0.001929572
28	0xbbd63418	-0.006536972
29	0x3c17b678	0.0092598125
30	0x3be20d62	0.006898568
31	0xbb27c92a	-0.002560208
32	0xbaa744d1	-0.0012761598
33	0x3bfa4f3c	0.00763884
34	0x3bc9f258	0.006162923
35	0x3ae5f259	0.0017543539
36	0xbb2f2410	-0.0026724376
37	0x3c83d12b	0.01609095
38	0x3c654b10	0.013994947
39	0xbaf1c0a7	-0.0018444256
40	0x399425c6	0.00028256903
41	0x3bbc2af6	0.005742426
42	0x3c3e6de9	0.011622884
43	0x3b338ae8	0.0027396027
44	0xbb6ecdb8	-0.0036438536
45	0x3b5dd30b	0.0033847715
46	0xbb028bf0	-0.0019919835
47	0x39e224dd	0.00043133544
48	0x3b0bfa37	0.0021358856
49	0xb7dc1791	-2.6237018e-05
50	0xbb5a2c17	-0.003329044
51	0xba28cb43	-0.000643898
52	0x3a58f13b	0.0008275692
53	0x3c0cf867	0.008604146
54	0x3b7f6df7	0.0038975456
55	0x3bc4965c	0.0059993695
56	0x3b9e1e2c	0.004825374
57	0x3adb5036	0.0016732279
58	0x3ae937c4	0.0017793109
59	0x39fabc94	0.00047824217
60	0xbb7e43f4	-0.0038797827
61	0xba83c286	-0.0010052479
62	0x3a98029b	0.0011597456
63	0x3b4272cc	0.0029670475
64	0x3bab1e0e	0.0052220887
65	0xbc329667	-0.0109001165
66	0x3bc18fdc	0.005907042
67	0xbb896c16	-0.004193793
68	0xbad477ec	-0.0016210056
69	0x3c7da9d9	0.015482389
70	0x3c21a0db	0.009865011
71	0x3b3294e5	0.0027249393
72	0xbbdd3ee9	-0.0067518842
73	0x3c86c481	0.016451122
74	0xb9aa427c	-0.00032474461
75	0xbc071dbf	-0.008246838
76	0x3bc16299	0.0059016463
77	0xbb6ff018	-0.0036611613
78	0x3b979a0e	0.004626519
79	0x3bd0266d	0.006352237
80	0x3ab60765	0.0013887702
81	0x3a8b81f5	0.0010643589
82	0xb92097c8	-0.00015315332
83	0xb815d03f	-3.5718313e-05
84	0xbb030ca6	-0.0019996553
85	0xbb51db7b	-0.003202169
86	0xbaaaf51b	-0.0013043018
87	0x3a885df7	0.001040398
88	0x3bc97012	0.006147393
89	0x3b5a5f86	0.0033321097
90	0x3c4f8bda	0.012667621
91	0xba800348	-0.0009766603
92	0xbbf963f7	-0.0076107937
93	0xbbaecbda	-0.0053343596
94	0x3bab78fa	0.0052329274
95	0x3a89c73c	0.0010511647
96	0x3a9410e4	0.0011296538
97	0x3b43239a	0.002977586
98	0x3c7f0b96	0.015566727
99	0xba8f1021	-0.0010914841
100	0xba3d116d	-0.00072123745
101	0x3a94fc45	0.0011366686
102	0xbaaa30fc	-0.0012984569
103	0xba3de6e2	-0.0007244182
104	0x3b798170	0.0038071536
105	0xbb624f86	-0.0034532263
106	0xba85a37e	-0.0010195819
107	0x3a86cbc3	0.0010284114
108	0x3b8241f7	0.003975149
109	0x3bbe0050	0.005798377
110	0x3b0475d2	0.0020211828
111	0xba561c05	-0.00081676274
112	0x3b51e785	0.0032028866
113	0xbb714bed	-0.0036818937
114	0xbadbf539	-0.0016781456
115	0x3bc81fa5	0.006107288
116	0x3b1bda7e	0.0023781355
117	0xbb900459	-0.0043950495
118	0x3b7ee650	0.0038894601
119	0x3c43e327	0.011956013
120	0x3c0c6b6b	0.008570532
121	0x3c239cd8	0.009986125
122	0x3b8ed98b	0.0043594292
123	0xbb360d1c	-0.002777881
124	0xbac11d24	-0.0014733416
125	0x3b3266e9	0.0027221984
126	0xbace8fb5	-0.0015759381
127	0x3c75b05c	0.014995661

action_model._discrete_distribution.branches.0.weight f4 [2, 128]
0	0xbccf1073	-0.025276398
1	0xbc86f019	-0.01647191
2	0xbd0aa219	-0.033845995
3	0xbbfc63e1	-0.007702336
4	0xbbde64e0	-0.0067869276
5	0x3c535f3d	0.012901125
6	0x399c02bb	0.00029756673
7	0x3d0fe7b6	0.035133086
8	0x3c29de66	0.010367965
9	0xbc958d28	-0.018255785
10	0xbae53e51	-0.0017489885
11	0x3bbed3ac	0.005823573
12	0x3c163f0c	0.009170305
13	0xbc0a5272	-0.008442508
14	0x3c00caab	0.00786082
15	0xbb8bc891	-0.0042658527
16	0x3c2a0d8a	0.0103792045
17	0x3c5ae95c	0.013361301
18	0xbb73c8b2	-0.003719848
19	0x3bc4d825	0.0060072117
20	0x3b7cb064	0.0038557285
21	0xbc0c9e9f	-0.00858274
22	0x3c40aace	0.011759473
23	0x3d00065f	0.031256076
24	0x3c8a1e4e	0.016860154
25	0x3bd8b55b	0.006613416
26	0xbc55bb6e	-0.013045175
27	0x3c18ca8b	0.009325634
28	0xbbc61429	-0.0060448837
29	0xbd1217a5	-0.03566708
30	0xbab6d066	-0.0013947606
31	0x3af6b95e	0.0018823554
32	0xbc000656	-0.007814011
33	0x3c3d33c1	0.011547984
34	0x3bcc5b6e	0.006236485
35	0xbc62fb2f	-0.013853832
36	0xb9159aad	-0.00014267369
37	0x3cf54ffa	0.029945362
38	0xbcc986f9	-0.024600493
39	0xbc0ec2ba	-0.008713419
40	0xb93127e3	-0.00016894894
41	0xbd001420	-0.031269193
42	0x3c8c1cbe	0.01710355
43	0xbbc5f821	-0.006041542
44	0xbc08f11a	-0.008358264
45	0xbb5554ce	-0.0032551768
46	0x3ad62fcf	0.0016341152
47	0x3bdbc010	0.0067062452
48	0x3c995255	0.018716017
49	0xbc1fa874	-0.009744752
50	0x3b155143	0.0022784031
51	0x3c4eefcb	0.012630413
52	0x3c1e747d	0.009671328
53	0xbc831ed3	-0.01600591
54	0xbc6e0ac5	-0.014528935
55	0xbb80f7e7	-0.0039358023
56	0xbc7704d7	-0.0150768375
57	0xbc76f258	-0.015072428
58	0xbc9461a4	-0.018112965
59	0x3c175828	0.009237327
60	0x3b0ae3c1	0.002119288
61	0xbb102b8a	-0.0021998608
62	0xbaf85813	-0.0018947147
63	0xbc113b7c	-0.00886428
64	0x3c1da5a9	0.009622016
65	0xbbe03151	-0.0068418165
66	0xbc262752	-0.010141211
67	0x3a83947a	0.0010038756
68	0x3ae9ba2d	0.0017831974
69	0x3c477b16	0.012175342
70	0xbc67c862	-0.014146896
71	0x3d085f2d	0.03329389
72	0x3b0fd95f	0.0021949632
73	0xbb142d51	-0.0022610018
74	0xbad71f40	-0.0016412511
75	0x3cbf283a	0.023334611
76	0xbc4b24cb	-0.012398909
77	0xbbf112d6	-0.0073569817
78	0x3cb17f7d	0.021667236
79	0xbc1d1014	-0.009586353
80	0xbbfa3460	-0.007635638
81	0xbc3dbee9	-0.011581161
82	0x3b6c8696	0.0036090962
83	0x3b4705f3	0.0030368536
84	0x3b846bd7	0.004041176
85	0xbca5266f	-0.020159928
86	0xbb6d199f	-0.0036178601
87	0x3c532eb3	0.012889552
88	0x3b2602bb	0.0025331217
89	0xbc009c5a	-0.007849777
90	0xbca804f0	-0.020510167
91	0xbc5c2736	-0.013437083
92	0x3c871186	0.016487848
93	0x3a1a9c46	0.00058979203
94	0xbcbb6573	-0.022875523
95	0x3c968071	0.018371793
96	0x3c5150f8	0.012775652
97	0x3c22d9f8	0.009939663
98	0xbbbfa6b1	-0.0058487286
99	0x3bf3dff7	0.00744247
100	0xbaed4d53	-0.001810471
101	0x3a567b47	0.0008181822
102	0x3b909070	0.0044117495
103	0xb9d679ff	-0.00040908155
104	0xbcc6542d	-0.02421006
105	0x3b1ac151	0.002361376
106	0xbc035a1f	-0.008017092
107	0xbc22b1de	-0.009930102
108	0x3c879eb1	0.016555162
109	0x3cb298e9	0.021801429
110	0xbc2acf8a	-0.010425458
111	0x3ba3f2be	0.0050033024
112	0x3c58beb1	0.013229058
113	0x3a8eab0c	0.0010884716
114	0xb97dff00	-0.00024222955
115	0xbc84c0de	-0.016205247
116	0xbba2182b	-0.0049467287
117	0x3b55f549	0.0032647422
118	0x3b988417	0.004654418
119	0x3bd60025	0.006530779
120	0xbc947b21	-0.018125119
121	0xba9965cf	-0.0011703315
122	0x3b646293	0.0034848794
123	0xbc05d1e6	-0.0081677195
124	0xbb7509ca	-0.0037389868
125	0xbc887988	-0.016659513
126	0x3b11f069	0.002226854
127	0x3cb47aa0	0.022031128
128	0x3ce06c15	0.027395288
129	0x3c50399a	0.012709046
130	0xbb1c0e8c	-0.0023812382
131	0xbc4a4646	-0.012345856
132	0x3c3fcf46	0.011707133
133	0xbca3e276	-0.020005446
134	0x3be1736f	0.006880216
135	0xbd2975c8	-0.04137209
136	0xbb024330	-0.0019876473
137	0xba90e7fd	-0.0011055466
138	0xbb26bdcf	-0.0025442725
139	0xbc34f960	-0.011045784
140	0x3bda36ec	0.006659379
141	0x3b19a3b0	0.0023443513
142	0xbad95d37	-0.0016583566
143	0x3c68ab9a	0.014201069
144	0xbc5930c9	-0.01325626
145	0x3bd7f164	0.0065900553
146	0x3cb71cb3	0.022352552
147	0xbafcae49	-0.0019278015
148	0xbc36e5ca	-0.011163184
149	0x3b95b1d6	0.004568319
150	0xbc5e5529	-0.013570108
151	0xbc45155f	-0.012029021
152	0xbcdd265e	-0.026995834
153	0x3caf52e7	0.021401836
154	0x3c7248b9	0.014787846
155	0xbc216f82	-0.009853246
156	0xbb29eb67	-0.0025927664
157	0x3cee2473	0.029070115
158	0x3c951d0d	0.018202329
159	0x3bb1ec78	0.0054298006
160	0xbc848e58	-0.016181156
161	0xbbfdc331	-0.007744216
162	0xbcf17dde	-0.029478963
163	0x3c1d467d	0.009599325
164	0x3bb3a993	0.0054828613
165	0xbc9df4ba	-0.019281734
166	0x3ccb549c	0.024820618
167	0x3a9ac6ed	0.0011808552
168	0xbb442a17	-0.0029932314
169	0x3ca58e95	0.02020959
170	0xbb413d19	-0.002948588
171	0x3c05a74d	0.008157563
172	0xbaed6a30	-0.0018113311
173	0x3c96e94e	0.018421795
174	0x3bfef874	0.0077810828
175	0xbc4a8281	-0.012360216
176	0xbc27302b	-0.010204355
177	0x3b817d1b	0.0039516813
178	0x3c48958f	0.012242689
179	0xb5f487b0	-1.8218907e-06
180	0xbc1c39f3	-0.009535301
181	0x3c4e7653	0.012601453
182	0x3c0753bd	0.008259711
183	0x3c101511	0.008794085
184	0x3bbc151a	0.00573982
185	0x374ea24a	1.2316343e-05
186	0x3bfbc019	0.007682812
187	0xbbd4e00a	-0.006496434
188	0xbaf07de8	-0.001834807
189	0x3bd3edf8	0.006467577
190	0x3c275afd	0.010214564
191	0x3c284057	0.010269246
192	0xbbde400e	-0.0067825383
193	0x3c83528d	0.016030574
194	0x3c8706e4	0.016482778
195	0xbab3330d	-0.001367183
196	0x3c2e1198	0.010624312
197	0xbd1009f7	-0.035165753
198	0x3c2148ac	0.0098439865
199	0x3b2ffeb8	0.0026854705
200	0x3c867f19	0.016418027
201	0x3ca945b9	0.02066313
202	0xbbe786f7	-0.0070656496
203	0xba8a04e5	-0.0010530023
204	0x3c355ff5	0.011070241
205	0x3a8208bb	0.0009920815
206	0xbcc5e6eb	-0.024157962
207	0x3d29094c	0.04126863
208	0x3a39c324	0.0007086268
209	0x3c3776e3	0.011197778
210	0xbc0812fa	-0.008305306
211	0xbcbdbf73	-0.02316258
212	0x3a5d5990	0.0008443827
213	0xbc38d845	-0.011282031
214	0xbb2dbdb0	-0.0026510768
215	0xbb137d52	-0.0022505117
216	0xbc8f262f	-0.017474262
217	0x3c170242	0.009216847
218	0x3cb0b94b	0.02157273
219	0x3b3cdcf2	0.0028818217
220	0x38dae205	0.000104371495
221	0xba376c2a	-0.00069970137
222	0x3c6993b5	0.0142564075
223	0x3bea925e	0.0071585616
224	0xbc7517a4	-0.01495925
225	0xbc9551db	-0.018227508
226	0x3d22266c	0.039587423
227	0x3bc7c4ab	0.0060964427
228	0xbb7bd643	-0.003842727
229	0xba84b312	-0.0010124168
230	0xb9ef1861	-0.00045603796
231	0x3c7defef	0.015499099
232	0x3c9625d5	0.018328587
233	0x3c6ae4b1	0.014336751
234	0x3ab7d965	0.0014026581
235	0x39b52a39	0.0003455447
236	0xbcdabe93	-0.026702201
237	0xbcc3790d	-0.023861432
238	0x3c5f01bc	0.013611253
239	0xba9a0c80	-0.0011752993
240	0xbc49c685	-0.012315397
241	0xbab4c2b5	-0.0013790937
242	0x3be5fda3	0.0070187612
243	0x3c3187c7	0.0108355945
244	0x3c626c7e	0.013819812
245	0x3c8d7974	0.017269827
246	0x3cb279e2	0.021786634
247	0xbbd8657d	-0.006603895
248	0x3c034335	0.008011629
249	0xb9a4d418	-0.0003143854
250	0x3bdcd211	0.006738909
251	0x3c497119	0.012295031
252	0xbc001e12	-0.007819669
253	0x3c5e7072	0.013576614
254	0x3c1bec8a	0.0095168445
255	0xbca22090	-0.019790918

action_model._discrete_distribution.branches.0.bias f4 [2]
0	0x381ab9ce	3.6889505e-05
1	0xb81aba40	-3.688992e-05
