Assets/Prefabs/smallball500031.onnx (onnx, 73315 bytes, 6 tensors)

network_body._body_endoder.seq_layers.0.weight f4 [128, 6]
00000000: 15e7 e43e b319 703d 556d a13d d289 b83e
00000010: 09f3 a4be b33c 393e eeaa 31be 4ed2 8ebe
00000020: b663 1a3d 6ccc c13d 5488 97be aa98 0d3f
00000030: e9a7 b63e 4127 64bf cd98 14bf 2419 b3be
00000040: bf92 dcbe b10d b3be af9d a9bb 18e0 563e
00000050: 882c 50be c8d3 cf3d 8a0a 023f 1a67 e03e
00000060: 17c7 823e 3bb1 89bd 0575 3f3f 52e3 b83e
00000070: 481b 033f d607 24bd 739b 883e 6bbd 42bf
00000080: 590e 55be 37f2 fd3e aaea 65be 4f1d a5be
00000090: 3a11 39be 3fc5 be3e a8c5 12bf 46f3 1dbf
000000a0: 1c63 d8bb 49b4 1fbf d590 933f 0527 04bf
000000b0: 4b14 cb3d ecc0 af3e 7b47 343f 42af c039
000000c0: 2581 ee3e 72e1 55bd 17b9 af3c 670d 14bc
000000d0: 0b76 113d 5f3d ca3e c93a 963e be8b 753d
000000e0: 64f3 59bf 8dc9 b3be 804f 433f 376d 55bf
000000f0: 7c6d 8bbe 8285 433e 8481 45bd 5358 8ebe
00000100: 1c66 91bb 523c cb3e 00f0 2d3d b1e9 b5bd
00000110: 918a 063f 199a 5d3e fa8a b33d 75d5 f43e
00000120: 8c3e 3bbf 7ebe 453c 808b 85be 353f c6bc
00000130: eed5 063e 5a09 193f 57d5 cb3e a25b 483e
00000140: 35d8 c2be 07ed 973c 8159 2b3e 6e99 bc3d
00000150: 8b47 9a3e ae01 213f 894e d0bc 765d babe
00000160: 1634 84be bab4 42bf f083 f03d 1f59 08be
00000170: f2fe 673e 71ac 5a3e f479 1f3e 1e80 cdbe
00000180: a163 883e b8e6 b63e fd0f 48be 2009 a73d
00000190: 1f06 b23d 2b95 f7bd 50b6 b53e a7ef 56be
000001a0: 32b7 e8bd 55b7 9b3d 477a 543d e11b 3b3d
000001b0: d550 9ebe 2f2d 143e b8f4 bfbe 205d 0bbe
000001c0: e28b cabe e112 153d 276c f5bd 9f7f 633e
000001d0: f489 6e3e 099b 4b3f 300a 03bf 64a3 4c3e
000001e0: 4391 01bf b6e3 0fbf 6d52 35be a460 6ebe
000001f0: af60 d3bd f12e 853e 91c3 7f3d 3199 5d3c
00000200: 1943 b13e cc7a 19be f959 acbe c2dc 91be
00000210: 0fd0 dc3e 496d d1be 7ed8 323e 15f9 4f3e
00000220: 16da 7e3e 111e 063e abef 28bf 36bb 88be
00000230: f739 613e a20f e6be 7781 2ebd e9f5 2dbf
00000240: faa3 1a3f a1bf 78be 2adc bcbe 1786 43bf
00000250: 12ed 12bc 16c6 a33c 054c 3ebd 2607 ac3e
00000260: 0ee8 2ebc 3028 fbbd de65 ed3e 657f 323f
00000270: 55c9 613e 637c d63c cdc1 a33e d010 213f
00000280: f024 1b3d e565 bbbe cb47 ed3e 821c a9be
00000290: 9ea4 43bf 395f 9fbe 4a9e 243e 3f45 1e3e
000002a0: e62f 233f a6a5 9a3e e2b8 2cbf 7cb2 b5be
000002b0: 4f06 9c3e 586e 4ebf 2cbc 913d 6d5b 553e
000002c0: 0fc8 5a3e bffd 053e 026a 67bd d0e5 6f3e
000002d0: 3ec5 c53e 2b12 133f 68af 3d3f c880 0fbe
000002e0: 8a4c 83be 101e fa3d 5ea5 21bf 8746 ecbe
000002f0: 60ab fb3e 5deb 09bf 60a5 8bbe b28d dbbe
00000300: 6b29 ad3e b651 bd3e f426 8f3d a3c7 b73e
00000310: f758 4e3f 8337 65be 5005 c23e 0fee c93d
00000320: 764e f63e 94db a8bd 7e84 55bd 6ca6 813f
00000330: f3e6 0abd cfca e9be 3de9 4c3f cba9 b63d
00000340: b419 cb3e 0f77 66bd 6acf 4bbe e809 8f3e
00000350: aeed 0b3f c730 aebe af97 6e3f 38e7 1b3f
00000360: 6117 39bf 5434 f33e 3b35 8fbd 3a76 febc
00000370: 9ebf f8be db03 f83e d01f 58be 618f e53e
00000380: b977 1d3f a4e9 c23e ba8f 2cbe 1181 76bd
00000390: 94db 163e 1dd3 353f 6c58 e8be 5994 4a3f
000003a0: 8e25 4abe 0888 cebe 1308 98be 3fc5 d83e
000003b0: 2d8b 89be a113 71be 0ec4 7e3d 9ff2 f03e
000003c0: 5a5b 9fbe c9b8 b43e 72d9 e9be 52c6 a43e
000003d0: 2e80 53bf ae35 143f 766a 143f 8ce0 153e
000003e0: 17ec 96be d459 ae3d d378 5cbd ca68 98bf
000003f0: 7e0f 4e3f 6a72 3bbf 5902 083e 85b6 053e
0.44707552 0.05861826 0.078821816 0.3604265 -0.3221667 0.18089561 -0.17350361 -0.27894825
0.037692748 0.094628185 -0.29596198 0.5531107 0.3567498 -0.89122397 -0.58045655 -0.34980118
-0.43080708 -0.34971383 -0.005176268 0.20983922 -0.20329487 0.10147816 0.5079733 0.4382866
0.25542518 -0.06723257 0.7478793 0.36110932 0.512135 -0.040046535 0.26681098 -0.7607028
-0.20806254 0.49598858 -0.22452798 -0.32248923 -0.18072978 0.37259862 -0.5733285 -0.6169933
-0.0066036116 -0.6238447 1.1528574 -0.5162204 0.0991598 0.34326875 0.7042157 0.0003675167
0.46582904 -0.052216955 0.021450562 -0.0090363985 0.035512965 0.39499947 0.29341725 0.05994772
-0.8513701 -0.3511471 0.7629318 -0.83369774 -0.27231967 0.19093898 -0.04821922 -0.2780176
-0.004437221 0.39694458 0.04246521 -0.08882464 0.52555186 0.21640815 0.08766742 0.47819105
-0.73142314 0.012069343 -0.26082993 -0.024200061 0.13167545 0.59779894 0.39811203 0.19566205
-0.38055578 0.01854564 0.16733362 0.09208952 0.30132708 0.6289319 -0.025428073 -0.3639943
-0.25820988 -0.76057017 0.11743915 -0.13315247 0.22655848 0.21354844 0.15573865 -0.40136808
0.2663851 0.357229 -0.19537349 0.08156037 0.08692574 -0.120889984 0.35490656 -0.20989858
-0.11363067 0.07603327 0.051874425 0.045680884 -0.30921045 0.14470361 -0.37491393 -0.13609743
-0.39559847 0.036394957 -0.11983519 0.22216652 0.23294812 0.7953344 -0.5118742 0.19984204
-0.50612277 -0.56206834 -0.17707224 -0.23279053 -0.10321175 0.26012376 0.062442366 0.013525293
0.34621504 -0.1498825 -0.33662394 -0.28488737 0.43127486 -0.4090369 0.17465398 0.20309861
0.2488788 0.13097407 -0.65990704 -0.2670533 0.21994768 -0.44933802 -0.042603936 -0.67953354
0.6040646 -0.2429185 -0.36886722 -0.7637648 -0.008967655 0.019991916 -0.046459217 0.33599204
-0.010675443 -0.122635245 0.4636678 0.6972564 0.22049458 0.02618236 0.31983796 0.6291628
0.037877023 -0.36601177 0.46343836 -0.33029562 -0.7642306 -0.31127337 0.16076007 0.15456103
0.6374496 0.30204505 -0.6746961 -0.35487735 0.30473563 -0.8063712 0.07115969 0.20835657
0.21365379 0.13085078 -0.05649758 0.2342751 0.38627046 0.574496 0.74095774 -0.1401397
-0.25644332 0.12212765 -0.63142955 -0.46147558 0.49154186 -0.5387476 -0.2727461 -0.42881542
0.33820662 0.36976403 0.069898516 0.35894498 0.806045 -0.22384457 0.37894678 0.09859859
0.48106736 -0.08245006 -0.052128308 1.0128913 -0.033911657 -0.45662543 0.80043393 0.08919104
0.39668047 -0.056265887 -0.19903341 0.27937245 0.54659545 -0.3402159 0.932002 0.60899687
-0.723013 0.4750086 -0.06992575 -0.031062234 -0.48583692 0.4844044 -0.21105886 0.44835952
0.6151081 0.3806888 -0.16851702 -0.06018168 0.147322 0.7102526 -0.4537996 0.7913261
-0.19740888 -0.4033816 -0.2969366 0.42337987 -0.26863995 -0.23542644 0.06219869 0.47060105
-0.31124383 0.3529723 -0.4567371 0.32182556 -0.8261746 0.5789441 0.57974946 0.14636439
-0.29476997 0.08513227 -0.053826164 -1.1906979 0.8049239 -0.73221457 0.13282146 0.13057907

network_body._body_endoder.seq_layers.0.bias f4 [128]
00000000: 572f 1e3d ac55 99bc 1e1a e5bc 540e 8b3d
00000010: 5be6 0fbc 9627 233b 5076 863c f0dd 9a3b
00000020: c384 b13c 6b28 203b 4cd5 b93b e156 1c3b
00000030: 62b9 bbbc e255 1d3d db03 2c3c fcd8 c53c
00000040: 1bef 3d3b 6e4c 2d3d 388f 053b d24c c73c
00000050: d0ae ff3b 93c4 8bbc 2491 0f3d c4b8 623c
00000060: 370d 0a39 e8a1 d33b cd38 8a3d 7fc1 e33c
00000070: 64d6 0c3d 87b9 d73c 307e 2d3c 62c1 d53c
00000080: 9b36 26bc 46ef f93c 94d7 bd3d b572 953c
00000090: 8956 d03c 0a83 9f3c 7029 383d 3067 093c
000000a0: c6f7 423c a263 49bc 4bf3 243d 665f 933d
000000b0: 39e7 823d e1bc 2ebc f9a4 ad3d f454 fdbc
000000c0: 794b fc3b 7ad7 f2b9 258f a13c 13f5 873b
000000d0: 8954 59bc deeb ea3b f69a 053d 7d14 2b3d
000000e0: c33f 053d 045c 4a3c f1c2 a1bb c560 d3bc
000000f0: 7629 263d 5df1 1b3d 6b11 c53c b37f e33c
00000100: 468b 6a3d f7c6 b33c c795 693b acc1 483b
00000110: 3aa4 123c 7771 9c3c a662 763c 63cf ba3c
00000120: e7c4 48bc 17b9 403d 29b8 e73c bb59 0fbd
00000130: 13be 593c 495c c4ba 71db 983c 504f 603c
00000140: c436 2f3c b043 613c 1516 a7bb cbed f5bc
00000150: 275f ae3c a614 c83c 544e ad3c 990e 59bd
00000160: 4e18 b7bb 67f3 c23b 969d c23c e2d3 09bd
00000170: 9e5f 073d b315 843c d5e7 4f39 f76e 743c
00000180: 0ae7 df3c ba4e a33c 61bd 0a3c f570 8c3d
00000190: 6fba 073d 6af5 0d3d f3ea 453d 7aca 0c3b
000001a0: 4167 2bbd 87f6 aebb 8fe7 643c 2320 62ba
000001b0: 982e 863b 65c6 34bd b8f8 953c 9018 843d
000001c0: 9ec6 e83b d40b d53c 4270 1b3d 662e 2f3d
000001d0: 7246 173d 7cc9 a6bc 8868 ad3c 4ee5 87bc
000001e0: 18a8 ec3a 9bb8 773c 2efe b03d 1e05 6a3d
000001f0: 5487 333d 5749 5f3c adcd 3b3c 71f4 2f3b
0.038619366 -0.01871761 -0.027966555 0.06789842 -0.008782948 0.0024895421 0.016413838 0.004726164
0.021669751 0.0024438153 0.005671179 0.0023855495 -0.022915546 0.038411982 0.010498966 0.024151318
0.002898163 0.042309217 0.0020379554 0.024328623 0.0078028217 -0.017061507 0.035050526 0.013837997
0.00013165628 0.0064585097 0.06749115 0.027802227 0.034384146 0.026333584 0.0105891675 0.026093189
-0.010144855 0.030509602 0.09269634 0.018243173 0.025431888 0.019471664 0.044961393 0.008386418
0.011899894 -0.012291821 0.040271085 0.0719593 0.063917585 -0.010665149 0.08478732 -0.030924298
0.0076994267 -0.0004631838 0.019721577 0.004149088 -0.013264784 0.007169231 0.032618485 0.041767586
0.03253151 0.01235104 -0.004936569 -0.02580298 0.040566884 0.03807198 0.024056157 0.027770853
0.057261728 0.02194546 0.0035642253 0.0030633016 0.0089502875 0.019097073 0.015038168 0.022803968
-0.012253976 0.047051515 0.028286057 -0.034997683 0.013289946 -0.0014981116 0.018659325 0.013690785
0.0106942095 0.013749048 -0.005099068 -0.030020615 0.021285607 0.024423908 0.021155514 -0.052992437
-0.005587614 0.005949426 0.023756783 -0.033649333 0.033050172 0.016123628 0.00019827423 0.014919034
0.027331848 0.019935 0.008468003 0.06857482 0.03313678 0.034657873 0.04831977 0.002148299
-0.041846517 -0.005339447 0.0139712235 -0.00086260046 0.00409491 -0.044134516 0.018307075 0.064499974
0.007103755 0.026006617 0.037948854 0.04276886 0.036932416 -0.020359747 0.021168008 -0.016588833
0.0018055467 0.015119697 0.08642231 0.057133786 0.04383023 0.013628325 0.011462611 0.002684858

network_body._body_endoder.seq_layers.2.weight f4 [128, 128]
00000000: 2932 edbd 144a 18be edd6 b3bc 4e06 ab3c
00000010: 447b 933d aa72 6dbc 9ecd bd3b 2b1c 313e
00000020: 39b5 053e d693 f0b9 924a 2fbd e1fd d4bc
00000030: ee2d f83d 7666 943d 8ff3 2abd 8ce9 363e
00000040: 4a26 f1bd 1d2a c33d 2f0a 2c3d b50b 0ebe
00000050: bd0e 593c 653e bf3d 5379 663e f889 c83d
00000060: 0edf 933e aa17 013e 4029 d93b 0692 833d
00000070: 1c09 86bd c8cb 2bbe 5f69 0cbe 6510 c9bd
00000080: b206 d73d 3dee 75bb c096 873d 7c80 67bd
00000090: ac8c 343d d671 c13d ca1d 3b3d 2693 a5bc
000000a0: d45f 703d f609 813d eb48 c0bc c9e6 88bc
000000b0: 48e9 063e c316 603d 602b 693d 9fc5 a53c
000000c0: 361e 623d a706 00be b05b 1c3d d975 ccbd
000000d0: 6603 1d3d ba02 61bc 9cbc 093e 4189 76bc
000000e0: 3f69 8d3d 5779 b2bd 5cc0 e93d 8f93 f0ba
000000f0: 54cd 023e 05b4 3a3e 0935 edbd 2fd9 d23d
00000100: b796 94bd cce7 14bd 46a3 35bd 9ac4 6ebd
00000110: 2fce f9bd df74 023e e851 b5bc c343 343d
00000120: 6b16 403e 8d07 54bd ead0 2fbd be08 c33d
00000130: 2d5f d6bd 2bdd 4b3d a182 a9bd 44f6 e6bd
00000140: b0ad 393d dc16 203e 44c1 f7bd 7000 e33d
00000150: c03c 473d 8523 3d3d 0de2 963d 1971 86bd
00000160: 3a3f 353e 9198 353d cea8 f8bc a074 b8bd
00000170: 57c8 b03d 0ae9 3b3e 8fbf dfbd 259d 963c
00000180: 7673 2c3e 767c a8b9 6a0f 833d 7fa6 353e
00000190: 264d 01be adc0 06be e03e 613e d242 dc3c
000001a0: 9f04 abbd 12a1 aa3d 9b15 773d adcc 06be
000001b0: a9c4 b8bd 40b0 4f3d 6c18 82bc fc45 d13d
000001c0: eb4d a2bd 90a8 a53c 92f8 6e3e b6b4 9bbb
000001d0: f7ae 483d f1d5 06bd 55c9 39bc a5e0 2b3c
000001e0: 22e8 ee3a 4c00 1a3d bbb6 ccbc 3e11 02be
000001f0: 5fbd ee3d 3a72 c53d 2bc5 0e3e 5963 ffbd
00000200: ba23 2b3e b0df 273d e970 3c3d e25f 9abd
00000210: 08e3 36bc b32e d8bc 1b22 fabc 9294 c23c
00000220: 61d2 bb3d c572 503d e9c1 b6bc 143f fe3d
00000230: 9ea3 18be 849f 513d dd70 5abd e287 e53c
00000240: df14 86bd 1eec 49be 8d9c cd3c 0019 91bd
00000250: 961d 263e 6920 853d f543 b6bd dbdd 51be
00000260: 3578 6b3b 45e2 4cbd 6ded 5c3d 0c23 033c
00000270: f6bf f6bb 8a09 983d f6da 673d 2b88 adbd
00000280: 5952 49bd 8af5 b8ba 999f c7bd d84a 553c
00000290: f432 0d3e a1a5 823d b077 12bd 0d02 703d
000002a0: 5598 303d 555a a2bd da3b b9be df05 d0bd
000002b0: 4db0 b53c 88fe acbd 395a 483d 3221 eb3d
000002c0: 20ff 13be 479e d13c df67 0ebd a665 0c3e
000002d0: 4fba 2ebd f8b6 213b 8c13 84bd 446d e7bc
000002e0: b564 f53d 0495 f8bc e728 fe3d 4c34 ef3b
000002f0: e6d0 d63c 4ce1 323e a8bd 3e3d c02c bebd
00000300: 9e1f 67bd e010 02bd 5d18 58bd 7125 81bd
00000310: f908 d7bc 832f 40bd 2ef3 fa3d 69c4 393d
00000320: 117f 563d b3a0 f83a 28b7 0c3d 9604 1e3e
00000330: 8023 593e 5ba0 acbd b0c9 853d e19a a03c
00000340: a23d 5dbd 0c32 993d b501 9e3d 2d14 bebd
00000350: d318 883c 7724 d23d e105 3f3e 44cb 633d
00000360: 7068 d9bd d850 52bd 857a 993d 609c af3d
00000370: f2c4 c53d 14d9 17bc 921a 78be 1333 8fbd
00000380: 0dd5 a8bd ef2a ccbd 06d9 c539 269f 8a3d
00000390: 9082 b9bd b2d6 0e3d 13d3 9cbe c2d0 7cbd
000003a0: 5789 3bbe f064 973d a3c2 9bbd 1083 3ebd
000003b0: 9c8b 993d a2b5 20be 9219 933c 05dd 2ebb
000003c0: df77 2a3e ea95 613d 219d 9fbc 727a 923c
000003d0: 7772 1fbd 7feb 19be 220b cd3d 75b5 bcbb
000003e0: 9fe0 123e 50d6 933b 4ee7 32bd b136 bb3d
000003f0: 769d 233e dccd 77bd 20ad d9bc d04d c9bc
-0.11581833 -0.14872009 -0.02195307 0.02087703 0.072012454 -0.01449267 0.0057923337 0.17295901
0.13057412 -0.00045886514 -0.042795725 -0.025999965 0.121181354 0.072461054 -0.04173618 0.17862529
-0.11774881 0.09529517 0.0420019 -0.13871653 0.013248143 0.09338073 0.22507219 0.097919405
0.28881115 0.12606683 0.006627232 0.06424336 -0.06544706 -0.16776955 -0.13712071 -0.0981758
0.10499324 -0.0037526034 0.0662055 -0.056519017 0.044079468 0.094455406 0.045682706 -0.020211767
0.05868514 0.06300728 -0.02347227 -0.01671161 0.13174927 0.054709207 0.05692613 0.020235835
0.055204593 -0.12502538 0.038173378 -0.09983415 0.03833332 -0.01373356 0.13450855 -0.015047372
0.0690484 -0.0871455 0.11413643 -0.0018354523 0.12773639 0.18232735 -0.11582381 0.10295331
-0.07255309 -0.03635387 -0.044345163 -0.058292963 -0.121975295 0.12739895 -0.022133783 0.044009935
0.18758552 -0.051765013 -0.042923845 0.09523152 -0.10467372 0.04977147 -0.082768686 -0.1127744
0.045331657 0.1563372 -0.12097409 0.11084068 0.04864192 0.046176452 0.073673345 -0.065645404
0.176999 0.04433495 -0.03035393 -0.090066195 0.08631962 0.18350616 -0.10925209 0.01838548
0.1684092 -0.00032136188 0.063994244 0.17739294 -0.12627086 -0.13159437 0.21996641 0.026887331
-0.08350491 0.08331503 0.06032334 -0.13164015 -0.09021885 0.050705194 -0.015880786 0.102184266
-0.07925018 0.020221978 0.2333701 -0.004751767 0.048994984 -0.032918874 -0.011339505 0.010490571
0.001822714 0.03759794 -0.024989476 -0.1270189 0.116572134 0.096409276 0.13942401 -0.12470121
0.16712847 0.04098481 0.046006117 -0.075378194 -0.011162527 -0.026389455 -0.03053384 0.023752484
0.09170986 0.050890703 -0.02230926 0.12414375 -0.14906165 0.051177517 -0.05333029 0.028018896
-0.065469496 -0.19718978 0.025099063 -0.070848465 0.16222224 0.06500322 -0.088996805 -0.20494787
0.0035929803 -0.050020475 0.053937364 0.008003961 -0.0075302077 0.074236944 0.0566053 -0.084732376
-0.0491508 -0.0014111262 -0.09747238 0.013018332 0.13788968 0.063792475 -0.035758674 0.058595706
0.043114025 -0.07927386 -0.36178476 -0.1015737 0.022178793 -0.084469855 0.048914168 0.11480941
-0.14452791 0.025588168 -0.034767028 0.13710651 -0.042658146 0.0024675708 -0.06449041 -0.028250344
0.11982099 -0.030344494 0.12410145 0.0072999354 0.026222657 0.17468756 0.04656759 -0.09285879
-0.056426637 -0.031754375 -0.05275761 -0.063059695 -0.026249396 -0.04692031 0.12253414 0.045353327
0.052367274 0.001896879 0.03435436 0.15431437 0.21204948 -0.08429023 0.065326095 0.019605102
-0.054013856 0.07480249 0.07715169 -0.09281192 0.0166134 0.10260861 0.18654586 0.05561377
-0.10615623 -0.05134663 0.07494072 0.08574748 0.09656705 -0.009268064 -0.24228886 -0.069921635
-0.08243761 -0.099691264 0.00037736463 0.067686364 -0.09058106 0.03487272 -0.30629787 -0.061722524
-0.1831411 0.07392299 -0.076054834 -0.04651171 0.074973315 -0.15694287 0.017956529 -0.002668203
0.1664729 0.05507461 -0.019484105 0.017880652 -0.03892752 -0.15031241 0.10011889 -0.005758936
0.14343499 0.004511632 -0.04367762 0.09141291 0.15978035 -0.060499057 -0.02657181 -0.024573237

network_body._body_endoder.seq_layers.2.bias f4 [128]
00000000: b8bb 7e3c 0b74 d83b 37ca 803c da6a 1a3c
00000010: a9be 9cb9 7d7b 963c 9ab6 933c a4d7 05bc
00000020: bf4c c7ba 6fc5 1cbb fcc8 c03c cdef 453d
00000030: 0977 4b3b 6bdc ce3c 6fa4 0b3d 709a c53c
00000040: f7c9 6c3c 75a8 813c 4f10 9c3c 5bc0 cd3c
00000050: 92a6 9e3c 5906 a73c 024d b53b 10e2 9cbb
00000060: 223c 9bbc 5f67 8e3a eae2 cfbb 12d3 d0bb
00000070: d84b 343d 5cf0 3f3c e4ac e4bb 1b22 7e3c
00000080: 0a5a 293c ca69 6b3c 4c76 d7bb af83 e23b
00000090: de7c b03c 0bf3 923c d6e3 07bc bc2e 5f3c
000000a0: c0bc fd3a e70d 5c3c 4bc3 813c a2af 133b
000000b0: b13b 73b9 98e9 603c eb89 2f3d d474 c03c
000000c0: 011e 973b a13d f7bb fbdc 823c ea9c 4bbc
000000d0: b742 0abb f935 e83c 6336 19bc 7dac 3c3b
000000e0: 680a 773c d890 ee3b 1832 8c3c 0511 d6ba
000000f0: babe c53b 6b4f 1cbb 632b bc3c 374d 52bc
00000100: 9ef2 933c 36a2 db3c 98b6 f33c 5336 a63c
00000110: b78e f83c 2f5e b13b 1562 c23c d6e0 dd3c
00000120: 7c05 093a c200 d73b efed f43b a2ed ca3c
00000130: 557e 043d 60b2 c93b 4edd de3c be6b a63b
00000140: c88b 3f3c 8855 433c 7003 523d 8e35 6c3c
00000150: 91de d13c 532a b3bb 2a56 5c3b c29a 5a3c
00000160: 41f7 5e3d 4df2 29bc 7ad8 f53c 073d 993c
00000170: 3019 473c 8868 163d c18b 043d e542 eabb
00000180: e6c3 2cbc 5f28 963c 087d 3e3d 9265 593c
00000190: ed56 073d 867d a73b f9c3 35bb a718 063c
000001a0: f608 753c 0962 6a3b 021b f6bb dc97 fe3c
000001b0: 7ce1 543c 742c 173c 5efb ce3c 7614 6c3c
000001c0: 582e 8a3c 164f 463c 5c1d d0bb b9d1 8bbb
000001d0: 4a34 c03c 34c5 563d f8e4 1bbc 8ac5 123c
000001e0: 43f8 29bc e4de 9d3b 830d db3c a98f 753c
000001f0: b8fc 163d bef5 1e3d ff1a 5c3c e9ae a93c
0.015547685 0.0066056303 0.015721424 0.009424889 -0.00029896692 0.01836943 0.018031407 -0.0081690885
-0.0015205367 -0.002392139 0.023533337 0.048324395 0.0031046292 0.025251588 0.034092363 0.024121493
0.014452449 0.015827397 0.019050745 0.025116136 0.019366536 0.020388769 0.0055328617 -0.004787691
-0.018949572 0.0010864547 -0.006344189 -0.006372818 0.044017643 0.011715021 -0.006978618 0.015511061
0.010336408 0.014368484 -0.0065753814 0.0069126706 0.021543916 0.017938158 -0.008294066 0.013621982
0.001935862 0.013431049 0.015840193 0.0022535105 -0.00023196523 0.013727568 0.04285614 0.023493208
0.004611731 -0.0075451885 0.015974512 -0.012427548 -0.0021096894 0.028346049 -0.009351346 0.0028789334
0.015078165 0.0072804503 0.01711373 -0.0016331977 0.0060346993 -0.0023851048 0.022969907 -0.012835792
0.018060025 0.026810747 0.029750153 0.020289576 0.03034149 0.005412839 0.02372841 0.02708475
0.00052269525 0.0065613696 0.007474653 0.024771515 0.032347042 0.006155297 0.027205136 0.005078762
0.011691041 0.011922248 0.05127281 0.014417065 0.025618823 -0.005467692 0.0033620694 0.013342561
0.05443502 -0.01037271 0.03001045 0.018705858 0.012152001 0.036720783 0.032359842 -0.0071490877
-0.010544753 0.018329797 0.046505958 0.013268845 0.033041883 0.005111399 -0.0027735217 0.0081845885
0.01495575 0.0035764 -0.007510544 0.031078272 0.012993213 0.009226907 0.025266346 0.014409175
0.016867802 0.0121038165 -0.006351156 -0.0042669442 0.023462433 0.05243416 -0.00951504 0.00895823
-0.010374132 0.0048178304 0.026739841 0.0149878645 0.036862105 0.038808577 0.013434171 0.020713286

action_model._discrete_distribution.branches.0.weight f4 [3, 128]
00000000: 1139 6aba 3e98 78bc 9b7f 96bc bc48 923c
00000010: c6d3 11bb 7791 10bc 93e9 803c 4929 503c
00000020: 4ae3 a03c eada 023c 3bab 25bc a623 25bc
00000030: 2ca7 f23b cfbf a0bb bb57 53bc 318f 20bd
00000040: f472 7abc 87b1 ae3b 314b 20bd 152a 28bc
00000050: 1658 42bc afcf d4bc 1a7a 353c 9ab3 c03c
00000060: fe4a aa3c 3a43 55bc 661b 383c 3c44 353c
00000070: 4835 03bd 3a3f 78bc 4f44 913c 6bce babb
00000080: 1e89 a0bc 09bd 773b 211d 843c 530c 803a
00000090: f4e3 2c3b ca17 0e3c 4eb9 433c b464 f83b
000000a0: 59d0 863c 80d2 d93b 9248 813a 410e 3c3c
000000b0: 687d 563c 2a44 1dbb 8a8e aabc ddfa 98bc
000000c0: 7f83 cd3b 2cad 99ba 0b29 a4bc de4f 9a3b
000000d0: f84a 913c dabc b5bc ea43 583c 809e 96bc
000000e0: 325e 5d3b 5708 1cbc 2f61 8bba 0493 4d3c
000000f0: 7299 cdbb 7751 1f3b bc69 4e3b 47e2 b93b
00000100: fb73 a7bc ec46 233c 78c4 11bc edb2 16ba
00000110: c6ca 59bc e3fb c73c a2b3 01bd 61ca 303c
00000120: 0345 2d3c 137e bf3b 0989 b6bc e4b8 06bd
00000130: dbea 25bd 3610 38bc 2d25 acbc bcda 103a
00000140: 24dc 87bc bc11 25bc fd97 4fbd 39c6 80bc
00000150: 4b5e 67bc f7c6 ea3c be7d 13ba dcf3 9dbc
00000160: 8736 36bc 8e85 143c b6fc 04bd 0540 88bc
00000170: 5b43 8abc b816 31bd c376 4ebc 8385 8f3c
00000180: af89 f63b 8ab0 c9bc bf47 26bd ba7c 32bc
00000190: 4a94 3a3b 2ca3 4ebc 3b7a 0cbc 1b79 43bb
000001a0: 1f24 94bb 46b4 babb ffb0 c73c 2006 10bd
000001b0: eebf 293c 0fbe ae3b ff6e e9bc 77d9 2ebb
000001c0: e5a2 893b dd5b afbc b04b 1a3b 4104 813c
000001d0: ed46 e0bc 331d a93b 2f92 ab3c 2001 fdbb
000001e0: a0ca 07bc 5e11 753b 84f6 d4bc 25a6 23bc
000001f0: 403d 0cba eaba 27bd f02e bdbc 33a3 833a
00000200: 11da 013d fca5 babc 8a2f 95bd 532c 16bd
00000210: 9841 b5bc 4b49 483d 2aaa 9a3c bd7f 72bc
00000220: 73c4 0dbd 704d 83bc f990 463d 0079 933c
00000230: ebfb 1ebd 9123 503d 9529 9ebd 57b4 3dbd
00000240: bbba f13c 2237 84bd cd36 07bc 506b 843d
00000250: 8bd2 33bd 39f7 5c3d 83d5 973c 86dd dcbc
00000260: 1756 f9bb 705e 40bc cf9d 02bc 1bc8 98bc
00000270: f9ca 6ebd d655 12bd ecb4 24bd 2326 423d
00000280: 7179 6ebd 48d0 2a3d 960b c3bc 9b74 ebbc
00000290: 5768 113d 9707 e5bc fc58 6dbc 9732 233d
000002a0: 3b52 18bd e577 d4b9 d758 aa3b 1e28 41bd
000002b0: 89ed 9ebc 8b31 473c c393 8f3d 22bf f0bc
000002c0: 88c1 abba b775 80bc 587d e73c a172 b4bc
000002d0: db05 e5bc 0cf0 83bd 9356 35bd 75c2 b4bc
000002e0: 96fc 87bd 6a98 c03c 0eea 353d 0c52 08bd
000002f0: 47a2 b5bc f28a 00bd 378c 1b3d b624 93bc
00000300: 189d 9a3c 0542 0e3d 84d9 973d d58d 103c
00000310: 9a79 15bd eca3 ff3a 0dd2 94bd 6d82 c13c
00000320: fbca ecbc 10d2 1f3c d0e8 d33b 5a8c 433d
00000330: c632 4abd 042f d93b 0d65 5bbd 992b 073c
00000340: a355 5a3c c557 91bc 40b1 63bd 1609 11bd
00000350: 58a0 5b3d 0497 7abb 4265 5a3c 988f ea3c
00000360: b998 6d3d d977 0bbc 7db2 62bd 1ce3 58bd
00000370: 9c6b c63b d21a 55bd 356a 713d 2042 20bc
00000380: 2a1e 4dbc a143 023d 1a69 90bd dc69 f7bb
00000390: 2c47 25bd d75f ac3b 0ad1 e1bc 3fe6 3bbd
000003a0: 7d07 a73c f2a8 87bc 9ae6 7ebb 1928 5fbd
000003b0: c0b6 2d3c bbe4 ae3c a8db 5bbd 6568 323d
000003c0: 62ea c7bc 0ce5 92bc 46a3 8bbc d24c d6bc
000003d0: d7d8 5b3d dd02 813d fc50 a3bb 9a72 0dbd
000003e0: 8e35 6ebc 4497 f33b 66eb e0bc a55b 89bc
000003f0: b6dc d73c 13e0 55bd c66e 3abc 05d9 e3bc
-0.0008934895 -0.015173016 -0.018371394 0.017856948 -0.002225147 -0.008823744 0.015736377 0.012705156
0.01963963 0.0079867635 -0.010111625 -0.0100793 0.0074051823 -0.004905678 -0.012899335 -0.039199058
-0.015286196 0.0053312215 -0.039134208 -0.010263939 -0.011861822 -0.025977938 0.011076475 0.02352314
0.020787712 -0.013016516 0.011237001 0.011063632 -0.032033235 -0.015151793 0.017732767 -0.0057008765
-0.019596633 0.0037801883 0.016127171 0.0009769298 0.0026380988 0.008672664 0.011946036 0.007580364
0.01645677 0.006647408 0.0009863547 0.011478008 0.013091423 -0.0023996928 -0.020819921 -0.018674308
0.006271779 -0.0011724583 -0.020039102 0.004709228 0.017735943 -0.022184778 0.013199786 -0.018386126
0.0033778069 -0.009523473 -0.0010633821 0.012547258 -0.0062743956 0.0024310031 0.0031496128 0.0056727263
-0.020441046 0.00996564 -0.008896939 -0.0005748708 -0.013292974 0.024412101 -0.03166545 0.010790438
0.010575536 0.0058438866 -0.02228214 -0.03289117 -0.04050718 -0.011234334 -0.02101382 0.0005525758
-0.016584463 -0.010075029 -0.050682057 -0.01571952 -0.014121602 0.028659327 -0.0005626342 -0.01928132
-0.011121399 0.009065045 -0.032467566 -0.01663209 -0.01687782 -0.043234557 -0.012601557 0.017519718
0.0075237374 -0.024620313 -0.040595766 -0.010893995 0.0028469735 -0.012612145 -0.008574064 -0.0029826823
-0.0045209075 -0.00569776 0.02437639 -0.03516209 0.010360701 0.0053327153 -0.02849531 -0.0026679912
0.0042003267 -0.021406109 0.0023543648 0.015749099 -0.02737757 0.0051609515 0.02094373 -0.0077210814
-0.008288056 0.0037394385 -0.025996454 -0.009988342 -0.0005349703 -0.04094974 -0.02309367 0.0010043144
0.031702105 -0.022784226 -0.07284458 -0.036663365 -0.022126004 0.048898023 0.018879969 -0.014800963
-0.034611177 -0.016028136 0.0484781 0.018002033 -0.038814466 0.05081517 -0.07722775 -0.046314564
0.029507985 -0.06455828 -0.008252812 0.06465781 -0.04390196 0.053946707 0.018534428 -0.0269611
-0.0076091397 -0.011741266 -0.007972195 -0.018650105 -0.05829904 -0.03572639 -0.040211603 0.04739965
-0.058221284 0.04170254 -0.023809236 -0.028742125 0.035499897 -0.02795772 -0.014486548 0.039843168
-0.037187796 -0.0004052512 0.005198579 -0.0471574 -0.019400375 0.012157808 0.07010605 -0.029388014
-0.0013103941 -0.01568113 0.02825801 -0.022027316 -0.027956894 -0.0644227 -0.044272017 -0.02206538
-0.06639974 0.023510177 0.044412665 -0.03328137 -0.022172106 -0.03138251 0.037975516 -0.017961841
0.018873736 0.03473093 0.07414535 0.008822878 -0.03649292 0.0019503809 -0.072666265 0.023621762
-0.028905382 0.009754673 0.0064669624 0.04774127 -0.049364828 0.006627919 -0.053563166 0.008250141
0.013326081 -0.017742047 -0.05558896 -0.035409056 0.053619713 -0.0038236985 0.013329806 0.028632924
0.058006976 -0.008512461 -0.055346 -0.052950963 0.0060553085 -0.05202753 0.058939178 -0.00978139
-0.012519399 0.031802777 -0.070512965 -0.007550461 -0.040351078 0.0052604484 -0.027565498 -0.045873877
0.020389313 -0.016560052 -0.0038894773 -0.0544816 0.010602653 0.021349302 -0.053676277 0.04355659
-0.024403755 -0.017931484 -0.017045628 -0.026159678 0.05367359 0.06299374 -0.0049840193 -0.03453312
-0.014539136 0.0074338038 -0.027455997 -0.016767332 0.02635036 -0.052215647 -0.0113789495 -0.027813444

action_model._discrete_distribution.branches.0.bias f4 [3]
00000000: 4486 3ebc 3caf 6a3c 98b3 41bb
-0.011628691 0.014324006 -0.002955651
